checkpoint_critic_local_1_5808.pth (torch, 577426 bytes, 9 tensors)

fcs1.weight f4 [400, 52]
-0.011873223 0.36999205 -0.022472993 0.52432203 0.16672891 -0.19823116 -0.045088727 0.5615252
-0.07708653 0.39809197 -0.019606927 0.16914786 0.14910641 -0.3677432 -0.06697095 0.21945173
-0.14972888 0.40262905 -0.20339818 0.13759546 0.1994119 -0.32327092 -0.17458434 0.14157116
0.30168673 0.42405376 0.22068423 -0.44100684 -0.15752093 -0.14980853 0.20088018 -0.3945724
0.28113097 0.3093218 -0.21985552 0.06339744 -0.22386906 -0.36379224 -0.26786277 0.09143267
0.26800513 0.26723808 0.02216945 -0.32133588 -0.19509365 -0.35348484 0.023837883 -0.37073287
0.4796061 0.92943066 -1.158393 -0.11182789 0.17317285 0.24664006 0.04894932 0.18845068
-0.21191359 -0.42824757 0.08366663 0.24038763 -0.0054817544 0.14364901 -0.07928234 0.34610116
-0.009400124 -0.2435546 -0.060066562 0.33048806 -0.028838048 0.13864128 -0.18330452 -0.30050477
0.040764876 -0.12426561 -0.20475064 -0.28937528 0.45961493 0.19398893 -0.084691785 0.48766962
0.17645383 -0.41060472 -0.045396075 0.4889411 0.4196897 0.21135768 0.056067068 0.42046142
0.068402275 -0.22403935 0.07539035 0.37952182 0.38456023 0.25861904 -0.29274845 -0.019568847
-0.11408795 -0.1823759 -0.28519756 0.029243074 -0.17110182 0.6497493 1.1396909 0.3912689
0.11471312 -0.31718794 -0.021899285 -0.043806277 -0.1842085 0.099130616 0.006478275 -0.0422507
0.2113742 -0.22146732 0.009260513 0.0083411755 0.04199395 0.39978424 -0.0490917 0.044516172
0.42579055 -0.28054318 -0.006269596 -0.37655628 0.3614189 0.7603143 -0.012644892 -0.4470404
-0.15324613 0.6540894 -0.000113131544 -0.21717134 0.21074504 0.096966095 0.030633321 -0.1898556
0.2553858 0.69093245 -0.028245268 0.08077527 -0.02087609 0.47251415 0.005389384 0.02212184
0.7281576 0.77777535 -0.02552751 0.18800966 -0.36772126 0.77564675 -0.046536494 0.21811818
-0.9466706 0.9904191 0.13383491 -0.3422032 0.33029485 -0.16852458 -0.030326638 -0.46598962
-0.029884825 -0.18739833 -0.015255799 -0.408191 0.24080783 -0.13927338 0.19172765 -0.67130584
-0.044382006 -0.40696126 0.19256936 -0.6670085 -0.097333565 -0.062454596 -0.045654785 -0.09369682
-0.013907164 -0.5106631 0.013061581 -0.16756932 0.114338145 0.602326 0.008256738 0.39590752
0.018465865 -0.24956208 0.0638912 0.31688625 0.23472853 0.81545424 -0.05302505 0.39457273
0.0010241846 -0.42808032 -0.09061137 0.4460172 0.23572186 0.87506235 0.0291882 0.24895068
0.024624333 -0.48144212 0.035678975 0.2235814 0.53965694 -1.2811254 1.820937 -0.2107791
0.041875932 0.52675635 -0.1163112 0.2435353 0.36668852 -0.13159685 -0.15806234 0.19052543
0.09327583 0.5421193 -0.120270036 0.26652864 0.34644896 -0.35412285 -0.12547098 0.27052298
0.09395198 0.5114143 0.098586224 -0.10106902 0.30205053 -0.13256384 0.006431338 -0.13459864
0.18639998 0.15062797 0.25092906 0.4703596 -0.32198068 -0.11445232 0.25957963 0.45208067
0.35889807 0.35399857 0.1603548 -0.13692077 -0.29154435 -0.40251556 0.16619176 -0.14021796
0.08457761 0.31997725 -0.033480916 -0.103762604 -0.3199294 -0.0717328 -0.0882227 -0.042184975
00000000: e887 42bc 996f bd3e 4819 b8bc f839 063f
00000010: fcba 2a3e 1cfd 4abe f5ae 38bd 1ec0 0f3f
00000020: 8bdf 9dbd b6d2 cb3e b59e a0bc 1935 2d3e
00000030: 5aaf 183e d648 bcbe 1128 89bd f4b7 603e
00000040: 8752 19be 6525 ce3e 9d47 50be d3e5 0c3e
00000050: a232 4c3e c483 a5be 3dc6 32be 08f8 103e
00000060: af76 9a3e 931d d93e 0cfb 613e a6cb e1be
00000070: 2b4d 21be 6867 19be 89b3 4d3e 6505 cabe
00000080: 66f0 8f3e 6d5f 9e3e ce21 61be 84d6 813d
00000090: ee3d 65be fa42 babe 4f25 89be 0d41 bb3d
000000a0: f837 893e 6ed3 883e b59c b53c 2386 a4be
000000b0: a1c6 47be f7fb b4be aa47 c33c b3d0 bdbe
000000c0: ee8e f53e 2bef 6d3f 3946 94bf 0506 e5bd
000000d0: 3954 313e 368f 7c3e 157f 483d 37f9 403e
000000e0: e0ff 58be 4443 dbbe 6959 ab3d 2d28 763e
000000f0: 4aa0 b3bb ba18 133e c85e a2bd 2c34 b13e
00000100: fa02 1abc 6166 79be 5b08 76bd bb35 a93e
00000110: c53d ecbc fbf7 0d3e 2eb4 3bbe c3db 99be
00000120: 12f9 263d f87e febd 27aa 51be ff28 94be
00000130: a652 eb3e 09a5 463e e372 adbd d5af f93e
00000140: 50b0 343e c83a d2be 3cf1 39bd 7d56 fa3e
00000150: 91e1 d63e 266e 583e 95a6 653d b846 d73e
00000160: 7e16 8c3d 926a 65be 4166 9a3d af50 c23e
00000170: 14e5 c43e b769 843e 20e3 95be d94e a0bc
00000180: f1a6 e9bd bfc0 3abe 6a05 92be 2c8f ef3c
00000190: 5135 2fbe f855 263f 64e1 913f 6654 c83e
000001a0: b6ee ea3d 7566 a2be 2166 b3bc 366e 33bd
000001b0: 27a1 3cbe fe04 cb3d b647 d43b 120f 2dbd
000001c0: 7a72 583e 54c8 62be 68b9 173c 6da9 083c
000001d0: d901 2c3d 85b0 cc3e 6114 49bd 9756 363d
000001e0: 3801 da3e 5ba3 8fbe 2f71 cdbb fccb c0be
000001f0: e60b b93e f5a3 423f 852c 4fbc 7be2 e4be
00000200: 8eec 1cbe 6772 273f 0941 edb8 2a62 5ebe
00000210: 8ccd 573e 2996 c63d bbf2 fa3c 8269 42be
00000220: edc1 823e f3e0 303f 9f62 e7bc 816d a53d
00000230: 5504 abbc 60ed f13e 6e99 b03b dc38 b53c
00000240: 8968 3a3f 491c 473f 121f d1bc 9b85 403e
00000250: f645 bcbe c990 463f 0d9d 3ebd 5f5a 5f3e
00000260: 0159 72bf 1b8c 7d3f 050c 093e 4235 afbe
00000270: 681c a93e b591 2cbe 926f f8bc 3196 eebe
00000280: 05d1 f4bc 59e5 3fbe 75f3 79bc 69fe d0be
00000290: 5496 763e ae9d 0ebe 4154 443e b3da 2bbf
000002a0: e8c9 35bd 3a5d d0be e730 453e 12c1 2abf
000002b0: d256 c7bd 64d0 7fbd 8300 3bbd 1ee4 bfbd
000002c0: e0da 63bc d1ba 02bf 3e00 563c 4b97 2bbe
000002d0: 1e2a ea3d 0932 1a3f 4547 073c 64b4 ca3e
000002e0: ba45 973c 348d 7fbe 64d9 823d ea3e a23e
000002f0: ad5c 703e 9cc1 503f cb30 59bd 7005 ca3e
00000300: ef3d 863a 582d dbbe 7492 b9bd 5e5c e43e
00000310: 1261 713e 1604 603f 181c ef3c edec 7e3e
00000320: f8b8 c93c 957f f6be 1e24 123d 86f2 643e
00000330: f526 0a3f ebfb a3bf 7714 e93f 7ad6 57be
00000340: 1986 2b3d 81d9 063f 9134 eebd 5161 793e
00000350: 99be bb3e 53c1 06be 18db 21be 1919 433e
00000360: 6607 bf3d 55c8 0a3f 2350 f6bd 7176 883e
00000370: c261 b13e 974f b5be 777b 00be fd81 8a3e
00000380: e569 c03d 0cec 023f 93e7 c93d 46fd cebd
00000390: 5ea6 9a3e d1be 07be f9bd d23b 3ad4 09be
000003a0: a3df 3e3e 383e 1a3e c679 803e f9d2 f03e
000003b0: a7da a4be fa65 eabd 9fe7 843e 1e77 e73e
000003c0: 7dc1 b73e 4d3f b53e 0c34 243e f534 0cbe
000003d0: 4d45 95be 8516 cebe 2c2e 2a3e 4c95 0fbe
000003e0: 0737 ad3d 0fd4 a33e 4923 09bd 7d81 d4bd
000003f0: c9cd a3be a5e8 92bd 1aae b4bd 27ca 2cbd

fcs1.bias f4 [400]
-0.08008007 0.05354371 -1.5212694 -0.18722893 -0.04140189 -0.104289204 -0.40039113 0.20461503
-0.49712694 0.018209036 0.105573185 0.12771617 0.028880676 -0.045168705 -0.28081605 -0.12546532
-0.46135202 -0.4541312 -0.24685055 -0.41116998 -0.21114205 -0.27979186 -0.099789806 -0.42964405
-0.29296458 -0.47342172 0.0486468 -0.03030472 -0.36755395 -0.032521322 -0.022672793 -0.16397414
-0.34581584 -0.7687851 -0.20094839 -1.0974869 0.06743641 -0.33295643 0.46722472 -0.6580977
-0.09310852 -0.18786871 -0.2770001 -0.37032852 -0.52981645 -0.03639589 -0.24866058 -0.056490052
-0.5025755 0.15550996 -0.3297972 -0.40059778 -0.16526133 -0.051801447 -0.12329893 -1.031609
-0.73136353 -0.5084093 0.19764414 -0.5545717 -0.50866175 -0.050664537 -0.2650732 0.038839314
-0.11531156 0.28293145 -0.4074354 -0.31951943 -0.71088046 -0.7930127 -0.14152142 -0.07612318
-0.17961489 -0.36110017 -0.36632964 0.1871584 -0.46251065 0.012349541 -0.54863113 -0.2633711
-0.113382414 -0.22893459 -0.08550511 -0.07624018 0.08131222 -0.3532944 -0.44758382 -0.12311663
-0.12797183 -0.21379565 0.16351418 -0.8585966 -0.30505183 -0.5738834 0.12682426 -0.34358445
-0.124912664 -0.15158997 0.17472672 0.020214878 0.335652 0.12575266 -0.5444319 -0.0034156102
-0.17661482 -0.24512851 -1.1762391 -0.36139503 -0.45067525 -0.51829284 -0.29957715 -0.060353037
-0.35084575 0.041772455 -0.13661756 0.013074042 -0.2909661 -0.12296056 0.031001695 -0.11777972
-0.49769294 0.23988675 -0.17931615 0.31238744 -0.37811157 -0.31540212 -0.7032848 -0.009290238
0.27707 -0.19934465 -0.4407414 -0.08510774 -0.50796276 -0.091925114 -0.25855386 0.028658202
-0.33897233 0.0065921913 0.035184983 -0.5433847 -0.50088006 -0.03933929 -0.7863292 -0.49563017
-0.10802644 0.1469427 -0.28580737 -0.35635003 -0.34739268 -0.04264183 -0.24358611 -0.31699184
0.026772518 -0.2759364 -0.4613155 -0.1315151 -0.8636885 0.1022628 -0.41239175 -0.90183425
-0.66469043 -0.4219668 -0.32010487 0.14066933 0.12812674 -0.43742988 -0.39407185 -0.10673362
-0.40054077 0.01870518 -0.5489994 -0.44624656 -0.2359799 0.03800104 -0.46714175 -0.094587326
-0.10346113 0.23538429 -0.013852342 -0.4334241 -0.75689 -0.3441714 -0.8223753 -0.4152506
-0.25384206 -0.43864113 -0.033763956 0.13594791 -0.49040934 -0.100964904 -0.40609348 -0.123118654
0.1411955 -1.0823547 -1.005799 -0.31049302 -0.16108544 -0.47909296 -0.59829503 0.056564555
0.18209946 -0.08196251 -0.0492582 -0.31319377 -0.29538536 -0.2617179 -1.0565536 -0.2873854
-0.14271158 -0.16204871 -0.3851289 0.05462027 -0.08183144 -0.42988923 -0.21782072 0.006963446
-0.48989594 -0.9338587 -0.08906785 -0.22155406 -0.36926785 -0.08416662 -0.5972352 0.014651705
-0.22602417 0.0073492513 -0.23600775 -0.06824609 -0.18308422 0.02947244 -0.32020336 -0.25956705
-0.27469692 -0.020865086 -0.7035919 -0.06322209 -0.35025802 -0.5463203 -0.056093797 -0.30735195
0.11133537 -0.22138801 0.13918088 -0.23754247 -0.22253065 -0.5771765 -0.4422248 -0.16749695
-0.15940851 -0.034190882 -0.008251478 0.009250762 -0.61827064 -0.36984703 -0.21255358 -0.19704789
00000000: 0501 a4bd a650 5b3d f5b8 c2bf f1b8 3fbe
00000010: 0795 29bd 9495 d5bd 1100 cdbe 9a86 513e
00000020: 6c87 febe 1e2b 953c c136 d83d 07c8 023e
00000030: 2b97 ec3c d202 39bd 1fc7 8fbe fb79 00be
00000040: 5536 ecbe e283 e8be 64c6 7cbe df84 d2be
00000050: 9f35 58be e140 8fbe 995e ccbd 4efa dbbe
00000060: 74ff 95be 5564 f2be de41 473d 9b41 f8bc
00000070: 0830 bcbe 1435 05bd 4bbc b9bc d6e8 27be
00000080: c60e b1be 1acf 44bf 6ac5 4dbe 737a 8cbf
00000090: 1a1c 8a3d 4479 aabe 1438 ef3e 1779 28bf
000000a0: aeaf bebd a860 40be f5d2 8dbe b39b bdbe
000000b0: 0da2 07bf db13 15bd e1a0 7ebe 1d62 67bd
000000c0: caa8 00bf 013e 1f3e 2edb a8be 271b cdbe
000000d0: 443a 29be c12d 54bd 2684 fcbd c40b 84bf
000000e0: a43a 3bbf 1d27 02bf 3a63 4a3e 69f8 0dbf
000000f0: a837 02bf 9e85 4fbd adb7 87be f915 1f3d
00000100: 7828 ecbd 64dc 903e 5f9b d0be 0d98 a3be
00000110: 43fc 35bf e102 4bbf feea 10be 78e6 9bbd
00000120: f7ec 37be 1fe2 b8be 8f8f bbbe 74a6 3f3e
00000130: 32ce ecbe bb55 4a3c 1773 0cbf 94d8 86be
00000140: 0a35 e8bd d46d 6abe 4e1d afbd d023 9cbd
00000150: 0587 a63d 01e3 b4be b529 e5be 9224 fcbd
00000160: 0c0b 03be 3fed 5abe 4370 273e fdcc 5bbf
00000170: c12f 9cbe 06ea 12bf 38de 013e 4dea afbe
00000180: 36d2 ffbd 673a 1bbe 90eb 323e ac99 a53c
00000190: 94da ab3e 4ec5 003e e45f 0bbf 6ed8 5fbb
000001a0: 84da 34be f802 7bbe 018f 96bf c508 b9be
000001b0: e8be e6be d7ae 04bf 2d62 99be bf34 77bd
000001c0: 0ea2 b3be 9819 2b3d 79e5 0bbe 8234 563c
000001d0: 82f9 94be bfd2 fbbd 44f7 fd3c 7e36 f1bd
000001e0: 9cd1 febe dfa4 753e a79e 37be 3ff1 9f3e
000001f0: d797 c1be 637c a1be 790a 34bf 1536 18bc
00000200: 1edc 8d3e 0121 4cbe dba8 e1be f74c aebd
00000210: d909 02bf 3c43 bcbd 2c61 84be 9bc4 ea3c
00000220: c88d adbe 4f03 d83b 211e 103d 421b 0bbf
00000230: ad39 00bf 3c22 21bd df4c 49bf 3dc3 fdbe
00000240: f73c ddbd 2678 163e 5855 92be 8373 b6be
00000250: 74dd b1be 33a9 2ebd a36e 79be c14c a2be
00000260: 0a52 db3c 8947 8dbe 8c31 ecbe e5ab 06be
00000270: b11a 5dbf 296f d13d 0325 d3be 9cde 66bf
00000280: 2729 2abf 080c d8be c9e4 a3be 9f0b 103e
00000290: a833 033e cff6 dfbe c9c3 c9be 2897 dabd
000002a0: ae13 cdbe 9b3b 993c 3a8b 0cbf 6e7a e4be
000002b0: b7a4 71be fba6 1b3d 342d efbe 00b7 c1bd
000002c0: 6ee3 d3bd 9408 713e eff4 62bc c3e9 ddbe
000002d0: 8bc3 41bf 3c37 b0be 3087 52bf ba9b d4be
000002e0: 96f7 81be 9295 e0be 134c 0abd ee35 0b3e
000002f0: ef16 fbbe b0c6 cebd 7ceb cfbe a225 fcbd
00000300: 8e95 103e 998a 8abf 06be 80bf f1f8 9ebe
00000310: 95f3 24be ac4b f5be dd29 19bf 3cb0 673d
00000320: 4878 3a3e f6db a7bd f7c2 49bd ef5a a0be
00000330: c03c 97be e3ff 85be 263d 87bf 2e24 93be
00000340: fc22 12be 19f0 25be 9d2f c5be 81b9 5f3d
00000350: 3e97 a7bd 711a dcbe 650c 5fbe 9e2d e43b
00000360: a4d3 fabe 5d11 6fbf 3469 b6bd 11df 62be
00000370: ad10 bdbe 8d5f acbd 68e4 18bf b40d 703c
00000380: e172 67be fdd1 f03b 04ac 71be 9bc4 8bbd
00000390: 6e7a 3bbe 3070 f13c b2f1 a3be f9e5 84be
000003a0: 13a5 8cbe 42ed aabc 991e 34bf 957a 81bd
000003b0: 0555 b3be a6db 0bbf 9cc2 65bd 3c5d 9dbe
000003c0: cc03 e43d 8ab3 62be 6f85 0e3e 553e 73be
000003d0: 13df 63be d7c1 13bf 4a6b e2be 5284 2bbe
000003e0: fc3b 23be bd0b 0cbd 3531 07bc 8290 173c
000003f0: fc46 1ebf 975c bdbe a5a7 59be ecc6 49be

fc2.weight f4 [300, 400]
0.04348506 0.03293961 0.004624951 -0.02740022 -0.057072423 0.0045427685 -0.045329254 -0.03628506
-0.073128425 -0.07677853 -0.08824835 -0.020488009 -0.03665588 -0.068656996 -0.045838855 -0.04668275
-0.044903606 -0.013116038 -0.0095746545 -0.014299684 -0.0022104026 0.028283216 -0.03316632 0.07143308
-0.09282512 0.09526693 0.02992082 0.027112337 0.023646712 0.036312003 -0.021518573 0.030391932
-0.06581488 -0.038949396 0.0067455047 0.023966733 -0.041694377 -0.07103231 -0.05696687 0.03755725
-0.015127249 -0.0073221684 -0.002087576 -0.05757391 -0.043976538 0.0047877096 -0.05047345 -0.09469321
0.010885407 -0.07203195 0.097049244 -0.06408412 0.0024875975 -0.044341825 -0.019752484 -0.055077117
-0.057391115 -0.013919677 0.0049457266 0.12214422 -0.066501215 -0.012124469 0.04114005 -0.05549883
-0.00800239 0.063782886 0.038796898 -0.036678977 0.0035592765 -0.052121792 0.03658047 0.0048595015
0.08284921 -0.0025983804 0.015500244 -0.055131216 -0.009385531 -0.027717428 -0.0058801873 -0.06799367
0.020648995 -0.09427283 0.06608875 0.079340525 -0.031813357 0.02671333 0.0052011623 0.022888554
-0.07314857 -0.03852643 -0.009840825 -0.06050807 -0.044317264 0.011669391 -0.014700708 -0.043594047
-0.068525605 0.04234765 0.02455633 0.046085488 -0.033532307 0.018806806 -0.04952572 -0.0047067273
0.065429285 0.009162458 -0.09405831 -0.019517427 0.017576518 0.11595415 0.05457191 -0.06102057
-0.029863177 -0.042709813 -0.08364993 -0.03930792 0.00729272 -0.007569371 -0.00040959616 -0.0316631
-0.0014948082 -0.007105994 0.09677359 0.049077354 0.057290964 0.03347114 0.04945116 -0.012692273
0.049697228 -0.12296692 -0.12331406 0.025095025 0.016004803 0.024988912 0.111106284 -0.010697242
-0.02681756 -0.07409542 0.006384946 -0.011024101 -0.026543718 -0.074591614 -0.056822117 0.07784446
-0.07706064 -0.038628858 -0.109894834 0.0041980175 0.02171214 -0.14932698 -0.10776023 0.00060740014
-0.0934988 0.00058119436 -0.07891336 -0.0716528 -0.0097567 0.03930565 0.016236693 -0.010823749
-0.012573357 -0.022487763 -0.013563532 -0.037431646 -0.07175328 0.0028617694 -0.030697415 -0.103947885
0.04789424 -0.010915099 -0.014681731 0.0021115062 0.0055476995 -0.010029481 -0.008353847 -0.104429975
-0.056229763 0.011971702 0.027841393 -0.0109665645 0.051438507 -0.031526823 -0.008584441 -0.030431809
0.0020656828 -0.109093025 0.016618475 0.07456971 -0.036393452 -0.057465617 0.04839352 0.0048286645
0.060365044 -0.07440666 -0.07147083 -0.035361227 -0.057184014 -0.10218408 -0.029921 0.011196933
0.033624656 -0.086966656 -0.057809416 -0.00884869 -0.05776089 -0.008782534 -0.08492763 0.057463776
-0.07906517 0.016875682 0.015336858 0.020071976 0.044682153 0.014571503 -0.012280422 -0.041743338
0.06237935 0.084570445 -0.051395632 -0.025639037 0.05922007 -0.028290285 0.04022156 -0.011033429
0.085978925 0.046185825 -0.09658724 0.038654312 0.05993631 -0.1447753 0.031129187 -0.0118544595
0.08103876 0.035029996 -0.03339085 -0.11442934 -0.08823449 -0.061472613 -0.008753325 -0.11974437
0.01509839 -0.008333403 -0.04673906 -0.050691605 -0.11654683 0.010821996 0.014863654 -0.031878386
-0.02530766 0.072888106 -0.07202381 -0.040269252 0.032249726 -0.00038095267 -0.08768691 -0.10378393
00000000: 641d 323d afeb 063d e78c 973b 6d76 e0bc
00000010: c6c4 69bd 81db 943b 2bab 39bd a59f 14bd
00000020: 5bc4 95bd 103e 9dbd 8dbb b4bd 78d6 a7bc
00000030: 7a24 16bd 0a9c 8cbd 86c1 3bbd 6936 3fbd
00000040: d8ec 37bd a7e4 56bc 03df 1cbc 3949 6abc
00000050: 67dc 10bb 34b2 e73c 68d9 07bd 824b 923d
00000060: 191b bebd 4f1b c33d 821c f53c b11a de3c
00000070: c0b6 c13c e5bb 143d b847 b0bc 80f8 f83c
00000080: f4c9 86bd 6789 1fbd 6509 dd3b e255 c43c
00000090: b9c7 2abd 6379 91bd 1856 69bd a2d5 193d
000000a0: 48d8 77bc cdee efbb b7cf 08bb 9fd2 6bbd
000000b0: be20 34bd 38e2 9c3b 40bd 4ebd 84ee c1bd
000000c0: b558 323c 7d85 93bd c1c1 c63d 893e 83bd
000000d0: f606 233b c69f 35bd f6cf a1bc 8b98 61bd
000000e0: f212 6bbd 5b0f 64bc c30f a23b c026 fa3d
000000f0: ca31 88bd b5a5 46bc 7882 283d be52 63bd
00000100: 751c 03bc 9aa0 823d 7fe9 1e3d b23c 16bd
00000110: c042 693b a97d 55bd 67d5 153d 743c 9f3b
00000120: d9ac a93d 9749 2abb bcf4 7d3c 45d1 61bd
00000130: c5c5 19bc a90f e3bc 96ae c0bb 4440 8bbd
00000140: 1528 a93c 1d12 c1bd 8a59 873d 497d a23d
00000150: b94e 02bd ead5 da3c 836e aa3b c780 bb3c
00000160: ebce 95bd e4cd 1dbd 693b 21bc 4fd7 77bd
00000170: 0586 35bd f930 3f3c 3ddb 70bc ac8f 32bd
00000180: 2757 8cbd bb74 2d3d 5b2a c93c 23c4 3c3d
00000190: 2c59 09bd bb10 9a3c 7bdb 4abd e43a 9abb
000001a0: caff 853d 221e 163c a5a1 c0bd 03e3 9fbc
000001b0: a1fc 8f3c 5f79 ed3d cc86 5f3d b5f0 79bd
000001c0: 9fa3 f4bc 7cf0 2ebd a850 abbd 5701 21bd
000001d0: c5f7 ee3b 7c08 f8bb 11bf d6b9 2bb1 01bd
000001e0: 71ed c3ba 66d9 e8bb 3b31 c63d 5605 493d
000001f0: eea9 6a3d 0919 093d 4d8d 4a3d 40f3 4fbc
00000200: 528f 4b3d 15d6 fbbd 158c fcbd 1594 cd3c
00000210: 811c 833c 8cb5 cc3c b18b e33d 7c43 2fbc
00000220: 80b0 dbbc 57bf 97bd cf38 d13b 6e9e 34bc
00000230: 3672 d9bc 7dc3 98bd 4fbe 68bd eb6c 9f3d
00000240: f8d1 9dbd 4b39 1ebd 8b10 e1bd 868f 893b
00000250: a8dd b13c 2ce9 18be 65b1 dcbd ef39 1f3a
00000260: 4d7c bfbd 4b5b 183a 549d a1bd b4be 92bd
00000270: 91da 1fbc f6fe 203d d002 853c 1856 31bc
00000280: 7b00 4ebc 4238 b8bc 9439 5ebc ed51 19bd
00000290: 62f3 92bd 868c 3b3b 2579 fbbc a1e2 d4bd
000002a0: c02c 443d 3ed5 32bc a58b 70bc 3261 0a3b
000002b0: 7ac9 b53b b152 24bc 93de 08bc 62df d5bd
000002c0: 2e51 66bd f524 443c a213 e43c 1bad 33bc
000002d0: 2fb1 523d 4522 01bd c1a5 0cbc 214c f9bc
000002e0: 6860 073b 2a6c dfbd 7823 883c 01b8 983d
000002f0: 4d11 15bd 1161 6bbd 4938 463d c639 9e3b
00000300: 5641 773d 8562 98bd 4c5f 92bd efd6 10bd
00000310: c939 6abd e345 d1bd e31c f5bc 5773 373c
00000320: 02ba 093d 931b b2bd 91c9 6cbd 19fa 10bc
00000330: af96 6cbd 9ee4 0fbc 8aee adbd 235f 6b3d
00000340: ebec a1bd df3e 8a3c 7247 7b3c fc6d a43c
00000350: a204 373d 50bd 6e3c d333 49bc 10fb 2abd
00000360: 7d81 7f3d 4533 ad3d 3a84 52bd f508 d2bc
00000370: be90 723d 07c1 e7bc 5dbf 243d 8ec5 34bc
00000380: b815 b03d 592d 3d3d 88cf c5bd fc53 1e3d
00000390: c77f 753d fa3f 14be a302 ff3c 3539 42bc
000003a0: a6f7 a53d 9d7b 0f3d d8c4 08bd ee59 eabd
000003b0: 49b4 b4bd b5ca 7bbd 1b6a 0fbc 893c f5bd
000003c0: 3d5f 773c d388 08bc 7571 3fbd 00a2 4fbd
000003d0: 1bb0 eebd be4e 313c af86 733c e992 02bd
000003e0: 0352 cfbc 5c46 953d 3881 93bd 5ff1 24bd
000003f0: 4a18 043d 9aba c7b9 3295 b3bd ab8c d4bd

fc2.bias f4 [300]
-0.0846749 -0.031515513 -0.061205316 -0.17508341 -0.14978246 -0.11519733 -0.12242591 -0.13647427
-0.21335398 -0.11199332 -0.14918457 -0.087376565 -0.1264478 -0.1557773 -0.1100886 -0.13157661
-0.12997818 -0.1960643 -0.14696081 -0.06911963 -0.15067302 -0.24758531 -0.22129859 -0.26065034
-0.14110236 -0.18902583 -0.15353312 -0.09435239 -0.056047156 -0.107642524 -0.15223262 -0.115728654
-0.14614841 -0.10313899 -0.09029141 -0.04816574 -0.1137857 -0.13635126 -0.1945508 -0.22109303
-0.0758838 -0.09609949 -0.19706728 0.0036675653 -0.0753037 -0.11117669 -0.115989685 -0.11059587
-0.15716991 -0.31161043 -0.14831395 -0.119418845 -0.13204385 -0.061778914 -0.17919648 -0.10714811
-0.10106028 -0.13561064 -0.14713024 -0.07294562 -0.12627265 -0.086916395 -0.23037949 -0.0688553
-0.08565034 -0.087203704 -0.052448537 -0.14310259 -0.25431255 -0.16391443 -0.15088078 0.052028943
-0.18194707 -0.051135875 -0.12877405 -0.10606097 -0.20417865 -0.14529043 -0.14433545 -0.13716273
-0.037810553 -0.10162302 -0.2226874 -0.1164009 -0.112526186 -0.14268793 -0.1100354 -0.0518118
-0.15101326 -0.046914894 -0.17279387 -0.17260517 -0.21729207 -0.11360623 -0.20101868 -0.18756545
-0.08880503 -0.11936743 -0.10575799 -0.21909295 -0.12777193 -0.010688163 -0.095808275 -0.15838559
-0.07267478 -0.1373187 -0.16698547 -0.13551113 -0.11141912 -0.07622096 -0.16507567 -0.2347739
-0.12521034 -0.20848577 -0.1291467 -0.085797794 -0.10757484 -0.16547072 -0.08450629 -0.06469619
-0.116854295 -0.1501708 -0.122612976 -0.13001086 -0.11198783 -0.18852027 -0.18860339 -0.08673558
-0.15003103 -0.06290736 -0.19699517 -0.1888513 -0.09929009 -0.11455986 -0.2259589 -0.05127648
-0.25670335 -0.08593414 -0.11038092 -0.21506602 -0.16666476 -0.12017272 -0.06583641 -0.082081266
-0.09206274 -0.23645218 -0.109352805 -0.14733624 -0.075895496 -0.08955615 -0.076375015 -0.21214445
-0.30222142 -0.100844 -0.17371322 -0.1824866 -0.21102731 -0.15855522 -0.15993927 -0.13979891
-0.12553512 -0.10139022 -0.15536854 -0.21188694 -0.104047254 -0.2813589 -0.07905648 -0.12219439
-0.08591714 -0.13033195 -0.14556089 -0.10109175 -0.22873631 -0.17875186 -0.34772125 -0.02756897
-0.08289863 -0.12679033 -0.08560943 -0.12967427 -0.12497699 -0.059414133 -0.09868305 -0.076398276
-0.07733473 -0.20665523 -0.11113107 -0.08763991 -0.09425018 -0.09547668 -0.091400295 -0.09272445
-0.1565393 -0.10477907 -0.070519105 -0.086558856 -0.113875285 -0.2862299 -0.1663558 -0.11273236
-0.13429615 -0.08069564 -0.22476383 -0.08010073 -0.06943449 -0.15279377 -0.107041314 -0.061988108
-0.09132249 -0.13368028 -0.117298 -0.029541131 -0.18006955 -0.123537175 -0.2227127 -0.19988103
-0.13250259 -0.03020488 -0.12570657 -0.11991948 -0.1239408 -0.09669811 -0.0800911 -0.112805694
-0.08795911 -0.22321308 -0.14539458 -0.15437132 -0.14715849 -0.15040275 -0.18883441 -0.11634265
-0.20224772 -0.12250762 -0.2233275 -0.18395387 -0.1561696 -0.041623753 -0.18457879 -0.09820871
-0.20204526 -0.14053261 -0.061185893 -0.21830969 -0.18479149 -0.0730441 -0.16230518 -0.14138603
-0.15063503 -0.08509652 -0.1426248 -0.1104888 -0.18134704 -0.3691595 -0.05278245 -0.394136
00000000: 096a adbd 6916 01bd 6db2 7abd 1149 33be
00000010: 9360 19be 94ec ebbd 6fba fabd e9bf 0bbe
00000020: 7779 5abe c15c e5bd d7c3 18be 7cf2 b2bd
00000030: 887b 01be 1684 1fbe 2276 e1bd 05bc 06be
00000040: 0019 05be 14c5 48be e57c 16be 988e 8dbd
00000050: 074a 1abe 0187 7dbe 199c 62be f673 85be
00000060: 237d 10be fd8f 41be c937 1dbe d33b c1bd
00000070: b491 65bd af73 dcbd dee2 1bbe 2503 edbd
00000080: eea7 15be 893a d3bd b4ea b8bd 7049 45bd
00000090: 7a08 e9bd aa9f 0bbe 5338 47be 3666 62be
000000a0: f768 9bbd cfcf c4bd 01cc 49be 895b 703b
000000b0: d438 9abd 9bb0 e3bd 008c edbd 1680 e2bd
000000c0: 26f1 20be 678b 9fbe 9ddf 17be de91 f4bd
000000d0: 8136 07be e30b 7dbd 487f 37be 7870 dbbd
000000e0: b1f8 cebd 84dd 0abe 4fa9 16be 8364 95bd
000000f0: 9e4d 01be 3901 b2bd 9ae8 6bbe 0204 8dbd
00000100: 7269 afbd db97 b2bd 47d4 56bd 7c89 12be
00000110: 4135 82be 2fd9 27be 7e80 1abe 4d1c 553d
00000120: 5550 3abe da73 51bd 58dd 03be 7e36 d9bd
00000130: 3514 51be 04c7 14be accc 13be 6374 0cbe
00000140: 3ddf 1abd bb1f d0bd 2a08 64be 9863 eebd
00000150: 2174 e6bd c91c 12be 3d5a e1bd 9c38 54bd
00000160: 38a3 1abe d529 40bd e0f0 30be 69bf 30be
00000170: d081 5ebe 62aa e8bd d7d7 4dbe 2811 40be
00000180: 69df b5bd e976 f4bd a597 d8bd e759 60be
00000190: a5d6 02be 681d 2fbc 2137 c4bd d52f 22be
000001a0: 84d6 94bd 469d 0cbe 3dfe 2abe 6ec3 0abe
000001b0: b52f e4bd bc19 9cbd 9909 29be 9268 70be
000001c0: 2437 00be 4b7d 55be 083f 04be c1b6 afbd
000001d0: 3350 dcbd 2871 29be a211 adbd 707f 84bd
000001e0: 4e51 efbd 60c6 19be 831c fbbd 9121 05be
000001f0: e059 e5bd 750b 41be 3f21 41be 6ca2 b1bd
00000200: bca1 19be 93d5 80bd 1ab9 49be 3c62 41be
00000210: 9a58 cbbd 5c9e eabd c561 67be 4907 52bd
00000220: 9f6e 83be 3dfe afbd 640f e2bd 443a 5cbe
00000230: 2baa 2abe 1d1d f6bd 3dd5 86bd 391a a8bd
00000240: 648b bcbd 8520 72be 5df4 dfbd 50df 16be
00000250: 196f 9bbd 3769 b7bd 816a 9cbd 653c 59be
00000260: c4bc 9abe 4d87 cebd e1e1 31be c4dd 3abe
00000270: 8b17 58be 4d5c 22be 1fc7 23be 7227 0fbe
00000280: 478c 00be ada5 cfbd ee18 1fbe e4f8 58be
00000290: ba16 d5bd 460e 90be 5de8 a1bd 0d41 fabd
000002a0: 53f5 afbd bd75 05be ea0d 15be 3109 cfbd
000002b0: da39 6abe ba0a 37be 8508 b2be 52d8 e1bc
000002c0: c2c6 a9bd 53d5 01be ff53 afbd 55c9 04be
000002d0: f0f3 ffbd 3c5c 73bd 571a cabd b376 9cbd
000002e0: ac61 9ebd 6e9d 53be b098 e3bd 8e7c b3bd
000002f0: 3d06 c1bd 4789 c3bd 1430 bbbd 51e6 bdbd
00000300: d74b 20be 6996 d6bd 526c 90bd c545 b1bd
00000310: 7237 e9bd ba8c 92be 2d59 2abe 39e0 e6bd
00000320: ee84 09be c143 a5bd 7d28 66be da0b a4bd
00000330: ab33 8ebd f875 1cbe 7a38 dbbd 3ee7 7dbd
00000340: 4907 bbbd 7ce3 08be ef39 f0bd 3e00 f2bc
00000350: 2764 38be 0f01 fdbd cc0e 64be 9dad 4cbe
00000360: c2ae 07be 3970 f7bc 39b9 00be 5898 f5bd
00000370: add4 fdbd a909 c6bd cd06 a4bd ac06 e7bd
00000380: e823 b4bd f891 64be 51e2 14be 8413 1ebe
00000390: b7b0 16be 2e03 1abe cf5d 41be 0e45 eebd
000003a0: 071a 4fbe 46e5 fabd f7af 64be 675e 3cbe
000003b0: ecea 1fbe ab7d 2abd 3902 3dbe a621 c9bd
000003c0: f4e4 4ebe c8e7 0fbe 0f9e 7abd 938c 5fbe
000003d0: fb39 3dbe 2598 95bd 5433 26be 80c7 10be
000003e0: 1240 1abe 1647 aebd 3c0c 12be f447 e2bd
000003f0: 0ab3 39be 7902 bdbe 6932 58bd 32cc c9be

fc3.weight f4 [1, 300]
0.005196248 0.003063898 -0.032110594 0.025702003 0.0062853745 0.002694116 -0.018029751 0.026766215
0.0020612187 -0.016406536 -0.0032934085 -0.0006319689 0.0021840658 -0.018771145 0.002302239 -0.018471144
-0.014848789 0.013752587 0.025771322 -0.013946264 -0.02011417 -0.026835093 -0.010009794 -0.0015047512
0.0011223326 -0.029054994 0.018381208 0.011203858 0.022719856 -0.0266063 0.0047644917 -0.0010683165
-0.024705965 -0.004120793 -0.0004533304 0.015508351 -0.001402803 -0.010949758 -0.010974872 -0.01212111
-0.0068222815 -0.0078112674 0.018495297 0.014275307 -0.0002788284 0.012977922 0.003940069 0.013800165
-0.026178775 0.020228578 -0.024427926 0.024965521 0.010440502 -0.0075988844 -0.015452721 0.00815352
0.002355173 0.010308091 0.017498896 -0.025704963 -0.02416572 -0.008839252 0.008168163 -0.018253265
-0.009861691 0.0068611666 0.021463435 -0.00579148 0.008032016 -0.01784718 0.016421836 -0.012641133
0.007925334 0.0033405935 0.015471609 -0.015176721 0.004073168 0.0040319874 -0.010657266 0.022280494
0.0030776502 -0.019927057 -0.011943564 0.016946195 0.014770737 -0.010244166 -0.00539944 0.015563504
0.020349652 0.026715662 0.0017845763 -0.017080229 0.018961793 -0.014095915 -0.027485846 0.015677838
-0.021690326 -0.010375538 0.012914926 0.007588918 0.0100046415 -0.015075311 -0.0011718558 -0.01045345
0.00083754497 0.0026020422 0.014878679 -0.002803819 0.013605493 -0.01214326 0.0059376583 0.013480663
0.022129454 0.0030997854 0.038614552 -0.022473456 -0.0036833414 -0.014892125 0.010433664 -0.025316615
-0.0071222573 -0.007879432 -0.01992273 0.012117445 0.009301937 -0.0123642245 -0.0044746883 0.004667102
-5.8723696e-08 -0.017720869 -0.014533166 0.00807009 -0.026601631 -0.012537491 0.012762226 -0.028389754
-0.014279676 -0.009449873 0.024989977 -0.0055203815 -0.004214975 0.008805486 -0.027018718 -0.002070566
-0.008718766 -0.00020153371 -0.018917194 -0.014913975 0.020690674 -0.0070995595 -0.015056531 0.010114725
-0.0088510215 0.0004039399 0.028394574 -0.019735351 -0.008465758 -0.007394814 -0.014543089 -0.014005836
-0.0039609666 -0.006913392 0.018967224 0.004565346 -0.0072248126 -0.02172841 0.021894682 0.0023597314
0.011455446 -0.0011288162 -0.025823148 -0.003570657 -0.012645075 0.021557102 0.017255466 -0.011486278
-0.005225267 -0.005782068 -0.0144519275 -0.020506848 0.013267919 0.00633607 -0.00054471276 0.005699683
0.025109153 -0.014468543 0.008722432 -0.0014564785 -0.011231861 -0.017486768 -0.019012613 0.00016411397
0.0038648404 0.01383631 0.024891958 -0.016926594 -0.018160269 -0.009363174 0.030768262 0.0069524827
0.0070074187 0.010990563 -0.0028232336 7.116705e-05 -0.0050540967 -0.028688649 -0.00011476147 -0.00965103
0.018254425 0.0006498266 -0.00904254 -5.0646042e-05 0.022984702 -0.004563192 0.028348153 0.005175581
-0.0094555495 -0.0038658646 -0.003110508 0.00943545 0.030484103 -0.005441511 -0.020914022 0.002469085
0.020499235 0.0021821358 0.029452953 -0.00066328666 0.003163386 0.029771345 0.0002621949 -0.013089385
0.013665129 0.0029903 0.0036357003 0.024622366 -0.021160629 -0.027324136 -0.024712568 0.016508685
-0.013873578 -0.019433545 -0.0021362307 0.04284325 -0.004854558 -0.01931512 0.013295659 -0.0013012905
0.029628266 0.006941885 0.0036125234 -0.026533378 0.0041556805 -0.012381864 -0.01099355 0.009984736
00000000: 4a45 aa3b aecb 483b 6686 03bd 028d d23c
00000010: 8bf5 cd3b c48f 303b 21b3 93bc d244 db3c
00000020: 8315 073b 0067 86bc 3ad6 57bb b7aa 25ba
00000030: 8b22 0f3b f2c5 99bc 29e1 163b cc50 97bc
00000040: 5648 73bc 8852 613c 611e d33c df7e 64bc
00000050: 79c6 a4bc 45d5 dbbc 1e00 24bc 123b c5ba
00000060: 3c1b 933a bd04 eebc 3094 963c 6390 373c
00000070: fe1e ba3c 75f5 d9bc 741f 9c3b c106 8cba
00000080: 2a64 cabc b807 87bb faac edb9 bd16 7e3c
00000090: 42de b7ba 9d66 33bc f3cf 33bc 9f97 46bc
000000a0: 728d dfbb a9f5 ffbb 7383 973c fae2 693c
000000b0: b72f 92b9 5aa1 543c b21b 813b 161a 623c
000000c0: df74 d6bc 67b6 a53c 131d c8bc 7e84 cc3c
000000d0: a40e 2b3c 1000 f9bb 692d 7dbc 5796 053c
000000e0: 3f59 1a3b 44e3 283c d859 8f3c 3793 d2bc
000000f0: 30f7 c5bc 83d2 10bc c2d3 053c df87 95bc
00000100: ee92 21bc a3d3 e03b 16d4 af3c 75c6 bdbb
00000110: b898 033c 4034 92bc 1687 863c c11c 4fbc
00000120: 43d9 013c dced 5a3b a27c 7d3c c8a7 78bc
00000130: 3678 853b c31e 843b d09b 2ebc 9585 b63c
00000140: 67b2 493b 113e a3bc f0ae 43bc bfd2 8a3c
00000150: f600 723c 25d7 27bc c9ed b0bb 11fe 7e3c
00000160: 50b4 a63c ceda da3c 72e8 e93a d6eb 8bbc
00000170: c355 9b3c 8df2 66bc ff29 e1bc cf6e 803c
00000180: e9af b1bc 29fe 29bc 2099 533c 75ac f83b
00000190: 82ea 233c 70fe 76bc f598 99ba f244 2bbc
000001a0: b18e 5b3a 0687 2a3b b4c5 733c 47c0 37bb
000001b0: 93e9 5e3c 86f4 46bc b090 c23b 00de 5c3c
000001c0: d448 b53c c525 4b3b 4b2a 1e3d 411a b8bc
000001d0: 3764 71bb 19fe 73bc f5f1 2a3c ca64 cfbc
000001e0: d361 e9bb bc18 01bc fe34 a3bc 3f88 463c
000001f0: 2767 183c 5193 4abc 68a0 92bb 7dee 983b
00000200: 6337 7cb3 5b2b 91bc 841c 6ebc 6938 043c
00000210: aaeb d9bc 0c6a 4dbc a818 513c a191 e8bc
00000220: 4df5 69bc a4d3 1abc c8b7 cc3c 51e4 b4bb
00000230: c61d 8abb e344 103c 5c56 ddbc 55b2 07bb
00000240: 28d9 0ebc cb52 53b9 3bf8 9abc bf59 74bc
00000250: 7d7f a93c 6ca3 e8bb abaf 76bc 3bb8 253c
00000260: e003 11bc e5c7 d339 bd9b e83c 08ac a1bc
00000270: f6b3 0abc 3250 f2bb 2346 6ebc bc78 65bc
00000280: ffca 81bb bc89 e2bb 2761 9b3c e698 953b
00000290: 1fbe ecbb c7ff b1bc 7a5c b33c b9a5 1a3b
000002a0: 9faf 3b3c c9f4 93ba 118b d3bc af01 6abb
000002b0: 4a2d 4fbc 8598 b03c 565b 8d3c f130 3cbc
000002c0: b738 abbb 8077 bdbb c7c7 6cbc fafd a7bc
000002d0: b061 593c cf9e cf3b 0ecb 0eba 68c4 ba3b
000002e0: b6b1 cd3c 780d 6dbc 88e8 0e3c 4fe7 beba
000002f0: d705 38bc 6940 8fbc 57c0 9bbc 0216 2c39
00000300: 4349 7d3b b1b1 623c 38ea cb3c a4a9 8abc
00000310: d8c4 94bc 0068 19bc b90d fc3c a7d1 e33b
00000320: 7d9e e53b c311 343c 0006 39bb 853f 9538
00000330: d69c a5bb 7504 ebbc 18ac f0b8 5b1f 1ebc
00000340: 4e8a 953c 2059 2a3a 2927 14bc c66c 54b8
00000350: 6a4a bc3c d486 95bb 633a e83c ec97 a93b
00000360: 73eb 1abc 725a 7dbb aad9 4bbb 2597 1a3c
00000370: ccb9 f93c b44e b2bb e253 abbc 5fd0 213b
00000380: 03ee a73c 2a02 0f3b 5247 f13c 6ae0 2dba
00000390: cf50 4f3b 09e3 f33c 3477 8939 dc74 56bc
000003a0: b5e3 5f3c e9f8 433b ee44 6e3b d8b4 c93c
000003b0: 0e59 adbc ded6 dfbc 0372 cabc 393d 873c
000003c0: 014e 63bc 1933 9fbc 0100 0cbb 677c 2f3d
000003d0: fc12 9fbb be3a 9ebc 09d6 593c 1090 aaba
000003e0: fab6 f23c c178 e33b 16c0 6c3b 875c d9bc
000003f0: 602c 883b 4ddd 4abc 4a1e 34bc 0597 233c

bn1.weight f4 [400]
0.24479765 0.20564784 0.31573063 0.2743399 0.14469229 0.43743125 0.7761223 0.33037323
0.5123801 1.5265418 0.31135824 0.35014942 0.27322105 0.0015368497 0.26308015 0.49891675
0.3353561 0.4504899 0.107961684 0.19978121 0.33336517 0.30729443 0.4137746 0.41824827
0.40993094 0.19972405 0.10545305 0.21196984 0.45557863 0.36804354 0.20927136 0.17850941
0.35145986 0.2970751 0.5315746 0.688306 0.42000842 0.5066647 0.59056836 0.9130929
0.20028867 0.11612231 1.1163716 0.1991706 0.63287264 0.28854862 0.1876645 0.25486183
0.73520213 0.24014223 0.16921395 1.0358444 0.07792917 0.24144623 0.28441167 1.2476215
1.5211565 0.14764605 0.43814945 0.16877101 0.2530862 0.31800815 0.108325124 0.1820684
0.23369126 0.25417614 0.34101537 0.23981299 0.23881957 0.6567172 0.25660437 0.13583337
0.06627798 0.12333544 0.21479788 0.85187733 0.72023517 0.18236719 0.45157588 0.36590973
0.24305768 0.17210366 0.0005098028 0.12791368 0.18458657 0.1900272 0.23908675 0.16605413
0.51153105 0.10231853 0.19182189 0.5989673 0.33313 0.653737 0.6867501 0.25577924
0.47732857 0.14409548 0.15279528 0.28172103 0.43373778 0.32086885 0.7680109 0.21297844
0.14407517 0.13448478 0.77632046 0.28087407 0.20699708 0.46501178 0.19804811 0.20707007
0.20999901 0.34806275 0.2815645 0.3598301 0.26240063 0.1404624 0.11047818 0.37589726
0.15342905 0.5143396 0.24125709 0.46303266 0.7507166 0.17089993 0.22207586 0.21390314
0.25284755 0.35139742 0.46023586 0.25316754 0.25345442 0.0013243072 0.28463656 0.19300179
0.6078079 0.47896835 0.7141019 0.4571378 0.4711244 0.16099112 0.6220795 0.19107442
0.17402905 -0.0016488027 0.23830093 0.29009435 0.2552123 0.4505748 0.39129776 0.17126887
0.43869564 0.24132594 0.30711275 0.16210666 1.2084365 -0.00040748945 0.17232859 0.5669842
1.2057649 0.259194 0.20263423 0.29807118 1.3310975 0.24993047 0.36628377 0.27853322
0.15918396 0.18471225 0.36105952 0.07076288 0.27744454 0.34446466 0.51752937 0.3279974
0.23252234 0.06845219 0.39387408 0.40304506 0.2384891 0.35581017 1.2232668 0.48151565
0.11708933 0.40530527 0.1778532 0.32450315 0.5958769 0.16595769 0.20859666 0.15303555
0.18057002 0.89146096 1.0581576 0.37305793 0.44015414 0.29719883 0.5284039 0.39624888
1.1621065 0.24962018 -0.00018115947 0.118455574 0.28934124 0.20757948 1.0462118 0.2326956
0.13012503 0.36850983 0.43077037 0.76935434 -0.0009765954 0.12819456 0.30164078 0.4444941
1.429638 1.1799374 0.1641324 0.1347452 0.21789575 0.20368084 0.29339513 0.58204013
0.15168218 0.30686298 0.12419395 0.2650239 0.23089777 1.332963 0.31394827 0.08116331
0.13787033 0.16112868 0.3963821 0.3741089 0.18042563 0.42732674 0.25955576 0.32740244
0.301172 0.13023897 0.18506598 0.9690403 0.4329823 0.635331 0.032416783 0.4584159
0.58488774 0.00012121645 0.33271828 0.30224004 0.22238335 0.24578772 0.3335572 0.30723253
00000000: 3cac 7a3e 5995 523e 72a7 a13e 4876 8c3e
00000010: 372a 143e fdf6 df3e f3af 463f ae26 a93e
00000020: 582b 033f b965 c33f 596a 9f3e c946 b33e
00000030: a1e3 8b3e 1e70 c93a 71b2 863e 0472 ff3e
00000040: cbb3 ab3e 9da6 e63e 041b dd3d 7293 4c3e
00000050: d7ae aa3e b255 9d3e 44da d33e a324 d63e
00000060: 78e2 d13e 7684 4c3e c5f7 d73d 9f0e 593e
00000070: 9a41 e93e 3470 bc3e 3b4b 563e 2ccb 363e
00000080: 8cf2 b33e 3a1a 983e 4615 083f d234 303f
00000090: 580b d73e c7b4 013f 7d2f 173f 75c0 693f
000000a0: 7918 4d3e 89d1 ed3d 44e5 8e3f 61f3 4b3e
000000b0: f103 223f a5bc 933e 1f2b 403e 407d 823e
000000c0: 3536 3c3f d8e7 753e 6c46 2d3e 8d96 843f
000000d0: 5499 9f3d ae3d 773e 689e 913e 10b2 9f3f
000000e0: 42b5 c23f 8730 173e 2055 e03e 4fd2 2c3e
000000f0: 8494 813e f7d1 a23e 90d9 dd3d 2370 3a3e
00000100: c34c 6f3e 6023 823e 9199 ae3e 8991 753e
00000110: 1e8d 743e 9e1e 283f a661 833e e717 0b3e
00000120: c0bc 873d 4b97 fc3d faf3 5b3e a214 5a3f
00000130: 5561 383f 77be 3a3e f434 e73e 8558 bb3e
00000140: 1de4 783e f13b 303e 49a4 053a cefb 023e
00000150: 4304 3d3e 7e96 423e 28d3 743e 180a 2a3e
00000160: b3f3 023f 618c d13d f56c 443e ec55 193f
00000170: 0490 aa3e 4f5b 273f dbce 2f3f 7ff5 823e
00000180: 6964 f43e c48d 133e 5e76 1c3e bd3d 903e
00000190: e112 de3e ec48 a43e 5d9c 443f 0517 5a3e
000001a0: 7188 133e 61b6 093e f0bc 463f bace 8f3e
000001b0: 0bf7 533e 0616 ee3e 20cd 4a3e 2d0a 543e
000001c0: fb09 573e 4835 b23e 3929 903e a73b b83e
000001d0: 6059 863e 60d5 0f3e 6242 e23d 9b75 c03e
000001e0: 811c 1d3e c3ab 033f 190c 773e 9e12 ed3e
000001f0: f72e 403f 6400 2f3e db67 633e 6d09 5b3e
00000200: 3c75 813e 5dea b33e 09a4 eb3e 2d9f 813e
00000210: c7c4 813e 6094 ad3a e2bb 913e 43a2 453e
00000220: 4c99 1b3f 573b f53e 62cf 363f f70d ea3e
00000230: 3837 f13e dbda 243e 9a40 1f3f 03a9 433e
00000240: ac34 323e a31c d8ba 2905 743e 3f87 943e
00000250: 30ab 823e bdb1 e63e 2e58 c83e 1b61 2f3e
00000260: b79c e03e 261e 773e e23d 9d3e 4aff 253e
00000270: 0cae 9a3f 4fa4 d5b9 e876 303e e025 113f
00000280: 8156 9a3f 13b5 843e 597f 4f3e c99c 983e
00000290: 6761 aa3f c6ed 7f3e 8c89 bb3e e89b 8e3e
000002a0: 1f01 233e 3525 3d3e cbdc b83e 21ec 903d
000002b0: 360d 8e3e ac5d b03e ce7c 043f 46ef a73e
000002c0: 561a 6e3e a930 8c3d dda9 c93e ec5b ce3e
000002d0: 7d36 743e c02c b63e 0294 9c3f 3889 f63e
000002e0: 88cc ef3d 2c84 cf3e 261f 363e 4725 a63e
000002f0: 638b 183f d0f0 293e 5d9a 553e 5ab5 1c3e
00000300: 59e7 383e c936 643f b571 873f 7301 bf3e
00000310: e25b e13e 722a 983e 7a45 073f 22e1 ca3e
00000320: e8bf 943f 6f9c 7f3e a0f5 3db9 d698 f23d
00000330: 8924 943e b78f 543e 45ea 853f c147 6e3e
00000340: 7f3f 053e 52ad bc3e ef8d dc3e 68f4 443f
00000350: 1b01 80ba 6f45 033e a970 9a3e bb94 e33e
00000360: 61fe b63f 3008 973f 5312 283e a5fa 093e
00000370: 1020 5f3e b691 503e e337 963e 9500 153f
00000380: 9352 1b3e 251d 9d3e 6659 fe3d 36b1 873e
00000390: 7770 6c3e 889e aa3f d4bd a03e f338 a63d
000003a0: e12d 0d3e ebfe 243e 98f2 ca3e 348b bf3e
000003b0: 7fc1 383e 92ca da3e 7ee4 843e 4ba1 a73e
000003c0: 3733 9a3e 5d5d 053e f081 3d3e 0613 783f
000003d0: dbaf dd3e 0da5 223f 76c7 043d 7db5 ea3e
000003e0: 34bb 153f 9635 fe38 0d5a aa3e 35bf 9a3e
000003f0: 76b8 633e c7af 7b3e 02c8 aa3e 954d 9d3e

bn1.bias f4 [400]
0.064559475 0.017431183 0.15297711 0.055776928 0.0157681 0.12575684 0.29501185 0.08828126
0.24723198 0.37020057 0.13698992 0.07004271 0.076932 0.0016728346 0.03139564 0.18200774
0.18748263 0.25636867 0.034286484 0.08422509 0.124790885 0.07852998 0.10985558 0.110608004
0.00068591326 0.041421268 0.012437839 0.03344046 0.08237552 0.06800654 0.071180366 -0.016074048
0.2258643 0.09852176 0.18291575 0.14128217 0.12741476 0.112840936 0.14963257 0.19440848
0.12180658 0.028067699 0.21684586 0.03980727 0.110030375 0.085865065 0.04178842 0.18581742
0.26713654 0.18483461 -0.02164627 0.39171624 0.0009243547 0.0051027867 0.0730181 0.25977895
0.3146133 0.015607426 0.012886307 -0.057246767 0.065438315 0.102351174 -0.0007282391 0.058299623
0.10050939 0.013240816 0.113906235 0.077906616 0.06603878 0.09733511 -0.0230014 -0.0014755927
-0.06217583 0.007163185 0.009901384 0.2359054 0.21417311 0.04907917 0.030862615 0.2832565
0.026969554 0.0530999 0.001128596 1.5317526e-05 0.06897963 0.043429326 0.009192583 0.045535818
0.24949627 0.011567091 0.10258572 0.39472887 0.15875325 0.26613614 0.13619831 0.017304529
0.18855241 0.033894487 0.02473798 0.16413455 0.109556556 0.09630314 0.23044953 0.09891547
-0.014451664 -0.03196411 0.3109283 -0.017578034 0.08917929 -0.057069056 0.060858596 -0.012852603
0.13704383 0.10984363 0.12432759 0.120897725 0.06442159 0.03303064 0.048310377 0.16491039
0.032713484 0.09998222 0.042239036 0.00259038 0.15306556 -0.01001529 0.059985094 0.073533475
0.037310477 0.17980102 0.31359294 0.1159345 0.063419685 0.0010824343 -0.06947682 0.03312349
0.124249555 0.31155282 0.35439894 0.18361233 0.1286579 0.0696172 0.39447886 0.05120294
-0.012605913 -0.0011374458 0.137507 0.054163925 0.03017257 0.21184744 0.17253235 0.07171625
0.18482552 0.071413144 0.22009875 0.05369626 0.24994032 -0.00067368 0.018010113 0.037665132
0.40540922 0.041435476 0.04613993 0.121065535 0.10151982 0.048481707 0.1428758 0.13534899
0.036434777 -0.009330824 0.11925516 0.0034216207 0.12627724 0.13801488 0.16014385 0.3510227
0.08803755 0.058674295 0.21841237 0.085295476 -0.13818814 0.08625201 0.19140172 0.2502711
0.023552043 0.2636262 0.0668187 -0.03517579 0.18281582 0.04169369 0.02304134 -0.022689303
0.01072638 0.23750988 0.45486292 0.13130857 0.19383243 0.15920036 0.0962116 0.14575094
0.14942874 0.14955446 -0.0010189194 -0.050135188 0.2244102 0.07384744 0.26021135 0.10694205
0.08566338 0.12327393 0.13955493 0.16755593 0.00016893064 -0.010834428 0.10129636 0.13285224
-0.31782097 -0.08059555 0.055658802 -0.0045563458 0.10722715 0.03852241 0.11729114 0.18969543
0.0066563413 0.08934544 0.01876489 0.19326006 0.040637355 0.35855693 0.07970946 0.01947597
0.017370418 0.028735664 -0.07937941 0.20395847 0.038493127 0.24840303 0.059054352 0.0798683
0.24550705 -0.02435635 0.05867224 0.28909653 0.378624 0.18140303 -0.047327995 0.09228174
0.05252886 0.000376431 0.072040856 0.17691322 -0.020630337 0.07442442 0.1328807 0.2263668
00000000: c237 843d d7cb 8e3c 08a6 1c3e 5976 643d
00000010: 1a2c 813c 67c6 003e cb0b 973e cecc b43d
00000020: 612a 7d3e ee8a bd3e 1647 0c3e 8d72 8f3d
00000030: 868e 9d3d 0443 db3a b798 003d 3d60 3a3e
00000040: 72fb 3f3e c142 833e fc6f 0c3d 347e ac3d
00000050: 5d92 ff3d 53d4 a03d f6fb e03d 7386 e23d
00000060: dcce 333a 59a9 293d 14c8 4b3c ddf8 083d
00000070: 7fb4 a83d 0347 8b3d 03c7 913d b9ad 83bc
00000080: f948 673e c7c5 c93d 444e 3b3e 46ac 103e
00000090: 0479 023e 2619 e73d 4839 193e 0413 473e
000000a0: ba75 f93d 3bee e53c d70c 5e3e f30c 233d
000000b0: 9b57 e13d 06da af3d 562a 2b3d ec46 3e3e
000000c0: 1fc6 883e 4945 3d3e 8553 b1bc 088f c83e
000000d0: 6550 723a 4735 a73b 838a 953d bf01 853e
000000e0: ff14 a13e 4ab6 7f3c 1721 533c 967b 6abd
000000f0: 8604 863d 7e9d d13d 4ce7 3eba 96cb 6e3d
00000100: ded7 cd3d 02f0 583c ac47 e93d 818d 9f3d
00000110: 573f 873d a157 c73d 6f6d bcbc ad68 c1ba
00000120: 15ac 7ebd 27b9 ea3b 6a39 223c 2f91 713e
00000130: 3250 5b3e 3d07 493d 98d3 fc3c ff06 913e
00000140: 41ef dc3c 487f 593d 66ed 933a 237e 8037
00000150: 3145 8d3d f3e2 313d 7d9c 163c c483 3a3d
00000160: f37b 7f3e e583 3d3c 7618 d23d e719 ca3e
00000170: 3690 223e ff42 883e 9277 0b3e 3ac2 8d3c
00000180: e213 413e f2d4 0a3d 4ea7 ca3c e312 283e
00000190: 305f e03d 953a c53d f6fa 6b3e 3294 ca3d
000001a0: acc6 6cbc ccec 02bd fe31 9f3e cfff 8fbc
000001b0: a2a3 b63d 3ec1 69bd dd46 793d b993 52bc
000001c0: 3855 0c3e b2f5 e03d 779f fe3d 3a99 f73d
000001d0: 77ef 833d 234b 073d 1ae1 453d 45de 283e
000001e0: 93fe 053d 7ac3 cc3d d702 2d3d 5dc3 293b
000001f0: 38bd 1c3e 2c17 24bc eeb2 753d b898 963d
00000200: dfd2 183d c21d 383e 418f a03e 116f ed3d
00000210: 2ee2 813d 78e0 8d3a dd49 8ebd 7fac 073d
00000220: 8d76 fe3d da83 9f3e c773 b53e df04 3c3e
00000230: e6be 033e 7693 8e3d 22f9 c93e 2dba 513d
00000240: 0889 4ebc 5916 95ba a3ce 0c3e feda 5d3d
00000250: 772c f73c 89ee 583e 52ac 303e f8df 923d
00000260: e742 3d3e 0e41 923d 9161 613e 9cf0 5b3d
00000270: 5bf0 7f3e e699 30ba f289 933c c146 1a3d
00000280: cc91 cf3e 3fb8 293d 39fd 3c3d 35f1 f73d
00000290: a0e9 cf3d c194 463d 094e 123e ed98 0a3e
000002a0: a23c 153d 50e0 18bc 0d3c f43d 453d 603b
000002b0: d24e 013e c653 0d3e c0fc 233e 3fb9 b33e
000002c0: 084d b43d 7554 703d 7ea7 5f3e 65af ae3d
000002d0: 3181 0dbe e5a4 b03d d0fe 433e 8923 803e
000002e0: 37f0 c03c 03fa 863e 3ed8 883d 7d14 10bd
000002f0: 1234 3b3e 01c7 2a3d 31c1 bc3c ebde b9bc
00000300: b3bd 2f3c ca35 733e cbe3 e83e c175 063e
00000310: 027c 463e 6b05 233e 960a c53d bc3f 153e
00000320: d903 193e ce24 193e 438d 85ba 8e5a 4dbd
00000330: cacb 653e 543d 973d 6c3a 853e 6f04 db3d
00000340: 4870 af3d 0b77 fc3d 7de7 0e3e c893 2b3e
00000350: f922 3139 e282 31bc 7774 cf3d 6b0a 083e
00000360: 6eb9 a2be 480f a5bd 7cfa 633d 664d 95bb
00000370: e899 db3d adc9 1d3d 5636 f03d 853f 423e
00000380: 701d da3b befa b63d d4b8 993c f7e5 453e
00000390: 5b73 263d c694 b73e b73e a33d 128c 9f3c
000003a0: 684c 8e3c 0e67 eb3c ac91 a2bd 7dda 503e
000003b0: f8aa 1d3d 5d5d 7e3e fae2 713d fe91 a33d
000003c0: 3366 7b3e f886 c7bc 4d52 703d 7604 943e
000003d0: 01db c13e b7c1 393e 00db 41bd 35fe bc3d
000003e0: 8028 573d b75b c539 288a 933d bd28 353e
000003f0: f400 a9bc d56b 983d e111 083e b3cc 673e

bn1.running_mean f4 [400]
2.3850782 1.1920902 1.1797497 1.0220789 4.561703 0.39282143 21.567036 4.3967505
3.1265426 1.1003284 0.65266293 3.0857484 0.61665297 4.5145245 5.259732 1.123873
4.973752 2.966719 0.25459236 0.933612 1.1422981 0.32306936 1.389851 2.9324546
6e-45 0.4973601 3.3012156 1.1583859 0.9740744 1.1133188 3.0674603 1.794095
3.1205657 4.504062 2.721938 2.6534603 0.71356654 0.29757276 0.3462224 1.1693394
0.9256787 1.0930521 0.24309532 0.3529024 0.34826759 0.7034404 2.312043 7.947656
22.233883 1.1503232 6.911723 1.4270685 4.5032077 4.0069036 2.0174544 5.375588
36.608356 7.361379 0.6769048 1.9175155 2.1486087 1.1790894 4.411639 7.309641
4.6552267 1.9372306 2.3987098 1.0622753 2.1322393 2.0748723 3.9088862 4.190527
3.5762382 0.3390491 0.08358879 0.43597466 0.9857768 6.5897646 1.1717373 7.3523993
3.2131693 2.4791093 4.1559315 6.37662 3.5295732 1.6833689 0.4614819 7.3750186
5.7709403 4.118799 4.5467944 1.4299899 3.8558683 2.7457511 22.075443 4.134201
4.8211355 0.52526414 0.25467968 5.151809 0.5500413 12.10326 1.0412166 6.397255
2.0890203 5.2111464 2.156409 2.4614708 2.736735 2.6373894 2.0591426 2.9691126
4.5046635 0.53028536 1.8555332 1.7979503 2.6041996 0.3134672 0.98451495 1.8124717
0.1567176 0.25024655 3.5922546 0.614091 0.6856365 4.1314554 3.851723 0.79890954
1.0983685 4.3801417 6.6139817 2.9632332 2.9590793 5.2991147 2.2507813 0.23939355
0.9926871 2.8358576 17.78613 2.4201107 0.62352186 3.6481757 8.38159 1.6294271
6.4395194 8.282653 2.9744327 11.244052 1.440361 1.3872663 1.6690758 3.197002
1.4675399 3.9526243 8.008064 2.7030685 5.4330044 18.582441 13.989901 1.937512
40.05521 0.7152063 0.85659266 2.8930852 26.312702 3.9032676 2.477031 5.0852504
1.5884882 1.0026755 0.30595708 6.8917675 3.6367362 1.8613498 0.92949843 4.219613
5.9229193 3.3607147 6.4594483 2.7069387 13.0362215 0.71926373 1.7750112 3.0693324
0.5722626 15.664389 1.641159 1.3957411 8.177853 1.3347758 0.59005284 9.267685
1.0797106 10.013569 4.2040205 5.5568995 3.6625125 4.1300187 1.0879976 0.4985701
1.5699207 2.613636 1.332281 6.29667 1.3210158 1.722808 2.9956832 9.624457
4.080997 3.3033473 0.8898738 1.2916986 10.003611 9.492475 1.0368398 0.6483981
15.783726 3.3698082 2.8005047 1.2266246 1.1428785 4.715184 12.840631 3.0978274
4.6617436 1.6902579 8.961145 9.766354 3.2477648 2.1661077 1.268435 2.4820516
2.295238 0.41694966 17.660019 1.7361705 0.2672326 2.6253173 3.6740136 0.19826818
5.45387 12.929801 4.5778584 2.1626184 9.979194 0.26836932 0.77818334 0.34878585
1.3190303 10.624618 2.9207556 2.130386 8.713601 2.3115675 1.1557498 6.336709
00000000: 1fa5 1840 6996 983f 0a02 973f 7bd3 823f
00000010: 79f9 9140 e41f c93e 4a89 ac41 2eb2 8c40
00000020: 4619 4840 90d7 8c3f eb14 273f e77c 4540
00000030: f8dc 1d3f fc76 9040 b94f a840 12db 8f3f
00000040: fa28 9f40 b9de 3d40 ee59 823e 3201 6f3f
00000050: d336 923f 5969 a53e a3e6 b13f 56ad 3b40
00000060: 0400 0000 fca5 fe3e 1e47 5340 fd45 943f
00000070: f15c 793f 3b81 8e3f 4551 4440 e8a4 e53f
00000080: 59b7 4740 4721 9040 3b34 2e40 4bd2 2940
00000090: 4cac 363f 755b 983e 1044 b13e eaac 953f
000000a0: 47f9 6c3f 22e9 8b3f fbed 783e a0af b43e
000000b0: 2150 b23e ac14 343f 83f8 1340 3353 fe40
000000c0: fede b141 ca3d 933f d62c dd40 2eaa b63f
000000d0: 471a 9040 8e38 8040 f91d 0140 d104 ac40
000000e0: f56e 1242 6b90 eb40 a249 2d3f 2671 f53f
000000f0: ce82 0940 67ec 963f 262c 8d40 94e8 e940
00000100: 9ef7 9440 2cf7 f73f 7684 1940 a3f8 873f
00000110: 9c76 0840 b5ca 0440 312b 7a40 cc18 8640
00000120: 16e1 6440 d897 ad3e 9930 ab3d 1238 df3e
00000130: de5b 7c3f 5adf d240 7dfb 953f db46 eb40
00000140: 91a4 4d40 baa9 1e40 64fd 8440 450d cc40
00000150: 87e4 6140 a278 d73f 5b47 ec3e 2700 ec40
00000160: 8bab b840 34cd 8340 577f 9140 e909 b73f
00000170: 8cc6 7640 63ba 2f40 829a b041 604b 8440
00000180: be46 9a40 b677 063f 6065 823e 9fdb a440
00000190: 82cf 0c3f f4a6 4141 9646 853f 50b6 cc40
000001a0: 82b2 0540 b6c1 a640 9b02 0a40 bd88 1d40
000001b0: ab26 2f40 fdca 2840 fec8 0340 f105 3e40
000001c0: 3426 9040 c8c0 073f 1d82 ed3f 3c23 e63f
000001d0: 35ab 2640 c67e a03e 2c09 7c3f 13ff e73f
000001e0: 947a 203e 5120 803e 80e7 6540 1135 1d3f
000001f0: e085 2f3f e234 8440 a182 7640 5685 4c3f
00000200: 5797 8c3f 1f2a 8c40 bda5 d340 9da5 3d40
00000210: 8e61 3d40 5992 a940 cd0c 1040 9523 753e
00000220: be20 7e3f b17e 3540 ff49 8e41 18e3 1a40
00000230: 219f 1f3f b67b 6940 fe1a 0641 1191 d03f
00000240: 8b10 ce40 bf85 0441 1b5d 3e40 a3e7 3341
00000250: c05d b83f f191 b13f 47a4 d53f ae9b 4c40
00000260: 59d8 bb3f ccf7 7c40 0821 0041 13ff 2c40
00000270: 2cdb ad40 d7a8 9441 a2d6 5f41 6500 f83f
00000280: 8938 2042 c317 373f a849 5b3f 4f28 3940
00000290: 6a80 d241 23cf 7940 ad87 1e40 5fba a240
000002a0: 9553 cb3f ac57 803f 68a6 9c3e 5c89 dc40
000002b0: 49c0 6840 b640 ee3f 9cf3 6d3f 1207 8740
000002c0: 8e88 bd40 f315 5740 cdb3 ce40 7c3e 2d40
000002d0: 5d94 5041 ab21 383f 9133 e33f f16f 4440
000002e0: cd7f 123f 56a1 7a41 8011 d23f a5a7 b23f
000002f0: 7cd8 0241 efd9 aa3f b40d 173f 7048 1441
00000300: f533 8a3f 9437 2041 5687 8640 1fd2 b140
00000310: 9b66 6a40 1d29 8440 8143 8b3f 9544 ff3e
00000320: 29f3 c83f d045 2740 2f88 aa3f 527e c940
00000330: 0c17 a93f f984 dc3f 46b9 3f40 c7fd 1941
00000340: 8797 8240 0b6a 5340 c5ce 633f 6156 a53f
00000350: ca0e 2041 2de1 1741 2bb7 843f 6bfd 253f
00000360: 248a 7c41 f0aa 5740 783b 3340 0902 9d3f
00000370: d849 923f cae2 9640 3973 4d41 ce42 4640
00000380: 012d 9540 5f5a d83f da60 0f41 fc42 1c41
00000390: 61db 4f40 82a1 0a40 145c a23f efd9 1e40
000003a0: 2ee5 1240 6d7a d53e b847 8d41 d63a de3f
000003b0: b6d2 883e 3305 2840 0a23 6b40 d006 4b3e
000003c0: 1a86 ae40 77e0 4e41 d17d 9240 5768 0a40
000003d0: c7aa 1f41 b467 893e 0637 473f 0f94 b23e
000003e0: fcd5 a83f 6ffe 2941 a9ed 3a40 3f58 0840
000003f0: e96a 0b41 b9f0 1340 9cef 933f 52c6 ca40
