checkpoint_actor_local_0_5808.pth (torch, 533842 bytes, 10 tensors)

fc1.weight f4 [400, 24]
0.042513322 -0.07275244 0.0031697801 0.028582858 0.04266682 -0.05326939 -0.0026198411 0.04146057
0.033651467 -0.08606941 -0.0016633332 0.0043828804 0.034625813 -0.1068298 0.009072123 0.010666029
0.08678306 -0.038104918 0.0045717303 0.010851859 0.099281825 -0.09784596 -0.004067736 0.061513584
-0.036343277 0.011700252 0.00590951 -0.03852507 -0.08753675 -0.088086285 0.039849013 0.030714123
0.011130259 0.007335941 0.02674143 0.044198785 -0.040591035 -0.045411516 -0.027448254 -0.025145613
0.059674125 -0.014740354 0.0068737078 0.018124701 0.03128564 -0.027177481 0.08016565 0.0035666376
0.0069572898 -0.038918756 -0.040773597 -0.049312674 -0.11355227 0.0076450664 0.031223053 -0.011404131
0.061191674 -0.06871139 -0.0044413283 0.0042536976 -0.08272404 0.0242943 -0.00380088 0.0141235655
0.023852091 -0.07146049 0.0114410175 -0.06440944 -0.10948164 0.06619581 -0.005182329 -0.030389976
0.027595064 -0.043020234 0.019662851 0.01019606 -0.06850264 -0.09781147 -0.019434256 -0.03963115
0.032752756 -0.0073461686 -0.018803403 -0.017468788 -0.08259743 -0.08615273 0.0048918324 0.0031050558
0.045050707 -0.02875555 0.041184727 0.010040739 -0.012048331 0.073994294 -0.031632893 0.009913678
-0.044860143 -0.05289365 -0.02636841 -0.13334754 -0.007137387 -0.028427674 -0.043897964 -0.12197639
-0.0025230173 -0.057652794 -0.020441746 -0.012117614 0.029732436 0.0053081294 0.036461357 -0.08618038
-0.014202703 -0.044741858 0.025547978 -0.014339367 -0.042123236 0.04459644 0.013601852 -0.01261279
0.03327388 0.02178042 -0.023213113 0.050119206 -0.0245284 -0.017941156 -0.006178941 0.043297265
0.024186874 -0.01234228 -0.018783528 -0.027433492 0.014017755 -0.112550676 0.014123094 0.04751224
0.026855495 0.0018258957 0.010422407 0.03838399 0.05669545 -0.16558766 -0.004099594 -0.019941121
0.0077673257 0.09346905 0.0051940195 -0.0313724 -0.030798633 0.018773276 -0.007570521 -0.029708823
0.05665595 0.04227119 0.005864588 -0.048895415 -0.022487545 -0.06343912 -0.017199857 0.004451776
0.14966373 0.09967558 -0.005142405 0.023271948 -0.057995882 -5.270213e-05 -0.0131914355 -0.022873653
-0.029253552 -0.021346672 0.045407917 0.00989903 0.05790478 -0.1691086 -0.023666475 0.041037723
-0.020495148 0.013858362 -0.02050473 0.018787123 0.029714564 -0.15622632 0.006402259 0.029890899
-0.009510435 -0.054832272 -0.027185444 0.030421317 0.058279037 -0.062864974 0.007956677 0.043253608
0.000128781 0.065390386 0.010337234 -0.061149072 -0.019603627 0.08820522 0.0024638593 -0.070623286
-0.017272687 0.03525137 0.038836747 -0.008168856 -0.043132488 0.1701996 -0.03209051 0.019507501
-0.03479756 -0.059549257 0.027413316 -0.03767452 0.028342366 0.17341578 -0.023401488 0.0062160734
0.003643552 -0.03765136 -0.01623742 0.041054457 -0.061222322 0.0071131163 0.0018752102 -0.03641586
0.0038983156 -0.07224664 -0.014721941 -0.032137558 -0.052901216 0.0065606297 -0.044847667 0.015889779
0.030577704 -0.013980736 0.009492938 0.015314984 -0.13343963 0.108000554 0.031542134 0.009470921
-0.023485538 0.049767442 0.022467025 0.07066052 0.059675463 -0.09148179 -0.04481356 0.085209236
0.015697818 0.041921455 -0.017965639 -0.028911736 0.011022434 -0.06801252 -0.0024543745 0.035247464
00000000: 7322 2e3d 3bff 94bd 16bc 4f3b 9926 ea3c
00000010: 67c3 2e3d 0131 5abd a4b1 2bbb 8fd2 293d
00000020: 1fd6 093d 2945 b0bd 3304 daba 449e 8f3b
00000030: ccd3 0d3d 95c9 dabd 3ea3 143c 91c0 2e3c
00000040: 51bb b13d e713 1cbd 74ce 953b ffcb 313c
00000050: 4554 cb3d 7663 c8bd a54a 85bb abf5 7b3d
00000060: b0dc 14bd 6ab2 3f3c 90a4 c13b 77cc 1dbd
00000070: 7846 b3bd 9566 b4bd b838 233d 2f9c fb3c
00000080: b15b 363c 5562 f03b d810 db3c c909 353d
00000090: c942 26bd 6d01 3abd 29db e0bc 2cfe cdbc
000000a0: db6c 743d 8781 71bc d73c e13b 417a 943c
000000b0: 5f25 003d 4fa3 debc e32d a43d 40be 693b
000000c0: faf9 e33b 4669 1fbd 3702 27bd 16fc 49bd
000000d0: 188e e8bd 7783 fa3b 7dc7 ff3c 64d8 3abc
000000e0: 1fa4 7a3d 8fb8 8cbd 9088 91bb 9a62 8b3b
000000f0: 396b a9bd d704 c73c 2f18 79bb 8766 673c
00000100: 7665 c33c e159 92bd 1b73 3b3c 19e9 83bd
00000110: e937 e0bd ab91 873d 87d0 a9bb 66f4 f8bc
00000120: 0b0f e23c fc35 30bd fd13 a13c 600d 273c
00000130: 1d4b 8cbd 6151 c8bd 9734 9fbc 4654 22bd
00000140: c127 063d 21b8 f0bb 9809 9abc b41a 8fbc
00000150: d728 a9bd d870 b0bd aa4b a03b 317e 4b3b
00000160: 1787 383d c290 ebbc 51b1 283d e981 243c
00000170: 5d66 45bc 528a 973d 7e91 01bd fb6c 223c
00000180: 45bf 37bd 03a7 58bd 9002 d8bc 428c 08be
00000190: bee0 e9bb 27e1 e8bc 5ace 33bd c2ce f9bd
000001a0: 3559 25bb 5625 6cbd 7375 a7bc f588 46bc
000001b0: 7091 f33c d1ef ad3b 8158 153d 577f b0bd
000001c0: 74b2 68bc 3d43 37bd fe49 d13c aaef 6abc
000001d0: 6a89 2cbd c2aa 363d 4dda 5e3c e0a5 4ebc
000001e0: 314a 083d da6c b23c 6d29 bebc cc49 4d3d
000001f0: c8ef c8bc 55f9 92bc b778 cabb 7958 313d
00000200: 8d23 c63c 4637 4abc eadf 99bc 34bc e0bc
00000210: baaa 653c f880 e6bd 8d64 673c 329c 423d
00000220: 0e00 dc3c e552 ef3a bec2 2a3c 8838 1d3d
00000230: 7d39 683d d08f 29be e355 86bb 905b a3bc
00000240: 0d85 fe3b b46c bf3d 9832 aa3b 5880 00bd
00000250: 6a4d fcbc 6aca 993c 2212 f8bb eb5f f3bc
00000260: 1210 683d 8e24 2d3d bb2b c03b 8f46 48bd
00000270: cd37 b8bc 5fec 81bd b7e6 8cbc 34e0 913b
00000280: 7341 193e b622 cc3d 9f81 a8bb d0a4 be3c
00000290: 178d 6dbd 7b0c 5db8 e420 58bc 8761 bbbc
000002a0: 25a5 efbc 37df aebc a7fd 393d 8b2f 223c
000002b0: 902d 6d3d ce2a 2dbe 32e0 c1bc 2c17 283d
000002c0: 71e5 a7bc 2f0e 633c 89f9 a7bc 74e7 993c
000002d0: f56b f33c cbf9 1fbe 0bca d13b c2dd f43c
000002e0: a8d1 1bbc ce97 60bd 02b4 debc 2036 f93c
000002f0: 00b6 6e3d 5abf 80bd b95c 023c b22a 313d
00000300: 6309 0739 65eb 853d 805d 293c 7377 7abd
00000310: c997 a0bc f0a4 b43d b378 213b f1a2 90bd
00000320: 737f 8dbc be63 103d 4813 1f3d aad6 05bc
00000330: b1ab 30bd ce48 2e3e 5771 03bd 32ce 9f3c
00000340: e387 0ebd ece9 73bd e491 e03c 9950 1abd
00000350: 402e e83c e893 313e 7ab4 bfbc 34b0 cb3b
00000360: a9c8 6e3b 5038 1abd 5604 85bc b828 283d
00000370: 42c4 7abd 2515 e93b 9dc9 f53a cc28 15bd
00000380: e27a 7f3b 0cf6 93bd 4c34 71bc aca2 03bd
00000390: f2ae 58bd 8dfa d63b 30b2 37bd 482b 823c
000003a0: 187e fa3c 750f 65bc 4588 1b3c b3eb 7a3c
000003b0: 66a4 08be 652f dd3d 5332 013d ec2b 1b3c
000003c0: be64 c0bc f2d8 4b3d c40c b83c 76b6 903d
000003d0: 426e 743d ce5a bbbd 6c8e 37bd 2e82 ae3d
000003e0: b698 803c d5b5 2b3d ad2c 93bc 4ed8 ecbc
000003f0: 7097 343c 264a 8bbd 92d9 20bb a55f 103d

fc1.bias f4 [400]
-0.08984623 -0.075017884 0.0012754505 -0.07240447 0.10984783 -0.18942513 -0.2328529 0.16267343
0.12766254 -0.016189082 0.11216221 0.008609104 -0.19894405 0.033331517 -0.086611874 -0.17124602
-0.1988986 -0.060848095 -0.07772086 -0.18529677 -0.16325757 -0.17686886 -0.18884939 0.1451174
-0.20157605 -0.16429001 -0.26862425 -0.113755025 -0.21282421 -0.123247385 0.15919815 -0.2624542
0.05010129 -0.07453423 -0.045955777 0.050157413 0.0346145 0.088174075 -0.003735478 -0.034407414
-0.24730848 0.06731588 -0.028503804 -0.16286251 -0.12524119 -0.19194856 0.09791683 -0.073501736
0.051575806 0.04584389 -0.14754766 0.04333214 0.0050530904 0.054103866 -0.13708991 -0.122796364
0.10958533 -0.11786643 0.018958218 -0.18847735 0.017967556 0.029412184 0.11503298 -0.08598847
0.114238955 -0.115994886 0.07472663 0.17730875 0.09659978 -0.20099205 -0.2513901 -0.08335363
-0.17367052 0.08018507 0.023081882 -0.2433408 0.13310973 0.02693184 0.07804235 -0.14703007
-0.024083545 -0.15340176 0.2000118 -0.20204717 -0.018080734 -0.00043276604 -0.0011301856 0.058464915
-0.10153161 -0.19422917 -0.042872407 -0.09233832 0.13262838 -0.055194847 -0.09403043 0.028054891
0.14360519 -0.23517424 -0.06904461 -0.067473136 -0.06630183 0.09117122 -0.17752497 -0.15743327
-0.2070039 -0.03194772 -0.050858766 -0.18432097 -0.046554632 -0.12448162 0.051693037 -0.14893168
-0.21212076 -0.20535804 0.008907732 0.03868956 0.14230813 -0.13607828 -0.04684455 -0.14657506
-0.037886404 -0.15186432 -0.037549045 0.14477305 -0.29521373 0.024055878 -0.05103373 -0.1345736
0.09895967 -0.101035215 -0.28434372 -0.21148802 -0.19550413 0.12569006 -0.19854814 -0.13629045
0.03835163 -0.17854589 -0.037940215 0.16067737 -0.101909 -0.07896303 -0.09743905 0.120192036
-0.18445444 -0.016612276 0.05815674 0.07017881 -0.015442196 -0.017725796 -0.12295617 -0.14758432
-0.027940419 0.08939178 -0.12448355 -0.046094693 -0.044003803 -0.009951861 0.055514257 -0.014848501
-0.016915582 -0.1719621 -0.25040317 -0.16074833 0.19222383 0.03889894 -0.065800264 -0.149863
-0.05449526 -0.15706554 -0.0278377 0.11853831 -0.178444 0.014600506 0.12594484 -0.013763366
0.06420525 -0.14740658 0.10616791 -0.14426322 0.078978635 -0.14664525 0.0870788 -0.15251346
-0.09991118 0.10802656 -0.04361845 0.0994848 -0.20739552 -0.015529488 -0.1447047 0.027808432
0.14977656 -0.21700057 -0.016968902 0.12089367 0.06182209 -0.06919176 -0.10482671 0.05264965
0.16408667 0.2664058 -0.05836765 0.024584664 0.067598745 -0.054328114 -0.075984046 0.11988285
0.0971658 0.17758058 -0.18512993 0.064192206 -0.03523664 -0.14635152 0.019498829 0.11647432
0.17241606 0.076604605 -0.112869345 -0.113158844 0.022811754 0.050495643 -0.11243278 -0.029133767
0.0041374806 0.17154016 -0.19993722 -0.29937735 0.08422325 -0.3285333 0.10061798 -0.07846075
0.11560963 0.09864857 -0.06924145 -0.1310146 -0.08989867 0.03015175 0.0022830355 -0.09134947
-0.13314417 0.0901694 0.08681111 -0.10988122 0.10145705 0.019337365 -0.11594603 0.06489377
-0.019477013 -0.0464226 -0.035838895 -0.09259263 0.106068075 -0.16806719 -0.10701384 -0.16689517
00000000: 4d01 b8bd faa2 99bd 042d a73a cb48 94bd
00000010: e6f7 e03d a9f8 41be fe70 6ebe dd93 263e
00000020: f8b9 023e f79e 84bc 4db5 e53d 330d 0d3c
00000030: fdb7 4bbe a186 083d 9161 b1bd 1e5b 2fbe
00000040: 13ac 4bbe da3b 79bd 1d2c 9fbd 70be 3dbe
00000050: fe2c 27be 1c1d 35be bc61 41be a899 143e
00000060: f469 4ebe a43b 28be 1e89 89be 65f8 e8bd
00000070: 97ee 59be 2069 fcbd d704 233e 6660 86be
00000080: 0337 4d3d 67a5 98bd 203c 3cbd dc71 4d3d
00000090: efc7 0d3d 9c94 b43d ecce 74bb caee 0cbd
000000a0: 6f3e 7dbe e8dc 893d cf80 e9bc 6ec5 26be
000000b0: 3a3f 00be 2a8e 44be 9e88 c83d 1488 96bd
000000c0: 2741 533d cec6 3b3d bc16 17be 0b7d 313d
000000d0: 6594 a53b 049c 5d3d 4c61 0cbe a97c fbbd
000000e0: 466e e03d f463 f1bd 444e 9b3c 3500 41be
000000f0: b230 933c d2f1 f03c 6996 eb3d b91a b0bd
00000100: 1df6 e93d ba8e edbd 460a 993d 6d90 353e
00000110: 1bd6 c53d dcd0 4dbe 34b6 80be 4fb5 aabd
00000120: afd6 31be 1238 a43d 3716 bd3c 552e 79be
00000130: eb4d 083e 2aa0 dc3c abd4 9f3d 0d8f 16be
00000140: db4a c5bc 5a15 1dbe e5cf 4c3e 74e5 4ebe
00000150: 0c1e 94bc e0e4 e2b9 bc22 94ba e878 6f3d
00000160: ceef cfbd 03e4 46be fa9a 2fbd e01b bdbd
00000170: bccf 073e fe13 62bd 0793 c0bd 5fd3 e53c
00000180: 3d0d 133e 84d1 70be 4367 8dbd 5b2f 8abd
00000190: 41c9 87bd fab7 ba3d 1bc9 35be 3036 21be
000001a0: d5f8 53be 9ddb 02bd 4851 50bd a3be 3cbe
000001b0: 12b0 3ebd 38f0 febd 14bc 533d 8c81 18be
000001c0: 2f36 59be 6149 52be bcf1 113c f278 1e3d
000001d0: 39b9 113e 1b58 0bbe 12e0 3fbd c617 16be
000001e0: c62e 1bbd 5282 1bbe 07cd 19bd 633f 143e
000001f0: 4126 97be d510 c53c bf08 51bd a9cd 09be
00000200: 5eab ca3d 8deb cebd 8095 91be 5190 58be
00000210: 3c32 48be e5b4 003e 3450 4bbe b98f 0bbe
00000220: 9916 1d3d bcd4 36be 3367 1bbd 9c88 243e
00000230: aab5 d0bd 5eb7 a1bd 208e c7bd 3e27 f63d
00000240: a0e1 3cbe 7816 88bc c335 6e3d e8b9 8f3d
00000250: 4401 7dbc b035 91bc 72d0 fbbd 5820 17be
00000260: 4ee3 e4bc 0a13 b73d 3bf1 febd cacd 3cbd
00000270: 553d 34bd 210d 23bc eb62 633d 2147 73bc
00000280: 8c92 8abc d516 30be d834 80be 369b 24be
00000290: 53d6 443e 7f54 1f3d 4ac2 86bd b075 19be
000002a0: 6c36 5fbd cad5 20be e30b e4bc 37c4 f23d
000002b0: 06ba 36be f636 6f3c aff7 003e be7f 61bc
000002c0: 0b7e 833d c0f1 16be 906e d93d bdb9 13be
000002d0: 8dbf a13d 2c2a 16be 5f56 b23d 7d2c 1cbe
000002e0: 3c9e ccbd 073d dd3d 43a9 32bd b0be cb3d
000002f0: 7e5f 54be 656f 7ebc 782d 14be 82ce e33c
00000300: 075f 193e 6635 5ebe 5e02 8bbc 1a97 f73d
00000310: 2939 7d3d 69b4 8dbd 63af d6bd 29a7 573d
00000320: 5606 283e 5766 883e eb12 6fbd c765 c93c
00000330: 3671 8a3d 2887 5ebd 869d 9bbd 2485 f53d
00000340: ddfe c63d afd7 353e b392 3dbe 3477 833d
00000350: 4c54 10bd 2cdd 15be 02bc 9f3c 178a ee3d
00000360: d68d 303e e0e2 9c3d 0b28 e7bd d3bf e7bd
00000370: b7df ba3c 85d4 4e3d 2843 e6bd f0a9 eebc
00000380: b493 873b 39a8 2f3e 58bc 4cbe fd47 99be
00000390: 3d7d ac3d 8435 a8be cd10 ce3d 08b0 a0bd
000003a0: bec4 ec3d 4308 ca3d 76ce 8dbd b128 06be
000003b0: cb1c b8bd ce00 f73c fb9e 153b 6e15 bbbd
000003c0: f256 08be bcaa b83d 06ca b13d 6809 e1bd
000003d0: b7c8 cf3d 6569 9e3c 1d75 edbd 06e7 843d
000003e0: 428e 9fbc a025 3ebd cecb 12bd 34a1 bdbd
000003f0: 383a d93d ce19 2cbe 122a dbbd 91e6 2abe

fc2.weight f4 [300, 400]
-0.028334022 0.022999685 0.010640417 -0.07573597 0.026480539 0.009278623 0.051946394 -0.03686278
0.024642304 -0.0014482072 -0.06169734 -0.0029341793 -0.02747599 -0.031181874 0.03854417 -0.02385439
0.030543417 0.00027747714 0.0037071768 -0.062141974 0.0039734375 0.030972011 -0.05462935 -0.018618714
-0.022828754 0.010613812 0.10163417 0.0011682983 0.031137154 0.03867288 -0.112060994 -0.016823102
-0.009651442 0.046924 0.07504453 0.054145113 0.007365433 -0.08753208 0.094180435 -0.010144351
-0.05432439 0.040651858 0.0026890177 0.06350494 0.0010635463 -0.04061 -0.041496757 -0.10025364
-0.06557542 -0.057245277 -0.004594476 0.015406452 0.018056553 -0.021026865 -0.011143425 0.04963793
0.048931908 -0.03405661 0.06981888 0.049863324 -9.181819e-05 -0.041050244 0.011110832 0.009599056
0.059595287 0.049672786 -0.02329017 0.019520916 0.05645735 0.049923643 -0.0462092 -0.05794987
0.041756645 0.06293658 -0.048673693 0.08698194 0.089053385 0.12326833 -0.06290278 0.065792486
0.07067434 0.00019355427 -0.021476142 -0.07295803 -0.017826417 0.068845294 -0.059550695 0.08683363
0.066633485 -0.088531524 0.01898412 -0.0069152084 -0.10895909 0.071198255 0.07418091 -0.047351338
0.056092594 0.061151333 0.0053473203 -0.09974169 0.020889988 0.035756953 -0.092855096 -0.10359026
-0.10266251 -0.08718318 -0.039274566 0.021885594 -0.01852017 0.017287431 0.060177952 0.07044249
0.020125665 0.07064562 0.04326995 -0.073691584 -0.04937014 0.0013393121 -0.06274499 -0.10295091
-0.051532574 0.04548357 0.032722272 -0.00877684 0.043261033 0.05969948 -0.033470146 -0.07191635
-0.045710742 -0.05256584 -0.012642931 -0.035662115 0.041391224 -0.032108303 0.027541343 0.008511248
0.043875948 0.041635267 -0.037635364 -0.047146406 -0.005438092 -0.0046242718 0.0027568075 -0.07232635
-0.034257732 -0.008079042 0.043062124 -0.10581729 -0.17637871 -0.04394424 0.015141506 -0.0068472233
-0.11046908 0.015672546 -0.091940895 0.06411281 0.07633511 0.01336112 0.009719273 0.002652219
-0.0051816734 -0.016023763 0.012945969 -0.023296526 -0.023735665 0.08191662 -0.04210521 0.08513753
-0.12158728 0.024181996 -0.05929106 0.030264277 0.06973869 -0.041664448 0.051770993 0.07170531
0.0073099826 0.019968765 -0.027235322 0.006814571 0.024027731 0.008903587 0.017127533 -0.044062097
-0.003028799 0.0030939814 -0.041037675 0.053346597 0.04779475 0.0132724885 0.10242084 0.053209398
0.043228656 -0.03435005 0.043276932 0.0055869515 0.033966012 -0.01846072 -0.033386003 -0.09483439
0.026910774 0.05444712 0.03991073 0.009209232 0.04518757 -0.09777903 -0.04166745 0.076669164
-0.011543021 0.013165507 0.04710907 0.0073255464 0.031417783 -0.1373492 -0.009481348 0.0034493473
0.003474099 0.03874924 -0.037924197 0.07025963 0.24118179 -0.06777004 -0.02490402 -0.01049243
-0.12017786 -0.021412104 -0.12377155 -0.036978938 -0.0058190543 -0.0032595638 0.031106977 -0.002320679
-0.028745089 -0.09880062 0.011928051 -0.033575386 0.038803574 -0.14050196 -0.03716232 0.06744799
-0.027226862 -0.044709068 2.241713e-05 -0.0559709 0.037959628 -0.053310577 -0.06996419 0.002504101
0.050308492 0.043287285 0.037559092 0.064156026 -0.04802337 0.021142647 0.06360797 -0.045718316
00000000: c01c e8bc d669 bc3c 2555 2e3c 761b 9bbd
00000010: b7ed d83c 5e05 183c bec5 543d 6dfd 16bd
00000020: a8de c93c c5d1 bdba 5ab6 7cbd 5c4b 40bb
00000030: 5415 e1bc 2171 ffbc 7ee0 1d3d 486a c3bc
00000040: 3036 fa3c 5a7a 9139 1bf4 723b 9588 7ebd
00000050: 9c33 823b 04b9 fd3c 06c3 5fbd 4686 98bc
00000060: 5e03 bbbc 8ee5 2d3c 9325 d03d 9621 993a
00000070: 5813 ff3c 7467 1e3d 3c80 e5bd 9ad0 89bc
00000080: 1521 1ebc 6133 403d f2b0 993d 44c7 5d3d
00000090: bb59 f13b 0544 b3bd ace1 c03d 7e34 26bc
000000a0: 4083 5ebd 9082 263d 3b3a 303b e10e 823d
000000b0: b166 8b3a ac56 26bd 81f8 29bd c851 cdbd
000000c0: 684c 86bd 067a 6abd 428d 96bb 586b 7c3c
000000d0: 56eb 933c 8840 acbc e992 36bc 2451 4b3d
000000e0: d36c 483d f27e 0bbd 33fd 8e3d 7c3d 4c3d
000000f0: 848e c0b8 4d24 28bd 350a 363c 5c45 1d3c
00000100: 301a 743d b175 4b3d 07cb bebc 54ea 9f3c
00000110: d23f 673d bc7c 4c3d dc45 3dbd d85c 6dbd
00000120: 0409 2b3d e5e4 803d 115e 47bd 9623 b23d
00000130: 9f61 b63d 1b74 fc3d 2cd3 80bd 36be 863d
00000140: b5bd 903d d4f4 4a39 bcee afbc 056b 95bd
00000150: b508 92bc c3fe 8c3d 6eeb 73bd d5d5 b13d
00000160: 2377 883d 0450 b5bd 9684 9b3c f998 e2bb
00000170: f225 dfbd 64d0 913d 29ec 973d 7af3 41bd
00000180: 59c1 653d d279 7a3d 9338 af3b 5f45 ccbd
00000190: 7b21 ab3c e275 123d d02a bebd 2127 d4bd
000001a0: b940 d2bd 188d b2bd 5ede 20bd 6b49 b33c
000001b0: 9db7 97bc 5f9e 8d3c 287d 763d 2744 903d
000001c0: 94de a43c a7ae 903d d53b 313d 9deb 96bd
000001d0: 5838 4abd db8b af3a 7280 80bd edd7 d2bd
000001e0: d213 53bd fb4c 3a3d ca07 063d bccc 0fbc
000001f0: 7b32 313d 7187 743d fe17 09bd e148 93bd
00000200: 303b 3bbd 474f 57bd 4c24 4fbc 7012 12bd
00000210: d889 293d ff83 03bd 629e e13c c372 0b3c
00000220: 44b7 333d be89 2a3d 8a27 1abd 971c 41bd
00000230: 0632 b2bb 3487 97bb 8eab 343b d61f 94bd
00000240: d651 0cbd f55d 04bc e961 303d bcb6 d8bd
00000250: 9f9c 34be e0fe 33bd 1414 783c ac5e e0bb
00000260: 9d3d e2bd b663 803c 824b bcbd 944d 833d
00000270: 9555 9c3d 99e8 5a3c 963d 1f3c dad0 2d3b
00000280: 07cb a9bb 4444 83bc 541b 543c 5bd8 bebc
00000290: 4c71 c2bc e7c3 a73d 8376 2cbd 965c ae3d
000002a0: c002 f9bd 5219 c63c 2fdb 72bd caec f73c
000002b0: 29d3 8e3d 57a8 2abd d20d 543d 3cda 923d
000002c0: 9488 ef3b 8995 a33c 9c1c dfbc c44c df3b
000002d0: ced5 c43c 5ae0 113c 0a4f 8c3c 757a 34bd
000002e0: d17e 46bb 65c4 4a3b 1f17 28bd f681 5a3d
000002f0: 6ec4 433d da74 593c 04c2 d13d 19f2 593d
00000300: 8810 313d a3b2 0cbd 2743 313d bf12 b73b
00000310: f21f 0b3d f03a 97bc c3bf 08bd 8838 c2bd
00000320: fc73 dc3c f103 5f3d 6f79 233d 52e2 163c
00000330: 9a16 393d 5f40 c8bd 7dab 2abd b904 9d3d
00000340: f01e 3dbc 24b4 573c 71f5 403d 230b f03b
00000350: efaf 003d 45a5 0cbe a857 1bbc 720e 623b
00000360: b6ad 633b 86b7 1e3d 6756 1bbd 48e4 8f3d
00000370: 5cf8 763e 05cb 8abd 8403 ccbc 71e8 2bbc
00000380: cf1f f6bd 7068 afbc f07b fdbd 3a77 17bd
00000390: c4ad bebb 689e 55bb 0fd4 fe3c 8816 18bb
000003a0: d27a ebbc fb57 cabd df6d 433c 5886 09bd
000003b0: 7ff0 1e3d bfdf 0fbe 8437 18bd 2c22 8a3d
000003c0: de0a dfbc db20 37bd 6c0c bc37 be41 65bd
000003d0: 8e7b 1b3d 315c 5abd 6349 8fbd d81b 243b
000003e0: 4710 4e3d 024e 313d 90d7 193d 3c64 833d
000003f0: 27b4 44bd 5833 ad3c e544 823d 2143 3bbd

fc2.bias f4 [300]
-0.018064562 0.112753645 0.030081624 0.03609735 0.0047705113 0.079410285 0.058541976 -0.061665338
0.031668473 0.05168742 0.051683675 -0.030864514 0.08568551 0.037648275 -0.034702606 0.047796246
0.01286099 0.06785401 0.092420965 0.08452593 0.029476406 -0.029420342 0.057820063 0.04052215
0.062806435 0.0773744 0.019446924 0.01825313 0.06719182 -0.022837004 0.09328573 0.008341139
0.028956218 0.0073737022 0.055407684 -0.048867527 0.061706036 0.0988183 0.07273046 0.070170864
-0.03068284 0.0609954 0.022463478 -0.005272778 0.0020133662 0.05562087 0.01927669 0.019382063
-0.0033937758 0.09867361 -0.09292 0.09724495 0.05476974 -0.019358046 0.07513935 0.03653499
0.0015758773 0.06581801 0.078418806 0.11427856 0.075526334 0.087353125 0.0063642235 0.006175643
0.02305749 0.038584005 0.029633544 -0.004647726 0.06743206 0.031563763 0.031444833 0.023399381
0.040774576 0.10264602 -0.04576762 -0.035153583 0.015580534 0.024150398 -0.006836409 0.01689736
-0.0073038335 0.121545814 -0.061080113 0.0390857 -0.036568087 0.055868316 -0.060270205 -0.003209936
0.03125388 -0.008626207 0.03740211 0.047492083 0.1514743 0.08590953 0.109971784 -0.009768149
-0.035570085 0.034935985 0.002978568 0.057840265 0.01990472 0.08984029 -0.0010206363 0.00942809
-0.002106648 -0.0065405103 0.021913093 -0.024657588 0.024716973 -0.0032753537 0.010195475 0.00024804374
0.012785511 -0.008838717 0.10127054 0.0108767515 0.022793038 0.016072338 0.017221397 0.026835013
-0.011462781 0.057572037 -0.021618955 0.08326583 0.063303486 0.058170117 0.045422688 0.028639458
0.05774255 -0.019590683 -0.033755504 0.06005746 0.078719564 -0.03747878 -0.02006981 0.04094481
-0.018102782 0.07166868 0.06737893 0.032562006 0.021961775 0.13036565 0.047968432 -0.028735358
0.06366283 0.08435775 0.040998917 0.1188327 0.07457487 0.09527127 0.03781109 0.095042296
0.12270207 0.0003171433 0.08565673 0.032470286 0.07850379 -0.025821723 -0.009984245 0.021305514
-0.012125339 0.064395376 0.0505789 0.063966334 -0.02808719 0.09618898 0.093320936 0.061109122
0.10116092 -0.004014348 0.07197906 -0.009636028 0.0912306 -0.0060471226 0.081849076 0.036020376
0.029150918 0.046480205 0.051695418 0.0068347445 -0.008751078 0.025170077 0.042293746 0.08653175
0.011782395 0.005213443 0.12197825 0.0037579052 0.041253686 0.01924314 0.07026151 -0.025290035
0.016314914 0.002087303 0.077572994 0.063007124 0.038039755 0.038362555 0.025407612 0.089427814
0.030264521 -0.008514251 0.011241215 -0.049106725 -0.00015669216 0.14005792 -0.0016241415 0.014760395
0.033252407 0.05170033 0.0096367765 0.007435519 -0.017535066 0.04391234 0.04589986 0.0395443
0.025583152 0.0040993285 0.07402941 0.015639625 0.03884571 0.07365167 0.077763535 -0.03181135
-0.0011884923 -0.016783096 0.05096487 0.027822169 0.014190863 0.05044489 0.0074355956 0.036844313
0.018024595 -0.0027950339 0.04253295 0.016960522 0.03143512 -0.016932387 0.0036378517 0.048128817
-0.02318311 -0.029947784 0.0020561977 0.04408739 -0.041769955 0.03465448 0.025139987 0.006425675
0.06800792 0.08303181 0.08108613 0.044108674 0.10683712 0.017131956 0.0059348657 0.054012097
00000000: 22fc 93bc 62eb e63d bd6d f63c d1da 133d
00000010: f351 9c3b dca1 a23d b6c9 6f3d cb94 7cbd
00000020: cdb6 013d 30b6 533d 43b2 533d 94d7 fcbc
00000030: e27b af3d 1435 1a3d 5224 0ebd ffc5 433d
00000040: e7b6 523c 0bf7 8a3d 3447 bd3d ee1b ad3d
00000050: 8178 f13c ee02 f1bc bbd4 6c3d 8efa 253d
00000060: a9a0 803d 7876 9e3d 284f 9f3c 9787 953c
00000070: dd9b 893d ab14 bbbc 970c bf3d 46a9 083c
00000080: 9735 ed3c 199f f13b 2bf3 623d 5129 48bd
00000090: 78bf 7c3d 4061 ca3d b5f3 943d beb5 8f3d
000000a0: 945a fbbc 50d6 793d 5405 b83c 45c7 acbb
000000b0: aef2 033b b6d2 633d 26ea 9d3c 22c7 9e3c
000000c0: 1c6a 5ebb 6415 ca3d d74c bebd 5c28 c73d
000000d0: 3c56 603d c494 9ebc a9e2 993d b7a5 153d
000000e0: ab8d ce3a 98cb 863d 0a9a a03d e10a ea3d
000000f0: 8dad 9a3d 32e6 b23d fa8a d03b 0c5d ca3b
00000100: 10e3 bc3c 430a 1e3d 0cc2 f23c f44b 98bb
00000110: d219 8a3d 0149 013d 4ccc 003d 0fb0 bf3c
00000120: 3e03 273d 1438 d23d d476 3bbd 34fd 0fbd
00000130: 7f45 7f3c 0ed7 c53c f503 e0bb 556c 8a3c
00000140: ff54 efbb 03ed f83d 242f 7abd 5418 203d
00000150: 6bc8 15bd 2dd6 643d e4dd 76bd ca5d 52bb
00000160: 1204 003d ef54 0dbc f432 193d 0f87 423d
00000170: 141c 1b3e 56f1 af3d e338 e13d 960a 20bc
00000180: f0b1 11bd 0919 0f3d 1434 433b eae9 6c3d
00000190: 390f a33c 30fe b73d dfc6 85ba 4778 1a3c
000001a0: b00f 0abb c751 d6bb 1683 b33c b6fe c9bc
000001b0: 407b ca3c 51a7 56bb ec0a 273c de0b 8239
000001c0: 527a 513c 44d0 10bc ee66 cf3d 6734 323c
000001d0: 77b8 ba3c 23aa 833c e313 8d3c 1ad5 db3c
000001e0: 63ce 3bbc a8d0 6b3d 3c1a b1bc 4787 aa3d
000001f0: 42a5 813d ca43 6e3d 240d 3a3d 4c9d ea3c
00000200: 7483 6c3d a47c a0bc 3643 0abd d0fe 753d
00000210: b937 a13d 5983 19bd 7169 a4bc bfb5 273d
00000220: 494c 94bc 07c7 923d f7fd 893d bd5f 053d
00000230: 2ee9 b33c 937e 053e 8c7a 443d 6a66 ebbc
00000240: a861 823d c2c3 ac3d 7bee 273d 8f5e f33d
00000250: b6ba 983d 951d c33d cddf 1a3d 89a5 c23d
00000260: 394b fb3d 4146 a639 cc6c af3d 90ff 043d
00000270: 98c6 a03d 1488 d3bc f594 23bc e788 ae3c
00000280: 5ca9 46bc b9e1 833d d22b 4f3d c800 833d
00000290: 1b17 e6bc bafe c43d 0c1f bf3d 8f4d 7a3d
000002a0: 752d cf3d cb8a 83bb c269 933d 6ee0 1dbc
000002b0: 1cd7 ba3d f126 c6bb 7da0 a73d 1a8a 133d
000002c0: e8cd ee3c 0762 3e3d 93be 533d fef5 df3b
000002d0: ae60 0fbc 7a31 ce3c 353c 2d3d 8f37 b13d
000002e0: f20a 413c 88d5 aa3b bccf f93d 3047 763b
000002f0: a0f9 283d caa3 9d3c 44e5 8f3d 0c2d cfbc
00000300: dba6 853c 22cb 083b 97de 9e3d e109 813d
00000310: 93cf 1b3d 0e22 1d3d a023 d03c ee25 b73d
00000320: 4ded f73c 5b7f 0bbc 132d 383c 2224 49bd
00000330: bb4d 24b9 586b 0f3e 25e1 d4ba 95d5 713c
00000340: ad33 083d bac3 533d 92e3 1d3c a7a5 f33b
00000350: b3a5 8fbc 6ddd 333d 7e01 3c3d 34f9 213d
00000360: c293 d13c a953 863b bb9c 973d ac1e 803c
00000370: ae1c 1f3d b0d6 963d 7d42 9f3d 9e4c 02bd
00000380: 2fc7 9bba b47c 89bc 8ac0 503d 51eb e33c
00000390: cb80 683c 4d9f 4e3d 4ca6 f33b 10ea 163d
000003a0: 51a8 933c e32c 37bb 0837 2e3d cbf0 8a3c
000003b0: 1dc2 003d cab5 8abc 0669 6e3b b922 453d
000003c0: 81ea bdbc 0e55 f5bc 46c1 063b fb94 343d
000003d0: f916 2bbd dbf1 0d3d 60f2 cd3c 788e d23b
000003e0: bd47 8b3d 950c aa3d 7c10 a63d 4cab 343d
000003f0: 6ccd da3d 5158 8c3c 4379 c23b ca3b 5d3d

fc3.weight f4 [2, 300]
0.15461041 0.09833885 0.054840744 -0.124139 0.104543135 -0.12198059 -0.1650804 0.069286875
-0.099763244 -0.13722639 -0.08947122 -0.10773796 -0.12887166 -0.100623086 0.15899304 -0.00880894
-0.037538067 0.028488545 -0.13564092 0.112475105 -0.14023428 0.096280694 -0.12809318 -0.072178856
0.07580029 0.1542939 -0.107746065 -0.06509412 -0.043164417 -0.116914175 -0.09903455 -0.15105112
-0.113320634 0.16234419 0.18120593 0.015922941 0.026265455 -0.0799292 -0.051276892 -0.09811742
0.1813314 -0.028046157 -0.12221111 0.08996038 0.07510208 0.14862934 0.14733496 -0.028802602
0.16137674 0.12523744 0.09621462 -0.051794585 -0.009690214 -0.033844694 -0.13405882 -0.0027654585
-0.11765824 -0.040160142 -0.09892942 -0.022876583 -0.19052091 0.0022406862 0.07207268 0.1290142
0.08762577 -0.1399236 -0.011684606 0.083548315 -0.032566562 0.06430315 -0.095617875 0.04455896
0.10579457 -0.08134695 0.21273592 -0.11100933 0.21579535 -0.0035909456 0.104968205 -0.019552128
0.10237723 -0.1404384 0.11697692 -0.040206574 -0.00934341 -0.00053894764 0.18527341 0.039121196
-0.07194232 0.13869205 0.10029286 -0.023645673 -0.07573627 0.20233588 -0.0439224 -0.040773414
0.08525048 0.0012243883 0.085454114 -0.0006560844 0.1746081 0.09636812 0.09697195 0.13768288
0.0890434 0.08369315 0.048577566 0.119054906 -0.119505994 -0.14558093 0.14006652 0.10495889
0.0024508275 0.11052411 0.018257046 -0.06592327 -0.0520034 0.0974835 0.10302864 -0.10585257
0.08558843 -0.06497504 0.021089196 -0.15182975 0.20428012 0.17655346 0.05111722 0.08393589
-0.0077831903 0.09755199 0.08859562 0.07467926 0.17127815 0.2096613 0.14079793 -0.13126396
-0.058754027 -0.105975054 -0.19285326 -0.07765684 -0.09867716 -0.11849126 -0.07693773 -0.05938267
-0.061712753 0.006491544 -0.124503575 0.02091441 -0.13145278 -0.1134126 0.000967189 -0.08952454
-0.06407176 0.04209781 0.1625744 0.05003115 0.15835232 -0.040093053 0.23341914 -0.053507075
0.06506797 0.14900999 -0.13391733 0.10432021 0.12075693 -0.11060952 0.0983668 0.11393065
-0.14892735 -0.1529059 -0.11538779 0.054643255 -0.20245506 0.10691736 -0.10463861 -0.097401164
-0.11259242 -0.11983262 0.040167276 0.082602754 0.10622115 0.0075659575 0.07484309 -0.14501995
-0.15607573 -0.14112778 -0.09997418 0.11566447 -0.10410336 0.11701461 0.0641029 0.1103908
0.13237573 0.10160988 0.19287558 0.12090393 0.0044218926 -0.13898745 0.21381572 -0.21498208
-0.12387256 0.18113808 0.09501912 0.11871606 0.15272039 0.008429388 -0.12895897 -0.13281596
-0.12731478 -0.048636157 0.11908478 -0.19855453 -0.07669331 0.12319198 -0.073794596 0.029092537
0.1147142 0.0900918 0.12437306 0.1578289 -0.111968555 -0.07315632 -0.16207263 0.14434531
-0.042536262 0.23653033 -0.094733804 0.107905194 0.010699202 -0.09447931 0.13635333 0.15364894
0.12381511 0.09640512 0.10817366 -0.025005162 -0.22328272 0.12048592 -0.05396147 0.14197202
0.08735022 0.14683078 0.009154644 -0.01243556 0.086871825 0.13691542 -0.17814311 -0.13273217
0.036018584 0.044557456 0.030208655 -0.10939254 -0.007613164 0.1592437 -0.13329467 -0.076910734
00000000: 3152 1e3e e165 c93d b0a0 603d 973c febd
00000010: b61a d63d f6d0 f9bd d60a 29be 47e6 8d3d
00000020: ac50 ccbd 1385 0cbe b03c b7bd b8a5 dcbd
00000030: eff6 03be 7a13 cebd 12cf 223e 5f53 10bc
00000040: 84c1 19bd cf60 e93c 74e5 0abe 5959 e63d
00000050: 9399 0fbe d02e c53d dc2a 03be 82d2 93bd
00000060: 2f3d 9b3d 38ff 1d3e f8a9 dcbd 1150 85bd
00000070: 2ccd 30bd b370 efbd a0d2 cabd 25ad 1abe
00000080: a614 e8bd 8e3d 263e 0c8e 393e d470 823c
00000090: a72a d73c ecb1 a3bd b807 52bd c9f1 c8bd
000000a0: f0ae 393e 0ec1 e5bc d249 fabd 263d b83d
000000b0: 1fcf 993d 4a32 183e fade 163e 6ff3 ebbc
000000c0: f23f 253e 3e3e 003e 2c0c c53d 8f26 54bd
000000d0: b4c3 1ebc bca0 0abd b746 09be b23c 35bb
000000e0: cef6 f0bd f67e 24bd 829b cabd ac67 bbbc
000000f0: ea17 43be 7ad8 123b d79a 933d 4c1c 043e
00000100: 2475 b33d 2248 0fbe ca70 3fbc 611b ab3d
00000110: 8464 05bd 5fb1 833d 4ed3 c3bd 7583 363d
00000120: d3aa d83d 3b99 a6bd 72d7 593e dc58 e3bd
00000130: 75f9 5c3e 1256 6bbb 92f9 d63d c92b a0bc
00000140: 27ab d13d 15cf 0fbe 9891 ef3d a6af 24bd
00000150: 1a15 19bc 2a48 0dba 50b8 3d3e 8c3d 203d
00000160: 7f56 93bd 4a05 0e3e 5866 cd3d 92b4 c1bc
00000170: 9e1b 9bbd 2331 4f3e f9e7 33bd 0602 27bd
00000180: ce97 ae3d a77b a03a 9102 af3d 14fd 2bba
00000190: 77cc 323e a65c c53d 3b99 c63d befc 0c3e
000001a0: 635c b63d 5067 ab3d 45f9 463d 0fd3 f33d
000001b0: 8fbf f4bd 2b13 15be 996d 0f3e b0f4 d63d
000001c0: 109e 203b 775a e23d cd8f 953c c802 87bd
000001d0: 8401 55bd 6ea5 c73d ae00 d33d 3bc9 d8bd
000001e0: fd48 af3d a211 85bd 40c3 ac3c 4279 1bbe
000001f0: cf2e 513e 6eca 343e 4a60 513d 94e6 ab3d
00000200: 220a ffbb 56c9 c73d 9f71 b53d 71f1 983d
00000210: 8a63 2f3e 74b1 563e 552d 103e 0f6a 06be
00000220: 10a8 70bd 7309 d9bd 537b 45be 8d0a 9fbd
00000230: 4017 cabd 8cab f2bd 8791 9dbd 3e3b 73bd
00000240: 83c6 7cbd 05b7 d43b bbfb febd b254 ab3c
00000250: 8f9b 06be dd44 e8bd f48a 7d3a a458 b7bd
00000260: 0e38 83bd c16e 2c3d e779 263e 77ed 4c3d
00000270: 1c27 223e 9d38 24bd 6d05 6f3e 3c2a 5bbd
00000280: 5b42 853d 1396 183e a021 09be d6a5 d53d
00000290: 694f f73d 3e87 e2bd 8874 c93d 7954 e93d
000002a0: 6980 18be 5d93 1cbe 6f50 ecbd 9bd1 5f3d
000002b0: 6150 4fbe 7df7 da3d c44c d6bd 437a c7bd
000002c0: db96 e6bd ce6a f5bd 7186 243d a22b a93d
000002d0: 798a d93d daeb f73b 5547 993d 1c80 14be
000002e0: 51d2 1fbe cd83 10be 43bf ccbd 7ee1 ec3d
000002f0: 2434 d5bd 5ba5 ef3d 6248 833d 9214 e23d
00000300: 818d 073e d718 d03d 2d81 453e 7b9c f73d
00000310: 86e5 903b ba52 0ebe 82f2 5a3e 4324 5cbe
00000320: e6b0 fdbd 437c 393e 6299 c23d 6821 f33d
00000330: bc62 1c3e 6a1b 0a3c d20d 04be e800 08be
00000340: ce5e 02be b536 47bd b9e2 f33d e151 4bbe
00000350: 6211 9dbd 144c fc3d 9f21 97bd 7953 ee3c
00000360: 47ef ea3d 0d82 b83d 4eb7 fe3d e69d 213e
00000370: c54f e5bd fbd2 95bd 5ef6 25be 42cf 133e
00000380: 813a 2ebd 0235 723e cc03 c2bd 66fd dc3d
00000390: b54b 2f3c 5e7e c1bd 35a0 0b3e 2656 1d3e
000003a0: c792 fd3d 0c70 c53d 278a dd3d a0d7 ccbc
000003b0: 3aa4 64be 52c1 f63d b406 5dbd 1d61 113e
000003c0: ace4 b23d cf5a 163e 5cfd 153c 85be 4bbc
000003d0: dbe9 b13d 8e33 0c3e 266b 36be f1ea 07be
000003e0: 3988 133d e181 363d 2478 f73c 3209 e0bd
000003f0: d977 f9bb c810 233e 667e 08be 6083 9dbd

fc3.bias f4 [2]
0.0009936291 0.0029701588
00000000: a93c 823a ffa6 423b

bn1.weight f4 [400]
1.1563616 1.0972679 1.0704556 1.100125 1.0456859 1.0909448 1.1183542 1.0656918
1.1334848 1.0516764 1.0651213 1.1213982 1.0814842 1.0819668 1.0885528 1.0297574
1.1038923 1.0504112 1.0593475 1.1146696 1.1629995 1.1232178 1.1277744 1.0349616
1.1426651 1.0299102 1.1530268 1.0747563 1.059477 1.0494926 1.046518 1.061881
1.0833522 1.0846299 1.0956652 1.104765 1.0333996 1.040474 1.0445617 1.0416008
1.0588607 1.0959635 1.034137 1.0685846 1.1304785 1.163355 1.0732704 1.0215323
1.0912935 1.0067506 1.0176772 1.0145422 1.1990577 1.1156499 1.1165098 1.1394889
0.9797211 1.0321039 1.1057615 1.0628452 1.1808767 1.1296908 1.04036 1.015371
1.0541847 1.0510001 1.0455983 1.10216 0.988009 1.1278887 1.0861213 1.040987
1.0472571 1.091046 1.0886244 1.109089 1.1189556 1.1259131 1.0679773 1.0357121
1.0564162 1.0990524 1.0190159 1.0873718 1.1141609 1.1372801 1.0963985 1.1064166
1.0987213 1.0514863 1.1130005 1.1435846 1.0935798 1.1256366 1.1592815 1.0577412
1.0577663 1.0649011 1.0956192 1.0747159 1.060285 1.047725 1.0823746 1.0543776
1.1011273 1.0815498 1.1263788 1.0461673 1.0607109 1.0523007 1.0305364 1.0790243
1.1117239 1.1074605 1.0826764 1.0600914 1.0180814 1.0794748 1.0545822 1.1000932
1.0409517 1.0453193 1.0080229 1.0294942 1.1424302 1.0983477 1.1242064 1.160343
1.1006541 1.0523237 1.1055458 1.0580202 1.0682173 1.0123875 1.0932782 1.0006107
1.0814523 1.1387821 1.0871257 1.0387657 1.1996768 1.0624557 0.98047006 1.0539377
1.1420295 1.1403065 1.0408444 1.07276 1.0801911 1.0880245 1.0794394 1.230968
1.0653135 1.0031687 1.1390331 0.98464894 1.133883 1.1441516 1.0785865 1.031928
1.0767527 1.0485599 1.0830326 1.0925981 0.9911929 1.0782471 1.0400153 1.1477864
1.0845739 1.1024358 1.0414081 1.1205637 1.1144727 1.0080583 1.0235947 1.0311308
1.1023699 1.0961593 1.0367197 1.1693388 1.0577109 1.0532191 1.0490816 1.1250911
1.1107703 1.0055875 1.1142876 1.0664283 1.1395156 1.041381 1.0971916 1.0973842
1.0034653 1.0537168 1.0706549 1.0287508 1.0019526 1.149238 1.0228181 1.0805868
1.0967404 1.0075597 1.0502133 1.1446089 1.0627682 1.0808227 1.1456585 1.1302067
1.0585824 1.078366 1.08071 1.0226672 0.9620755 1.1391053 1.2120454 1.0188279
0.9620277 1.0581348 1.0355151 1.1507185 1.250416 1.1249397 1.1158903 1.0293418
1.0793484 1.0803261 1.127868 1.0368025 1.0439155 1.0850708 0.9791071 1.0487913
1.0259435 1.0300913 1.0678389 1.026346 1.0581106 1.1307651 0.98241264 1.1302555
1.2220526 1.2244617 1.1036686 1.0623809 1.0496866 1.0878377 1.1061122 1.0301371
1.1091682 1.0442245 1.0083059 1.0787144 1.0616536 1.0085233 1.0828655 1.1044571
00000000: a803 943f 4673 8c3f b004 893f e5d0 8c3f
00000010: 09d9 853f 14a4 8b3f 3b26 8f3f 9768 883f
00000020: 0816 913f 559d 863f e555 883f fa89 8f3f
00000030: 136e 8a3f e37d 8a3f b355 8b3f 17cf 833f
00000040: 584c 8d3f e073 863f b398 873f 7ead 8e3f
00000050: 2bdd 943f 9ac5 8f3f e95a 903f 9f79 843f
00000060: da42 923f 19d4 833f 6296 933f 9d91 893f
00000070: f19c 873f c655 863f 4df4 853f b7eb 873f
00000080: 49ab 8a3f 27d5 8a3f c23e 8c3f f168 8d3f
00000090: 7046 843f 412e 853f 33b4 853f 2d53 853f
000000a0: bf88 873f 8848 8c3f 9a5e 843f 61c7 883f
000000b0: 85b3 903f d1e8 943f ed60 893f 92c1 823f
000000c0: 81af 8b3f 34dd 803f 3f43 823f 85dc 813f
000000d0: b97a 993f 9ecd 8e3f cbe9 8e3f c6da 913f
000000e0: 01cf 7a3f fb1b 843f 9889 8d3f 500b 883f
000000f0: f826 973f b599 903f 842a 853f adf7 813f
00000100: 86ef 863f 2c87 863f 2ad6 853f 9413 8d3f
00000110: 28ee 7c3f a85e 903f 0606 8b3f 103f 853f
00000120: 850c 863f 65a7 8b3f 0b58 8b3f a1f6 8d3f
00000130: f039 8f3f ec1d 903f 7bb3 883f 3792 843f
00000140: a538 873f c0ad 8c3f 1d6f 823f 002f 8b3f
00000150: d39c 8e3f 6592 913f c956 8c3f 0f9f 8d3f
00000160: e6a2 8c3f 1a97 863f cd76 8e3f fb60 923f
00000170: 6cfa 8b3f dc14 903f 5663 943f 1064 873f
00000180: e364 873f ae4e 883f 403d 8c3f 4a90 893f
00000190: 6bb7 873f da1b 863f 408b 8a3f d8f5 863f
000001a0: bdf1 8c3f 3970 8a3f 2e2d 903f cfe8 853f
000001b0: 60c5 873f cab1 863f 9ee8 833f 781d 8a3f
000001c0: f84c 8e3f 44c1 8d3f 2495 8a3f 13b1 873f
000001d0: 7e50 823f 3b2c 8a3f 8dfc 863f dbcf 8c3f
000001e0: e83d 853f 06cd 853f e506 813f 77c6 833f
000001f0: 273b 923f a896 8c3f ffe5 8f3f 1f86 943f
00000200: 3ce2 8c3f 8bb2 863f 8682 8d3f 356d 873f
00000210: 58bb 883f ea95 813f 8af0 8b3f 0314 803f
00000220: 076d 8a3f 9dc3 913f ef26 8b3f 46f6 843f
00000230: 028f 993f 8cfe 873f 1600 7b3f 6ee7 863f
00000240: 062e 923f 90f5 913f 643a 853f 3350 893f
00000250: b443 8a3f 6344 8b3f 122b 8a3f 5c90 9d3f
00000260: 315c 883f d567 803f d6cb 913f f411 7c3f
00000270: 1423 913f 8f73 923f 1f0f 8a3f 3716 843f
00000280: 08d3 893f 3637 863f d0a0 8a3f 41da 8b3f
00000290: d1be 7d3f 0004 8a3f 391f 853f aaea 923f
000002a0: 51d3 8a3f 9e1c 8d3f dc4c 853f a26e 8f3f
000002b0: 0ba7 8e3f 0e08 813f 2705 833f 18fc 833f
000002c0: 751a 8d3f f34e 8c3f 3bb3 843f e5ac 953f
000002d0: 1263 873f e2cf 863f 4e48 863f fc02 903f
000002e0: b92d 8e3f 17b7 803f faa0 8e3f b980 883f
000002f0: a6db 913f f94b 853f c670 8c3f 1677 8c3f
00000300: 8d71 803f 31e0 863f 380b 893f 1bae 833f
00000310: fc3f 803f 3b1a 933f b4eb 823f ab50 8a3f
00000320: fd61 8c3f b7f7 803f 646d 863f 8b82 923f
00000330: ca08 883f 6658 8a3f f0a4 923f 9daa 903f
00000340: a17f 873f e607 8a3f b554 8a3f c2e6 823f
00000350: 944a 763f 34ce 913f 4e24 9b3f f468 823f
00000360: 7347 763f f670 873f c28b 843f be4a 933f
00000370: a20d a03f 06fe 8f3f 7ed5 8e3f 79c1 833f
00000380: 1728 8a3f 2048 8a3f fb5d 903f f2b5 843f
00000390: 069f 853f 9ae3 8a3f c3a6 7a3f cb3e 863f
000003a0: 1e52 833f 08da 833f f2ae 883f 4e5f 833f
000003b0: 2b70 873f e9bc 903f 657f 7b3f 36ac 903f
000003c0: 386c 9c3f 29bb 9c3f 0345 8d3f 19fc 873f
000003d0: 215c 863f 443e 8b3f 1695 8d3f 88db 833f
000003e0: 39f9 8d3f 26a9 853f 2b10 813f 5013 8a3f
000003f0: 44e4 873f 4b17 813f 569b 8a3f da5e 8d3f

bn1.bias f4 [400]
-0.044593316 -0.081137784 -0.076991975 0.05902335 -0.008573903 0.033356126 -0.037408564 -0.02361733
0.08651422 -0.017836004 -0.032624148 -0.054708965 -0.073528774 -0.037371412 0.03878812 -0.02575794
-0.04340833 -0.059252806 -0.031075634 -0.032174896 -0.06334147 -0.0053143823 -0.043583166 0.008415738
-0.0075875977 -0.09050722 -0.043252725 0.0035523132 -0.0450489 -0.046472937 -0.037668403 -0.055874955
0.0059471386 -0.03541426 -0.0030596103 -0.059639875 -0.04191789 -0.057598423 -0.012800255 -0.0018875699
0.00825875 -0.055544574 -0.004807955 -0.07468096 0.0026299637 -0.020749893 -0.032071877 0.02011582
0.0070072548 -0.022051472 -0.020505883 -0.007939483 -0.049201522 -0.033070985 -0.04830585 -0.011821189
-0.00977332 -0.03504823 -0.069515444 -0.03173215 -0.03050165 -0.03712021 -0.074856475 -0.03737943
-0.052147858 -0.0039618844 -0.009614647 -0.08517743 -0.017016225 -0.05429894 -0.09008792 -0.022134326
-0.02928438 0.011273765 -0.013275925 -0.06654029 -0.078069516 -0.064122275 -0.047038674 -0.001898013
-0.051862985 -0.024819784 0.0122093465 -0.011747088 -0.05683604 -0.050494935 -0.040622145 -0.062128898
-0.012975218 -0.007984101 -0.049351636 -0.015211765 0.04036215 -0.0041250912 -0.054094106 -0.010239582
-0.05688973 -0.05347927 -0.055976644 0.051460534 -0.058438648 -0.04682058 0.010647924 0.050031092
-0.021399183 0.013855196 -0.01536425 -0.050486837 -0.023855168 -0.019413209 -0.009868286 0.0002751935
-0.0805103 -0.050360817 -0.030366149 -0.019979335 0.051427964 -0.018840935 -0.035005394 0.04018589
-0.009278267 -0.03790661 -0.060016498 -0.026384978 -0.044148818 0.03653458 -0.0041119144 -0.03856405
-0.030426154 0.014164123 -0.023923945 -0.11881135 -0.010841177 -0.029590713 -0.07611809 -0.044551436
-0.071344584 -0.038555786 -0.024261348 -0.014388893 -0.035451703 0.052376255 -0.087679006 -0.0004460239
-0.050077263 -0.030973556 -0.051831353 0.0005656116 -0.025315788 0.060576923 -0.041754656 -0.002747112
0.008311445 -0.02051496 -0.011082257 -0.015377225 -0.005750815 -0.02672764 0.054445524 -0.071670555
0.04903398 0.0062012253 -0.0443005 0.02658654 0.023563031 -0.0413654 -0.040573414 -0.0366318
0.014966773 0.0664842 -0.04934293 0.028584955 -0.055332534 -0.07006239 0.009244368 -0.012558903
-0.04913154 -0.03395284 -0.040342025 -0.04926456 -0.0088213915 -0.08591334 -0.01000039 -0.060118373
-0.016790008 -0.07005322 -0.04076064 0.015531435 -0.061456315 -0.031064318 -0.015894737 -0.051397607
-0.06715821 0.0018951528 -0.02956738 -0.054889753 -0.023354627 0.015859453 -0.049860187 -0.007023377
-0.008402111 0.029698044 -0.035851248 -0.046880092 -0.006959009 0.013750414 0.051793564 -0.025849968
0.042488903 -0.0339961 -0.071722895 -0.025926603 -0.04778018 -0.008017886 0.0013589635 -0.035191562
-0.004851598 -0.022854842 -0.022978326 -0.04200452 -0.06443062 -0.012511833 -0.0292563 -0.012667476
-0.006893932 -0.05967398 -0.0018948613 0.024157744 -0.06514689 -0.06266941 -0.017288385 -0.028260008
0.004194524 -0.017581493 0.0606239 0.014135614 -0.0678732 -0.02654469 -0.10957557 0.023009213
-0.06310325 -0.037688967 -0.0160196 -0.008758954 -0.05899195 0.0008244142 0.01406541 -0.040707164
-0.03896599 -0.04949429 -0.010334201 -0.044741318 -0.044032924 -0.0014538919 -0.10749053 -0.029971434
00000000: 7ba7 36bd 912b a6bd f8ad 9dbd 78c2 713d
00000010: 8e79 0cbc 6fa0 083d b939 19bd 2179 c1bc
00000020: 5e2e b13d d01c 92bc e6a0 05bd 8216 60bd
00000030: 4196 96bd c412 19bd 4be0 1e3d 5102 d3bc
00000040: efcc 31bd 12b3 72bd 5492 febc d3c9 03bd
00000050: 2cb9 81bd 4524 aebb 4384 32bd 2ae2 093c
00000060: 62a1 f8bb d95b b9bd c529 31bd edcd 683b
00000070: 3285 38bd 685a 3ebd 2f4a 1abd 23dd 64bd
00000080: 37e0 c23b 8b0e 11bd be83 48bb f148 74bd
00000090: 18b2 2bbd 53ec 6bbd 29b8 51bc 5668 f7ba
000000a0: b54f 073c b582 63bd 0d8c 9dbb 55f2 98bd
000000b0: 785b 2c3b aefb a9bc cd5d 03bd efc9 a43c
000000c0: 1d9d e53b 4aa5 b4bc f4fb a7bc 9b14 02bc
000000d0: 8987 49bd 7175 07bd 5bdc 45bd a9ad 41bc
000000e0: 4620 20bc bc8e 0fbd 1d5e 8ebd 92f9 01bd
000000f0: 99de f9bc 5c0b 18bd 5a4e 99bd 2c1b 19bd
00000100: fe98 55bd b2d2 81bb c186 1dbc 8171 aebd
00000110: 9c65 8bbc 9168 5ebd 0480 b8bd 0c53 b5bc
00000120: cce5 efbc 99b5 383c 4483 59bc 4746 88bd
00000130: e9e2 9fbd 8a52 83bd a0ab 40bd c0c6 f8ba
00000140: 486e 54bd dc52 cbbc b609 483c dc76 40bc
00000150: e8cc 68bd c7d3 4ebd 6863 26bd df7a 7ebd
00000160: 0296 54bc bfcf 02bc f124 4abd c43a 79bc
00000170: c852 253d c62b 87bb c891 5dbd ebc3 27bc
00000180: 3505 69bd 140d 5bbd c447 65bd 48c8 523d
00000190: 5d5d 6fbd f0c6 3fbd a174 2e3c 67ed 4c3d
000001a0: 574d afbc e700 633c 56ba 7bbc 49cb 4ebd
000001b0: ea6b c3bc 7308 9fbc 97ae 21bc d947 9039
000001c0: 96e2 a4bd 2547 4ebd 6ec2 f8bc b4ab a3bc
000001d0: 21a6 523d 4e58 9abc d161 0fbd f699 243d
000001e0: df03 18bc f643 1bbd dcd3 75bd 4f25 d8bc
000001f0: 64d5 34bd 49a5 153d 3dbd 86bb 56f5 1dbd
00000200: 4540 f9bc a310 683c 26fc c3bc 5d53 f3bd
00000210: 319f 31bc 3968 f2bc cde3 9bbd 917b 36bd
00000220: 1c1d 92bd acec 1dbd bcbf c6bc 64bf 6bbc
00000230: ce35 11bd 7c88 563d 0d91 b3bd 51d8 e9b9
00000240: d11d 4dbd 41bc fdbc 1d4d 54bd 8d45 143a
00000250: 0e63 cfbc 821f 783d ee06 2bbd e408 34bb
00000260: ba2c 083c fd0e a8bc 5b92 35bc c2f0 7bbc
00000270: 5571 bcbb ecf3 dabc 4502 5f3d 03c8 92bd
00000280: dbd7 483d a633 cb3b 7174 35bd 04cc d93c
00000290: 4207 c13c c46e 29bd 4f30 26bd 3a0b 16bd
000002a0: 3237 753c de28 883d d01b 4abd ff2a ea3c
000002b0: 5ea4 62bd df7c 8fbd b175 173c dbc3 4dbc
000002c0: 273e 49bd 2212 0bbd ae3d 25bd a3c9 49bd
000002d0: 9987 10bc 55f3 afbd add8 23bc af3e 76bd
000002e0: 338b 89bc 1078 8fbd a1f4 26bd 8f77 7e3c
000002f0: 9eb9 7bbd 997a febc ae35 82bc 4c86 52bd
00000300: 3e8a 89bd c766 f83a 4a37 f2bc 14d4 60bd
00000310: 3452 bfbc afeb 813c 323a 4cbd 5b24 e6bb
00000320: 02a9 09bc 5049 f33c c2d8 12bd 5705 40bd
00000330: 6608 e4bb 6b49 613c 7d25 543d 50c3 d3bc
00000340: d808 2e3d 7f3f 0bbd 74e3 92bd 0764 d4bc
00000350: 26b5 43bd 745d 03bc 401f b23a 0725 10bd
00000360: 27fa 9ebb 143a bbbc 0b3d bcbc ee0c 2cbd
00000370: 33f4 83bd 6efe 4cbc e8aa efbc 3f8b 4fbc
00000380: 7ee6 e1bb b46c 74bd ff5c f8ba 76e6 c53c
00000390: bc6b 85bd d258 80bd 5fa0 8dbc 8881 e7bc
000003a0: 3872 893b 1007 90bc c450 783d 1099 673c
000003b0: 1b01 8bbd 4074 d9bc 2869 e0bd d17d bc3c
000003c0: 473c 81bd bf5f 1abd 893b 83bc b781 0fbc
000003d0: 8ba1 71bd 801d 583a 9b72 663c 8ebc 26bd
000003e0: cd9a 1fbd 86ba 4abd c850 29bc ac42 37bd
000003f0: de5b 34bd 8490 beba ff23 dcbd a786 f5bc

bn1.running_mean f4 [400]
0.085908644 0.8276302 0.74648386 0.07015526 0.99479395 0.010793432 0.0033978352 0.26085454
1.978318 0.8854539 0.32072264 0.22910455 0.0070362594 0.2125819 0.20458196 1.4175018
1.9254595 0.025225425 1.1078314 0.48266023 0.19545591 1.4006888 0.04239707 1.6804543
0.00512701 0.7731739 0.08759314 0.06050261 0.28158802 0.14736222 0.7806446 0.61173946
0.37845564 0.033162262 0.8674505 0.011728273 0.21558017 0.027287295 1.3633231 0.9807168
0.03611426 0.7790235 1.0386682 0.490747 0.15289864 0.021747261 0.16104512 2.0387099
0.03439373 1.1647859 1.096129 2.1805897 0.037182067 1.4441404 0.028498227 0.990604
1.2554706 1.0626209 0.052667115 0.83205336 0.27831018 0.015005612 0.48776028 0.82982934
0.14253633 0.745518 0.8316475 0.577666 1.5104749 0.090526454 0.06738982 0.0025965034
0.95163053 0.5904681 0.030133696 0.0031634956 0.34504172 0.008002536 0.23831739 1.516119
0.013643707 0.32207304 1.5592865 0.16939847 0.7962301 0.5871301 0.6466682 0.056134835
0.7742243 0.16669142 0.08198648 0.060042772 0.31773594 0.7567174 0.6050988 1.2520497
0.005070791 0.56858367 0.37077373 0.041753482 0.0004596093 0.086665824 0.5142962 0.2883075
0.5326072 0.7149881 0.8572047 0.57150525 0.5322054 0.29613125 0.031308655 0.91641587
0.23960248 0.045300756 0.0013149785 0.12871106 2.2856152 0.70849305 0.16070704 0.42216533
0.7522414 0.8752509 1.3688313 0.7939516 0.14227098 0.43645254 0.71942776 0.29428002
0.010675332 0.5216286 0.15861438 0.11223375 0.09553366 1.6326355 3.46e-43 1.1289566
0.17446753 0.15365577 0.39433968 0.34351394 0.06510555 0.050964575 0.4105914 0.09879548
0.31379563 0.034648716 0.73093957 0.5757448 0.2758535 0.0051747416 0.039733425 0.15511808
0.33341324 2.7765093 0.22499427 0.15799882 0.37865028 0.013042136 0.6786954 1.9660404
0.33571294 0.39724514 0.7877322 0.5002065 1.0549885 0.4554306 0.30828723 0.07487435
0.24554665 0.9145463 0.004229471 1.9241114 6e-45 1.2132076 0.95246375 0.6632603
0.22008653 0.20580715 0.4535452 0.26344818 2.2616823 0.38525435 0.15447693 0.75911474
0.27961653 1.0434469 0.8607656 2.0357342 0.0027059326 1.1237025e-12 0.019667 0.880253
1.9052254 0.044374615 0.26598412 0.8840899 0.6331867 0.110005856 1.8144721 0.24763766
0.5501075 2.223077 0.72391623 0.34483388 1.0202253 0.33243388 0.8075613 0.41794533
0.1275321 0.333936 0.67500407 1.3614807 1.7743486 0.636029 0.022496246 2.2241945
1.683475 1.7473426 1.9015085 0.012711975 0.042449284 0.23465282 0.07289731 0.48730156
0.17901918 0.27868548 0.03553297 0.44029865 0.486252 6e-45 1.3324366 1.0736294
0.84020364 2.1590667 0.35336795 0.660738 0.77933186 0.15462844 0.87452966 0.924806
0.10328234 0.16510236 1.1434573 0.92640173 0.10525614 0.064545676 0.98310745 1.1735903
0.085094295 0.13475512 2.043427 0.20846511 0.7272769 2.2877965 0.6308616 0.7571382
00000000: dff0 af3d 93df 533f 9119 3f3f 90ad 8f3d
00000010: d1aa 7e3f efd6 303c 37ae 5e3b ba8e 853e
00000020: 8639 fd3f 1bad 623f c235 a43e 629a 6a3e
00000030: 6c90 e63b 12af 593e ef7d 513e b370 b53f
00000040: 7575 f63f 8da5 ce3c 6bcd 8d3f 3e1f f73e
00000050: 9825 483e c549 b33f 8da8 2d3d 2019 d73f
00000060: 7a00 a83b baee 453f 0864 b33d 96d1 773d
00000070: 4e2c 903e 1fe6 163e 53d8 473f f59a 1c3f
00000080: f0c4 c13e 27d5 073d 3c11 5e3f f127 403c
00000090: 0cc1 5c3e 9b89 df3c 5f81 ae3f 4210 7b3f
000000a0: 8cec 133d 166e 473f 14f3 843f 3143 fb3e
000000b0: 7691 1c3e 5027 b23c 03e9 243e 397a 0240
000000c0: 71e0 0c3d b417 953f f44d 8c3f c88e 0b40
000000d0: 394c 183d 98d9 b83f 1d75 e93c 3998 7d3f
000000e0: 43b3 a03f f603 883f 79b9 573d 7301 553f
000000f0: ac7e 8e3e 19da 753c b7bb f93e b26f 543f
00000100: 0bf5 113e 45da 3e3f dae6 543f ebe1 133f
00000110: 3e57 c13f ef65 b93d ad03 8a3d 192a 2a3b
00000120: 0f9e 733f eb28 173f f1da f63c a652 4f3b
00000130: 4fa9 b03e 121d 033c 7909 743e 3010 c23f
00000140: db89 5f3c c2e6 a43e b396 c73f cb76 2d3e
00000150: bcd5 4b3f 294e 163f 0c8c 253f a4ed 653d
00000160: 9033 463f 28b1 2a3e 87e8 a73d 69ef 753d
00000170: 49ae a23e 3bb8 413f c1e7 1a3f 2a43 a03f
00000180: e128 a63b b38e 113f 0ed6 bd3e b305 2b3d
00000190: b7f7 f039 da7d b13d eaa8 033f 0a9d 933e
000001a0: f258 083f 7609 373f c471 5b3f 2b4e 123f
000001b0: 9d3e 083f 849e 973e 813d 003d 3b9a 6a3f
000001c0: 5a5a 753e 498d 393d 5b5b ac3a d5cc 033e
000001d0: 8547 1240 cd5f 353f 6390 243e 0e26 d83e
000001e0: e492 403f 7110 603f dd35 af3f 6940 4b3f
000001f0: 7caf 113e b576 df3e 6b2c 383f dfab 963e
00000200: 96e7 2e3c 7489 053f cf6b 223e cfda e53d
00000210: 27a7 c33d 33fa d03f f700 0000 a681 903f
00000220: 9ea7 323e f057 1d3e e4e6 c93e 0fe1 af3e
00000230: 0f56 853d 3bc0 503d 0939 d23e 4955 ca3d
00000240: d2a9 a03e d0eb 0d3d db1e 3b3f 0364 133f
00000250: ac3c 8d3e e190 a93b 84bf 223d 46d7 1e3e
00000260: 24b5 aa3e 54b2 3140 e664 663e 71ca 213e
00000270: 73de c13e afae 553c fbbe 2d3f 36a7 fb3f
00000280: 91e2 ab3e b763 cb3e d1a8 493f 880d 003f
00000290: dd09 873f 332e e93e d3d7 9d3e b957 993d
000002a0: 9570 7b3e b51f 6a3f 6097 8a3b 4849 f63f
000002b0: 0400 0000 634a 9b3f aad4 733f 6dcb 293f
000002c0: 5d5e 613e 1cbf 523e 1437 e83e aee2 863e
000002d0: 67bf 1040 0f40 c53e 332f 1e3e 5855 423f
000002e0: e629 8f3e ab8f 853f 225b 5c3f 7849 0240
000002f0: 0456 313b a625 9e2b b01c a13c 4358 613f
00000300: 6dde f33f 28c2 353d 122f 883e b753 623f
00000310: 8618 223f c04a e13d 9f40 e83f ba94 7d3e
00000320: d8d3 0c3f e546 0e40 9352 393f 118e b03e
00000330: be96 823f c634 aa3e 56bc 4e3f eefc d53e
00000340: c697 023e a9f9 aa3e 11cd 2c3f 0045 ae3f
00000350: db1d e33f ccd2 223f 0c4a b83c 3459 0e40
00000360: 1c7c d73f eca8 df3f a164 f33f e345 503c
00000370: 4ddf 2d3d d448 703e 2f4b 953d 977f f93e
00000380: ce50 373e ddaf 8e3e 058b 113d d36e e13e
00000390: 06f6 f83e 0400 0000 488d aa3f b06c 893f
000003a0: 9617 573f 262e 0a40 a5ec b43e 2026 293f
000003b0: 4b82 473f eb56 1e3e 2de1 5f3f 16c0 6c3f
000003c0: b185 d33d 9810 293e cf5c 923f aa28 6d3f
000003d0: 8890 d73d 8630 843d eeac 7b3f 3538 963f
000003e0: eb45 ae3d 3ffd 093e 82c7 0240 e177 553e
000003f0: d22e 3a3f 426b 1240 2580 213f cfd3 413f
