checkpoint_critic_local_0.pth (torch, 577426 bytes, 9 tensors)

fcs1.weight f4 [400, 52]
0	0x3d73ca82	0.0595193
1	0x3f1800b0	0.5937605
2	0xbdb35fdd	-0.08758519
3	0xbe79eb18	-0.24406087
4	0x3e3ad1b6	0.18244061
5	0xbe835829	-0.25653198
6	0xbde1b06d	-0.11019979
7	0xbe53d21f	-0.20685624
8	0x3e0980c8	0.13428032
9	0x3ed7a3b7	0.42117092
10	0x3e6139bf	0.21994685
11	0xbe7336c2	-0.23751357
12	0x3ddf26ed	0.108960964
13	0xbf72324d	-0.94608
14	0x3e30b938	0.17258155
15	0xbe3fb3e4	-0.18720967
16	0x3f43a8f9	0.76429707
17	0x3d9a1ee5	0.07525424
18	0x3eb5f486	0.3553812
19	0xbf4c6efd	-0.79856855
20	0x3d1c2c3a	0.038128115
21	0xbff23769	-1.892316
22	0x3ec4b4fc	0.3841933
23	0xbf4b6a51	-0.794591
24	0x3fca58b0	1.5808315
25	0x3e205375	0.15656836
26	0xbe8c331d	-0.27382746
27	0xbec6516c	-0.38733995
28	0xbe3163f5	-0.17323287
29	0xbe5519ac	-0.20810574
30	0xbe9656d9	-0.29363135
31	0xbeae8acb	-0.34090266
32	0x4000e843	2.0141761
33	0x3ef56b6c	0.4793352
34	0x3e897ace	0.26851505
35	0x3f2cc91e	0.6749438
36	0xbe3c213d	-0.18372054
37	0xbf712f78	-0.94213057
38	0x3e61cc07	0.22050487
39	0x3f33f667	0.70297855
40	0x3faa14ff	1.3287657
41	0x3ebe4a89	0.3716624
42	0xbe5b7d06	-0.21434411
43	0xbdb57596	-0.08860318
44	0xbd0a7c4d	-0.03380995
45	0xbff61575	-1.9225298
46	0xbe59c7b2	-0.21267584
47	0xbe0d4fb5	-0.13799937
48	0x3f7e4544	0.9932444
49	0xbed9c306	-0.42531604
50	0xc00eeea6	-2.233316
51	0x3f0264dc	0.5093515
52	0x3dbc2289	0.091862746
53	0xbf8c2552	-1.0948889
54	0xbc6e6488	-0.014550336
55	0xbccfa881	-0.025348904
56	0x3fba93e9	1.4576389
57	0xbe0a1a1c	-0.13486522
58	0x3ca53589	0.02016713
59	0x3cd9d0ea	0.026588876
60	0x3dcb6a87	0.09932428
61	0xbe9d3888	-0.30707192
62	0x3c76ac18	0.015055679
63	0x3dea00b1	0.11425913
64	0x3f66c2bb	0.90140885
65	0xbf04f556	-0.5193685
66	0x3d0c6076	0.03427168
67	0x3dca07ad	0.09864745
68	0x3f185f32	0.59520257
69	0x3ee47040	0.4461689
70	0x3db55468	0.0885399
71	0x3f03053a	0.5117985
72	0xbf056457	-0.5210623
73	0xc03ca3da	-2.9475007
74	0x3d896897	0.06709402
75	0x3f05de78	0.52292585
76	0xbf0b64a7	-0.5445046
77	0xbfc2c928	-1.5217638
78	0x3d7340f2	0.05938811
79	0x3e8302ec	0.25588167
80	0xbfbf1dd4	-1.4930978
81	0xbdf01297	-0.11722296
82	0x3dca1a8c	0.09868345
83	0x3e83a977	0.2571523
84	0xbed95b9e	-0.4245271
85	0xbfb1e59d	-1.3898197
86	0xbcc61527	-0.024180008
87	0xbd924ce0	-0.07143569
88	0xbf57a7db	-0.842405
89	0xbeffec17	-0.4998481
90	0xbb9f2178	-0.0048562847
91	0xbde6258f	-0.112376325
92	0xbf1aae22	-0.60421956
93	0xbf5eab1a	-0.8697983
94	0x3eaf247b	0.3420752
95	0xbf01b776	-0.50670564
96	0x3ee53fab	0.44775137
97	0xc0405be7	-3.0056093
98	0x3eb30229	0.34962586
99	0xbeea7078	-0.45788932
100	0x3fd1c2ee	1.6387613
101	0x3db8af24	0.090177804
102	0xbeb92e6b	-0.36168227
103	0xbfafcc7a	-1.3734276
104	0xbc6f6994	-0.014612574
105	0x3f351400	0.7073364
106	0x3d162055	0.036651928
107	0xbea3d83c	-0.3200091
108	0x3ed038b9	0.40668276
109	0xbe679dbd	-0.22618766
110	0x3d852e38	0.06502956
111	0xbea30c65	-0.31845394
112	0x3ee5ad89	0.4485896
113	0x3f1f396e	0.62197006
114	0x3b266402	0.00253892
115	0xbe9e6ada	-0.30940896
116	0x3f31ff7c	0.69530463
117	0x3f22cf64	0.635977
118	0xbd649d50	-0.055814087
119	0xbe8be552	-0.27323395
120	0x3f48decc	0.7846496
121	0x3e9496fc	0.29021442
122	0x3d95a4ed	0.07306848
123	0x3ea450a5	0.32092777
124	0x3fc50ee1	1.5395166
125	0x40190300	2.390808
126	0x3d889692	0.06669344
127	0x3e803ac9	0.2504485
128	0x3e9286d2	0.28618485
129	0xbd6e9676	-0.05824896
130	0x38abe494	8.1964914e-05
131	0x3e0c016e	0.1367242
132	0xbec2a2af	-0.38014743
133	0xbe69d56f	-0.22835325
134	0x3cfc8bd9	0.030828403
135	0x3e27faa8	0.16404212
136	0x3f2122ef	0.6294393
137	0xbe1b7850	-0.15182614
138	0xbd5671f5	-0.05235477
139	0xbd1f651a	-0.038914777
140	0xbf2c97ba	-0.67419016
141	0x3f356dd4	0.7087071
142	0xbc995878	-0.018718943
143	0xbdc7d1c9	-0.0975681
144	0x3f3e0930	0.7423277
145	0xbf8f0c37	-1.1175603
146	0xbeee7247	-0.46571562
147	0xbd89fb1c	-0.067373484
148	0xbfc5dd7e	-1.5458219
149	0x4019fe49	2.4061453
150	0xbef93404	-0.48672497
151	0xbd18a4e4	-0.037266627
152	0x3e9c0c50	0.30478144
153	0x3e5ec33c	0.21754164
154	0x404933d9	3.1437895
155	0x3f18a00d	0.5961922
156	0x3f6a071a	0.91417086
157	0x40126bf0	2.287838
158	0x3cbf7cf1	0.023375006
159	0x3ce85113	0.028358972
160	0xbe5a7088	-0.2133199
161	0x3e62c0a2	0.22143796
162	0x3d1d7af8	0.03844735
163	0x3db071d2	0.086154595
164	0x3fa48ff5	1.2856432
165	0x40011176	2.0166907
166	0x3ccee87d	0.025257343
167	0x3df94315	0.12170998
168	0xbf0b1ee6	-0.5434402
169	0xbf3383ac	-0.7012279
170	0x3cd5cdd2	0.02609912
171	0x3e0107e1	0.12600662
172	0x3fc6f1fb	1.5542597
173	0x3f7490a3	0.955332
174	0x3d859d18	0.06524104
175	0x3df22eee	0.118253574
176	0xbf9b65d3	-1.2140449
177	0xc017e1e4	-2.3731623
178	0x3dfddc26	0.123955056
179	0x3d35c880	0.044380665
180	0xbd50f9a3	-0.051019322
181	0x3cfcf179	0.030876862
182	0xb9d10f96	-0.000398752
183	0x3bb37f55	0.0054778256
184	0x3e4ebf12	0.20190075
185	0x3e2317dc	0.1592707
186	0x3d623ed1	0.055235688
187	0xbd969f2e	-0.0735458
188	0x3d85292e	0.06501995
189	0xbe00c2e6	-0.12574348
190	0xbb3fd737	-0.0029272565
191	0x3dafbc5a	0.08580847
192	0x3f0005b0	0.5000868
193	0xbf38eb8a	-0.72234404
194	0xbd25f188	-0.040513545
195	0x3e0c8be4	0.13725239
196	0x3df6454b	0.12024935
197	0xbe978736	-0.29595345
198	0x3cccc3c1	0.024995686
199	0xbbac3306	-0.005255106
200	0x3f9cc500	1.224762
201	0xc016033b	-2.3439472
202	0x3d00f7cd	0.03148632
203	0xbcfae0f7	-0.03062485
204	0xbff3a725	-1.9035383
205	0x3f1d41bb	0.6142842
206	0xbd2ae095	-0.041718084
207	0x3e2ceee8	0.1688801
208	0x3f50b836	0.81531084
209	0xbf2b37dd	-0.66882116
210	0x3d98e673	0.0746583
211	0x3fa7394c	1.3064361
212	0x3e2873c1	0.16450407
213	0xbfb667ea	-1.4250462
214	0x3d06ca1c	0.03290759
215	0x3fa0703b	1.253425
216	0x3f3e7dfd	0.7441099
217	0xbf4c7f73	-0.7988197
218	0x3f016218	0.50540304
219	0x3e8d0a64	0.2754699
220	0x3d52ef11	0.051497523
221	0xbf7139e3	-0.94228953
222	0x3f000d39	0.50020176
223	0x3e8f15c1	0.27946284
224	0x3f6c80a0	0.92383766
225	0xbece4e5c	-0.40294158
226	0x3e3e265e	0.18569323
227	0x3f6edad0	0.9330263
228	0x3e0d19e9	0.13779415
229	0xbf70743c	-0.9392736
230	0x3dbf904b	0.093536936
231	0x3f664541	0.89949423
232	0x3f5afaaf	0.8553876
233	0xbffe900b	-1.9887708
234	0xbe531aa7	-0.20615636
235	0x3f8a5956	1.0808513
236	0xbdf5585e	-0.11979745
237	0xbfb4363d	-1.4079052
238	0xbe4a3f0e	-0.19750616
239	0x3f880252	1.0625708
240	0x3f311a2f	0.6918058
241	0xc01131c5	-2.2686627
242	0xbe188e0c	-0.14897937
243	0x3f8c854d	1.097818
244	0x3b5f3e82	0.0034064357
245	0xbf7d9c9a	-0.9906708
246	0xbe1293e3	-0.14314227
247	0x3f8c1949	1.0945216
248	0x3f351c3d	0.70746213
249	0xc017e046	-2.3730636
250	0x3df72e84	0.12069419
251	0x3dad4edc	0.08462307
252	0xbe1f688f	-0.1556723
253	0xbf60e187	-0.8784413
254	0x3d87127f	0.06595325
255	0x3e15b5d8	0.14620149

fcs1.bias f4 [400]
0	0xbedf6311	-0.4363027
1	0x3fb3dc5b	1.4051622
2	0xc01ea976	-2.479093
3	0xbf878bcb	-1.0589536
4	0xbfb1eaec	-1.3899817
5	0xbef4cbf9	-0.4781187
6	0xbf7c80be	-0.98633945
7	0xc0684526	-3.6292205
8	0xbf0db759	-0.5535789
9	0xbf338a8a	-0.7013327
10	0x3fbbd6e1	1.4674951
11	0x3ea8840c	0.32913244
12	0xbfea93af	-1.832632
13	0xbf20f36c	-0.6287143
14	0xbf7e4ce8	-0.993361
15	0xbfa9918d	-1.3247544
16	0xbfaa9a1d	-1.3328282
17	0xbe5a10a2	-0.21295407
18	0xbf8874ab	-1.0660604
19	0xbe1a879d	-0.15090795
20	0xbf405459	-0.75128704
21	0xc01f71c2	-2.4913182
22	0xbd37382a	-0.044731297
23	0xbe0a3adf	-0.1349902
24	0xbe985aa4	-0.29756653
25	0xbfd4f582	-1.6637423
26	0xbec0a288	-0.37624002
27	0xbf84e887	-1.0383462
28	0xc010922f	-2.2589223
29	0xbf88d1d4	-1.0689034
30	0xbe99b9c0	-0.30024529
31	0x3c5150b9	0.012775593
32	0xbf7e2548	-0.99275637
33	0xbf29544c	-0.6614425
34	0xbf6b01ef	-0.91799825
35	0xbfa67c33	-1.3006653
36	0xc093e022	-4.62111
37	0xbf25afb8	-0.6472125
38	0x3e023ffc	0.1271972
39	0xc076a4b2	-3.8538022
40	0xbc943eb7	-0.018096311
41	0xbd673940	-0.056451082
42	0xbcc8b568	-0.024500564
43	0xbf07ea51	-0.53091913
44	0xc0929449	-4.580601
45	0x3e8213c2	0.254057
46	0x3eeea5ee	0.4661097
47	0xbf9d9ab8	-1.2312841
48	0xbd330194	-0.043702677
49	0x3eb46a12	0.35237175
50	0xbde13f2c	-0.10998377
51	0xbf82ab02	-1.0208437
52	0xbc569b74	-0.013098586
53	0xbe33f806	-0.17575082
54	0xbe631ed5	-0.2217973
55	0x3d8fe46c	0.0702599
56	0x3e456341	0.19276144
57	0xbefdcaf7	-0.49568912
58	0xbd110611	-0.035406176
59	0xbec4f82e	-0.38470596
60	0xbf82b261	-1.0210687
61	0xbe983a98	-0.29732203
62	0xbf01f0b6	-0.5075792
63	0xbd85559b	-0.065104686
64	0xbfbdb827	-1.4821824
65	0xbf2d80ad	-0.6777447
66	0xbf870c60	-1.0550652
67	0x3eb566ee	0.35430092
68	0xbf0f54c2	-0.55988705
69	0xc0028d8a	-2.0398889
70	0xc02b1d69	-2.67367
71	0xc016f92e	-2.3589587
72	0xc095506c	-4.666067
73	0xbf334cea	-0.70039237
74	0xbeb90f98	-0.3614471
75	0xbf0a31a8	-0.5398202
76	0xbe2e3f1e	-0.17016265
77	0xbfaa280c	-1.3293471
78	0xbf6e2252	-0.9302112
79	0xc07e49b3	-3.9732482
80	0xbe08cda7	-0.133597
81	0xbf9e81e5	-1.2383391
82	0xc01caf46	-2.4481978
83	0xbfc986d4	-1.5744271
84	0xbd934c73	-0.07192316
85	0xbe95ff22	-0.29296213
86	0xbe919b8e	-0.2843899
87	0xbfa67ec4	-1.3007436
88	0xbfec616f	-1.8467234
89	0xbf12459a	-0.57137454
90	0xbf42c062	-0.760748
91	0xbf1b3b89	-0.6063772
92	0xc06aae0f	-3.6668737
93	0xbd78403d	-0.060608137
94	0xbfcbb077	-1.5913228
95	0x3da6d84a	0.081467226
96	0xbfce9ab6	-1.6140964
97	0xbe6a6e3f	-0.22893618
98	0xbf886a8a	-1.0657513
99	0x3f081567	0.5315766
100	0xbe35410d	-0.17700596
101	0xbf139efd	-0.5766447
102	0xc077b46d	-3.8703873
103	0xbfa753ad	-1.3072411
104	0xbeb93a48	-0.36177278
105	0xc034c559	-2.8245451
106	0xbf441ba9	-0.76604706
107	0xc005e285	-2.0919507
108	0xbfdaf12e	-1.7104852
109	0xbf96b46b	-1.1773809
110	0xbe6c021d	-0.23047681
111	0xbf196893	-0.5992519
112	0x3f5e24fe	0.86775196
113	0xc025d124	-2.59089
114	0xbf5d4093	-0.8642666
115	0xbf2b277a	-0.6685711
116	0xbd0c42d3	-0.034243416
117	0x3f2a1b8e	0.66448295
118	0xbea9667c	-0.33086002
119	0xbf0a3c2d	-0.5399807
120	0xbf60a13a	-0.8774601
121	0xbdf13dcc	-0.11779365
122	0xbfa18d1b	-1.2621187
123	0xbf99142c	-1.1959281
124	0xbfedf7d9	-1.8591262
125	0xbff5677a	-1.9172204
126	0xbf2a1cec	-0.6645038
127	0xbdd29e86	-0.10284142
128	0xbfb2b227	-1.3960618
129	0xbe37db11	-0.17954661
130	0xbfc3ce1b	-1.5297273
131	0xbbe79532	-0.007067346
132	0xbf801a6a	-1.0008061
133	0x3f06f148	0.52711916
134	0xbf605161	-0.87624174
135	0xbedf0846	-0.43561
136	0xbcddf516	-0.027094405
137	0xbf1e96a4	-0.6194861
138	0xbf9a75bc	-1.206718
139	0xbfd1f2b3	-1.6402191
140	0xc055feea	-3.3436837
141	0xbf6147cd	-0.88000184
142	0xbf6a017c	-0.91408515
143	0xbf5984c0	-0.84968185
144	0xc018e357	-2.3888757
145	0xbf5d1a96	-0.8636869
146	0xbf9df598	-1.2340574
147	0xbebcddba	-0.36887914
148	0xbf4739cd	-0.7782257
149	0xbd7e1f42	-0.06204153
150	0xbedf97b6	-0.43670434
151	0xbe8d9e05	-0.27659622
152	0xbf7aa233	-0.97903746
153	0xc05ce403	-3.4514167
154	0xbe8126cb	-0.2522491
155	0x3f1206ee	0.57041824
156	0xbf2d236d	-0.6763218
157	0x3ed44d9f	0.4146547
158	0xc01c3cfa	-2.4412217
159	0x3d53fa75	0.051752526
160	0xbf3668a9	-0.7125345
161	0xbeaafff0	-0.3339839
162	0xbfe28411	-1.7696553
163	0x3d9b21b5	0.075747885
164	0x3d9ecda1	0.07754064
165	0xbf1ee1d3	-0.6206333
166	0x3b2c1435	0.0026257162
167	0xbe23fbb0	-0.1601398
168	0xbf5a6a79	-0.85318714
169	0xc057f6cb	-3.374438
170	0xc004585f	-2.0678937
171	0xbf147f52	-0.58006775
172	0xbfe5a0c2	-1.7939684
173	0xbf915c3c	-1.1356273
174	0xbe9f1d65	-0.31077114
175	0x3f7f1df0	0.99655056
176	0xc080a4da	-4.0201235
177	0xbf3e323b	-0.74295396
178	0xbe4ef7f8	-0.2021178
179	0xbf1c1713	-0.6097271
180	0xbf887ac9	-1.0662471
181	0xbf282f4c	-0.6569717
182	0xc0238c66	-2.5554442
183	0xbf7468db	-0.95472497
184	0xbf917d83	-1.1366428
185	0x3f8ebaf7	1.1150807
186	0x3e779f57	0.24181877
187	0xbe9d32ac	-0.30702722
188	0xbf481aa6	-0.7816566
189	0xbeef34b9	-0.46719912
190	0xbfa277ea	-1.2692845
191	0xc02233a1	-2.5344012
192	0xbfed8306	-1.855561
193	0xbf4ce91d	-0.800432
194	0xbf4ecb80	-0.80779266
195	0xbf3580c5	-0.7089961
196	0x3f11614c	0.5678909
197	0xbf598eca	-0.84983504
198	0xbf02782c	-0.5096462
199	0xbf26da9d	-0.6517733
200	0xbee2999b	-0.44257817
201	0xbfb45a5a	-1.4090073
202	0xbf5c82a5	-0.8613685
203	0x3eb738de	0.35785574
204	0xbe352c20	-0.17692614
205	0xbf6eb510	-0.9324503
206	0xc03f906d	-2.99319
207	0xbf2df137	-0.6794619
208	0xbed95d7d	-0.42454138
209	0x3f6d4a11	0.9269114
210	0xbf0ceb7f	-0.5504684
211	0xbf4d0b1a	-0.80095065
212	0xbfc7c8ea	-1.5608189
213	0xbf2a2729	-0.66466004
214	0xbe9e1c87	-0.3088114
215	0xbf3fb12c	-0.7487972
216	0x3e551ad6	0.20811018
217	0xbfc90029	-1.5703174
218	0xbed9ab26	-0.42513388
219	0xbe9c0d77	-0.30479023
220	0xc06e0f80	-3.719696
221	0xbebd381c	-0.3695687
222	0x3fc3bcda	1.5292008
223	0xbfb83c65	-1.4393431
224	0xbede6cbf	-0.43442342
225	0xbfc1e0dc	-1.5146747
226	0xbe6dc17c	-0.2321834
227	0xbf805294	-1.0025201
228	0xc00d6d4b	-2.2097957
229	0xbfb9f13a	-1.4526742
230	0xc01fc044	-2.49611
231	0xbd7369e7	-0.05942717
232	0xc071de57	-3.7791955
233	0xbfd17718	-1.636447
234	0x3de59553	0.11210122
235	0x3ec594c4	0.38590062
236	0xbf8bf5ed	-1.0934426
237	0xc02e96ca	-2.7279534
238	0xbf9c2891	-1.219988
239	0xbf55ada3	-0.83468074
240	0xbdff3528	-0.124613106
241	0xbf102285	-0.5630267
242	0x3d95f476	0.07322018
243	0xc07230e6	-3.7842345
244	0xc00e7325	-2.2257779
245	0xbf8862ce	-1.0655153
246	0xbe9c12d1	-0.30483106
247	0x3f052dd2	0.5202304
248	0x3eff19e7	0.4982445
249	0xbf214d9d	-0.63009053
250	0xbe900bfd	-0.28134146
251	0x3e5d5e77	0.21618067
252	0xbeb9afd6	-0.36266965
253	0xbf2f8ef9	-0.68577534
254	0xbe2d759c	-0.16939396
255	0xbfdd7b9b	-1.7303346

fc2.weight f4 [300, 400]
0	0xbd0d81b6	-0.03454753
1	0xbe0b512c	-0.13605183
2	0xbe10fec8	-0.14159691
3	0x3cdd8292	0.0270398
4	0xbde7b3b5	-0.11313573
5	0xbd6d955d	-0.058003772
6	0xbcc96463	-0.024584
7	0x3d0b4f77	0.03401133
8	0xbce9ae7c	-0.028525583
9	0xbc5da23f	-0.013527452
10	0xbdbaae3d	-0.091152646
11	0xbcc1a8e1	-0.023640098
12	0x3c9f3ed4	0.019439138
13	0xbda2d787	-0.07951265
14	0xbc98ba29	-0.018643456
15	0x3d28b92e	0.041192226
16	0x3d8b89f2	0.0681342
17	0xbd167aca	-0.036738195
18	0x3ca80bf0	0.020513505
19	0x3cf0356c	0.029322349
20	0xbded672d	-0.11591945
21	0x3d420584	0.04736854
22	0x38f45c28	0.00011651992
23	0x3d62f8ab	0.05541293
24	0xbe053818	-0.1300968
25	0x3ca37c97	0.01995687
26	0x3d1dfa0d	0.038568545
27	0xbcde174b	-0.027110716
28	0xbd1866d0	-0.037207425
29	0xbcd67d95	-0.026182929
30	0xbd54b188	-0.05192712
31	0xbcb9efa9	-0.022697287
32	0xbe031799	-0.1280197
33	0xbd6d9abb	-0.05800889
34	0xbb1dff9b	-0.0024108652
35	0xbcd35efd	-0.02580213
36	0x3d918dc2	0.07107116
37	0xbd1284bc	-0.035771117
38	0xbda4aaf1	-0.08040417
39	0xbd0aa86d	-0.03385203
40	0x3d834631	0.06409872
41	0xbe041aca	-0.12900844
42	0x3d6fbfc8	0.058532506
43	0xbd902513	-0.07038321
44	0xbe5ae3c6	-0.21375951
45	0xbd7c1ae2	-0.061549075
46	0xbd60bcfe	-0.054867737
47	0xbc56cf54	-0.013110954
48	0xbd309d36	-0.043118678
49	0xbe0c3736	-0.13692936
50	0x3e1b5314	0.1516841
51	0x3d24c4ec	0.04022686
52	0x3cc1c8f5	0.023655394
53	0x3deb8606	0.11500172
54	0xbd5f59a5	-0.05452885
55	0xbd8ef41f	-0.06980156
56	0x3d2d18a9	0.042259846
57	0xbd86d220	-0.06583047
58	0x3aef2cc8	0.0018247599
59	0x3d806742	0.06269695
60	0x3c304a77	0.010759941
61	0xbd49c8d5	-0.049263794
62	0x3d41c652	0.047308274
63	0xbdb1f1a0	-0.086886644
64	0xbded39e0	-0.115833044
65	0x3d12dd51	0.035855595
66	0xbd933d70	-0.07189453
67	0xbcc2a64a	-0.023760933
68	0x3d2b2f6f	0.041793283
69	0xbdc77cc2	-0.097405925
70	0x3bd88fd0	0.0066089407
71	0xbca03865	-0.019558141
72	0x3c54f81f	0.01299861
73	0xbcc532be	-0.024072047
74	0xbcbf602f	-0.023361294
75	0xbc2308d9	-0.00995084
76	0x3d96d87f	0.07365512
77	0x3cd0744a	0.025446076
78	0x3ab79239	0.001400537
79	0xbc881720	-0.01661259
80	0x3dcc44e9	0.09974081
81	0xbe0e56b9	-0.1390027
82	0xbd447469	-0.04796258
83	0x3d152357	0.036410656
84	0x3cac6575	0.021044472
85	0x3ba2a741	0.004963786
86	0x3c53ad95	0.012919803
87	0xbe162687	-0.14663135
88	0xbaf80483	-0.0018922243
89	0x3d6f60b4	0.058441833
90	0xbc9c6e3c	-0.019095533
91	0xbe172658	-0.1476072
92	0xbd4a8a93	-0.04944856
93	0xbbd3c6a6	-0.0064628897
94	0x3b692587	0.0035575347
95	0xbca14329	-0.019685345
96	0xbdb23e10	-0.08703244
97	0xbc7315e7	-0.014836765
98	0xbd9a85a2	-0.0754502
99	0x3d9d2604	0.076732665
100	0x3ac8293b	0.0015271077
101	0xbd3ac475	-0.045597512
102	0xbde1a3ff	-0.11017608
103	0x3d40a566	0.047032736
104	0xbcbcd7dd	-0.02305215
105	0x3d5f9502	0.054585464
106	0x3d36b0b2	0.044602104
107	0x3bf28acd	0.0074018002
108	0xbd8b11a8	-0.06790477
109	0xbd0128b6	-0.031532966
110	0xbd83e09c	-0.06439325
111	0xbd1b94f0	-0.037983835
112	0x3c4fbc7b	0.012679215
113	0xbd754909	-0.059884105
114	0xbd4b307c	-0.049606785
115	0x3cb92a5a	0.022603203
116	0xbd5783d4	-0.052615955
117	0xbca4f971	-0.020138474
118	0xbd8b1fd5	-0.06793181
119	0x3afedc00	0.0019444227
120	0xbdf79c30	-0.12090337
121	0xbcc9fa98	-0.024655625
122	0xbcb83cc9	-0.022489922
123	0xbd57451d	-0.052556146
124	0xbd14c870	-0.036323965
125	0x3de59199	0.11209411
126	0x3d0e5d65	0.034757037
127	0xbc2a1142	-0.010380091
128	0xbba8a9c9	-0.005147193
129	0xbdec56db	-0.11540004
130	0xbd633029	-0.05546585
131	0xbd0746d2	-0.033026524
132	0xbdc44f51	-0.09585441
133	0xbe0e4ed6	-0.13897261
134	0x3e2407f4	0.16018659
135	0xbc413568	-0.011792518
136	0x3aebd7eb	0.0017993426
137	0xbdb38c4b	-0.08766993
138	0x3d89ec2b	0.067344986
139	0xbd0ffe00	-0.035154343
140	0xbdd4d876	-0.10392849
141	0xbe1b33cc	-0.15156478
142	0xbc6c3981	-0.014418007
143	0x3bd9daca	0.006648396
144	0xbdd2463d	-0.10267303
145	0xbc7d407c	-0.015457269
146	0xbdd06f9a	-0.10177536
147	0xbd3cdd86	-0.0461097
148	0xbd428ed4	-0.047499493
149	0xbd493f32	-0.049132533
150	0xbe01e4ff	-0.12685011
151	0x3dcf98c8	0.101365626
152	0xbd594549	-0.05304459
153	0xbc33d24e	-0.0109754335
154	0xbd119a81	-0.035547737
155	0xbdeb8eb4	-0.11501828
156	0x3c057b25	0.008147036
157	0x3cf3e631	0.02977285
158	0xbdaa2e31	-0.083095916
159	0xbda7bca1	-0.08190275
160	0x3cce68fc	0.025196545
161	0xbd844b17	-0.06459635
162	0xbbfcea5e	-0.0077183684
163	0xbac8e457	-0.001532684
164	0x3d9135a0	0.07090306
165	0x3b89c151	0.0042039533
166	0xbda2652e	-0.07929455
167	0xbde38b12	-0.1111051
168	0x3b83de34	0.0040242914
169	0xbe04b9d6	-0.12961516
170	0x3cf59ab8	0.029981002
171	0x3dee59f5	0.11638252
172	0xbcc6489f	-0.02420455
173	0x3cfa4a19	0.03055291
174	0x3d2a7b68	0.041621596
175	0xbdc7942c	-0.097450584
176	0xbd07a47b	-0.033115845
177	0xba756a48	-0.00093618454
178	0x3b955dc5	0.0045582973
179	0xbd66c104	-0.056336418
180	0x3dc32558	0.09528607
181	0x3d5a5228	0.053301007
182	0x3d0d1cc2	0.034451254
183	0xba99a864	-0.0011723158
184	0x3cd1dfe3	0.025619453
185	0x3d82e1a0	0.06390691
186	0x3d88bad5	0.066762604
187	0x3e193d85	0.14964874
188	0xbd61ad6e	-0.055097036
189	0xbd906825	-0.07051114
190	0x3bf86a1e	0.0075810095
191	0x3b33845e	0.002739213
192	0x3d803191	0.06259454
193	0xbdac28d6	-0.08406226
194	0xbe1f103e	-0.1553354
195	0xbd97bde4	-0.07409266
196	0x3ce1bc59	0.027555631
197	0xbd114f97	-0.035476293
198	0x3e01a5a0	0.12660837
199	0xbc95fb94	-0.018308438
200	0xbdae749d	-0.08518336
201	0xbd8db7b9	-0.06919808
202	0x3d4d2853	0.050087284
203	0xbcedc6b2	-0.02902541
204	0xbc082a26	-0.00831083
205	0xbd1f2f56	-0.038863502
206	0x3c090ee3	0.008365366
207	0x3be9c0a3	0.00713356
208	0x3d1093b1	0.0352971
209	0x3c8ec3d8	0.01742737
210	0x3c82df43	0.0159756
211	0xbd34db1e	-0.04415428
212	0xbd2635df	-0.04057872
213	0xbcce216b	-0.02516242
214	0xba8bc771	-0.0010664297
215	0xbd17506a	-0.036941923
216	0x3dc5f7ad	0.09666381
217	0xbd671cda	-0.056424
218	0xbbe5f603	-0.0070178523
219	0xbcc3c5e1	-0.023898067
220	0x3d999545	0.07499174
221	0xbcbf0c62	-0.023321334
222	0xbdd14c18	-0.10219592
223	0x3c880a45	0.01660646
224	0x390c171e	0.00013360052
225	0x3d68817e	0.05676412
226	0x3d1e17cf	0.038596924
227	0xbb2c3b6f	-0.0026280542
228	0xbb23ace8	-0.0024974886
229	0xbce225c0	-0.027605891
230	0xbb85d766	-0.0040845154
231	0xbc4ab118	-0.012371324
232	0x3d5ead81	0.054364685
233	0x3dd19b10	0.10234654
234	0xbcde1fa9	-0.027114706
235	0xbdc6e98d	-0.09712515
236	0xbd918d79	-0.07107062
237	0xbd5f8b85	-0.054576416
238	0xba0929f0	-0.00052323844
239	0xbc4dd283	-0.012562397
240	0x3cd9297b	0.026509037
241	0xbce12223	-0.027482098
242	0xbd10ef8f	-0.03538471
243	0xbddab62c	-0.10679278
244	0x3c33bc8b	0.010970245
245	0xbc9d0a45	-0.019169936
246	0xbe0be23c	-0.1366052
247	0xbd8db2b3	-0.0691885
248	0xbd862c5d	-0.065514304
249	0x3d9d89cf	0.076923005
250	0xbcb1f279	-0.021722065
251	0xbc4f712d	-0.012661261
252	0xbbf5a51e	-0.00749649
253	0xbdde890c	-0.10865983
254	0x3d1bb465	0.038013835
255	0xbd673d37	-0.056454863

fc2.bias f4 [300]
0	0xbe951325	-0.2911617
1	0xbe655190	-0.22394395
2	0xbe50bb0d	-0.20383854
3	0xbeaf7116	-0.34265965
4	0xbea320ef	-0.31861064
5	0xbe9d270f	-0.30693862
6	0xbee4a1ce	-0.44654697
7	0xbe8fc556	-0.28080243
8	0xbeb3a24d	-0.35084763
9	0xbe979cd5	-0.2961184
10	0xbf101325	-0.5627921
11	0xbecb0847	-0.39654753
12	0xbee933e3	-0.455474
13	0xbea62f5f	-0.32458016
14	0xbe588f99	-0.21148528
15	0xbea46593	-0.32108745
16	0xbeb7e054	-0.35913336
17	0xbee2f056	-0.44323987
18	0xbe934eba	-0.28771
19	0xbebfde4e	-0.37474293
20	0xbec8fc99	-0.39255217
21	0xbeac90e2	-0.33704287
22	0xbec67132	-0.38758236
23	0xbebae9ba	-0.36506444
24	0xbeb77be4	-0.3583671
25	0xbec5b3f9	-0.3861387
26	0x3e6e9af1	0.23301293
27	0xbeadd45e	-0.33951086
28	0xbe73d0be	-0.23810098
29	0xbe986ef1	-0.29772142
30	0xbf05478c	-0.52062297
31	0xbe9b17de	-0.30291647
32	0xbededec3	-0.4352933
33	0xbee515ad	-0.447431
34	0xbeb1bd15	-0.3471457
35	0xbe6d0921	-0.23148014
36	0xbec882de	-0.39162344
37	0xbf11d7a2	-0.56969655
38	0xbeef3d30	-0.4672637
39	0xbee6f606	-0.45109576
40	0xbf25421f	-0.6455402
41	0xbe4f49cb	-0.20242994
42	0xbee47bc1	-0.44625667
43	0xbe67eb29	-0.226483
44	0xbea962c7	-0.33083174
45	0xbeb6c3bc	-0.35696208
46	0xbec6a513	-0.38797817
47	0xbe719ea7	-0.23595677
48	0xbf5774a2	-0.8416234
49	0xbe84aa51	-0.2591119
50	0xbedfa6c7	-0.4368193
51	0xbe8122aa	-0.2522176
52	0xbec639fe	-0.3871612
53	0xbea1dfe0	-0.31616116
54	0xbec5c830	-0.38629293
55	0xbed8c817	-0.42340156
56	0xbe9da2a1	-0.30788139
57	0xbe908742	-0.28228194
58	0xbe739318	-0.2378658
59	0xbea14ef5	-0.31505552
60	0xbea1c377	-0.3159444
61	0xbecbc526	-0.3979885
62	0xbe8b1d87	-0.27170965
63	0xbe9d2b12	-0.30696923
64	0xbeb58c91	-0.35458806
65	0xbedf7290	-0.43642092
66	0xbe45ec26	-0.19328365
67	0xbeab45f8	-0.3345182
68	0xbebac990	-0.36481905
69	0xbebdcb3b	-0.37069115
70	0xbe8872a2	-0.26649958
71	0xbeb35071	-0.3502231
72	0xbe8ab056	-0.2708766
73	0xbec207cd	-0.37896577
74	0xbec7ac4d	-0.38998643
75	0xbf012a0f	-0.504548
76	0xbe908472	-0.28226048
77	0xbe989f60	-0.29809093
78	0xbe888818	-0.2666633
79	0xbec2ff60	-0.3808546
80	0xbea3d94b	-0.3200172
81	0xbe8a9e44	-0.27073872
82	0xbef19c51	-0.47189572
83	0xbe89c1a2	-0.26905543
84	0xbebd7d52	-0.37009674
85	0xbe961562	-0.2931319
86	0xbe8992af	-0.26869723
87	0xbebe44b0	-0.3716178
88	0xbec332d3	-0.38124713
89	0xbe83df95	-0.25756517
90	0xbea7161e	-0.32634062
91	0xbea4fffd	-0.32226554
92	0xbe1cac0d	-0.15300007
93	0xbe68f0db	-0.22748129
94	0xbe9137fb	-0.28363022
95	0x3d7032cc	0.058642194
96	0xbea00f36	-0.31261605
97	0xbe681898	-0.22665632
98	0xbf221844	-0.63318276
99	0xbe9797ab	-0.296079
100	0xbe971ac4	-0.29512608
101	0xbea240dd	-0.31690112
102	0xbea1dc6e	-0.31613487
103	0xbe2d4827	-0.16922055
104	0xbeb2253b	-0.3479403
105	0xbed816bf	-0.42204854
106	0xbe5a9e22	-0.21349385
107	0xbed94520	-0.4243555
108	0xbe96c035	-0.29443517
109	0xbe97c419	-0.29641798
110	0xbea773aa	-0.32705432
111	0xbebba927	-0.3665249
112	0xbf292283	-0.66068286
113	0xbf0e1610	-0.55502415
114	0xbe4289f5	-0.18997939
115	0xbe5a49f3	-0.21317272
116	0xbeae336d	-0.3402361
117	0xbe884d15	-0.2662131
118	0xbf29b499	-0.66291195
119	0xbe67b544	-0.22627741
120	0xbe766622	-0.24062398
121	0xbe8fcd34	-0.28086245
122	0xbebfb258	-0.37440753
123	0xbe96e48f	-0.2947125
124	0xbe2dd2ee	-0.16974995
125	0xbee44dc9	-0.44590595
126	0xbecdf54c	-0.4022621
127	0xbeb24705	-0.3481981
128	0xbec3c9cc	-0.38239896
129	0xbe8600b3	-0.26172408
130	0xbe8d9748	-0.2765448
131	0xbead6821	-0.33868507
132	0xbeea33af	-0.45742556
133	0xbf080dad	-0.5314587
134	0xbead7b7a	-0.33883268
135	0xbe97c9e3	-0.29646215
136	0xbe5b7bd5	-0.21433957
137	0xbe4453b0	-0.19172549
138	0xbe9cdb7b	-0.306362
139	0xbe9d1699	-0.30681303
140	0xbed72fdc	-0.420287
141	0xbe5c6253	-0.21521883
142	0xbebeca6f	-0.3726382
143	0xbeb02e6c	-0.34410417
144	0xbe937b9d	-0.28805247
145	0xbe9c936e	-0.3058123
146	0xbe7c084d	-0.24612541
147	0xbea43c43	-0.32077226
148	0xbe7e12cf	-0.24811862
149	0xbeccfbb5	-0.40035787
150	0xbe853bb8	-0.26022124
151	0xbe98fb14	-0.29879057
152	0xbe9aa599	-0.30204466
153	0xbe5f97a7	-0.21835195
154	0xbea7d1e5	-0.32777324
155	0xbeb887c0	-0.3604107
156	0xbe84a94a	-0.25910407
157	0xbe2bdb96	-0.16782984
158	0xbf110405	-0.5664676
159	0xbe9215f1	-0.28532365
160	0xbeb103db	-0.34573254
161	0xbe80f5c7	-0.25187513
162	0xbeb378cc	-0.35053098
163	0xbec99462	-0.3937102
164	0xbebac736	-0.3648011
165	0xbe7a85aa	-0.24465051
166	0xbe8eeedf	-0.2791662
167	0xbe6768ce	-0.22598574
168	0xbeb7ea01	-0.35920718
169	0xbe7890a6	-0.24273929
170	0xbee3e96b	-0.4451402
171	0xbe85555e	-0.26041692
172	0xbe99e583	-0.30057916
173	0xbe763028	-0.24041808
174	0xbe9cc7d8	-0.3062122
175	0xbe377680	-0.17916298
176	0xbe7426f2	-0.23842981
177	0xbe92973e	-0.28631014
178	0xbec7ddef	-0.3903651
179	0xbe84d75a	-0.2594555
180	0xbea0191c	-0.31269157
181	0xbe92232c	-0.2854246
182	0xbeba9974	-0.364452
183	0xbeb836d9	-0.35979345
184	0xbe48bc0d	-0.19602986
185	0xbf1dbcd2	-0.6161624
186	0xbecf5d38	-0.40500808
187	0xbe80528c	-0.25062978
188	0xbea8ceb3	-0.329702
189	0xbf81fe28	-1.0155687
190	0xbeb0aff9	-0.34509256
191	0xbee84ccc	-0.4537109
192	0xbeece1b5	-0.4626595
193	0xbe9dc9bf	-0.30817983
194	0xbe5ff215	-0.2186969
195	0xbe78bd41	-0.24290945
196	0xbe98a0a9	-0.29810074
197	0xbecfd416	-0.40591496
198	0xbeaeadbf	-0.34116933
199	0xbe72dcce	-0.23717043
200	0xbea3559f	-0.3190126
201	0xbe3b1e93	-0.18273382
202	0xbe7da9d4	-0.24771816
203	0xbea22423	-0.31668195
204	0xbe8ce013	-0.27514705
205	0xbec7847d	-0.38968268
206	0xbea18712	-0.31548363
207	0xbea4bde6	-0.3217613
208	0xbea022e5	-0.31276622
209	0xbedbca1f	-0.42927644
210	0xbebda855	-0.3704249
211	0xbea07ee2	-0.31346804
212	0xbe95bba7	-0.2924473
213	0xbe7b0c13	-0.24516325
214	0xbe943186	-0.28944033
215	0xbe921a0b	-0.28535494
216	0xbe8a58a6	-0.27020758
217	0xbee937d1	-0.45550397
218	0xbe8880cd	-0.26660767
219	0xbe783f5e	-0.24242923
220	0xbe94973e	-0.2902164
221	0xbe6fd176	-0.23419747
222	0xbe963b09	-0.29341915
223	0xbe8fd430	-0.28091574
224	0xbeaa493f	-0.33259007
225	0xbeb617c6	-0.35565013
226	0xbe71efef	-0.23626684
227	0xbec94810	-0.39312792
228	0xbe91388c	-0.28363454
229	0xbea86727	-0.328912
230	0xbe91e631	-0.28495935
231	0xbe768a62	-0.24076226
232	0xbe99d609	-0.30046108
233	0xbeb0c87e	-0.34527963
234	0xbe9f603d	-0.3112811
235	0xbe5a868e	-0.21340391
236	0xbec13c4a	-0.3774131
237	0xbe611d2d	-0.21983786
238	0xbe8a00cc	-0.26953733
239	0xbe8c7e02	-0.27439886
240	0xbeaa0819	-0.33209303
241	0xbe8df19e	-0.27723402
242	0xbeb2b91b	-0.3490685
243	0xbe975523	-0.29557142
244	0xbeb23ef1	-0.34813645
245	0xbe99d477	-0.3004491
246	0xbe8d33d0	-0.27578592
247	0xbebbcc04	-0.3667909
248	0xbef3d4c4	-0.47623265
249	0xbe7d0a7c	-0.2471103
250	0xbed2907c	-0.41125858
251	0xbe9711fe	-0.29505914
252	0xbec8e0e5	-0.3923408
253	0xbec3b4bc	-0.38223827
254	0xbe522def	-0.20525335
255	0xbeee92e2	-0.46596438

fc3.weight f4 [1, 300]
0	0xbc2b579a	-0.010457898
1	0xbc914466	-0.01773281
2	0x3b32b86a	0.0027270564
3	0xbcb74ca1	-0.022375407
4	0xbc5bf87f	-0.013425945
5	0xbc969066	-0.018379401
6	0xba2ff4ca	-0.00067121966
7	0xbc92f15e	-0.017937358
8	0x3ca4bbba	0.020109046
9	0x3cc3205d	0.023819143
10	0x3d3a9369	0.045550738
11	0x3bb78481	0.0056005125
12	0x3c8eb027	0.01741798
13	0x3c15760e	0.009122385
14	0xbabcabae	-0.0014394426
15	0xbb331798	-0.0027327295
16	0xbc0966bc	-0.00838631
17	0x3c4a0cee	0.012332184
18	0x3b95f726	0.0045765815
19	0x3ce16f0e	0.027518775
20	0x3ca196d7	0.019725246
21	0x3cec53d5	0.028848568
22	0x3c2023e8	0.009774186
23	0xbbae1e79	-0.005313691
24	0x3cb3e9d7	0.02196209
25	0xbc99e4b1	-0.018785806
26	0x3c84f937	0.016232116
27	0xbb9d7558	-0.004805248
28	0xbc498ff1	-0.012302385
29	0xbb6c287c	-0.0036034873
30	0x3be95d93	0.0071217506
31	0x3cde5761	0.027141275
32	0x3cd105e9	0.025515513
33	0xbc179df9	-0.009253972
34	0x3cfaca18	0.030613944
35	0x3c48bd8c	0.012252223
36	0x3b910e27	0.004426736
37	0xbd250135	-0.040284354
38	0xbb55de03	-0.003263355
39	0x3c1a474e	0.009416414
40	0xbd75f665	-0.060049433
41	0xbc8d69a8	-0.017262295
42	0xbca07097	-0.019584937
43	0x3c56107c	0.013065454
44	0xbcf5b3c4	-0.029992945
45	0x3c4a8cfb	0.012362714
46	0xbb7f87c8	-0.0038990844
47	0xbb466907	-0.0030275004
48	0x3cb72660	0.022357166
49	0xbc1f7bfd	-0.009734151
50	0xbd0d3ad9	-0.03447995
51	0xbb626af1	-0.0034548605
52	0xbc4dc074	-0.012558091
53	0xbc368ac7	-0.011141486
54	0x3c288e53	0.010287839
55	0xbc9458d6	-0.018108767
56	0x3cb10f53	0.021613752
57	0x3cbc78e5	0.023006866
58	0x3c657574	0.014005054
59	0x3b1ce833	0.0023942112
60	0xbc5cc124	-0.013473783
61	0xbcfd5507	-0.030924333
62	0x3c9c96be	0.019114848
63	0xbbb4de62	-0.005519674
64	0xbc45c7da	-0.012071574
65	0xbd308fbe	-0.043105833
66	0x3c27b3cc	0.010235738
67	0xbb173975	-0.0023075019
68	0xbc87d98b	-0.016583225
69	0x3cd4e5c1	0.025988461
70	0xbd3e484c	-0.046455666
71	0x3bca8248	0.0061800815
72	0x3ce1a979	0.027546631
73	0xbad013e1	-0.0015875065
74	0xbc904ece	-0.017615702
75	0xbd1c26a6	-0.038122796
76	0x3c48e974	0.012262691
77	0x3c734923	0.01484898
78	0x3cd0cae9	0.02548738
79	0x3c20baaf	0.009810134
80	0x3c6a09eb	0.014284591
81	0x3c3a6c48	0.011378355
82	0x3c8c941a	0.017160464
83	0xbc03b62e	-0.0080390405
84	0x3cb98eb6	0.022651058
85	0x3b1e59c5	0.0024162394
86	0xbcb19a16	-0.02167992
87	0xbcfba919	-0.03072028
88	0x3b4a3599	0.00308547
89	0x3cc78b0f	0.0243583
90	0xbb4d35d2	-0.0031312597
91	0xbb96eb0b	-0.004605656
92	0x3c619168	0.013767578
93	0x3cc50d31	0.024054142
94	0xbc6e8cb0	-0.01455991
95	0x3c87ab1c	0.016561083
96	0xbae32042	-0.0017328339
97	0x3c06b830	0.008222625
98	0xbbc8a900	-0.006123662
99	0xbb705905	-0.0036674154
100	0xbb90f4da	-0.00442372
101	0x3b8a11a1	0.0042135273
102	0x3c20aaed	0.009806377
103	0xb89bf356	-7.436301e-05
104	0xbc57fd42	-0.01318294
105	0xbc38c443	-0.011277261
106	0x3ab595b9	0.0013853825
107	0xbbf29897	-0.007403444
108	0xbb55a074	-0.0032596858
109	0x3cae0b98	0.021245763
110	0xbc66196f	-0.01404415
111	0x3cb668a6	0.022266697
112	0x3b6e25e1	0.0036338496
113	0x3cf1b5a8	0.029505566
114	0x3bba6d7c	0.005689321
115	0xbc944f56	-0.018104237
116	0xb9f95965	-0.00047559585
117	0x3c2348da	0.0099661
118	0xbd8e0709	-0.069349356
119	0x3b03a00d	0.0020084411
120	0xbbf55f56	-0.0074881716
121	0x3c2c61d1	0.010521368
122	0x3cfb2256	0.030656021
123	0x3c428fd2	0.01187511
124	0x3bd6ce0e	0.0065553254
125	0xbcea2820	-0.028583586
126	0x3b095770	0.0020956658
127	0xbca84ee2	-0.020545427
128	0xbb85c4fb	-0.00408232
129	0xbc5af769	-0.013364651
130	0x3c4ba8ad	0.012430352
131	0x3c1d5732	0.0096033085
132	0x3cf02aa6	0.029317211
133	0x3cb87b8f	0.022519855
134	0x3bca9c98	0.006183218
135	0x3c183b30	0.009291455
136	0x3c988b3a	0.018621076
137	0xbc4efe43	-0.012633863
138	0xbc28a11f	-0.0102923205
139	0xbc3b33c2	-0.011425914
140	0xbca1a3f7	-0.019731505
141	0xbb723bc0	-0.0036961883
142	0xbc225c75	-0.009909739
143	0xbc9947cf	-0.018710999
144	0xbcb76d53	-0.022390997
145	0x3cce9238	0.025216207
146	0xbc2eff51	-0.010680989
147	0x3c554a54	0.0130182095
148	0x3b2b94a1	0.002618112
149	0xbd146441	-0.036228422
150	0x3cdcbe98	0.026946351
151	0xbb8532ec	-0.0040649083
152	0x3c5b3379	0.013378971
153	0xbca6012f	-0.020264236
154	0x3b63be02	0.0034750705
155	0xbcb55a29	-0.022137718
156	0x3cc1d001	0.023658754
157	0x3cdfd926	0.027325224
158	0xbd68fa93	-0.05687959
159	0x3cb08a42	0.021550301
160	0xbc8e4fea	-0.01737209
161	0xbc963f9a	-0.018340874
162	0xbc995441	-0.018716933
163	0xbc7ee889	-0.01555837
164	0xbbe76c88	-0.0070624985
165	0x3c988898	0.01861982
166	0xb9eac238	-0.00044776662
167	0xbc01555b	-0.0078938855
168	0xbc8b4d85	-0.017004738
169	0x3c0feeb3	0.008784938
170	0xbc29e1c2	-0.010368766
171	0x3c44b90f	0.012007012
172	0xbcc4ccd9	-0.02402346
173	0xbaa47fe2	-0.0012550319
174	0x3cd4551f	0.025919495
175	0xbc822ae3	-0.01588959
176	0x3c413b78	0.011793964
177	0xbcbf6220	-0.02336222
178	0x3c2ea515	0.010659476
179	0x3cb8dfed	0.022567714
180	0xbbc6350f	-0.0060488055
181	0x3c0eadff	0.008708476
182	0x3cb8d9db	0.02256482
183	0xbc1dde8e	-0.009635581
184	0xbcfde52f	-0.030993072
185	0x3cc9b92d	0.024624432
186	0x3cd1757f	0.025568722
187	0xbc59f445	-0.013302867
188	0xbcabd0b7	-0.020973546
189	0xbab47066	-0.0013766408
190	0xbcbd8e46	-0.02313913
191	0x3cafb433	0.02144823
192	0x3c82e86a	0.015979964
193	0xbc54ca80	-0.012987733
194	0x3ade4fce	0.001696104
195	0xbbd4c197	-0.0064928043
196	0x3bb69365	0.00557177
197	0xbb8ddd8b	-0.0043293885
198	0x3ca6e112	0.020370994
199	0x3d210f2a	0.039321102
200	0x3a2a80c8	0.0006504175
201	0xbc2fbeac	-0.010726612
202	0x3c3cdde3	0.011527511
203	0x3b0eb0b2	0.00217728
204	0xbba080a4	-0.0048981477
205	0x3ab8f6eb	0.0014111673
206	0x3c2dd2c6	0.010609334
207	0x3c1e11a9	0.009647765
208	0x3aeaf02c	0.001792436
209	0xbbcbbd0e	-0.0062176054
210	0xbbc850cb	-0.006113147
211	0x3c90669b	0.017627051
212	0x3c1f3906	0.009718185
213	0x3ccb56f0	0.024821728
214	0xbba05440	-0.004892856
215	0x3c8569e0	0.016285837
216	0xbc86744d	-0.016412878
217	0xb9b4ce00	-0.00034485757
218	0xbcbbc3b2	-0.022920463
219	0xbc164bc4	-0.009173337
220	0x3c89431e	0.016755637
221	0x3b88bb2e	0.004172704
222	0x3b296214	0.0025845813
223	0xb975eb9f	-0.00023452796
224	0x3bc4f567	0.0060106996
225	0xbbe160ec	-0.006878009
226	0xbcb2166b	-0.021739205
227	0x3d0ffe8f	0.035154875
228	0x3bdc23db	0.0067181415
229	0x3c1c7367	0.009548998
230	0xbc1dd95d	-0.009634343
231	0x3c4e57a9	0.012594142
232	0xbca73b44	-0.020414002
233	0xbc1d1711	-0.009588019
234	0xbcb19d22	-0.021681372
235	0xbc9b2de0	-0.018942773
236	0xbcb69946	-0.022289883
237	0xbc88c0ce	-0.016693499
238	0x3c5a3245	0.013317649
239	0xbcdd0b43	-0.026982909
240	0x3caafcf8	0.020872578
241	0x3c862554	0.016375221
242	0xbc3e9539	-0.011632257
243	0x3cc49ec5	0.024001488
244	0xbc82afc7	-0.015952958
245	0x3bd2dc2e	0.006434939
246	0xbb918a00	-0.0044414997
247	0x3d1d6d88	0.038434535
248	0x3ae58d29	0.0017513382
249	0x3b755519	0.0037434755
250	0xbb62e869	-0.003462339
251	0x3cceb8d6	0.025234621
252	0x3bffcfe9	0.0078067672
253	0x3c87701c	0.01653295
254	0xbb48d7c0	-0.0030646175
255	0xbc816f6b	-0.015800199

bn1.weight f4 [400]
0	0x3d07788d	0.03307395
1	0x3e810a1b	0.25203022
2	0x3e853b81	0.2602196
3	0x3ec2e033	0.38061675
4	0x3df9e9f6	0.12202828
5	0x3e2b51f4	0.16730481
6	0x3d9bccf7	0.07607453
7	0x3e16254b	0.14662664
8	0x3e3076e4	0.17232853
9	0x3e8b509c	0.27209938
10	0x3e81d8dd	0.25360766
11	0x3dcb7050	0.09933531
12	0x3e3c0695	0.18361886
13	0x3e89decf	0.26927802
14	0x3d94b854	0.0726172
15	0x3ea25ac1	0.31709865
16	0x3e92040d	0.28518716
17	0x3e162c75	0.14665397
18	0x3e112b0d	0.14176579
19	0x3e278976	0.16361031
20	0x3ed28143	0.41114244
21	0x3efd501e	0.49475187
22	0x3e9988b5	0.29987112
23	0x3dbc1353	0.09183373
24	0x3f53f80b	0.8280036
25	0x3e1de67f	0.15419959
26	0xbe0a6bb6	-0.13517651
27	0x3da056f9	0.07829089
28	0x3e827b61	0.25484756
29	0x3e288863	0.16458277
30	0x3dc06074	0.09393397
31	0x3e03988c	0.12851161
32	0x3e9ae463	0.3025237
33	0x3e608905	0.21927269
34	0x3fa876bd	1.3161236
35	0x3dafde44	0.08587316
36	0x3f206f2e	0.62669647
37	0x3e32ba48	0.17453873
38	0x3dc5f697	0.09666174
39	0x3f484eec	0.78245425
40	0x3d9ce72d	0.07661281
41	0x3e61e668	0.2206055
42	0x3dfa615c	0.12225601
43	0x3e8723d9	0.26394537
44	0x3e985cee	0.297584
45	0x3e3f6785	0.18691833
46	0x3e291725	0.16512735
47	0xbe2b1ce9	-0.16710247
48	0x3e0f040f	0.13966392
49	0x3f270b7e	0.6525191
50	0x3e11b699	0.14229812
51	0x3e61a084	0.22033888
52	0xbce424dd	-0.027849609
53	0x3db67898	0.0890972
54	0xbdcf1770	-0.10111892
55	0x3fcd96d6	1.6061656
56	0x3e187a0f	0.14890312
57	0x3e274301	0.16334154
58	0x3e32a04c	0.17443961
59	0x3f4753d7	0.77862304
60	0x3db66594	0.08906093
61	0x3e19fb12	0.15037182
62	0x3d35367c	0.044241413
63	0x3e4753e2	0.19465593
64	0x3ef9fcae	0.48825592
65	0x3ddd816b	0.108157
66	0x3e672445	0.2257243
67	0x3e7f8c01	0.24955751
68	0x3e191e71	0.14953019
69	0x3e29e802	0.1659241
70	0x3f58a02c	0.846194
71	0x3ef3045f	0.47464272
72	0x3f9f6779	1.2453452
73	0x3e913288	0.28358865
74	0x3eafb19c	0.34315193
75	0x3e00e5ce	0.12587664
76	0x3ee685eb	0.45024046
77	0x3e1b7263	0.15180354
78	0x3e4cc497	0.19996868
79	0x3f144cc5	0.5792964
80	0xbe5b1149	-0.21393313
81	0x3e02e222	0.12781575
82	0x3f4b9b56	0.795339
83	0x3e5d1345	0.21589382
84	0x3d9827dd	0.07429478
85	0x3e868a6c	0.26277483
86	0x3e0b7789	0.13619818
87	0x3e9b0b80	0.3028221
88	0x3e5cd6fd	0.21566387
89	0x3cee9833	0.029125309
90	0x3d9deab5	0.077107824
91	0x3ddeb8b9	0.10875077
92	0x3ed8edeb	0.42369017
93	0x3e122193	0.1427062
94	0x3e7fd80d	0.2498476
95	0x3de6834c	0.11255512
96	0x3d7a28e8	0.061074167
97	0x3f17e031	0.59326464
98	0x3ee4d356	0.44692487
99	0x3fbff30e	1.499605
100	0x3cd4633f	0.02592623
101	0x3e5654ff	0.20930861
102	0x3f736b1b	0.95085305
103	0x3dc4589e	0.09587215
104	0xbb90d1d0	-0.004419543
105	0x3f414f88	0.7551198
106	0x3df56f08	0.11984068
107	0x3dca1a43	0.0986829
108	0x3e245f5a	0.16051999
109	0x3de5ce97	0.112210445
110	0x3d3f5012	0.04670722
111	0x3dcdde53	0.100521706
112	0x3ec9490d	0.39313546
113	0x3f1099f2	0.564849
114	0x3df8ea28	0.12154037
115	0x3f304a31	0.6886321
116	0xbea6a280	-0.32545853
117	0x3e5ade25	0.21373804
118	0x3d9a5f2d	0.075376846
119	0x3de97c86	0.11400704
120	0xbb608ed3	-0.0034264817
121	0x3d9e033e	0.07715462
122	0x3ec4e4b9	0.38455752
123	0x3e2b5196	0.16730341
124	0x3eb6bd17	0.3569114
125	0x3e43b9d9	0.19113864
126	0x3e43e4e6	0.19130287
127	0x3e36d17c	0.1785335
128	0x3e3256bf	0.17415904
129	0x3eb29a98	0.3488357
130	0x3e66fc1d	0.22557111
131	0x3e4559af	0.19272493
132	0x3d9fa0b2	0.07794322
133	0x3f312d97	0.6921019
134	0x3e775fd8	0.24157655
135	0x3e59d4e5	0.21272619
136	0x3dafd14f	0.08584844
137	0x3e3f18da	0.18661824
138	0x3dc7a1f5	0.09747688
139	0x3d696118	0.05697736
140	0x3f366fe2	0.7126447
141	0x3e9277ab	0.28606924
142	0x3e93cf96	0.28869313
143	0x3e58e7f6	0.21182236
144	0x3e438593	0.19093923
145	0x3e3b3ed2	0.18285683
146	0x3e22d290	0.15900636
147	0x3e3c1ca1	0.18370296
148	0x3d4fbc39	0.050716612
149	0xbc1ef2ad	-0.009701413
150	0x3e418788	0.18899357
151	0x3f7383de	0.9512309
152	0x3e0e52b0	0.1389873
153	0x3f7ab372	0.9793006
154	0x3e2d613c	0.16931623
155	0x3e852164	0.26002038
156	0x3d9397b5	0.0720667
157	0x3e2d3615	0.16915162
158	0x3e044869	0.12918247
159	0x3e94c0a1	0.29053214
160	0x3e187820	0.14889574
161	0xbdebf681	-0.11521626
162	0x3e1d339f	0.15351723
163	0xbdcd50a2	-0.10025145
164	0x3e11faf2	0.14255884
165	0x3e351cb0	0.17686725
166	0x3ee75dbb	0.45188698
167	0x3e1ac743	0.15115075
168	0x3e3b2db7	0.18279158
169	0x3e9ae168	0.30250096
170	0x3ea2f9ad	0.31831113
171	0x3e1eb06f	0.15496992
172	0x3d47ba3d	0.048761595
173	0x3deeb060	0.116547346
174	0x3dcdc5c7	0.10047489
175	0x3e3a0f31	0.18169858
176	0x3ebb2bb3	0.36556777
177	0x3df18534	0.117929846
178	0x3de68cdf	0.11257338
179	0x3ef758e4	0.48310006
180	0x3e3f5a4a	0.18686786
181	0x3e0aef43	0.13567834
182	0x3f991600	1.1959839
183	0x3e382a3c	0.17984861
184	0x3e947a4e	0.2899956
185	0x3e03a14b	0.12854497
186	0x3e96a34b	0.29421458
187	0x3e05f1c7	0.13080512
188	0x3e770f9d	0.2412705
189	0x3d74e558	0.05978903
190	0x3f8ae043	1.0849689
191	0x3ec13e03	0.37742624
192	0x3d999bcc	0.07500419
193	0x3ee99707	0.45623037
194	0x3e1299ce	0.14316484
195	0x3e2ee5de	0.17079875
196	0x3e0cb206	0.13739786
197	0x3cacb9b5	0.021084646
198	0x3da14144	0.078737766
199	0x3e874d68	0.26426244
200	0x3e310002	0.17285159
201	0x3e6aef69	0.2294289
202	0x3d998aa1	0.074971445
203	0x3e0f864f	0.14016078
204	0x3f92b16e	1.1460397
205	0x3d756faa	0.059920944
206	0x3ef347d5	0.4751574
207	0x3ebfff1a	0.37499315
208	0x3e177321	0.14790012
209	0x3ed170c4	0.40906346
210	0x3e8553f3	0.2604061
211	0x3e9b4ca5	0.30331913
212	0x3e029a90	0.12754273
213	0x3ea2b9dd	0.31782427
214	0x3dba822e	0.09106861
215	0x3e4ae955	0.19815572
216	0x3e77c5c8	0.24196541
217	0x3ecae445	0.3962728
218	0x3e1137fd	0.14181514
219	0x3df4aec9	0.119474
220	0x3f8c6bcc	1.0970397
221	0x3e4f4b41	0.20243551
222	0x3f6f9cc3	0.93598574
223	0x3e247058	0.1605848
224	0x3e117e83	0.14208417
225	0x3dd5c7f2	0.10438527
226	0x3e026e36	0.12737355
227	0x3de151be	0.11001919
228	0x3ec1035a	0.3769787
229	0x3eb156bb	0.34636483
230	0x3e823662	0.25432116
231	0x3e3eceaa	0.18633524
232	0x3f519de7	0.81881565
233	0x3e27b215	0.16376527
234	0x3e93ad83	0.28843316
235	0xbd75903e	-0.059952013
236	0x3e35ab0d	0.17741032
237	0x3ee040a5	0.4379932
238	0x3de85a5f	0.11345362
239	0x3e0d93a8	0.13825858
240	0xbba458af	-0.0050154547
241	0xbe7c5f06	-0.24645624
242	0x3f843c8b	1.0330976
243	0x3ec593a3	0.385892
244	0x3e13cc56	0.14433417
245	0x3d80f087	0.06295877
246	0x3e2cfd5f	0.16893528
247	0x3ef5729d	0.47939005
248	0x3dadd112	0.084871426
249	0x3dc6b430	0.09702337
250	0x3ed78cdb	0.42099652
251	0x3dc19527	0.09452277
252	0xbbec3cf0	-0.0072094128
253	0x3db6a779	0.089186616
254	0x3e74c41e	0.23902938
255	0x3e341a5a	0.17588177

bn1.bias f4 [400]
0	0x3a4639f9	0.0007561739
1	0x3db173ba	0.08664651
2	0x3e5d7fa3	0.21630721
3	0x3d11f3c7	0.035632875
4	0x3d211d72	0.039334722
5	0x3da446af	0.08021294
6	0xbc2b9e3d	-0.010474739
7	0xbc2bd554	-0.010487873
8	0x3a2e0ca8	0.0006639459
9	0x3d9a2852	0.07527222
10	0x3da8f026	0.0824893
11	0xbc0e5487	-0.008687145
12	0x3d35c6ae	0.04437893
13	0x3d9bba48	0.0760389
14	0xbbc5f7c2	-0.006041498
15	0x3ccd89a4	0.025090046
16	0x3d0a1710	0.0337134
17	0xbc148f09	-0.009067305
18	0x3cc3c0e4	0.023895688
19	0xbc01fd38	-0.007933907
20	0x3d84e3c6	0.06488757
21	0xbcd7691c	-0.026295237
22	0x3d09c920	0.033639073
23	0xbc970d66	-0.018439006
24	0x3e577227	0.2103964
25	0x3bc6a0dd	0.006061657
26	0xbd565a1b	-0.052332025
27	0x39ff1303	0.00048651555
28	0x3d17ea44	0.037088647
29	0x3b3ccb5e	0.002880774
30	0xbb57dfe9	-0.0032939857
31	0x3bda7514	0.006666789
32	0x3d8414ea	0.064493015
33	0x3b5637f1	0.0032687152
34	0x3ebfed63	0.374858
35	0x3c66a6eb	0.014077882
36	0x3d7ffb64	0.062495604
37	0x3bcdbacc	0.0062783714
38	0x3c7dda31	0.015493915
39	0x3ed01029	0.4063733
40	0x39943f6e	0.0002827602
41	0x3d069a19	0.032861803
42	0xbb83beea	-0.0040205615
43	0x3dc574dd	0.096414305
44	0x3e1484b9	0.14503755
45	0x3d63712d	0.055527855
46	0x3a9ac963	0.0011809285
47	0xbd1c9f22	-0.0382377
48	0x3c7560e9	0.014976718
49	0x3f0046bf	0.5010795
50	0xbc9fcfba	-0.019508231
51	0x3d26842c	0.040653393
52	0xbb63dd02	-0.0034769182
53	0xbbfb0a6d	-0.007661155
54	0xbad4cd83	-0.0016235564
55	0x3d913a5f	0.070912115
56	0x3cc23359	0.023706125
57	0x3ca14abe	0.01968896
58	0x3cb157f0	0.021648377
59	0x3e6d5ec6	0.23180684
60	0x3aaf061b	0.001335326
61	0x3c9746e6	0.018466424
62	0xbc19ff41	-0.009399236
63	0x3d0916de	0.033469073
64	0x3ae1947c	0.001721039
65	0xbc37eaf4	-0.011225451
66	0x3d960990	0.07326043
67	0x3deea0ef	0.116517894
68	0xbc7cd3d2	-0.015431361
69	0xbc9862cb	-0.018601796
70	0x3dadf183	0.0849333
71	0x3dccc558	0.09998578
72	0x3e501155	0.20319112
73	0x3b5850f6	0.003300724
74	0xbab87860	-0.001407396
75	0x3d03af9d	0.0321499
76	0xbc74933a	-0.01492768
77	0x3d489741	0.048972372
78	0x3d233de1	0.039853934
79	0x3e126767	0.14297257
80	0xbd6fb0c9	-0.058518205
81	0x3cfa6807	0.030567182
82	0x3e9c5841	0.30536082
83	0x3e01322d	0.12616797
84	0xbcb9c6ec	-0.022677861
85	0xbc80f7ac	-0.0157431
86	0xbd03d1d4	-0.03218253
87	0x3e0b8a58	0.13626993
88	0x3d69c820	0.05707562
89	0xbb8bf8ff	-0.004271626
90	0xba374ee8	-0.0006992654
91	0x3d9a4b4c	0.07533893
92	0x3e289673	0.16463642
93	0x3cd0930d	0.025460744
94	0x3d67c108	0.056580573
95	0xba1db240	-0.0006015636
96	0x3bb064fb	0.0053831316
97	0x3ddc23c0	0.10749006
98	0x3d4caeca	0.04997138
99	0x3d629eb8	0.055327147
100	0xbbba6168	-0.0056878813
101	0x3d8192b2	0.06326808
102	0x3eb50ea3	0.3536273
103	0xbce2c10b	-0.02767994
104	0xb9b59b63	-0.00034638782
105	0xbd24078e	-0.040046267
106	0x3c9269b7	0.017872674
107	0x3d01c0c0	0.03167796
108	0x3d799c03	0.0609398
109	0xbbc19f67	-0.005908895
110	0x3b6195ff	0.003442168
111	0x3c099fcb	0.008399914
112	0xbb27869c	-0.0025562411
113	0x3e3e6679	0.18593778
114	0x3bf9e5d6	0.0076262755
115	0x3dfd9451	0.12381805
116	0xbbb8e53a	-0.0056425603
117	0xbd60f936	-0.054925166
118	0xbba88a16	-0.0051434143
119	0x3c312e2c	0.010814231
120	0x3bc40112	0.005981573
121	0xbafd9983	-0.0019348118
122	0x3d945b0a	0.07243927
123	0x3d15e6fd	0.03659724
124	0x3dc4c6a9	0.09608204
125	0x3d20a87c	0.03922318
126	0x3b0dace2	0.0021617939
127	0x3d111f9d	0.03543054
128	0x3d826996	0.06367795
129	0xbbe1bae4	-0.006888734
130	0x3e13ba5c	0.14426559
131	0x3d178138	0.036988467
132	0x3be00d91	0.0068375547
133	0x3f1665da	0.58749163
134	0x3da9c79d	0.08290026
135	0x3d39e0b6	0.045380317
136	0xbbadc441	-0.0053029363
137	0x3d9329dc	0.071857184
138	0x3c846335	0.016160587
139	0x3aebeca9	0.0017999607
140	0x3e8ea623	0.27861127
141	0x3e2be5e5	0.16786917
142	0x3b04724a	0.0020209723
143	0x3dd8b04e	0.105805025
144	0x3b4f6b77	0.0031649747
145	0x3c24d61e	0.010060815
146	0x3cd6dbc6	0.026227843
147	0x3cc97e14	0.024596252
148	0xbc0bd501	-0.008534671
149	0x38338b5e	4.280672e-05
150	0x3ddafdc6	0.10692935
151	0xbd710e50	-0.05885154
152	0x3d03d1a2	0.032182343
153	0x3e8e2b98	0.27767634
154	0x3c83a060	0.016067684
155	0x3db39fd4	0.08770719
156	0xbc576351	-0.0131462375
157	0x3c7a32a4	0.015270863
158	0xbc93b5bc	-0.018030994
159	0x3d974669	0.073864765
160	0x3ca5a9c4	0.020222552
161	0x3b1c5ee6	0.0023860275
162	0x3bf1b277	0.007376011
163	0xbca5ce0d	-0.020239854
164	0x3abc7f58	0.0014381213
165	0xbc962f8b	-0.018333217
166	0x3db73453	0.08945527
167	0x3d461abf	0.04836535
168	0x3cd0aa96	0.025471967
169	0x3d8a0a04	0.067401916
170	0x3e0d697c	0.1380977
171	0xbd52a9e3	-0.051431548
172	0x3b49b58e	0.003077838
173	0xbc190ee4	-0.009341929
174	0x3c2d1dd7	0.010566196
175	0x3d791fdc	0.0608214
176	0x3e7462d0	0.23865819
177	0x3bd7fca4	0.0065913964
178	0x3d01bd7f	0.03167486
179	0x3e288d61	0.16460182
180	0xbe01a9ad	-0.12662382
181	0xbb07e8dc	-0.002073816
182	0x3ee51db9	0.4474924
183	0x3c93de75	0.018050412
184	0x3db58fbb	0.08865305
185	0xbcad7a8e	-0.021176603
186	0x3d850d95	0.06496731
187	0xbcb11695	-0.021617213
188	0x3c92b0e2	0.01790661
189	0x3c980dd5	0.018561283
190	0x3e87993f	0.26484105
191	0x3e0d81fb	0.13819115
192	0xbce4a7ab	-0.027911982
193	0x3d6bf0e8	0.057602793
194	0x3d3f1ff5	0.046661336
195	0x3c1a1198	0.009403609
196	0x3b93bb2b	0.004508396
197	0x3b43f9cd	0.0029903532
198	0xbc4cad41	-0.012492479
199	0x3dcd43b0	0.10022676
200	0x3d056ddd	0.032575477
201	0x3bd09f6b	0.0063666604
202	0x39c8ba65	0.00038285847
203	0xbbe3b21a	-0.0069487216
204	0x3e649219	0.22321357
205	0xbc38448b	-0.011246811
206	0xbddae987	-0.10689073
207	0x3da85c39	0.08220715
208	0x3cba5f6c	0.022750579
209	0x3d759563	0.05995692
210	0x3d123448	0.03569439
211	0x3b8754e5	0.0041299933
212	0x3ce8fff3	0.028442359
213	0x3dadcbad	0.08486114
214	0x3b3b55c1	0.002858505
215	0x3ba8233a	0.0051311525
216	0xbbcc9c34	-0.006244207
217	0x3e42206e	0.18957683
218	0x3c0c1dde	0.008552043
219	0xbd0a8357	-0.03381666
220	0x3e49d661	0.19710685
221	0x3b335a05	0.0027366888
222	0x3eab3efd	0.33446494
223	0xbcdaf7ec	-0.026729546
224	0x3cbf7ec0	0.023375869
225	0xbc128f1a	-0.008945251
226	0xbc35f28d	-0.011105192
227	0xbac26a60	-0.0014832728
228	0x3e01aba7	0.12663136
229	0x3e3955ed	0.18099184
230	0xbd1101e5	-0.035402197
231	0x3d153a85	0.03643276
232	0x3de657b5	0.112471975
233	0xbc5ab771	-0.0133494
234	0xbd3827ac	-0.04495971
235	0x3c79de12	0.0152507
236	0x3e07153e	0.13191697
237	0x3e34bba8	0.1764971
238	0xbac5782a	-0.0015065719
239	0xbc82c24a	-0.015961785
240	0x3b86bf65	0.0041121715
241	0xbcbb1b09	-0.02284004
242	0x3eea594d	0.45771256
243	0xbc8026e9	-0.015643554
244	0x3c9da6fe	0.019244667
245	0x3c68d6dd	0.014211384
246	0x3d9014cc	0.07035217
247	0x3dc8165e	0.09769891
248	0x3c98cb8a	0.018651742
249	0xbb43258c	-0.0029777018
250	0x3ddee6cd	0.108838655
251	0xbc6c2b00	-0.014414549
252	0xba832c8d	-0.0010007784
253	0x3c21d43b	0.00987726
254	0xbc7aaa53	-0.0152993975
255	0x3d9e2b1e	0.07723068
