checkpoint_critic_target_1_5808.pth (torch, 577426 bytes, 9 tensors)

fcs1.weight f4 [400, 52]
-0.009431902 0.36727193 -0.011751473 0.5082077 0.17374231 -0.21128966 -0.03436752 0.5454107
-0.07354944 0.39393198 -0.009694362 0.16591194 0.15717007 -0.37806988 -0.057058994 0.21621665
-0.15150362 0.39657176 -0.22108555 0.12568498 0.207205 -0.3417309 -0.19227155 0.12966082
0.2956 0.47093192 0.19497365 -0.4183921 -0.16453424 -0.16286668 0.17516924 -0.37195772
0.27795666 0.3494383 -0.19808158 0.04350639 -0.23193368 -0.37411946 -0.24608956 0.07154192
0.2630642 0.30765566 0.014959356 -0.3391393 -0.2028865 -0.37194481 0.016627816 -0.38853672
0.48120412 0.91143835 -1.1893623 -0.07646981 0.19896743 0.29154822 0.056341186 0.18108433
-0.20681246 -0.43966028 0.0910589 0.23302181 0.01922893 0.18293281 -0.06301455 0.33934173
-0.0015987221 -0.23518233 -0.0437985 0.3237278 -0.0042494494 0.1769434 -0.17462014 -0.29473644
0.04571004 -0.11270605 -0.19606683 -0.28360674 0.48078492 0.19466831 -0.06996595 0.48493132
0.17135222 -0.4220172 -0.030669665 0.48620242 0.43033594 0.2018849 0.054552164 0.41441435
0.060601663 -0.21566717 0.07387581 0.37347502 0.3980294 0.24809045 -0.27838975 -0.018628107
-0.11903384 -0.17081687 -0.27083948 0.030184492 -0.16780414 0.64807236 1.095255 0.38345224
0.12578398 -0.31559563 -0.025047515 -0.018546196 -0.17971997 0.11432334 0.003330418 -0.016990587
0.21655093 -0.20771886 0.0018479567 0.02211022 0.036342755 0.397439 -0.056504987 0.05828568
0.43500733 -0.25860962 0.00030543088 -0.3541257 0.35028973 0.74272543 -0.0060699563 -0.4246103
-0.1462625 0.6874166 -0.004469096 -0.191716 0.20625666 0.1121587 0.02627773 -0.16440012
0.25331613 0.73284614 -0.026032463 0.08126064 -0.015224655 0.4701699 0.0076026195 0.022606274
0.7229601 0.82548153 -0.018590499 0.19104418 -0.35659218 0.7580581 -0.039599717 0.22115321
-0.9673959 0.9792486 0.15197212 -0.3138973 0.30833262 -0.15271407 -0.023724088 -0.46286285
-0.019506166 -0.20739427 -0.00865308 -0.40506378 0.22202457 -0.12240913 0.20957051 -0.65788376
-0.035668686 -0.4229624 0.21041241 -0.6535869 -0.11779559 -0.04946376 -0.053628445 -0.11690796
-0.008079691 -0.523616 0.005088642 -0.19078164 0.11556634 0.5567254 -0.019673383 0.3324204
0.008087051 -0.2695596 0.035961714 0.25339854 0.2337589 0.7586178 -0.06587992 0.3772348
-0.0076896967 -0.4440815 -0.10346692 0.42868036 0.2322262 0.8143104 0.022827983 0.24970423
0.018797021 -0.4943959 0.029318852 0.22433457 0.5745655 -1.2458776 1.8301603 -0.22882722
0.061487336 0.53491956 -0.113274954 0.25323418 0.36718342 -0.10356752 -0.15502657 0.20022386
0.116064616 0.5518145 -0.104736306 0.27118704 0.34753352 -0.31844306 -0.10993726 0.2751814
0.12547047 0.52431303 0.10810309 -0.094356544 0.30332592 -0.09304243 0.015946861 -0.12788624
0.18546496 0.1415849 0.24832106 0.49112374 -0.32247478 -0.08642285 0.25697154 0.4728446
0.35776243 0.34568623 0.14476001 -0.12656526 -0.29262865 -0.3668355 0.15059724 -0.12986246
0.085393295 0.30904266 -0.018982965 -0.085476555 -0.32120535 -0.03221074 -0.073725335 -0.023898052
00000000: 4488 1abc 110b bc3e 4089 40bc e619 023f
00000010: 81e9 313e 515c 58be f5c4 0cbd 09a0 0b3f
00000020: 17a1 96bd 74b1 c93e 1ad5 1ebc d2e4 293e
00000030: 31f1 203e 6092 c1be b1b6 69bd e667 5d3e
00000040: c423 1bbe 740b cb3e 4064 62be 90b3 003e
00000050: 8c2d 543e 5af7 aebe d5e2 44be cec5 043e
00000060: e258 973e fd1d f13e 2ca7 473e 7d37 d6be
00000070: aa7b 28be 86c6 26be 915f 333e 3e71 bebe
00000080: 5650 8e3e 94e9 b23e e6d5 4abe c233 323d
00000090: 0680 6dbe 968c bfbe e7fe 7bbe 9284 923d
000000a0: 5ab0 863e 0b85 9d3e 1618 753c aba3 adbe
000000b0: 7bc1 4fbe 8d6f bebe 0f37 883c 49ee c6be
000000c0: 6360 f63e 0654 693f 063d 98bf 349c 9cbd
000000d0: 1ebe 4b3e cf45 953e 04c6 663d 2c6e 393e
000000e0: a5c6 53be 271b e1be 177d ba3d 459d 6e3e
000000f0: fd85 9d3c bd52 3b3e c60d 81bd 33be ad3e
00000100: 368c d1ba a3d3 70be 0e66 33bd a6bf a53e
00000110: f73e 8bbb a730 353e 9fcf 32be b2e7 96be
00000120: 733a 3b3d 6ed2 e6bd bec5 48be e734 91be
00000130: 7129 f63e 2157 473e 4f4a 8fbd eb48 f83e
00000140: f576 2f3e a312 d8be f33e fbbc 86ef f83e
00000150: fe54 dc3e eaba 4e3e 1772 5f3d 1e2e d43e
00000160: 7339 783d dbd7 5cbe 334c 973d 1e38 bf3e
00000170: 82ca cb3e 6c0b 7e3e 1a89 8ebe f999 98bc
00000180: 04c8 f3bd 9eea 2ebe 79ab 8abe 7845 f73c
00000190: d9d4 2bbe 12e8 253f 5131 8c3f da53 c43e
000001a0: 84cd 003e c095 a1be 7230 cdbc 31ee 97bc
000001b0: 8308 38be 5b22 ea3d 2443 5a3b d82f 8bbc
000001c0: 87bf 5d3e 41b4 54be 2337 f23a 7e20 b53c
000001d0: 24dc 143d 207d cb3e c671 67bd f7bc 6e3d
000001e0: 48b9 de3e 7b68 84be 3d22 a039 f74f b5be
000001f0: 2d59 b33e 4123 3e3f 7ce6 c6bb 8566 d9be
00000200: d6c5 15be 89fa 2f3f 7f71 92bb 3351 44be
00000210: f234 533e 76b3 e53d 6544 d73c 8158 28be
00000220: a7b2 813e ce9b 3b3f 0842 d5bc fa6b a63d
00000230: d570 79bc 1cba f03e 651f f93b cb30 b93c
00000240: ea13 393f c252 533f 1a4b 98bc 16a1 433e
00000250: 4093 b6be 1810 423f 5033 22bd fd75 623e
00000260: 42a7 77bf 09b0 7a3f 949e 1b3e 26b7 a0be
00000270: c6dd 9d3e 1461 1cbe 0559 c2bc 5cfc ecbe
00000280: 65cb 9fbc 2a5f 54be a6c5 0dbc 8564 cfbe
00000290: 695a 633e a3b1 fabd a799 563e 126b 28bf
000002a0: 5419 12bd 878e d8be 5a76 573e 7951 27bf
000002b0: d03e f1bd 839a 4abd 80a9 5bbd 716d efbd
000002c0: ae60 04bc b30b 06bf 9fbe a63b 435c 43be
000002d0: 0cae ec3d 8e85 0e3f 132a a1bc 0233 aa3e
000002e0: 8d7f 043c b703 8abe 974c 133d 74bd 813e
000002f0: 7e5e 6f3e c734 423f 0dec 86bd eb24 c13e
00000300: daf9 fbbb a65e e3be 77e6 d3bd fe7b db3e
00000310: b4cc 6d3e a576 503f c001 bb3c 77b2 7f3e
00000320: 36fc 993c 7621 fdbe 172e f03c f6b7 653e
00000330: b916 133f eb78 9fbf b142 ea3f af51 6abe
00000340: 25da 7b3d 7df0 083f b3fc e7bd e9a7 813e
00000350: 77ff bb3e 351b d4bd 49bf 1ebe 7c07 4d3e
00000360: 49b3 ed3d b743 0d3f fd7f d6bd 07d9 8a3e
00000370: eaef b13e f80a a3be c926 e1bd 94e4 8c3e
00000380: 557b 003e 6139 063f 2765 dd3d 013e c1bd
00000390: 894d 9b3e 088d bebd fea2 823c 9cf4 02be
000003a0: 87ea 3d3e a2fb 103e e047 7e3e 9274 fb3e
000003b0: 6a1b a5be 77fe b0bd c691 833e b018 f23e
000003c0: a32c b73e c9fd b03e f83b 143e 539a 01be
000003d0: 6cd3 95be ddd1 bbbe 2a36 1a3e aafa 04be
000003e0: aee2 ae3d d73a 9e3e 2a82 9bbc 550e afbd
000003f0: 0775 a4be 69ef 03bd 4ffd 96bd d9c5 c3bc

fcs1.bias f4 [400]
-0.08857839 0.032553755 -1.5092378 -0.18113756 -0.037601665 -0.11312495 -0.39776802 0.19809492
-0.50825745 0.030280408 0.103110574 0.11005141 0.03631678 -0.044911604 -0.28049028 -0.1339185
-0.44426456 -0.4244706 -0.25783545 -0.4101245 -0.22457522 -0.2833015 -0.100609794 -0.4205784
-0.2929457 -0.47575945 0.06308638 -0.021920165 -0.37396833 -0.045423206 -0.01653711 -0.16738798
-0.33448306 -0.7535003 -0.2046193 -1.0884078 0.049452495 -0.3336633 0.47007248 -0.64999574
-0.111305684 -0.18254161 -0.27652034 -0.37013313 -0.54399234 -0.041903507 -0.24218687 -0.043511063
-0.51832616 0.1466855 -0.31716162 -0.40373358 -0.16098918 -0.037997585 -0.13194394 -1.0254546
-0.7248338 -0.4966129 0.19692524 -0.5589603 -0.49896312 -0.08049983 -0.25476465 0.037754852
-0.1256774 0.2703706 -0.38187566 -0.32118627 -0.69437367 -0.78226984 -0.11743079 -0.086611174
-0.18338174 -0.36550844 -0.36118886 0.18541633 -0.4648972 0.018726762 -0.5276797 -0.26207843
-0.085387886 -0.22808616 -0.08537797 -0.07071448 0.07976783 -0.34715235 -0.43288362 -0.11105223
-0.12230433 -0.21265225 0.14981966 -0.84449536 -0.30043885 -0.5456215 0.13190824 -0.34970438
-0.12408123 -0.1633184 0.18743922 0.038354848 0.35689646 0.13402122 -0.52902794 0.0037629162
-0.18069078 -0.23141886 -1.1761062 -0.35800418 -0.44443005 -0.514672 -0.28786987 -0.06068477
-0.352623 0.033697136 -0.12905045 0.018900383 -0.2876006 -0.121862516 0.041641273 -0.10570224
-0.49839652 0.23427472 -0.18586445 0.29772088 -0.37748381 -0.30949205 -0.7122107 -0.033314567
0.27021953 -0.17017895 -0.43952927 -0.072565764 -0.491446 -0.09183718 -0.24837707 0.029056933
-0.3516203 -0.00013634894 0.042432424 -0.5400597 -0.4872986 -0.03545099 -0.774882 -0.4865696
-0.12523831 0.14699298 -0.2758598 -0.36614922 -0.32034406 -0.06000709 -0.26069686 -0.29863113
0.013911188 -0.29552647 -0.47021317 -0.1260555 -0.85822755 0.10226969 -0.3964442 -0.89098394
-0.65952134 -0.4326413 -0.31923014 0.13618754 0.14478344 -0.43785396 -0.3816888 -0.09935558
-0.37217367 0.023445431 -0.5517468 -0.443522 -0.23540333 0.015164591 -0.44856423 -0.07412162
-0.1076069 0.2390742 -0.017093757 -0.42425293 -0.7417087 -0.33132398 -0.8376447 -0.39939153
-0.25441536 -0.44664395 -0.05284554 0.13987859 -0.4875646 -0.09592556 -0.40667182 -0.13857216
0.12907964 -1.064111 -0.9824278 -0.3202983 -0.17822038 -0.48274767 -0.5802523 0.037178297
0.17375201 -0.0833011 -0.049005028 -0.30743912 -0.31451547 -0.25496668 -1.0566347 -0.2741558
-0.1505056 -0.17465053 -0.3928543 0.05081516 -0.08179242 -0.4157488 -0.22027025 0.010026385
-0.47561407 -0.9359398 -0.097040676 -0.2251894 -0.37420925 -0.09051341 -0.59653986 0.027360557
-0.22863676 -0.00091308134 -0.23883724 -0.08775108 -0.17280143 0.0119216945 -0.32115692 -0.2630113
-0.27510133 -0.02539536 -0.6655454 -0.056633327 -0.3471701 -0.53071034 -0.065132596 -0.3106808
0.10094488 -0.22218452 0.13975883 -0.2194023 -0.20769203 -0.5769629 -0.4291501 -0.17835942
-0.1467291 -0.034116704 -0.01010905 0.017137563 -0.6312125 -0.3704299 -0.20367336 -0.18203749
00000000: 9668 b5bd 1657 053d b42e c1bf 207c 39be
00000010: 3404 1abd 0eae e7bd 40a8 cbbe 65d9 4a3e
00000020: 291d 02bf 9e0e f83c a32b d33d a262 e13d
00000030: e7c0 143d 3bf5 37bd 6c9c 8fbe ee21 09be
00000040: a576 e3be 3654 d9be 0203 84be d7fb d1be
00000050: 0cf7 65be e50c 91be 820c cebd 0d56 d7be
00000060: fbfc 95be be96 f3be 6f33 813d eb91 b3bc
00000070: c778 bfbe af0d 3abd d578 87bc c167 2bbe
00000080: 5d41 abbe 65e5 40bf b987 51be f250 8bbf
00000090: b38e 4a3d ebd5 aabe 57ad f03e 1f66 26bf
000000a0: 3cf4 e3bd 30ec 3abe 1394 8dbe 1782 bdbe
000000b0: 1543 0bbf 03a3 2bbd d6ff 77be a838 32bd
000000c0: 06b1 04bf b934 163e 0263 a2be 2bb6 cebe
000000d0: 59da 24be 5ba3 1bbd 501c 07be 1942 83bf
000000e0: b58e 39bf 0c44 febe c5a6 493e 0618 0fbf
000000f0: 1878 ffbe 18dd a4bd 8370 82be d5a4 1a3d
00000100: 94b1 00be 046e 8a3e 3585 c3be 8772 a4be
00000110: 79c2 31bf d642 48bf 8e7f f0bd 3361 b1bd
00000120: 6cc8 3bbe ec23 bbbe bfed b8be c7dd 3d3e
00000130: 0107 eebe de68 993c 0416 07bf 252f 86be
00000140: d8df aebd 6b8f 69be a5da aebd c1d2 90bd
00000150: 515d a33d f4bd b1be eca2 ddbe 5a6f e3bd
00000160: b17a fabd 83c1 59be 536a 193e d930 58bf
00000170: 1fd3 99be daad 0bbf f412 073e 740c b3be
00000180: 4d1e febd f03c 27be 11f0 3f3e f919 1d3d
00000190: 22bb b63e dc3c 093e 606e 07bf 429b 763b
000001a0: 0107 39be 11f9 6cbe a68a 96bf 534c b7be
000001b0: 568c e3be 8bc1 03bf ae63 93be 9890 78bd
000001c0: 008b b4be 0206 0a3d cd25 04be fad4 9a3c
000001d0: 6340 93be 0e93 f9bd 0a90 2a3d 6a7a d8bd
000001e0: d42d ffbe b6e5 6f3e 4053 3ebe df6e 983e
000001f0: 8f45 c1be be75 9ebe 7153 36bf db74 08bd
00000200: 375a 8a3e 6443 2ebe fb09 e1be 5c9d 94bd
00000210: cf9e fbbe 2215 bcbd 8f56 7ebe ce08 ee3c
00000220: 9307 b4be e4f8 0eb9 9fcd 2d3d 5a41 0abf
00000230: 347f f9be 0f35 11bd ab5e 46bf a71f f9be
00000240: 793e 00be 5485 163e 7f3d 8dbe e977 bbbe
00000250: 2304 a4be ffc9 75bd 0f7a 85be 2ee6 98be
00000260: c0eb 633c 3f4f 97be c8bf f0be b114 01be
00000270: cdb4 5bbf c572 d13d bcfa cabe 8617 64bf
00000280: 64d6 28bf 2983 ddbe 2272 a3be bf74 0b3e
00000290: 1c42 143e 652e e0be b76c c3be f07a cbbd
000002a0: 8c8d bebe a210 c03c 473f 0dbf 5115 e3be
000002b0: 920d 71be e874 783c 36aa e5be 13cd 97bd
000002c0: 0261 dcbd decf 743e 3508 8cbc ae37 d9be
000002d0: 9fe0 3dbf 4ca3 a9be e26f 56bf 0c7d ccbe
000002e0: bb42 82be 84ae e4be 9174 58bd 553c 0f3e
000002f0: 11a2 f9be 9f74 c4bd 4a37 d0be dce5 0dbe
00000300: 742d 043e ca34 88bf 6380 7bbf 24fe a3be
00000310: 677f 36be b42a f7be 6a8b 14bf 4548 183d
00000320: 0cec 313e c499 aabd 7fb9 48bd a968 9dbe
00000330: 2c08 a1be fe8a 82be ce3f 87bf 265e 8cbe
00000340: 241e 1abe 97d7 32be 3324 c9be 8f23 503d
00000350: c982 a7bd 07dd d4be 868e 61be b545 243c
00000360: b083 f3be c099 6fbf 43bd c6bd 0d98 66be
00000370: 5b98 bfbe 185f b9bd d6b6 18bf 3f23 e03c
00000380: c11f 6abe da5b 6fba c091 74be d7b6 b3bd
00000390: dcf2 30be 3653 433c ae6e a4be 6ba9 86be
000003a0: 15da 8cbe ee09 d0bc 2f61 2abf 59f8 67bd
000003b0: 48c0 b1be a2dc 07bf 3d64 85bd 8e11 9fbe
000003c0: 30bc ce3d 5784 63be f01c 0f3e ffaa 60be
000003d0: 38ad 54be d7b3 13bf 90b9 dbbe daa3 36be
000003e0: 2740 16be f5bd 0bbd 6ea0 25bc 1364 8c3c
000003f0: 2497 21bf fda8 bdbe c08f 50be 0968 3abe

fc2.weight f4 [300, 400]
0.043484014 0.03293758 0.0046247747 -0.027400794 -0.057074044 0.0045432826 -0.045328055 -0.036282934
-0.07312467 -0.07678294 -0.08824209 -0.020488428 -0.03665919 -0.068661705 -0.04584215 -0.046680354
-0.044903368 -0.01311645 -0.009574586 -0.014299246 -0.0022104064 0.028281838 -0.033164825 0.071433365
-0.09282426 0.09526808 0.029920986 0.027112082 0.023645654 0.036312733 -0.021518486 0.030392243
-0.06581555 -0.03894655 0.006745889 0.023967894 -0.041695848 -0.07103103 -0.05696601 0.03756072
-0.0151272025 -0.00732192 -0.0020874701 -0.05757696 -0.043975756 0.0047877585 -0.05047647 -0.094694376
0.010885904 -0.07202942 0.09704879 -0.06408699 0.0024874783 -0.04434084 -0.019752676 -0.055080988
-0.057394423 -0.013920192 0.0049456195 0.12214267 -0.06650846 -0.01212551 0.04113705 -0.05550195
-0.008002493 0.06378152 0.038793813 -0.03668154 0.003559444 -0.05211935 0.036577236 0.0048599364
0.082847804 -0.0025985397 0.015500667 -0.05513314 -0.009386455 -0.02771931 -0.005880679 -0.06799115
0.02064862 -0.094269685 0.066091225 0.079338536 -0.031816248 0.02671347 0.005200805 0.022887548
-0.073154464 -0.03852931 -0.009840948 -0.06050881 -0.044314764 0.011670087 -0.014701582 -0.04359577
-0.068527594 0.042351507 0.024556499 0.04608802 -0.033529907 0.018806439 -0.04952651 -0.0047071977
0.06542812 0.009162004 -0.09405362 -0.019516116 0.017575216 0.11595116 0.05457062 -0.06101918
-0.029865105 -0.042712864 -0.08364502 -0.03931163 0.0072925827 -0.0075696544 -0.00040962713 -0.03165979
-0.0014948501 -0.00710585 0.09677312 0.049075745 0.057290114 0.033470303 0.049448278 -0.012691762
0.04969415 -0.12296969 -0.12331243 0.025096672 0.016006846 0.024990499 0.11110076 -0.010697774
-0.02681964 -0.07409326 0.006384997 -0.011023742 -0.026545828 -0.07459989 -0.056820724 0.07784095
-0.07706607 -0.038629893 -0.109893754 0.004197758 0.021712204 -0.14931902 -0.107755415 0.00060743385
-0.09350226 0.0005811819 -0.078913845 -0.07164943 -0.009757126 0.039304182 0.016235957 -0.010824435
-0.012574413 -0.022488935 -0.013564422 -0.03743034 -0.07176119 0.002861642 -0.03069958 -0.10395556
0.047894813 -0.010915706 -0.014681092 0.0021116845 0.0055481927 -0.010029077 -0.008353606 -0.10442496
-0.056232117 0.011971841 0.027840385 -0.01096693 0.05143761 -0.031529397 -0.008583645 -0.030433219
0.0020655838 -0.109089084 0.016617803 0.0745701 -0.036390968 -0.057465207 0.04839401 0.0048282715
0.06036352 -0.074406184 -0.07147062 -0.03535905 -0.057185803 -0.10218975 -0.029922847 0.01119697
0.033623043 -0.08696058 -0.05781166 -0.008849075 -0.05775951 -0.00878295 -0.08493398 0.057465203
-0.07906286 0.016874852 0.015337683 0.020071192 0.04468357 0.0145711955 -0.012280112 -0.041744277
0.062378928 0.08457635 -0.051396627 -0.025640571 0.05921984 -0.028291149 0.04022062 -0.011033986
0.085977085 0.046184883 -0.09659429 0.03865597 0.059935108 -0.144789 0.031127997 -0.0118554225
0.08103729 0.035031218 -0.033392068 -0.11442377 -0.08823464 -0.061469946 -0.008754079 -0.11974355
0.015098331 -0.008334047 -0.046736233 -0.05069254 -0.11654721 0.010821642 0.0148636345 -0.03187958
-0.025307154 0.07288624 -0.07202941 -0.040269047 0.032252114 -0.0003809304 -0.08768329 -0.1037842
00000000: 4b1c 323d 8ee9 063d 6c8b 973b a177 e0bc
00000010: 79c6 69bd d1df 943b e9a9 39bd 6a9d 14bd
00000020: 63c2 95bd 6040 9dbd 45b8 b4bd 59d7 a7bc
00000030: f227 16bd 829e 8cbd fac4 3bbd e633 3fbd
00000040: 98ec 37bd 61e6 56bc b9de 1cbc 6247 6abc
00000050: 77dc 10bb 50af e73c d7d7 07bd a84b 923d
00000060: a51a bebd e91b c33d db1c f53c 281a de3c
00000070: 88b4 c13c a9bc 143d 8947 b0bc 27f9 f83c
00000080: 4eca 86bd 6b86 1fbd 9e0c dd3b 5158 c43c
00000090: 44c9 2abd b778 91bd 3155 69bd 45d9 193d
000000a0: 16d8 77bc b7ec efbb f0cd 08bb d2d5 6bbd
000000b0: ec1f 34bd a1e2 9c3b 6ac0 4ebd 20ef c1bd
000000c0: ca5a 323c 2984 93bd 84c1 c63d 0a40 83bd
000000d0: f604 233b be9e 35bd 5dd0 a1bc 9a9c 61bd
000000e0: 6a16 6bbd 8411 64bc dd0e a23b f025 fa3d
000000f0: 9635 88bd 13aa 46bc 537f 283d 0356 63bd
00000100: e31c 03bc e39f 823d 43e6 1e3d 623f 16bd
00000110: 9045 693b 197b 55bd 03d2 153d 1a40 9f3b
00000120: 1cac a93d 434c 2abb 82f6 7d3c 4ad3 61bd
00000130: a5c9 19bc 9b13 e3bc b6b2 c0bb f23e 8bbd
00000140: 4b27 a93c 7710 c1bd d65a 873d 3e7c a23d
00000150: c151 02bd 35d6 da3c 846b aa3b ab7e bb3c
00000160: 02d2 95bd e9d0 1dbd ed3b 21bc 16d8 77bd
00000170: 6683 35bd e533 3f3c e7de 70bc 7a91 32bd
00000180: 3258 8cbd c678 2d3d b62a c93c cbc6 3c3d
00000190: a856 09bd f60f 9a3c 4fdc 4abd d63e 9abb
000001a0: 2eff 853d 3b1c 163c 2f9f c0bd 43e0 9fbc
000001b0: e6f9 8f3c cd77 ed3d 7185 5f3d 3fef 79bd
000001c0: aaa7 f4bc aff3 2ebd 154e abbd 3b05 21bd
000001d0: 9ef6 ee3b dd0a f8bb 39c3 d6b9 b2ad 01bd
000001e0: d9ee c3ba 31d8 e8bb fc30 c63d a603 493d
000001f0: 0aa9 6a3d 2818 093d 478a 4a3d 1cf1 4fbc
00000200: 188c 4b3d 88d7 fbbd 3a8b fcbd 8997 cd3c
00000210: ca20 833c e0b8 cc3c cc88 e33d b745 2fbc
00000220: ddb4 dbbc 35be 97bd 3d39 d13b ed9c 34bc
00000230: a376 d9bc d4c7 98bd d9bc 68bd 136b 9f3d
00000240: d1d4 9dbd 613a 1ebd fa0f e1bd 598d 893b
00000250: cbdd b13c 16e7 18be dfae dcbd 323c 1f3a
00000260: 1d7e bfbd 755a 183a 959d a1bd f0bc 92bd
00000270: 5adc 1fbc 6cfd 203d 4501 853c f958 31bc
00000280: e904 4ebc b73a b8bc 4f3d 5ebc 8e50 19bd
00000290: 88f7 92bd 638a 3b3b b07d fbbc a7e6 d4bd
000002a0: 5a2d 443d cad7 32bc f788 70bc 3064 0a3b
000002b0: 9dcd b53b ff50 24bc 90dd 08bc c1dc d5bd
000002c0: a653 66bd 8a25 443c 8511 e43c a3ae 33bc
000002d0: 3eb0 523d f824 01bd 6ba2 0cbc 164f f9bc
000002e0: bf5e 073b 196a dfbd 0f22 883c 35b8 983d
000002f0: b20e 15bd a360 6bbd cc38 463d 7a36 9e3b
00000300: bd3f 773d 4562 98bd 305f 92bd a7d4 10bd
00000310: a93b 6abd dc48 d1bd c220 f5bc 7f73 373c
00000320: 51b8 093d 6318 b2bd ebcb 6cbd b6fb 10bc
00000330: 3c95 6cbd 5de6 0fbc def1 adbd a260 6b3d
00000340: b5eb a1bd 213d 8a3c e84a 7b3c 576c a43c
00000350: 1e06 373d 06bc 6e3c 8632 49bc 0cfc 2abd
00000360: 0c81 7f3d 5e36 ad3d 4585 52bd 2d0c d2bc
00000370: 8190 723d d7c2 e7bc 60be 243d e4c7 34bc
00000380: c114 b03d 5c2c 3d3d 3ad3 c5bd b955 1e3d
00000390: 847e 753d 9143 14be 2400 ff3c 3f3d 42bc
000003a0: e1f6 a53d e57c 0f3d 1fc6 08bd 0257 eabd
000003b0: 5db4 b4bd e9c7 7bbd 456d 0fbc 1b3c f5bd
000003c0: fd5e 773c 878b 08bc 7e6e 3fbd fba2 4fbd
000003d0: 4eb0 eebd 424d 313c 9a86 733c 2a94 02bd
000003e0: f350 cfbc 6245 953d 2884 93bd 28f1 24bd
000003f0: cb1a 043d 9db7 c7b9 4c93 b3bd d08c d4bd

fc2.bias f4 [300]
-0.08467322 -0.0315145 -0.061205447 -0.17508346 -0.1455947 -0.11519864 -0.122425795 -0.13647404
-0.21185744 -0.1119874 -0.1491849 -0.08737036 -0.12644544 -0.15524131 -0.1100536 -0.13155523
-0.1320726 -0.19606456 -0.14477688 -0.069116205 -0.15066014 -0.24248055 -0.22115885 -0.26063958
-0.14109346 -0.172841 -0.15245107 -0.09407508 -0.056045853 -0.10764366 -0.15222478 -0.11572763
-0.14614503 -0.103135996 -0.09029103 -0.048163038 -0.11378301 -0.13633993 -0.19454463 -0.22108394
-0.07584667 -0.09609511 -0.19706295 0.0006395096 -0.07530027 -0.11117528 -0.11546091 -0.110115185
-0.15715712 -0.31121063 -0.14827846 -0.11941572 -0.13203345 -0.06177915 -0.16245651 -0.10714446
-0.101057254 -0.13560978 -0.14712852 -0.072945856 -0.12626663 -0.08691587 -0.23038238 -0.06885543
-0.08562579 -0.08580817 -0.052447177 -0.14309025 -0.2542916 -0.16390744 -0.14273648 0.049788103
-0.18525738 -0.051135857 -0.12877005 -0.10643624 -0.2041709 -0.14528075 -0.14328066 -0.13715951
-0.037810322 -0.101623505 -0.21432082 -0.11393066 -0.11252085 -0.14268792 -0.11003532 -0.051810145
-0.15100287 -0.04691505 -0.17273353 -0.17259493 -0.21480045 -0.113604195 -0.2010118 -0.1875559
-0.08880089 -0.11936357 -0.10575863 -0.21908715 -0.12519182 -0.01068753 -0.09580453 -0.15837066
-0.07267018 -0.13730852 -0.16697712 -0.13550547 -0.111413695 -0.07620939 -0.16506974 -0.23456329
-0.12513852 -0.20335485 -0.12914258 -0.08579827 -0.10756914 -0.16547208 -0.08446122 -0.0646905
-0.116852686 -0.15016839 -0.118974224 -0.12740923 -0.1119874 -0.18850957 -0.18859898 -0.0867296
-0.15001938 -0.06290234 -0.18586282 -0.18885231 -0.09924453 -0.11455788 -0.22595668 -0.051273696
-0.25630522 -0.08593238 -0.11037805 -0.21506378 -0.16666418 -0.12016824 -0.06400123 -0.08208038
-0.09205684 -0.23644723 -0.109345734 -0.14713068 -0.07589632 -0.08955341 -0.07632252 -0.21212772
-0.28684673 -0.10084119 -0.17368703 -0.18247452 -0.21102552 -0.15841755 -0.15985048 -0.13979705
-0.12553646 -0.10138509 -0.15601727 -0.2118749 -0.10330217 -0.28101525 -0.07884522 -0.12219483
-0.08591748 -0.13031979 -0.1419759 -0.101087056 -0.22872832 -0.17874919 -0.34771562 -0.027568435
-0.08289251 -0.12678817 -0.08560455 -0.12966414 -0.12497392 -0.059229877 -0.09868049 -0.07639552
-0.076811425 -0.20664452 -0.11426177 -0.08763859 -0.09372695 -0.09533073 -0.091401175 -0.09271995
-0.15653127 -0.104775146 -0.07051693 -0.08355463 -0.11387242 -0.2862103 -0.16635126 -0.11273246
-0.13428356 -0.080694556 -0.2245812 -0.0800985 -0.06942913 -0.15279104 -0.107040145 -0.06198777
-0.09111201 -0.1336726 -0.115472406 -0.029541003 -0.16360204 -0.123535946 -0.22270818 -0.1998793
-0.13249539 -0.030204112 -0.115796745 -0.11991492 -0.123938285 -0.09669861 -0.08009105 -0.11278868
-0.08795896 -0.22321482 -0.14537774 -0.15437058 -0.12359951 -0.1503919 -0.18882251 -0.116338596
-0.20224862 -0.12250775 -0.22331913 -0.18394975 -0.15612295 -0.041621342 -0.18457562 -0.098203644
-0.19587785 -0.14052722 -0.061183095 -0.2192197 -0.18478423 -0.072460555 -0.1622981 -0.1413766
-0.15063034 -0.08509046 -0.14261341 -0.11048981 -0.17230633 -0.36915123 -0.052782457 -0.3895829
00000000: 2769 adbd 5915 01bd 90b2 7abd 1449 33be
00000010: c716 15be 44ed ebbd 60ba fabd dabf 0bbe
00000020: 28f1 58be a659 e5bd edc3 18be 3bef b2bd
00000030: ea7a 01be 94f7 1ebe c863 e1bd 6ab6 06be
00000040: 0a3e 07be 26c5 48be 6440 14be cc8c 8dbd
00000050: a746 1abe d24c 78be 7777 62be 8d72 85be
00000060: ce7a 10be 3bfd 30be 221c 1cbe 6faa c0bd
00000070: 5690 65bd 4774 dcbd d0e0 1bbe 9c02 edbd
00000080: 0ba7 15be f738 d3bd 81ea b8bd 9b46 45bd
00000090: 1107 e9bd b29c 0bbe b536 47be d463 62be
000000a0: 8055 9bbd 83cd c4bd dfca 49be c3a4 273a
000000b0: 0737 9abd ddaf e3bd c576 ecbd 1284 e1bd
000000c0: cced 20be 0057 9fbe 4fd6 17be 3b90 f4bd
000000d0: c733 07be 220c 7dbd 005b 26be 8e6e dbbd
000000e0: 1bf7 cebd 4add 0abe dca8 16be a364 95bd
000000f0: 0a4c 01be f300 b2bd 5ce9 6bbe 1304 8dbd
00000100: 935c afbd 32bc afbd dad2 56bd 4086 12be
00000110: 8232 82be 5ad7 27be 8329 12be 9cee 4b3d
00000120: 1cb4 3dbe d573 51bd 4cdc 03be 3efb d9bd
00000130: 2d12 51be 7ac4 14be 2ab8 12be 8b73 0cbe
00000140: ffde 1abd fc1f d0bd eb76 5bbe 7a54 e9bd
00000150: 5571 e6bd c81c 12be 335a e1bd e036 54bd
00000160: 7fa0 1abe ff29 40bd 0fe1 30be babc 30be
00000170: a6f4 5bbe 51a9 e8bd 0ad6 4dbe a70e 40be
00000180: 3edd b5bd e374 f4bd fb97 d8bd 6258 60be
00000190: 4932 00be c01a 2fbc 2a35 c4bd eb2b 22be
000001a0: 1ad4 94bd 9b9a 0cbe 0dfc 2abe f2c1 0abe
000001b0: dd2c e4bd ab13 9cbd 0b08 29be 5c31 70be
000001c0: 5024 00be 413c 50be f43d 04be 01b7 afbd
000001d0: 364d dcbd 8371 29be 01fa acbd 747c 84bd
000001e0: 7650 efbd bec5 19be c2a8 f3bd 9177 02be
000001f0: a659 e5bd a708 41be 1720 41be 4a9f b1bd
00000200: ae9e 19be f1d2 80bd d352 3ebe 8062 41be
00000210: b740 cbbd 529d eabd 3061 67be 5e04 52bd
00000220: 703a 83be 51fd afbd e30d e2bd ae39 5cbe
00000230: 04aa 2abe c41a f6bd 1413 83bd c219 a8bd
00000240: 4c88 bcbd 391f 72be a8f0 dfbd 6da9 16be
00000250: 886f 9bbd c767 b7bd fb4e 9cbd 0238 59be
00000260: 93dd 92be d385 cebd 03db 31be 9ada 3abe
00000270: 1317 58be 3638 22be d8af 23be f526 0fbe
00000280: a18c 00be fca2 cfbd fec2 1fbe bcf5 58be
00000290: 1790 d3bd 3be1 8fbe 9a79 a1bd 4841 fabd
000002a0: 81f5 afbd 8d72 05be 2162 11be bb06 cfbd
000002b0: c237 6abe 070a 37be c807 b2be 33d7 e1bc
000002c0: 8cc3 a9bd c2d4 01be 7051 afbd adc6 04be
000002d0: 54f2 ffbd 079b 72bd ff18 cabd 4175 9cbd
000002e0: 4f4f 9dbd 9f9a 53be 1302 eabd dc7b b3bd
000002f0: eaf3 bfbd c23c c3bd 8a30 bbbd f5e3 bdbd
00000300: bc49 20be 5a94 d6bd 2e6b 90bd b11e abbd
00000310: f135 e9bd 288a 92be fc57 2abe 47e0 e6bd
00000320: a181 09be 3043 a5bd 9df8 65be af0a a4bd
00000330: dc30 8ebd 4175 1cbe dd37 dbbd e3e6 7dbd
00000340: ef98 babd 78e1 08be cc7c ecbd f9ff f1bc
00000350: 4b87 27be 6a00 fdbd 9d0d 64be 29ad 4cbe
00000360: dfac 07be 9d6e f7bc d826 edbd f495 f5bd
00000370: 5bd3 fdbd ec09 c6bd c706 a4bd c0fd e6bd
00000380: d423 b4bd 6d92 64be e7dd 14be 5213 1ebe
00000390: bd21 fdbd 5600 1abe b05a 41be ee42 eebd
000003a0: 431a 4fbe 58e5 fabd c5ad 64be 535d 3cbe
000003b0: b2de 1fbe 247b 2abd 6401 3dbe fe1e c9bd
000003c0: 3494 48be 5ee6 0fbe 209b 7abd 217b 60be
000003d0: 1438 3dbe 3366 94bd 7931 26be 07c5 10be
000003e0: d73e 1abe e843 aebd 4009 12be 7b48 e2bd
000003f0: 1271 30be 6401 bdbe 6b32 58bd 6977 c7be

fc3.weight f4 [1, 300]
0.0051961485 0.0030639742 -0.032110553 0.02570204 0.0010831911 0.0026940017 -0.018029707 0.026765626
0.0043213647 -0.01640546 -0.0032876863 -0.0006319396 0.0021840958 -0.018543167 0.00230358 -0.018437196
-0.014430927 0.013752553 0.030059848 -0.01394627 -0.020114034 -0.017691389 -0.009702934 -0.0015047457
0.0011223165 -0.005718769 0.016834687 0.010614574 0.022719909 -0.026605435 0.004764475 -0.0010684154
-0.024705512 -0.004120351 -0.00045334164 0.015508118 -0.0014027646 -0.010950166 -0.010974381 -0.012116959
-0.006793499 -0.007811336 0.018495373 0.014855122 -0.00027883283 0.012977682 0.004455959 0.013047103
-0.026178883 0.02348727 -0.024365919 0.024964424 0.010439795 -0.0075985263 0.0020504184 0.008153369
0.002354996 0.010307546 0.017498845 -0.025703903 -0.02416534 -0.008839762 0.008167339 -0.018253228
-0.009848151 0.0051744278 0.021462606 -0.0057917368 0.008029885 -0.017847165 0.0066563217 -0.012880085
0.008433232 0.0033405807 0.015471796 -0.0151492935 0.004072959 0.0040324456 -0.009405431 0.022280319
0.0030777114 -0.019925904 -0.010674099 0.016029792 0.014765816 -0.010244215 -0.0053991796 0.015563067
0.02034873 0.026715333 0.0016543049 -0.017079746 0.018436654 -0.014094494 -0.027484614 0.015677156
-0.02168985 -0.010375533 0.012914351 0.007588747 0.011416001 -0.0150750475 -0.0011719099 -0.010459312
0.00083753176 0.0026020324 0.014878536 -0.0028036665 0.013605402 -0.01213763 0.005937491 0.015096301
0.022015588 0.0062343567 0.03861149 -0.022472173 -0.0036835445 -0.014891574 0.010459014 -0.025316468
-0.0071226135 -0.007878625 -0.016823234 0.006985971 0.009302635 -0.012363932 -0.0044748294 0.004667151
-5.8725334e-08 -0.017720504 -0.0030966196 0.008069549 -0.02651744 -0.012537161 0.012761612 -0.028389873
-0.01369354 -0.0094497865 0.024988638 -0.005520253 -0.004215453 0.008805303 -0.018301215 -0.0020707059
-0.008718689 -0.00020153934 -0.018912004 -0.015034931 0.0206896 -0.007099331 -0.014950408 0.009371581
-0.017359296 0.00040392272 0.028371999 -0.01973405 -0.008465366 -0.00751883 -0.00991518 -0.014005875
-0.0039607333 -0.006913064 0.020379622 0.0045656348 -0.006532789 -0.020774977 0.021612948 0.0023598853
0.0114558805 -0.0011288356 -0.0104034655 -0.003570853 -0.012645195 0.021552293 0.017257214 -0.011485684
-0.005225485 -0.005781958 -0.014451984 -0.020507056 0.013267327 0.006173109 -0.00054468523 0.005699535
0.00061700924 -0.014467818 0.008807921 -0.001456549 -0.010848015 -0.017294299 -0.019011334 0.00016411135
0.0038646893 0.013836373 0.02489178 -0.016557062 -0.018160094 -0.009363173 0.0307685 0.00695218
0.0070071286 0.010988733 -0.0029662228 7.117069e-05 -0.00505412 -0.0286879 -0.000114768794 -0.009651885
0.01798486 0.00064986775 -0.007139154 -5.0646773e-05 0.003986179 -0.0045633065 0.02834703 0.005175659
-0.009455374 -0.0038658534 0.027706897 0.009434885 0.030483512 -0.0054415553 -0.020913118 0.0024298828
0.020497743 0.0021820005 0.029441709 -0.00066322985 0.023885999 0.02977011 0.0002622143 -0.013089442
0.0136650065 0.0029903988 0.0036358137 0.024618799 -0.021150382 -0.027324425 -0.0247111 0.016507907
-0.00028490424 -0.019432297 -0.0021361324 0.043557964 -0.0048540398 -0.01870563 0.013295267 -0.0013013653
0.029619228 0.0069424002 0.0036125304 -0.026532792 -0.0034914783 -0.012381628 -0.010993008 0.010507922
00000000: 7444 aa3b f5cc 483b 5b86 03bd 168d d23c
00000010: ddf9 8d3a d98d 303b 09b3 93bc 9643 db3c
00000020: 3c9a 8d3b be64 86bc 3976 57bb c0a8 25ba
00000030: 0c23 0f3b d7e7 97bc a9f7 163b 9a09 97bc
00000040: b26f 6cbc 6352 613c 1240 f63c e57e 64bc
00000050: 30c6 a4bc 88ed 90bc 0ef9 1ebc e33a c5ba
00000060: b11a 933a 8364 bbbb e6e8 893c c0e8 2d3c
00000070: 1a1f ba3c a4f3 d9bc 501f 9c3b 120a 8cba
00000080: 3763 cabc 0204 87bb 7cae edb9 c315 7e3c
00000090: f8dc b7ba 5368 33bc e4cd 33bc 3686 46bc
000000a0: 009c debb 3cf6 ffbb 9c83 973c e662 733c
000000b0: 4f30 92b9 58a0 543c 4b03 923b 84c3 553c
000000c0: 1975 d6bc 6068 c03c 099b c7bc 3182 cc3c
000000d0: ad0b 2b3c 0ffd f8bb 5060 063b b595 053c
000000e0: 4756 1a3b fbe0 283c bd59 8f3c fe90 d2bc
000000f0: 64f6 c5bc a6d4 10bc 4dd0 053c cb87 95bc
00000100: 245a 21bc 3f8e a93b 59d2 af3c 9cc8 bdbb
00000110: c78f 033c 3834 92bc 461d da3b fe06 53bc
00000120: 8a2b 0a3c a5ed 5a3b 6a7d 7d3c be34 78bc
00000130: 7576 853b 9b22 843b 3d19 1abc 3785 b63c
00000140: 6eb3 493b a63b a3bc 6be2 2ebc e950 833c
00000150: 52ec 713c 5ad7 27bc 9aeb b0bb 3cfc 7e3c
00000160: 61b2 a63c 1dda da3c 43d5 d83a d3ea 8bbc
00000170: 7708 973c 98ec 66bc 6a27 e1bc 616d 803c
00000180: eaae b1bc 24fe 29bc b796 533c 06ab f83b
00000190: 2e0a 3b3c 55fd 76bc c59a 99ba 895d 2bbc
000001a0: ce8d 5b3a dc86 2a3b 1ac5 733c b8bd 37bb
000001b0: 31e9 5e3c e9dc 46bc 498f c23b 7a56 773c
000001c0: 095a b43c 9349 cc3b 1527 1e3d 9017 b8bc
000001d0: 9f67 71bb cafb 73bc 495c 2b3c 7b64 cfbc
000001e0: d064 e9bb 5915 01bc e1d0 89bc 92ea e43b
000001f0: 146a 183c 1792 4abc 97a1 92bb e6ee 983b
00000200: 3039 7cb3 972a 91bc a8f0 4abb 2436 043c
00000210: 1a3b d9bc aa68 4dbc 1516 513c e191 e8bc
00000220: df5a 60bc 47d3 1abc f9b4 cc3c 3de3 b4bb
00000230: c821 8abb 1e44 103c 6eec 95bc aeb4 07bb
00000240: d5d8 0ebc 4e54 53b9 59ed 9abc 1255 76bc
00000250: 3c7d a93c 81a1 e8bb 8ef2 74bc 428b 193c
00000260: 1535 8ebc 97c5 d339 656c e83c 4da9 a1bc
00000270: 52b2 0abc 8460 f6bb 4773 22bc e678 65bc
00000280: 0ac9 81bb fc86 e2bb 2af3 a63c 529b 953b
00000290: 0211 d6bb 4930 aabc a30d b13c 4ea8 1a3b
000002a0: 72b1 3b3c 70f5 93ba 4c73 2abc f904 6abb
000002b0: cb2d 4fbc 6f8e b03c 005f 8d3c 732e 3cbc
000002c0: 8c3a abbb 9476 bdbb 04c8 6cbc 6afe a7bc
000002d0: 345f 593c cb47 ca3b 35c9 0eba 2ac3 ba3b
000002e0: cabe 213a 6d0a 6dbc 194f 103c ade9 beba
000002f0: dfbb 31bc c6ac 8dbc a8bd 9bbc 4e15 2c39
00000300: ba46 7d3b f4b1 623c d9e9 cb3c ada2 87bc
00000310: 7ac4 94bc fe67 19bc 390e fc3c 1dcf e33b
00000320: 0e9c e53b 160a 343c f664 42bb 7941 9538
00000330: 089d a5bb e302 ebbc 07b0 f0b8 f122 1ebc
00000340: fc54 933c e35b 2a3a 90ef e9bb 8f6d 54b8
00000350: 7e9e 823b ca87 95bb 0838 e83c 9398 a93b
00000360: b7ea 1abc 425a 7dbb 93f9 e23c c794 1a3c
00000370: 8fb8 f93c 134f b2bb fd51 abbc ab3e 1f3b
00000380: e2ea a73c e5ff 0e3b bd2f f13c 9adc 2dba
00000390: 92ac c33c 72e0 f33c cf79 8939 1975 56bc
000003a0: 31e3 5f3c 91fa 433b d546 6e3b 5dad c93c
000003b0: 9143 adbc 79d7 dfbc ef6e cabc 973b 873c
000003c0: 335f 95b9 7b30 9fbc 5bfe 0bbb d669 323d
000003d0: a30e 9fbb 8d3c 99bc 64d4 593c 9392 aaba
000003e0: 06a4 f23c 137d e33b 34c0 6c3b 4c5b d9bc
000003f0: 49d1 64bb 50dc 4abc 041c 34bc 6b29 2c3c

bn1.weight f4 [400]
0.24327517 0.21363932 0.3308221 0.27637938 0.14179799 0.45774466 0.77279216 0.33348766
0.52337635 1.5275629 0.31822258 0.36004484 0.2869689 0.00014230494 0.2697128 0.5080047
0.34583947 0.44905734 0.12495657 0.21057695 0.34686756 0.3247024 0.4217494 0.4210745
0.40995112 0.19866419 0.11161627 0.20584597 0.451708 0.34980726 0.1974478 0.20024417
0.35618165 0.30558705 0.5321952 0.68704396 0.42690086 0.50717723 0.5947618 0.91412765
0.2059134 0.12787536 1.1244965 0.22021157 0.6127405 0.32775843 0.20009315 0.25038663
0.7361294 0.25414932 0.16987161 1.0389287 0.07803481 0.23022021 0.29223025 1.2531104
1.5188876 0.14221662 0.43339953 0.17409272 0.25237876 0.3365229 0.1054536 0.18731238
0.2300491 0.24846411 0.33940652 0.25046352 0.24403924 0.63778913 0.26866332 0.13574614
0.0918232 0.16320077 0.22033188 0.8452352 0.7195619 0.19233553 0.4502471 0.35982877
0.23705445 0.1865392 -0.00031595211 0.13468614 0.19571361 0.19299558 0.20688815 0.16250043
0.5162712 0.087899536 0.20041083 0.6140437 0.34842798 0.64449084 0.6892931 0.26549858
0.48889887 0.16892645 0.15742718 0.28968516 0.44436455 0.3301358 0.7473735 0.22838916
0.15026031 0.12812535 0.7818921 0.30034187 0.22729106 0.47236395 0.22485381 0.20689985
0.22163501 0.3763872 0.28498077 0.36318752 0.26478732 0.16031815 0.115203865 0.3791466
0.15809037 0.5240707 0.25413105 0.46711957 0.7525693 0.17276414 0.23157704 0.2193071
0.24823202 0.3572307 0.4781473 0.27650058 0.2579463 -0.00016259916 0.28765398 0.21257812
0.60947233 0.48822948 0.71508604 0.45905998 0.45889136 0.15896611 0.6294292 0.19379334
0.16590945 8.894034e-05 0.25392678 0.29612473 0.27937952 0.4585033 0.40447456 0.17335662
0.44993424 0.24735135 0.31536335 0.17866568 1.1951591 -0.00028506888 0.19481805 0.574103
1.2038473 0.2561871 0.20984767 0.30400577 1.327793 0.25557843 0.3610785 0.2898384
0.17598516 0.19402944 0.35465762 0.06841951 0.27525878 0.36181983 0.5202849 0.32536906
0.23550211 0.08002784 0.4053209 0.3984329 0.24036647 0.3437612 1.2213777 0.48897663
0.13386844 0.419638 0.19675925 0.33171585 0.6046826 0.18169951 0.18215474 0.14662892
0.1967896 0.89217025 1.0646174 0.3754117 0.43721372 0.31671953 0.53023595 0.41732508
1.1673123 0.25540605 -0.00042976125 0.13479832 0.31513667 0.22229862 1.0470587 0.24509153
0.12578969 0.380369 0.43548787 0.7868683 -0.00017452237 0.116839044 0.30802235 0.48460218
1.43077 1.1593863 0.1775308 0.13315651 0.2293738 0.2109911 0.30726966 0.5907493
0.15350501 0.3163029 0.12177708 0.26364896 0.21364342 1.3241221 0.32868242 0.10412886
0.16250937 0.16712853 0.39499715 0.39608154 0.17780305 0.4378918 0.26749483 0.34282982
0.3219274 0.13048147 0.18331686 0.96919966 0.44470432 0.6401101 0.052704345 0.4810794
0.5821569 3.7110523e-05 0.32269946 0.3016043 0.2400458 0.2592747 0.32421762 0.30641386
00000000: 201d 793e 44c4 5a3e 8461 a93e 9981 8d3e
00000010: 7e33 113e 825d ea3e b5d5 453f e5be aa3e
00000020: fefb 053f 2e87 c33f 12ee a23e cc57 b83e
00000030: 96ed 923e b137 1539 cc17 8a3e 990c 023f
00000040: df11 b13e d8ea e53e 3be9 ff3d 7ca1 573e
00000050: a098 b13e 653f a63e 8aef d73e 1497 d73e
00000060: 1de5 d13e a06e 4b3e 1297 e43d 49c9 523e
00000070: 4546 e73e f019 b33e c22f 4a3e cf0c 4d3e
00000080: 715d b63e e875 9c3e f23d 083f 1de2 2f3f
00000090: c092 da3e 5ed6 013f 4f42 183f 4504 6a3f
000000a0: f6da 523e c2f1 023e 80ef 8f3f 247f 613e
000000b0: 90dc 1c3f f4cf a73e 38e5 4c3e ad32 803e
000000c0: fa72 3c3f dc1f 823e d3f2 2d3e 9efb 843f
000000d0: b7d0 9f3d d9be 6b3e 349f 953e ec65 a03f
000000e0: e96a c23f 3ca1 113e 8be6 dd3e 5d45 323e
000000f0: ca37 813e bb4c ac3e 0ff8 d73d d1ce 3f3e
00000100: fe91 6b3e 606d 7e3e b1c6 ad3e c13c 803e
00000110: 6ce5 793e 2646 233f 3d8e 893e 0901 0b3e
00000120: cd0d bc3d 1a1e 273e ae9e 613e 5661 583f
00000130: 3535 383f 9bf3 443e ca86 e63e 7a3b b83e
00000140: 67be 723e 2204 3f3e 60a6 a5b9 2aeb 093e
00000150: 2669 483e a2a0 453e 7dda 533e 8366 263e
00000160: 592a 043f ac04 b43d 7f38 4d3e f831 1d3f
00000170: 2765 b23e 5afd 243f 8375 303f 6eef 873e
00000180: f450 fa3e 0efb 2c3e 9734 213e 9d51 943e
00000190: c083 e33e 8f07 a93e df53 3f3f d9de 693e
000001a0: d7dd 193e 4b33 033e 152a 483f 69c6 993e
000001b0: fdbe 683e b0d9 f13e 1440 663e 8edd 533e
000001c0: 4af4 623e d3b5 c03e 00e9 913e b7f3 b93e
000001d0: 3492 873e 712a 243e 01f0 eb3d 811f c23e
000001e0: 71e2 213e 7f29 063f 771d 823e 4c2a ef3e
000001f0: 62a8 403f 15e9 303e 8822 6d3e 0a92 603e
00000200: 8930 7e3e f1e6 b63e b9cf f43e 7c91 8d3e
00000210: 8a11 843e 617f 2ab9 6247 933e 14ae 593e
00000220: 6106 1c3f 37f9 f93e e10f 373f e909 eb3e
00000230: cff3 ea3e 03c8 223e 4622 213f c371 463e
00000240: 2be4 293e 7b85 ba38 b102 823e a99d 973e
00000250: d50a 8f3e f2c0 ea3e 4a17 cf3e 6684 313e
00000260: c85d e63e ac49 7d3e 4e77 a13e 23f4 363e
00000270: f9fa 983f 4c75 95b9 627e 473e 6af8 123f
00000280: ab17 9a3f f52a 833e 4fe2 563e a5a6 9b3e
00000290: 1ff5 a93f 2ddb 823e 48df b83e b365 943e
000002a0: 7435 343e a7af 463e af95 b53e 871f 8c3d
000002b0: b8ee 8c3e 7340 b93e 6431 053f c696 a63e
000002c0: 7727 713e a3e5 a33d 3986 cf3e 66ff cb3e
000002d0: a122 763e 7801 b03e 1b56 9c3f 255b fa3e
000002e0: cf14 093e cbda d63e 427b 493e a9d6 a93e
000002f0: 7bcc 1a3f 700f 3a3e c686 3a3e e425 163e
00000300: 3783 493e 4565 643f 6245 883f f635 c03e
00000310: 7ada df3e 1029 a23e 8bbd 073f a2ab d53e
00000320: 7d6a 953f 95c4 823e 9451 e1b9 9208 0a3e
00000330: 9859 a13e 40a2 633e 0506 863f 46f9 7a3e
00000340: 03cf 003e babf c23e 44f8 de3e 3370 493f
00000350: feff 36b9 4f49 ef3d 1bb5 9d3e c71d f83e
00000360: 7923 b73f c566 943f a2ca 353e 2e5a 083e
00000370: f7e0 6a3e 0d0e 583e 7352 9d3e 593b 173f
00000380: 6b30 1d3e 74f2 a13e 4366 f93d fffc 863e
00000390: 57c5 5a3e d57c a93f 1049 a83e 8341 d53d
000003a0: db68 263e be23 2b3e 113d ca3e 33cb ca3e
000003b0: 0112 363e 5b33 e03e 15f5 883e 6487 af3e
000003c0: abd3 a43e ef9c 053e 6ab7 3b3e 781d 783f
000003d0: 49b0 e33e 41de 233f 83e0 573d 0a50 f63e
000003e0: 3c08 153f 1fa7 1b38 dd38 a53e e16b 9a3e
000003f0: 91ce 753e a7bf 843e daff a53e 47e2 9c3e

bn1.bias f4 [400]
0.065062545 0.016065743 0.16304699 0.056327526 0.012386117 0.12813279 0.29351178 0.08859876
0.2489521 0.371233 0.14646912 0.06854183 0.07916013 1.2904721e-05 0.031355374 0.18156244
0.18909787 0.25853977 0.034689482 0.08686637 0.12560931 0.077816926 0.10952353 0.10967675
0.00018958825 0.044830866 0.012376267 0.03258243 0.08041078 0.06684385 0.07586735 -0.015406724
0.23072518 0.09999941 0.18397644 0.13639559 0.12677528 0.11451089 0.15098944 0.19488811
0.12695937 0.026903884 0.21888982 0.0379739 0.10780823 0.09375725 0.042202853 0.19151148
0.269266 0.19173257 -0.020768227 0.39285988 0.0015556886 0.0062130396 0.074245736 0.26118922
0.31609553 0.013860046 0.0105476575 -0.062212873 0.065289974 0.105984405 -0.0059742443 0.062086247
0.101583846 0.013590782 0.113720305 0.076522455 0.06971584 0.09479564 -0.02288383 -0.0030160553
-0.065935776 0.009191522 0.011367335 0.23921366 0.21604468 0.05116536 0.031669017 0.29487833
0.028309517 0.05626205 -0.0002763206 -0.002743626 0.070020236 0.04172642 0.01008806 0.049142055
0.24675782 0.011463442 0.10509989 0.40194023 0.16297789 0.26149336 0.13307673 0.016646774
0.19436161 0.036482684 0.025122479 0.16242313 0.1099228 0.10041005 0.22906184 0.09990038
-0.014682321 -0.03043714 0.3123146 -0.023339786 0.08838999 -0.06496326 0.06032993 -0.013389854
0.14802125 0.114016876 0.12892456 0.12111337 0.065757014 0.03420079 0.052465618 0.16721766
0.031148698 0.09858533 0.046225954 0.002691937 0.1553727 -0.010172619 0.06159791 0.07288119
0.037951235 0.18298197 0.31825805 0.12023574 0.062737785 -0.0001234189 -0.07241859 0.034049768
0.12697703 0.31261948 0.35246906 0.18391463 0.12364402 0.07136857 0.39645612 0.049775995
-0.008203685 -6.614833e-05 0.14359377 0.052379686 0.029916197 0.21301879 0.17422754 0.07713036
0.1849085 0.07193401 0.22350897 0.05553695 0.24976479 4.1570096e-05 0.019159408 0.032577194
0.4065848 0.039640542 0.049399354 0.12723592 0.09976569 0.049819063 0.14237563 0.13945767
0.036262598 -0.009293663 0.12702166 0.0004738352 0.12979662 0.13790588 0.16038209 0.3567474
0.091626726 0.059660926 0.22330268 0.086009525 -0.13904926 0.08694235 0.19310383 0.25566906
0.025117915 0.26490456 0.06948759 -0.03693885 0.18304308 0.04352424 0.02326367 -0.022718707
0.010131754 0.2383943 0.45191503 0.13624021 0.19870469 0.15930176 0.0949891 0.14502086
0.15048654 0.15881626 -7.058847e-05 -0.052906472 0.22790512 0.075309895 0.26014924 0.10991513
0.08590016 0.12452931 0.14310884 0.16945997 7.402906e-05 -0.010673582 0.10295482 0.13583353
-0.31987175 -0.08307989 0.056476865 -0.003948755 0.10518784 0.040414546 0.11731237 0.18905222
0.0075579905 0.09161957 0.01653897 0.2005079 0.046583492 0.35692644 0.08230256 0.020737428
0.01498147 0.030327655 -0.07714603 0.20698383 0.036631927 0.25113928 0.060720004 0.08097673
0.24680455 -0.020836115 0.05845732 0.2890651 0.3795894 0.18413028 -0.050937302 0.096340925
0.048741855 4.2236745e-05 0.0743663 0.18379033 -0.018906005 0.07512472 0.13253169 0.23560593
00000000: 833f 853d 4e9c 833c caf5 263e b1b7 663d
00000010: 24ef 4a3c 3e35 033e 2d47 963e 4473 b53d
00000020: 4ded 7e3e 4012 be3e 00fc 153e a95f 8c3d
00000030: b51e a23d 5b81 5837 7e6e 003d 81eb 393e
00000040: dfa2 413e 535f 843e 8f16 0e3d ffe6 b13d
00000050: ba9f 003e 7b5e 9f3d df4d e03d 349e e03d
00000060: 35cc 4639 92a0 373d d4c5 4a3c 2775 053d
00000070: 68ae a43d 6ee5 883d 5760 9b3d 7c6c 7cbc
00000080: 3943 6c3e 7ecc cc3d 5264 3c3e 49ab 0b3e
00000090: 61d1 013e af84 ea3d fa9c 1a3e c090 473e
000000a0: a301 023e 8965 dc3c a724 603e 858a 1b3d
000000b0: 90ca dc3d cd03 c03d e6dc 2c3d 961b 443e
000000c0: 3cdd 893e 8b55 443e 2122 aabc ee24 c93e
000000d0: 3fe8 cb3a c196 cb3b 260e 983d 98ba 853e
000000e0: 46d7 a13e 3f15 633c 15d0 2c3c edd2 7ebd
000000f0: c0b6 853d 5a0e d93d 98c3 c3bb 264e 7e3d
00000100: 310b d03d dfab 5e3c 31e6 e83d ceb7 9c3d
00000110: 2ec7 8e3d 3724 c23d df76 bbbc 03a9 45bb
00000120: 5609 87bd 0a98 163c 0f3e 3a3c 6df4 743e
00000130: d13a 5d3e c592 513d 5fb7 013d 4bfa 963e
00000140: 5ce9 e73c 0973 663d 20df 90b9 68ce 33bb
00000150: c566 8f3d 53e9 2a3d 6448 253c 2e49 493d
00000160: 15ae 7c3e 29d1 3b3c 9c3e d73d 1ccb cd3e
00000170: ade3 263e 75e2 853e 4445 083e d15e 883c
00000180: bb06 473e de6e 153d a8cd cd3c 4052 263e
00000190: 341f e13d c9a3 cd3d 308f 6a3e 9298 cc3d
000001a0: 1e8e 70bc 4f57 f9bc b3e7 9f3e 1433 bfbc
000001b0: d005 b53d 750b 85bd 841c 773d 1e61 5bbc
000001c0: e292 173e ae81 e93d cd04 043e 490a f83d
000001d0: 9dab 863d 2116 0c3d 30e6 563d 1b3b 2b3e
000001e0: 8e2b ff3c 1be7 c93d 6d57 3d3d 356b 303b
000001f0: 051a 1f3e 0eab 26bc 174e 7c3d bc42 953d
00000200: c172 1b3d a05f 3b3e b8f2 a23e 283e f63d
00000210: ab7c 803d 026a 01b9 3350 94bd c577 0b3d
00000220: 4406 023e a90f a03e d376 b43e 1e54 3c3e
00000230: 1339 fd3d af29 923d 4cfc ca3e eae1 4b3d
00000240: c068 06bc 1db9 8ab8 3f0a 133e 158c 563d
00000250: d012 f53c 9921 5a3e b468 323e 86f6 9d3d
00000260: a758 3d3e 2352 933d 89df 643e b67a 633d
00000270: 57c2 7f3e 8d5b 2e38 31f4 9c3c aa6f 053d
00000280: e22b d03e 1f5e 223d fa56 4a3d 224a 023e
00000290: f451 cc3d 130f 4c3d ebca 113e fecd 0e3e
000002a0: 1788 143d 7344 18bc f711 023e 166d f839
000002b0: 68e9 043e 3337 0d3e 343b 243e 98a7 b63e
000002c0: cba6 bb3d 045f 743d 75a9 643e c325 b03d
000002d0: ee62 0ebe d50e b23d 03bd 453e 0ee7 823e
000002e0: 16c4 cd3c 92a1 873e 824f 8e3d 314d 17bd
000002f0: a56f 3b3e 7946 323d 7493 be3c 951c babc
00000300: a8ff 253c a31d 743e 6861 e73e 8e82 0b3e
00000310: 3e79 4b3e 0020 233e a589 c23d 5980 143e
00000320: 2519 1a3e bba0 223e e508 94b8 75b4 58bd
00000330: f65f 693e 133c 9a3d 4832 853e 2f1b e13d
00000340: 6cec af3d 3909 ff3d 208b 123e ea86 2d3e
00000350: 0d40 9b38 3fe0 2ebc fad9 d23d f217 0b3e
00000360: 3bc6 a3be ca25 aabd 4954 673d 8f64 81bb
00000370: b96c d73d b989 253d 7841 f03d e896 413e
00000380: 05a9 f73b 0ba3 bb3d bc7c 873c f151 4d3e
00000390: 55ce 3e3d 10bf b63e 3f8e a83d 8ae1 a93c
000003a0: d774 753c b471 f83c bdfe 9dbd 92f3 533e
000003b0: 5c0b 163d 5495 803e 8ab5 783d 21d7 a53d
000003c0: 55ba 7c3e 80b0 aabc f170 6f3d 5700 943e
000003d0: 8b59 c23e a68c 3c3e a2a3 50bd 644e c53d
000003e0: 8aa5 473d 5c27 3138 5c4d 983d 8833 3c3e
000003f0: c4e0 9abc fdda 993d 63b6 073e ae42 713e

bn1.running_mean f4 [400]
2.4098475 0.9786871 0.9822086 1.0721339 4.867689 0.36363742 21.132956 4.2901707
2.8540673 1.011393 0.64774424 2.903407 0.8421958 4.58073 5.371959 1.0960417
4.835367 3.6525908 0.18634562 0.9300021 0.79807895 0.4048011 1.6022997 2.9119856
6e-45 0.50835973 3.4419062 1.2312769 0.94187653 0.8126836 3.1577785 1.7875088
2.948994 4.2294097 2.470638 2.3177843 0.7991221 0.3360223 0.30627877 1.0995606
1.0569249 0.9085961 0.23212634 0.44174123 0.2989195 0.60991913 2.2744796 7.181663
21.677208 1.1887559 6.5929823 1.4045845 4.496388 3.9778109 1.5744808 5.606463
37.124046 7.6718063 0.7411144 1.6125457 2.137737 1.0450897 4.283934 7.2857985
4.774011 2.1178634 2.5168862 0.9933114 2.292822 2.174439 4.143935 4.1194453
3.5219553 0.24667595 0.066354774 0.5127388 0.9853814 6.5455112 1.5440979 6.846334
3.52247 2.5294967 4.2935724 6.225993 3.4008512 1.8084232 0.43470109 7.3863177
5.8111935 3.9782102 3.5337632 1.4749578 3.4621158 2.7545187 22.202621 3.9585094
4.88971 0.48509857 0.22605184 5.6182294 0.7744337 12.41188 1.1246139 6.401235
1.7711132 5.912879 2.2196312 2.5267248 2.5142817 2.694303 2.0203986 3.0396483
4.8363132 0.43811586 1.6306307 1.832448 2.5049355 0.38855278 1.2236782 2.076219
0.144622 0.33582398 3.3352258 0.6032047 0.70815456 3.977028 3.6954563 0.6248825
1.1851532 4.7412663 6.52373 2.8336253 2.755803 5.45372 2.0935643 0.19334853
0.9351956 3.1028566 17.90982 2.149939 0.83464736 3.7808692 8.879084 1.6119602
5.8221583 8.300644 3.0960603 11.4701605 1.5690727 1.315495 1.4872288 3.8147562
1.2675279 3.6788085 7.163309 2.826223 5.643596 19.11356 14.005585 1.8961594
40.750275 0.73984593 1.0761818 2.9209676 26.771938 3.2461977 2.4681125 5.3227224
2.1292906 1.2080399 0.27233675 7.346769 3.1941998 1.695532 0.89085984 4.2109113
5.666389 3.582868 6.8924727 2.9346929 13.704019 0.69367576 1.7277956 3.236764
0.5980922 15.503439 1.6607845 1.4033078 8.277465 1.4621922 0.5861295 9.186862
0.9733665 10.33469 4.205674 5.3040385 3.484093 3.8553576 1.1626084 0.45727196
1.5981759 2.2034936 1.3518295 7.1764894 0.9565806 1.8591306 2.9606593 9.798523
3.680585 3.0133862 0.81976277 1.3137864 10.133219 9.666167 0.95600134 0.6433075
16.37509 3.2965536 2.7100177 1.2815739 1.2757176 4.7266345 12.310892 3.3385339
4.6376543 1.7436719 9.385224 9.606975 3.1169477 2.2311735 1.1314468 2.2888048
2.6889424 0.26733625 17.972744 1.9099371 0.24267629 2.684584 3.9205275 0.16187654
4.924042 12.365319 4.417578 2.0759273 10.08291 0.30466223 0.94768816 0.26624334
1.2810906 11.244447 3.2801046 2.046293 8.526875 2.2673573 1.6683908 5.9414334
00000000: f13a 1a40 3d8b 7a3f 0672 7b3f af3b 893f
00000010: 1cc4 9b40 af2e ba3e 4b10 a941 1449 8940
00000020: 0aa9 3640 5375 813f 91d2 253f 6cd1 3940
00000030: 259a 573f 5795 9240 17e7 ab40 184b 8c3f
00000040: 54bb 9a40 0cc4 6940 63d1 3e3e 9e14 6e3f
00000050: e74e 4c3f 1742 cf3e 2818 cd3f f95d 3a40
00000060: 0400 0000 dd23 023f 3148 5c40 7b9a 9d3f
00000070: d21e 713f 080c 503f 0b19 4a40 17cd e43f
00000080: 51bc 3c40 5357 8740 ef1e 1e40 9456 1440
00000090: 4493 4c3f 1d0b ac3e 92d0 9c3e 67be 8c3f
000000a0: 5149 873f c199 683f 87b2 6d3e e82b e23e
000000b0: fa0b 993e a923 1c3f 1391 1140 2fd0 e540
000000c0: ec6a ad41 2729 983f b6f9 d240 6dc9 b33f
000000d0: 69e2 8f40 7494 7e40 9688 c93f 2568 b340
000000e0: 067f 1442 707f f540 acb9 3d3f e667 ce3f
000000f0: afd0 0840 80c5 853f fd15 8940 4325 e940
00000100: b3c4 9840 138b 0740 aa14 2140 a849 7e3f
00000110: 98bd 1240 022a 0b40 1e9b 8440 7fd2 8340
00000120: b767 6140 9f98 7c3e 03e5 873d da42 033f
00000130: f541 7c3f d474 d140 00a5 c53f 2b15 db40
00000140: 2670 6140 46e3 2140 f264 8940 563b c740
00000150: 8ca7 5940 697a e73f 2491 de3e b75c ec40
00000160: 4cf5 b940 ff9a 7e40 2d29 6240 6bcb bc3f
00000170: 4e93 5d40 094a 3040 f89e b141 3858 7d40
00000180: 8178 9c40 d75e f83e 227a 673e 89c8 b340
00000190: 4941 463f 0f97 4641 59f3 8f3f ebd6 cc40
000001a0: d6b3 e23f 4e36 bd40 700e 0e40 dcb5 2140
000001b0: fee9 2040 766f 2c40 364e 0140 9989 4240
000001c0: 14c3 9a40 b950 e03e 82b8 d03f a88d ea3f
000001d0: dd50 2040 64f0 c63e 7da1 9c3f c6e0 0440
000001e0: ca17 143e 1ff1 ab3e 5774 5540 a06b 1a3f
000001f0: 9e49 353f a087 7e40 5b82 6c40 4df8 1f3f
00000200: 1ab3 973f 74b8 9740 65c2 d040 1e5a 3540
00000210: 145f 3040 e084 ae40 f5fc 0540 28fd 453e
00000220: fb68 6f3f 3495 4640 5047 8f41 9a98 0940
00000230: 73ab 553f c3f9 7140 ba10 0e41 b654 ce3f
00000240: 1f4f ba40 70cf 0441 da25 4640 c785 3741
00000250: 60d7 c83f 2462 a83f 835d be3f f724 7440
00000260: 5b3e a23f 9971 6b40 d439 e540 d6e0 3440
00000270: 5798 b440 92e8 9841 e016 6041 5ab5 f23f
00000280: 4800 2342 8b66 3d3f 53c0 893f 22f1 3a40
00000290: ee2c d641 b4c1 4f40 8ef5 1d40 be53 aa40
000002a0: 4c46 0840 0da1 9a3f b96f 8b3e bb18 eb40
000002b0: c56d 4c40 3107 d93f 640f 643f c9bf 8640
000002c0: 0f53 b540 b64d 6540 238f dc40 02d2 3b40
000002d0: a943 5b41 bc94 313f 6828 dd3f 2427 4f40
000002e0: 921c 193f 160e 7841 9694 d43f 979f b33f
000002f0: 7f70 0441 1d29 bb3f 950c 163f 63fd 1241
00000300: 8c2e 793f e45a 2541 e294 8640 afba a940
00000310: 61fb 5e40 2ebe 7640 5ad0 943f 8d1f ea3e
00000320: 0791 cc3f 0a06 0d40 c008 ad3f cda5 e540
00000330: 77e2 743f fef7 ed3f 717b 3d40 c0c6 1c41
00000340: b48e 6b40 52db 4040 f9db 513f 272a a83f
00000350: aa21 2241 9fa8 1a41 81bc 743f cdaf 243f
00000360: 2f00 8341 bcfa 5240 ee70 2d40 9d0a a43f
00000370: b74a a33f 9740 9740 6af9 4441 8aaa 5540
00000380: aa67 9440 a430 df3f e129 1641 2bb6 1941
00000390: 127c 4740 8ccb 0e40 40d3 903f c77b 1240
000003a0: a217 2c40 4ce0 883e 2ec8 8f41 d278 f43f
000003b0: 2280 783e 39d0 2b40 ece9 7a40 f7c2 253e
000003c0: c191 9d40 59d8 4541 cd5c 8d40 fedb 0440
000003d0: 9953 2141 b0fc 9b3e b19b 723f 0c51 883e
000003e0: c7fa a33f 41e9 3341 3ced 5140 77f6 0240
000003f0: 146e 0841 621c 1140 d48d d53f 3920 be40
