checkpoint_critic_target_1.pth (torch, 577426 bytes, 9 tensors)

fcs1.weight f4 [400, 52]
000000 de f1 10 bd 05 0b fa 3f 88 f4 8c be 1a 47 12 3f
       -0.035386913 1.9534613 -0.27530313 0.5713974
000010 e0 ea ae 3e 9c 1e 94 bf dd 88 98 be 48 cd 1b 3f
       0.3416357 -1.1571841 -0.29791918 0.6086011
000020 fb cc bb bd 87 24 08 40 06 41 6b 3e 19 f1 09 3f
       -0.09169956 2.1272295 0.22974023 0.5388351
000030 0a 9c 32 3e 12 df bb bf d6 c1 3a 3e e1 d1 16 3f
       0.17442337 -1.4677451 0.18238005 0.58914
000040 db b4 cd 3c 83 bb 0f 40 43 ae 8b bd 65 96 27 be
       0.025110653 2.2458198 -0.06820347 -0.16365965
000050 6f 18 da 3d 9b 89 cc bf 88 53 21 bd 13 84 23 be
       0.106491916 -1.5979494 -0.039386302 -0.15968351
000060 6c ba b2 3e 9c 93 c3 3c a5 e6 fb 3e 7d 87 95 bf
       0.34907854 0.023874097 0.49199405 -1.1681973
000070 f5 33 aa be d4 eb 8d bf f6 c2 f1 3e d1 95 8f bf
       -0.33242765 -1.1087594 0.47219056 -1.1217595
000080 00 7d 37 3f 40 60 f5 bc 20 2d 81 bc e1 34 98 3f
       0.7167511 -0.029953122 -0.015768588 1.1891137
000090 8a 2a 7f be 83 5d bb bf 0d 9b 82 bd 4f cb 9b 3f
       -0.24918571 -1.4637913 -0.0637723 1.217142
0000a0 c2 91 89 3f 5f c5 ca 3e 11 3c 12 3e bf 8c 00 3f
       1.0747607 0.39603707 0.14280726 0.5021476
0000b0 b7 40 d1 bd bd 67 d0 bf 50 f1 13 3e 20 cf e7 3e
       -0.102174215 -1.6281658 0.14447522 0.4527521
0000c0 a3 cd 85 be 2d d0 ee 3e 42 73 15 c0 e2 de 58 bf
       -0.2613345 0.466432 -2.3351598 -0.8471509
0000d0 19 c7 b2 bc eb 07 40 bf 96 76 0d be 6a 95 99 be
       -0.021823453 -0.7501208 -0.13814768 -0.29996806
0000e0 4f 26 2f 3e 90 4a 3c bf 52 d4 d3 bd a1 fb 7d be
       0.17104457 -0.73551273 -0.10343231 -0.2480302
0000f0 94 9f 62 3d fb 51 cf be 1d a2 1b be dd 14 6c bb
       0.055327967 -0.40492234 -0.1519856 -0.0036023178
000100 e0 54 13 3f ff 56 f5 bf da f4 07 be a9 67 9d bc
       0.57551384 -1.9167174 -0.13276997 -0.019214468
000110 1d 91 8f 3e 2f ef 09 bf 56 d4 98 bc 72 11 9a be
       0.280404 -0.5388059 -0.018655937 -0.30091435
000120 2b 66 8d 3f 11 4c 9a bf 4b 42 24 bd 5e 5e 94 be
       1.1046804 -1.2054464 -0.040102284 -0.28978246
000130 67 2e 30 3f 0f 9a f1 3e ed e1 de 3c 15 b6 8a 3f
       0.68820804 0.4718785 0.02720734 1.0836817
000140 d7 75 53 be 63 c6 37 bf 5c 33 88 3d cd df 8a 3f
       -0.20650421 -0.7178709 0.06650421 1.0849549
000150 36 f9 8d 3f 27 6f a0 3f 3a 8a b4 3d f9 09 84 3f
       1.1091678 1.2533921 0.08815427 1.0315543
000160 0d 3a 04 bf 7e d7 f2 bf d7 1d dc 3d 11 99 7d 3f
       -0.5165108 -1.8972013 0.10747879 0.99061686
000170 68 6d b9 3f 77 b1 8c 3f c5 eb 09 3e 8e 59 22 bf
       1.4486513 1.0991658 0.13468845 -0.634179
000180 5e c9 96 bf 42 bc a1 bf 41 a7 11 3e 86 da 15 bf
       -1.1780202 -1.2635577 0.14223959 -0.58536565
000190 5c b4 55 bf aa da 4d bf dd 45 c5 3f ae 93 3c 3e
       -0.8347833 -0.8041178 1.5411946 0.1841571
0001a0 c7 5d 24 be 6d d9 97 be 7b 68 d1 bb bf f3 85 3d
       -0.16051398 -0.2965807 -0.006390629 0.065406315
0001b0 90 82 6f bf 05 3b 19 bf 95 1d b4 3c f6 22 89 3d
       -0.935586 -0.5985568 0.021986762 0.066961214
0001c0 f8 c0 b2 3d bd 9a 78 3f a5 16 01 3d 4f b2 48 3f
       0.08728212 0.9711111 0.031515736 0.7839708
0001d0 8f 7f 62 3c 39 7a c0 3e a2 da db bc 2d f5 51 3f
       0.013824358 0.37593248 -0.02683765 0.82014734
0001e0 43 cf b2 3e b3 d5 d2 3f 5c 08 c6 ba 97 62 0d bf
       0.34923753 1.6471466 -0.0015108692 -0.5522856
0001f0 47 7c ca 3f 62 f8 b0 3f d2 33 01 bc 7e 6d 1f bf
       1.5819176 1.38258 -0.00788589 -0.62276447
000200 3c 4d 28 bf fa d1 94 bf d1 f8 1a bd e8 c8 15 be
       -0.6574285 -1.162658 -0.037834946 -0.14627421
000210 82 4d 76 3f dd c8 19 bf 16 41 e8 bb 05 a0 f3 bd
       0.9621202 -0.6007212 -0.007087837 -0.11895756
000220 70 3e 08 3e db 5a bc be 48 6f a3 bd 78 93 24 ba
       0.13305068 -0.36788067 -0.079802096 -0.0006278078
000230 42 fc ee 3b 5a b6 e5 3e 4e 19 3d bd 17 d5 72 bd
       0.007293255 0.44865686 -0.04616671 -0.05928525
000240 7e cb ca 3f 7d 51 d0 3e 33 b2 48 bd a4 ad 07 bd
       1.5843351 0.4068717 -0.04899807 -0.03312458
000250 bb 4a cb bf d3 ee b2 3f dc 5f 8f bd 77 89 45 bb
       -1.5882181 1.3979133 -0.070007056 -0.003014175
000260 af 1c 3d bf a7 85 01 be b7 3e 45 3f 3e 9a 9e 3f
       -0.7387189 -0.1264864 0.7704882 1.2390821
000270 ed f9 57 3e e9 b2 91 3f ee eb a2 3e 5b 54 72 be
       0.21091433 1.1382724 0.31820625 -0.23664992
000280 4c cf 33 bf 12 88 06 bf 76 a3 aa 3e f0 22 37 be
       -0.70238185 -0.52551377 0.33327836 -0.17884421
000290 c3 2c cc 3e d2 37 2e 3f 16 7a 13 3e e4 b1 bf bd
       0.398779 0.68053925 0.14402041 -0.09360102
0002a0 c0 73 7d be 25 bd 00 be c0 56 14 3e 0f e5 b6 bd
       -0.24751186 -0.12572153 0.14486217 -0.08930408
0002b0 8d 76 e9 3d 54 cb a9 bd 69 e5 80 3d ca 54 b5 3e
       0.11399565 -0.08290735 0.062937565 0.3541625
0002c0 24 c0 48 3e a6 37 9f 3e 48 26 f9 3d 26 82 8f 3e
       0.19604546 0.31097144 0.12165505 0.28028983
0002d0 09 02 0b 3f c8 6c 4e 3d 27 5b 0e 3e 4d 0d c4 bd
       0.5429998 0.05039671 0.1390196 -0.095728494
0002e0 f4 e2 30 3f 98 71 16 bf 8b 53 47 3e 98 f1 32 be
       0.69096303 -0.5876708 0.19465463 -0.17474973
0002f0 2e 12 02 3f a5 a9 83 3d 62 13 58 be a8 90 a2 3f
       0.5080899 0.064288415 -0.21101144 1.2700396
000300 ef 0d 51 3e 67 5d 16 be ed 8f 7e be d0 26 a9 3f
       0.20415471 -0.14684068 -0.24859591 1.321497
000310 3f 50 d5 3e 61 f0 03 3f 78 ac 4f be 7d 44 14 40
       0.41662785 0.51538664 -0.20280635 2.3166802
000320 73 c6 3d be bb 2d ae 3e 12 07 49 be e9 a4 12 40
       -0.18532734 0.34019265 -0.19631603 2.2913153
000330 0f e9 d2 3f d3 12 13 be 32 7c b3 40 2d 80 9c bf
       1.6477374 -0.1436265 5.6089106 -1.2226616
000340 a4 07 ce 3e 23 71 2d 3f 80 1b b0 3b 99 f7 36 3d
       0.40240204 0.6775076 0.005374372 0.04466972
000350 2f 10 98 3f bd 1d 55 bf 2e 00 15 bd 3a a6 08 bc
       1.1879939 -0.832485 -0.036377124 -0.008340413
000360 4e 9d fe 3e d5 3e 3c 3f 5d f9 95 3d bc cb 83 bd
       0.4972939 0.73533374 0.07322953 -0.064353436
000370 78 ed 81 3f 82 57 9c bf 96 52 8b 3d 30 3a 77 bd
       1.0150595 -1.2214205 0.068028614 -0.060358226
000380 c6 50 0b 3f 06 24 68 3f a2 c4 2d 3e 28 1b c4 3d
       0.54420125 0.9067997 0.1696954 0.09575492
000390 3a 36 08 3f 95 f9 64 bf 15 cd 9e 3d 00 e3 7e 3d
       0.53207743 -0.8944333 0.0775396 0.062228203
0003a0 a2 1d 20 3f 06 46 e8 be 8b 25 b0 3d 7f 71 b8 3e
       0.62545216 -0.45365924 0.08600911 0.3602409
0003b0 75 57 92 bf 38 ba 50 bf c2 dc c1 3d 25 16 af 3e
       -1.143294 -0.8153415 0.09465934 0.34196582
0003c0 e3 d2 98 3f 5a 85 e7 be 20 d0 6a 3e 3e f3 1d bf
       1.1939358 -0.45218927 0.22930956 -0.61699283
0003d0 f5 cc 75 bf 4d 89 a2 bf 85 ca 70 3e 4a cb 1e bf
       -0.96015865 -1.2698151 0.23514755 -0.62028944
0003e0 8a 69 ad 3f 34 86 2e 3d 8b b7 e5 3e 06 be aa 3e
       1.3547833 0.042608455 0.44866595 0.333481
0003f0 e7 c9 0c bf ac 66 55 bf d1 b0 c9 3e 16 46 ca 3e
       -0.5499558 -0.8335979 0.39392713 0.39506596

fcs1.bias f4 [400]
000000 9a cb 3e bf 90 81 44 bf 4d 85 96 c0 0d ee a7 bf
       -0.7452942 -0.76760197 -4.703772 -1.3119522
000010 35 32 97 bf f4 e9 ac 3f 90 cd ca bd 34 e5 1b c0
       -1.1812197 1.3508897 -0.09902489 -2.4358644
000020 db 3f 06 c0 83 bc a0 bf cc 6e 75 3d 65 f8 1f 3e
       -2.0976474 -1.2557529 0.059920117 0.15622099
000030 59 58 1e 3f 00 ff ab be 1b 2b 92 3d 9f b6 9d bf
       0.6185356 -0.33592987 0.07137128 -1.2321357
000040 c6 bf 0a c0 6b ca 24 c0 2d 68 6d bf 07 d2 69 3e
       -2.167955 -2.5748546 -0.92737085 0.22834025
000050 f1 c0 dd be e5 85 3f 3e 92 92 5a bf 5d cf 1c bf
       -0.43311265 0.1870342 -0.853799 -0.6125391
000060 fb fc 95 be a1 37 2c 3e e3 7a 88 be d3 6c 62 bf
       -0.2929457 0.16818096 -0.26656255 -0.884473
000070 f2 e7 4f bf ef 84 ad be 3f b6 9c be a8 99 aa 3e
       -0.81213295 -0.33890483 -0.30607793 0.33320355
000080 dd 21 d7 bf 56 31 77 bf fa c4 38 c0 b3 3a 90 c0
       -1.6807209 -0.96559656 -2.8870225 -4.5071654
000090 7a f2 0d c0 3b 60 80 3f d0 ed 97 bf 3d 08 1f c0
       -2.2179246 1.0029367 -1.186945 -2.4848778
0000a0 3c 9b 0b bf 18 71 8c 3f 59 c6 c5 be ae 17 55 bf
       -0.54533744 1.0972013 -0.3862789 -0.8323926
0000b0 2f 9e 18 bf ad 02 8d 3e 7c dd e8 be 2a e6 ca bf
       -0.5961637 0.27541104 -0.4548148 -1.585149
0000c0 f0 b0 84 3d 8e 1c aa 3e 8b 4c aa bf 45 b3 06 c0
       0.06479061 0.3322491 -1.3304609 -2.1046917
0000d0 80 3d 22 bf ba 49 49 3f cc 96 6a bf 3a de 8a c0
       -0.6337509 0.7862812 -0.9163635 -4.3396273
0000e0 6f df d2 be cf 5b 02 c0 76 9f ad 3d a9 fe 15 c0
       -0.4118609 -2.0368536 0.084776804 -2.3436682
0000f0 e7 b5 3a bf 24 1f 70 be ac f0 71 bf d6 82 3f bf
       -0.7293381 -0.23449379 -0.9450786 -0.74809015
000100 a2 0f a8 be 81 dd b5 3e 37 c3 1a c0 fe 5c a3 bf
       -0.32824427 0.35520557 -2.418165 -1.2762754
000110 73 0e be be f1 68 54 bf fd 1e 91 bf a0 33 ab be
       -0.371204 -0.8297263 -1.1337582 -0.33437824
000120 1a 8d 91 3c ff a5 6c be 30 3f 9e bf b0 56 32 3f
       0.017767478 -0.23110197 -1.2363033 0.69663525
000130 4d 0e af bf 0c 01 91 bf 24 49 23 c0 cc bd ab bf
       -1.3676239 -1.1328444 -2.5513391 -1.3417296
000140 3f 9e 9c bf 1e 3d 14 bf f9 49 04 bf 83 1a 12 3f
       -1.2235793 -0.5790576 -0.51675373 0.57071704
000150 95 27 39 bf c3 f1 59 bf bc 42 4c bf 03 a9 3f bf
       -0.7232602 -0.85134524 -0.7978933 -0.74867266
000160 4a 46 67 bf 80 b8 b9 bf 76 e5 86 c0 9a 61 6d c0
       -0.9034163 -1.450943 -4.2155104 -3.7090821
000170 7d 7a 57 bf d6 9d 78 c0 7b f7 a8 be e9 8e aa bf
       -0.8417128 -3.8846335 -0.33001313 -1.3324863
000180 d8 b2 a4 bd 55 e2 24 bf 28 3e 96 be c4 3e 35 3f
       -0.08041924 -0.64407855 -0.29344296 0.707989
000190 2e f3 8b bf 1d 0a ce bf 6e 8b 1a c0 62 b0 bd bf
       -1.0933588 -1.6096836 -2.41476 -1.4819453
0001a0 b0 75 6d 3f d3 3a 4b bf 0b 95 69 c0 63 30 b5 bd
       0.927577 -0.79386634 -3.6497219 -0.0884712
0001b0 8f a5 f3 be eb b0 ab c0 0f 6e cf 3e 0b eb 91 bf
       -0.4758725 -5.3653464 0.40513656 -1.1399854
0001c0 f0 f8 5f bf e1 b4 59 bf 67 a1 90 bd 52 19 a2 3e
       -0.87489223 -0.85041624 -0.07062035 0.31659943
0001d0 7f 0c 97 3d d7 af 1f bf da 4b 82 3e ea c6 74 bf
       0.0737543 -0.62377685 0.25448495 -0.9561602
0001e0 7f f0 3a bf 27 52 38 3f 03 23 b3 be 48 77 ab bd
       -0.7302322 0.72000355 -0.3498765 -0.083723605
0001f0 6e e2 5f bf 7c 79 3c bf ce ad 1e bf eb 02 b9 bd
       -0.8745488 -0.7362287 -0.61983955 -0.0903376
000200 e7 e9 cf bf f7 26 92 be 49 32 92 bf 16 c7 bb bf
       -1.6243256 -0.28545353 -1.1421596 -1.4670131
000210 1d 68 e6 bf 0e ca 1d bf fb 9d e4 bd 1f ca 36 be
       -1.8000523 -0.61636436 -0.11162945 -0.1785054
000220 88 30 76 bf 3a 3e a2 bf d9 6c 5e bf 13 94 54 c0
       -0.961678 -1.267524 -0.8688484 -3.3215377
000230 41 d2 81 bf ac a4 4f 3f c4 4c b5 bf 18 f6 80 bf
       -1.0142289 0.81110644 -1.4164052 -1.0075102
000240 ab d1 df be 10 05 c8 be 4e 49 2f bf ff 38 47 3f
       -0.4371465 -0.39066362 -0.6847123 0.77821344
000250 eb b5 1d 3f 62 6c a6 bd d8 43 22 be 64 13 a6 bf
       0.6160571 -0.08126141 -0.15846193 -1.2974668
000260 cf 5d e7 bf 5e 1d 46 c0 49 2e 2b c0 ef c9 fe be
       -1.8075503 -3.0955424 -2.6747 -0.49763438
000270 80 f9 cc bf d7 6a 99 3d d3 e3 f5 bf 32 13 2a c0
       -1.6013641 0.07491081 -1.9210151 -2.6574216
000280 5b b2 83 be 18 d9 0f c0 0f e3 4b bf 50 7a 61 3d
       -0.25722012 -2.2476254 -0.7964334 0.055048287
000290 23 ad 7d bf 85 f2 51 3c b7 76 7b c0 db 73 a8 bf
       -0.9909231 0.012814169 -3.9291208 -1.3160356
0002a0 1f 40 00 bf 11 a8 bf be 7c 1b 9a bf f4 49 97 bf
       -0.5009784 -0.37432912 -1.2039638 -1.1819444
0002b0 09 7e f2 be e4 c6 c9 be 07 9a bf bf f9 99 91 c0
       -0.47361782 -0.39409554 -1.496888 -4.5500455
0002c0 39 e4 1c bf 26 af 3d bf be e5 46 3d b6 86 29 c0
       -0.6128574 -0.7409538 0.048558943 -2.648847
0002d0 e3 18 09 3f 80 e3 17 c0 22 ea 26 c0 3f 00 80 bf
       0.535536 -2.3732605 -2.6080403 -1.0000075
0002e0 50 b8 08 bf 80 b5 ac bf d8 30 08 bf 6e 88 1d bf
       -0.5340624 -1.349289 -0.5319953 -0.615363
0002f0 92 24 c6 bf 26 08 f5 be 34 b1 7f 3d ab a4 8c bf
       -1.547991 -0.4785778 0.062424853 -1.0987753
000300 d3 76 b8 3c 67 0c 39 c0 4e 29 48 c0 b1 43 c2 bf
       0.022517597 -2.891382 -3.127521 -1.5176908
000310 d7 8b 4f be 0c 3a 11 bf 01 75 13 c0 9b 66 48 be
       -0.20268188 -0.567292 -2.3040164 -0.19570391
000320 2b 7d 5d be a5 8c 33 bf ee 28 aa bf 65 e4 db bf
       -0.21629779 -0.7013648 -1.3293741 -1.7179075
000330 21 1e 8b bf 5e 61 7a 3e 01 71 95 c0 16 58 4d bf
       -1.086857 0.24451205 -4.6700444 -0.80212533
000340 6d 2a 02 3d 12 a8 8e bf df 10 74 bf 64 88 af 3e
       0.03177874 -1.1145041 -0.95338243 0.34283745
000350 21 93 0e bf fb a0 bc bf bc e5 1f c0 68 35 95 be
       -0.5569325 -1.4736627 -2.4983969 -0.29142308
000360 50 a8 71 bf 93 cb 04 c0 a2 99 a0 bf 7f f9 24 bf
       -0.9439745 -2.0749252 -1.2546885 -0.644432
000370 15 16 81 bd f3 d2 c2 be 13 a2 ce bf ed e8 8b be
       -0.0630304 -0.38051566 -1.6143211 -0.27326146
000380 11 e5 a4 bf 93 ce 92 bf f6 ce c9 bf ac d2 97 bf
       -1.2882406 -1.1469291 -1.5766284 -1.1861167
000390 4a 57 61 bf 6b d0 51 bf 06 5d 47 bf 37 27 87 bf
       -0.8802382 -0.81958646 -0.7787632 -1.0558842
0003a0 ef 39 5b bf 04 ae 23 bf 93 36 5c c0 1f 9a b6 3d
       -0.85635275 -0.639374 -3.440831 0.08916115
0003b0 e9 8c 0b bf 47 2c b2 bf 47 1c 83 bf 4d 19 4b bf
       -0.54511887 -1.3919762 -1.0243005 -0.7933548
0003c0 38 38 23 be 86 27 c9 be 6e 30 89 bf 1c 1b 65 3e
       -0.15939415 -0.39287966 -1.0717905 0.22373623
0003d0 ce 44 9c bf 38 47 c1 bf 21 e8 50 c0 60 21 a8 be
       -1.2208498 -1.5099859 -3.264168 -0.32837963
0003e0 52 80 2c bf bb 70 83 be 0f 62 e0 bd 84 8f 14 bf
       -0.673833 -0.25671944 -0.10956203 -0.5803149
0003f0 95 a9 2a c0 59 f6 c4 bf 6e d1 e4 bf e7 56 b9 bf
       -2.6666005 -1.5387679 -1.7876413 -1.4479645

fc2.weight f4 [300, 400]
000000 96 b3 8f 3d 29 ec 73 3d 4b c8 ea 3c be d0 90 ba
       0.07016675 0.05955139 0.02865996 -0.0011048538
000010 a8 b3 72 3d 63 a6 28 bd 4d cc 5b bd 2b 7d 0d be
       0.059253365 -0.041174304 -0.053661633 -0.13817279
000020 2b 63 f5 bd 9b 6f 7e bd 72 c2 b1 bd 81 b5 81 3d
       -0.119818054 -0.062118154 -0.086796656 0.06333447
000030 ab 96 7e bd 8e 1d b7 bc 4c 77 c6 3c 01 b7 2f be
       -0.062155407 -0.02235296 0.024226807 -0.17159654
000040 04 9f b3 bd 51 a7 93 3c 20 7d 38 bd 2b d5 7e bb
       -0.08770564 0.018024119 -0.045041203 -0.0038884382
000050 5b 4e a9 3c 93 d8 d7 3c e5 33 bf 3c ee 56 87 3c
       0.020667246 0.026348388 0.023340175 0.016520943
000060 75 1c bf bd a2 77 e0 3d 93 94 ff 3d 35 6f 48 3d
       -0.093315996 0.10960318 0.1247951 0.04893418
000070 09 80 b1 3c 84 92 8e 3d 31 9e 39 bd 98 31 5e 3d
       0.021667497 0.069615394 -0.04531688 0.054246515
000080 2b 0b 84 bd 88 db 25 3d e5 f9 8f bc d0 fc 88 3d
       -0.064474426 0.040492564 -0.017575214 0.06688845
000090 d2 d4 1d bc 15 86 05 be a1 1c 4c bc 69 bf 00 3d
       -0.00963326 -0.1303943 -0.012457998 0.031432543
0000a0 b8 52 7b bd 1d 39 19 3d fd 62 a1 bd 2e 0c d2 bd
       -0.061358184 0.037407983 -0.07880209 -0.10256229
0000b0 8d 29 35 be 24 9e 64 3c 07 cc 5d bd b3 d5 b3 bd
       -0.17691632 0.013953719 -0.054149654 -0.08780994
0000c0 37 90 ad 3c 24 fa 7f bd ca 26 02 3e 54 e5 33 be
       0.021186931 -0.062494412 0.1271011 -0.1756795
0000d0 e2 a5 81 3d 20 ef 41 bd 17 ec 10 bd 63 8a 3b 3c
       0.06330468 -0.047347188 -0.035381403 0.011446568
0000e0 23 b9 83 bc d1 57 1d bd f6 e2 b6 3b a9 da d6 3d
       -0.016079491 -0.038413826 0.005581255 0.10490925
0000f0 0d a6 8e bd 98 d5 c2 3a 75 cc 21 3d f2 72 bb bd
       -0.069652654 0.0014864681 0.039501626 -0.091527835
000100 cd 59 2b bd c5 30 64 3d 96 43 5b 3d 35 c9 0e bd
       -0.041833688 0.055710573 0.05353125 -0.034859855
000110 eb cf 96 3d 71 06 0a be 4e ca 86 3c 68 66 c1 3b
       0.07363876 -0.1347902 0.016453888 0.0059021004
000120 43 8c d8 3d ad ff 2c bc 73 01 59 3d 5a 5a a7 bd
       0.10573628 -0.010559005 0.052979898 -0.0817153
000130 6d 18 87 bc 9d 93 86 3d 32 5e 8b bb 31 26 b1 bd
       -0.01649114 0.06571124 -0.0042531723 -0.086498626
000140 f6 11 6f 3c 45 db ee bd 62 45 95 3d f6 2b 87 3d
       0.014591685 -0.11662916 0.07288624 0.06600182
000150 af dd 40 bd 55 40 c8 3c 9b 73 28 bd 1f 29 f1 3c
       -0.047086414 0.024444738 -0.041125875 0.029438553
000160 b3 26 d8 3c dc 75 34 3d 4f 54 53 bd 2e f3 07 be
       0.02638564 0.044057712 -0.051594075 -0.1327636
000170 68 9a 71 3d db 36 0d bd fd 62 21 bd 7e 30 66 3c
       0.058985144 -0.034476142 -0.039401043 0.014049647
000180 0f f5 a4 bd 00 74 5e bc e6 81 87 3d e5 1d d1 bc
       -0.08054554 -0.013577461 0.06616573 -0.02552695
000190 1a fd 4d be 61 ac a7 3d 1e ab a2 3a ff d3 23 3d
       -0.20116082 0.081871755 0.0012410616 0.039997097
0001a0 ad c6 04 3c 98 26 e7 3d 6b ed b1 bd 23 f3 32 3d
       0.008104009 0.11286658 -0.08687862 0.043688904
0001b0 e8 fa dd 3c 66 5b ca 3d bb 99 bd 3d 8b 46 29 bd
       0.02709718 0.09880714 0.092578374 -0.04132704
0001c0 09 36 93 bc d6 c3 6e bd 25 1b e5 bb 88 bf 38 bc
       -0.017970102 -0.058292232 -0.0069917613 -0.011276133
0001d0 4e 5f ca 3c c3 ac 16 3c 7a f8 c4 bc 97 a7 11 3d
       0.024703648 0.009196463 -0.024044264 0.035560217
0001e0 9c 2f d0 3b 09 6a 43 bd 6a 25 0c 3e 80 33 89 3d
       0.0063533317 -0.047708545 0.13686147 0.06699276
0001f0 98 e0 b9 3c 6b 82 f5 3c 4d cc db 3c 3c 27 0d 3b
       0.022690102 0.029969415 0.026830817 0.0021538278
000200 0d a6 0e 3d cc ba 3e be 22 cc 4e be 96 af e5 bc
       0.034826327 -0.18625945 -0.20195058 -0.028037827
000210 f1 2d 95 3a 94 9d 21 3b 3b f5 31 3e f9 19 0a 3b
       0.001138149 0.0024660574 0.17378704 0.002107261
000220 b9 e0 71 bd 4f 41 08 be db 65 45 be b0 7b 26 bd
       -0.059052203 -0.13306163 -0.19277136 -0.0406453
000230 21 c0 89 3d c8 fc fa bc a6 f8 51 be 04 6c d1 3d
       0.06726099 -0.030638114 -0.20505008 0.102256805
000240 c7 0b 9c bd 4f 7b 37 bd f4 32 0d be 67 18 79 3d
       -0.07619434 -0.04479533 -0.13788968 0.060814288
000250 37 45 88 3c f4 a5 e4 bd 8a 07 02 be c8 61 b8 3b
       0.016634567 -0.111644655 -0.12698188 0.005626891
000260 a6 57 10 be 7f a7 67 bd ec be a0 bd 4e f9 be bd
       -0.14095935 -0.05655622 -0.078489155 -0.09324895
000270 75 22 3e bd 64 39 17 3d de a7 8f 3d 81 99 14 3c
       -0.04641958 0.036919966 0.0701444 0.009069801
000280 0e 17 11 bd 00 6e 5f 3b 61 96 39 bd 91 a6 7c 3c
       -0.035422377 0.0034092665 -0.045309428 0.015420572
000290 49 f5 cd ba 7c 35 17 3d 74 c7 29 bd 97 a1 92 bd
       -0.001571336 0.03691624 -0.04144998 -0.07159727
0002a0 81 4b cc 3d 5f da 11 3c c4 47 d9 bd 4c 77 46 b9
       0.09975339 0.008902161 -0.10609391 -0.00018927193
0002b0 20 b7 67 3d ab 38 0e 3d 46 a6 37 bd 88 b9 b9 bd
       0.056571126 0.03472201 -0.044836305 -0.090685904
0002c0 5f 5f 66 bd 97 19 1b 3e 4a 0b bc 3c 6b d1 c4 3d
       -0.056243297 0.1514648 0.022954602 0.09610256
0002d0 3c fc 7e 3d 67 3d 88 bd 3e 8c 91 bc 61 b2 a6 bd
       0.06225227 -0.066523366 -0.017767068 -0.08139492
0002e0 c6 b0 87 bc 84 60 33 be 6e e6 2b bc 16 f7 07 3e
       -0.016563784 -0.17517287 -0.01049195 0.1327785
0002f0 f4 21 17 bd 9f 0c 5d bd 47 4a 1c 3c 12 ff 94 3d
       -0.036897615 -0.053967115 0.0095391935 0.07275213
000300 9c 96 e2 3d 33 f3 ce bd 30 61 67 be 61 69 56 bd
       0.11063883 -0.1010498 -0.22595668 -0.05234659
000310 22 0a a8 bd 67 f4 b7 bd 28 fc 1b 3d b6 64 f8 bd
       -0.08205058 -0.08982163 0.03808227 -0.12128584
000320 e5 10 85 bc ad 45 da bd 0f 74 7a 3d 73 e9 95 3c
       -0.016243408 -0.10657821 0.06114584 0.018299794
000330 9e 3f bf bd 68 92 9d 3c fc a7 c7 bd 35 0e 35 3d
       -0.09338306 0.019234851 -0.09748837 0.044203002
000340 69 49 cd bc e9 f9 56 3c c5 97 f6 bb e1 89 94 ba
       -0.025059419 0.013121107 -0.0075254166 -0.0011332595
000350 8b 2a bc 3c 9a ad 57 3d 8f d4 66 bd cd 86 8e bd
       0.022969505 0.052655794 -0.056355055 -0.06959305
000360 f6 5a 3f 3e bd 53 10 3e aa a0 a7 bb b1 10 6a bb
       0.18687043 0.14094444 -0.005115588 -0.0035715515
000370 e2 ce 3a 3e 6d 24 85 ba 3a bb 02 3d e7 70 11 bd
       0.18242982 -0.001015795 0.031916834 -0.035508063
000380 ea 04 ce 3d 66 5b 4a 3d 2a 0c 8b bd 61 69 56 3d
       0.10059531 0.04940357 -0.067894295 0.05234659
000390 34 a4 7f 3d 29 ad 4c be 20 23 72 3d c3 ce 82 bc
       0.062412456 -0.1998793 0.05911553 -0.015967732
0003a0 d9 98 27 3e 09 93 fc 3d 34 91 b4 bc 95 7b 35 be
       0.163669 0.12332732 -0.022041894 -0.17722924
0003b0 2d 05 05 be 2d f6 e3 bd ee ce 8f 3d 5e 9d 3f be
       -0.12990256 -0.11130939 0.070218906 -0.18712375
0003c0 2b ea 1e 3d e8 59 1c 3e 57 1d 55 bd fc 80 e3 3c
       0.03879754 0.15268672 -0.052029934 0.027771465
0003d0 de b2 86 be 59 94 56 3b 64 46 e3 3c 63 61 02 be
       -0.2630834 0.003274223 0.027743526 -0.12732463
0003e0 80 1c 94 bd b8 88 80 3d 56 ea 2b bd 6e 81 6e 3c
       -0.072319984 0.06276077 -0.041971527 0.014557226
0003f0 62 13 ba 3a 10 fa 9c bd 04 3a f6 bd 78 71 54 be
       0.001419645 -0.07664883 -0.12022784 -0.2074641

fc2.bias f4 [300]
000000 8f 4a 9a be 30 50 37 bf 53 cf 45 be 86 4e b6 be
       -0.3013501 -0.7160673 -0.19317369 -0.35606784
000010 47 56 9a be 48 c2 a4 be 72 1e cd be 49 71 80 be
       -0.3014395 -0.32179475 -0.4006229 -0.2508643
000020 82 16 95 be c5 2e 8f be 55 17 8f be 49 b8 7b be
       -0.29118735 -0.2796537 -0.27947488 -0.24582018
000030 94 b4 96 be d2 96 c4 be 49 46 72 be 65 2f ee be
       -0.29434645 -0.38396317 -0.23659624 -0.46520534
000040 c0 5d 76 be bf 20 ae be 0e 7e 23 bf 27 1e 88 be
       -0.240592 -0.34009358 -0.6386422 -0.26585504
000050 fd 62 a1 be b4 62 00 bf 61 96 b9 be 34 6d fa be
       -0.31520835 -0.5015061 -0.36247543 -0.4891144
000060 b6 62 a3 be a7 37 f9 be 22 3c 5c be 9a 23 8b be
       -0.31911248 -0.48675272 -0.21507314 -0.271756
000070 f7 2b 87 be f9 80 9c be 2d ab 4e be 95 36 8f be
       -0.2640073 -0.30567148 -0.20182486 -0.2797133
000080 21 23 72 be 86 14 87 be 71 74 69 be 5e b9 ac be
       -0.23646213 -0.26382846 -0.22798325 -0.33735174
000090 c9 a4 89 be b6 da ab be 60 b8 a5 be 3b 45 cf be
       -0.26883534 -0.335653 -0.3236723 -0.40482506
0000a0 bc 61 63 be e3 83 95 be 34 c0 ec be 4b ef d3 3d
       -0.22205251 -0.29202184 -0.4624039 0.10348376
0000b0 83 f4 28 be 1f 4b 5d be 9c 22 84 be bc 56 13 bf
       -0.16499524 -0.21610688 -0.25807655 -0.5755422
0000c0 d7 11 b7 be b8 c7 6e bf 62 bd 9d be 63 25 7e be
       -0.35755798 -0.93273497 -0.3080855 -0.2481895
0000d0 a7 c3 9a be 10 c8 c1 be 97 80 ad be af b4 87 be
       -0.30227396 -0.37847948 -0.3388717 -0.26505038
0000e0 57 34 4a be a0 ea 70 be 95 d7 d0 be 5d c5 2a be
       -0.19746529 -0.23527002 -0.40789476 -0.1667685
0000f0 f5 60 be be 8f e2 99 be 01 47 fb be 3f 81 9a be
       -0.37183347 -0.30055663 -0.4907761 -0.30176732
000100 91 aa 26 be 99 0d 9d be 74 b1 73 be a4 15 c6 be
       -0.16276003 -0.30674437 -0.23798162 -0.38688385
000110 ac e7 70 bf 93 b6 eb be f9 c9 b8 be 5d 99 a5 3d
       -0.94103503 -0.4603773 -0.36091593 0.08085892
000120 c8 d9 b9 be 05 dc 85 be 7a 63 81 be ba 58 08 bf
       -0.36298966 -0.26144424 -0.25271207 -0.53260386
000130 00 bd ae be e0 eb ae be 88 42 b8 be 89 65 72 be
       -0.3412857 -0.34164333 -0.3598826 -0.23671545
000140 d2 fb 81 be 7d 85 b4 be d4 44 d2 be 54 a2 e2 be
       -0.25387436 -0.35258093 -0.41068137 -0.44264472
000150 0e ca a2 be d7 aa a4 be ff 6e e6 be 19 3f 8c be
       -0.3179478 -0.3216159 -0.45006558 -0.2739189
000160 3e f9 a2 be c4 d5 4f be 7b 11 f3 be 6f 12 88 be
       -0.31830782 -0.20296389 -0.47474274 -0.26576564
000170 bb 37 74 be 0c 1e 97 be 28 47 c1 be 74 27 e5 be
       -0.23849384 -0.2951511 -0.377496 -0.44756663
000180 0c 3c d9 be 81 4b cc be 6c f4 7e be 9f b9 c2 be
       -0.42428625 -0.39901355 -0.24897927 -0.38032243
000190 1b 42 74 be a4 74 84 be 42 5a 7d be 3e 87 99 be
       -0.23853342 -0.2587024 -0.24741462 -0.29985994
0001a0 e9 6f 8a be ed b8 a1 be 1f 22 a4 be 26 0a 6f be
       -0.27038506 -0.315864 -0.32057282 -0.23343715
0001b0 79 4d 93 be d5 c9 6d be 18 49 7a be b5 03 97 be
       -0.28770044 -0.23221524 -0.24441946 -0.29495016
0001c0 e6 c1 99 be 37 9b a4 be 0c 29 8e be b2 9e 60 be
       -0.30030745 -0.3214967 -0.2776569 -0.21935537
0001d0 43 f3 6a be c2 a7 9e be 93 39 eb be 47 ee aa be
       -0.2294436 -0.30987364 -0.45942363 -0.33384916
0001e0 29 be c2 be 31 e3 df be 61 e9 54 be 7e e0 c8 be
       -0.38035706 -0.4372802 -0.20792152 -0.39233774
0001f0 f5 71 b4 be f8 ba cb be 7c 1b 7f be 3b bb 82 be
       -0.35243192 -0.39791083 -0.24912828 -0.2553347
000200 f3 99 9f be 99 a6 8a be e5 1e be be 1d 95 b4 be
       -0.3117214 -0.2708023 -0.37132946 -0.35270014
000210 23 06 7e be ab ea c5 be af c1 d3 be 80 b6 08 be
       -0.24807028 -0.386556 -0.41358706 -0.13350868
000220 60 0e 2d bf df a1 90 be 22 0a a8 be d5 f6 d0 be
       -0.6760006 -0.28248498 -0.3282023 -0.40813318
000230 df 64 15 bf 55 40 48 be 3f c6 c0 be c1 f8 c2 be
       -0.5835704 -0.1955579 -0.3765125 -0.3808041
000240 74 1d 46 be a7 80 c9 be 5a 0f 82 be 33 db 0b bf
       -0.19347173 -0.39355966 -0.25402337 -0.54631346
000250 b3 c5 44 bf e4 44 ab be 74 28 3d be bf 15 b7 be
       -0.76864165 -0.33450997 -0.18472463 -0.35758778
000260 18 63 12 bf 71 24 cc be 27 ae d3 be 76 b5 ac be
       -0.57182455 -0.39871553 -0.41343805 -0.33732194
000270 ca 60 b1 be 39 c7 08 bf 94 b0 ec be fb cf b2 be
       -0.34644157 -0.5342899 -0.46228468 -0.34924302
000280 53 c4 32 bf e6 d9 78 be 3c c1 c5 bd 18 f3 dd be
       -0.69830817 -0.24301872 -0.09655997 -0.43349528
000290 c8 99 92 be c3 24 1f bf bc 7d 50 be 2c 9b cf be
       -0.2863295 -0.6216547 -0.20360464 -0.40548074
0002a0 9a 91 6a be e2 6d a7 be 9d 70 b0 be 06 48 90 be
       -0.22907105 -0.3270102 -0.34460917 -0.2817995
0002b0 fe 78 0f bf e3 56 b2 be 1f 03 ff be 25 1c 95 be
       -0.56043994 -0.34831914 -0.4980707 -0.29123035
0002c0 8c 51 a0 be bf e8 d3 be 52 02 a8 be 14 61 76 be
       -0.31312215 -0.4138851 -0.3281427 -0.2406047
0002d0 99 2b 5f be b6 23 5f be a3 42 a9 be 63 61 82 be
       -0.21793975 -0.21790966 -0.33058652 -0.25464925
0002e0 0c f7 b2 be 97 80 ad be 3d b4 d2 bd 21 af 93 be
       -0.34954107 -0.3388717 -0.10288284 -0.2884455
0002f0 22 cf ea be ed 48 6d be 96 ed be be bc 76 ab be
       -0.45861155 -0.2317235 -0.3729064 -0.33489025
000300 7e 45 06 bf 0c 90 20 bf 08 a3 70 be 4c 62 be be
       -0.52449787 -0.627198 -0.23499691 -0.3718437
000310 7b 6a ad be cc ee 18 bf d5 66 85 be 07 60 53 be
       -0.338703 -0.59739375 -0.26055017 -0.206421
000320 7d e6 47 be c0 1a af be 85 81 18 bf 35 2a a2 be
       -0.19521518 -0.34200096 -0.5957263 -0.31672826
000330 d7 3e 9a be e8 a4 c1 be 70 35 c2 be 70 73 9b be
       -0.30126068 -0.37821126 -0.37931395 -0.3036151
000340 e8 5b 23 bf 09 16 7c be b0 20 92 be e2 89 14 be
       -0.6381211 -0.2461778 -0.28540564 -0.14505723
000350 f2 b2 e9 be 7b 38 d1 be ad 32 0f bf c0 9d ae be
       -0.45644337 -0.40863404 -0.559367 -0.3410473
000360 8a 8a 81 be f2 3e 8b be 68 66 a5 be f9 80 9c be
       -0.2530101 -0.2719646 -0.32304692 -0.30567148
000370 54 8f 97 be 39 ab 93 be 41 87 75 bf b4 81 6c be
       -0.29601538 -0.2884157 -0.95909506 -0.23096353
000380 6a 8c 9e be 65 ea c7 be e2 ec 7c be b6 01 90 be
       -0.30966502 -0.39046016 -0.24699739 -0.28126305
000390 9c 96 e2 be 5d 26 be be 3d 4a c7 be ca 1b 8b be
       -0.4425553 -0.37138644 -0.38923827 -0.2716964
0003a0 a4 bf a9 be 7f 68 c0 be 8d 90 c7 be eb e2 e1 be
       -0.33154023 -0.37579724 -0.3897747 -0.44118437
0003b0 52 15 f3 be e8 49 4b be 1e e5 d1 be ec 1f b4 be
       -0.47477204 -0.19852412 -0.40995115 -0.35180604
0003c0 6b 59 bc be af a3 91 be 21 77 b9 be 45 34 1b be
       -0.3678697 -0.28445193 -0.362237 -0.15156658
0003d0 fa ae cd be a8 4d 67 be 18 52 9c be 02 5b 94 be
       -0.4017256 -0.22588217 -0.30531383 -0.28975683
0003e0 45 57 a1 be ff 8a 53 be 53 8a 9f be 2b 67 9f be
       -0.31511894 -0.20658492 -0.3116022 -0.31133398
0003f0 10 74 fa be 84 0a 17 bf 87 8d 5d be 44 3b 55 bf
       -0.48916674 -0.5900042 -0.2163602 -0.8329356

fc3.weight f4 [1, 300]
000000 a4 69 8d bb 5b ae b3 3c 75 4b f7 bc 1e ea 49 3c
       -0.004315572 0.021933725 -0.030187348 0.012323884
000010 ba 2e ba bc cb 06 6b bc da c6 58 3b d7 4e 09 3b
       -0.02272736 -0.014344881 0.003307751 0.0020951533
000020 3a 94 9e bc b2 f4 fc bb 65 c6 06 bc d0 5d 1c 3d
       -0.01935779 -0.0077195996 -0.008226012 0.038175404
000030 18 47 25 bc 36 51 86 3c 86 f8 19 3c b2 87 eb bc
       -0.010087751 0.016396146 0.0093976315 -0.028751228
000040 9b e4 ee bc 27 a1 07 bc 4d 98 ab bc 22 98 1e 3c
       -0.029161742 -0.008278168 -0.020946646 0.009679826
000050 8b b8 32 ba 67 aa 03 bc c2 d4 ff 3c 1e 96 5f 3a
       -0.000681766 -0.008036233 0.03122938 0.0008529144
000060 01 f4 81 3c a6 a2 b5 3c 55 bd 4c 3d 75 ed 06 3c
       0.01586342 0.022172283 0.04998525 0.008235325
000070 03 65 84 3c 41 8d 5f bb cb 05 c2 3c 5b c7 ff bb
       0.016161447 -0.0034111293 0.023684403 -0.0078057474
000080 a9 52 df b9 e0 52 c1 3c 05 fa 47 ba 83 d2 3c bc
       -0.0004259546 0.023599088 -0.00076285034 -0.011524799
000090 2a 17 02 bb 20 1c 25 bc f9 fc 85 3c 04 91 3b bb
       -0.0019850233 -0.010077506 0.016355978 -0.0028620372
0000a0 c8 34 55 bc f2 78 3a 3c e1 28 81 3c 47 9d 4c 3c
       -0.013013072 0.011381375 0.015766563 0.01248867
0000b0 15 86 85 ba 17 4d 24 bc 11 55 b1 bb 80 63 43 bd
       -0.0010187054 -0.010028145 -0.005411752 -0.047702312
0000c0 29 a0 80 bc 8f cf ff 3c 17 ae 37 bc a0 94 d4 3c
       -0.01570137 0.031226901 -0.01121094 0.025949776
0000d0 06 37 1a ba ae ae 26 bb 84 6b aa 3c 69 c6 cd bb
       -0.0005882833 -0.0025433707 0.02080322 -0.006279756
0000e0 e1 91 e8 3c 3c 88 b2 39 ad b7 63 3c db 5f c6 38
       0.028389873 0.00034052308 0.013898772 9.45923e-05
0000f0 29 f0 9d 3b fe 8d 20 3b 6d 69 ab 3c b7 7a e6 3b
       0.004819889 0.0024498696 0.020924294 0.0070336717
000100 6f 6f f1 3b a4 5a ec 3c 0f 33 80 3c 61 db df 3c
       0.0073680202 0.028851815 0.015649347 0.027326288
000110 8d 46 29 3d 66 45 dc 3b 6b 8c 3d 3c d3 60 b7 bc
       0.041327048 0.00672214 0.011569123 -0.022385037
000120 1c 5b 35 3c d6 0c 3f 3b 29 1f d6 3c 2f 86 18 bd
       0.011069085 0.0029151938 0.026137905 -0.037237342
000130 b0 38 d5 3c c5 62 bf bc 01 6d 2f bc 8c 6f e2 bc
       0.026028007 -0.023362527 -0.010707141 -0.02764108
000140 bf c1 ef bb 3c 7d a9 bc 85 a1 ff bc dd e7 ea 3c
       -0.0073167975 -0.0206896 -0.031204948 0.028675014
000150 d9 32 db b9 01 a6 b9 bc 81 a4 0b 3c e4 1f 81 bc
       -0.0004180882 -0.022662165 0.0085231075 -0.015762277
000160 d2 9c c3 3c 4a 45 eb 3b 0b e7 df bb 3d 44 c8 bc
       0.023878489 0.0071798908 -0.0068329624 -0.024446601
000170 5b dc f2 3c 94 dd 4f bc f5 39 da 3a c2 4f ab bb
       0.02964609 -0.012687106 0.0016649353 -0.0052280137
000180 03 c3 26 3c 3c 8a f5 3a 0a 08 a9 3b 27 ca 57 ba
       0.01017833 0.0018733214 0.005158429 -0.0008231722
000190 83 5b bb 3c 8a be b1 bb c2 c9 0a 3c e0 ab 00 3c
       0.022870785 -0.0054243254 0.008470954 0.007853478
0001a0 90 cc 92 bc 2d 55 a2 bb 76 77 53 bb 65 b2 ed 3b
       -0.017919809 -0.0049540014 -0.003226725 0.0072539323
0001b0 f6 04 a3 bc d4 5b 0e 3c d2 62 14 bc 7b ef 4a 3c
       -0.019899826 0.008688886 -0.009056764 0.012386198
0001c0 e9 d4 03 3c ab a1 75 3b 4b 72 4e 3c f1 c7 89 3c
       0.008046367 0.0037480395 0.012600492 0.016818972
0001d0 01 47 fb 3c ec 97 bc bc 38 95 a5 bc 22 87 ce bb
       0.030673506 -0.02302166 -0.020212755 -0.00630273
0001e0 56 bd c8 3b 01 f6 d6 bb 56 6e 9e bc 4b 1c 32 bb
       0.006126086 -0.0065600877 -0.019339722 -0.0027177508
0001f0 ef c8 90 3c 4d b4 98 bc 50 3b 09 bc 6e 47 bf bc
       0.017673938 -0.018640662 -0.008375958 -0.02334949
000200 50 ad 92 3c 59 d9 7c 3b bf d0 88 3b c7 bd d3 bb
       0.017904907 0.0038581698 0.004175275 -0.006461832
000210 2b 18 d0 ba 92 5f 81 3c 4f 99 f9 bc 03 5c e2 bc
       -0.0015876343 0.015792642 -0.030468611 -0.027631765
000220 5c 68 ee bc 0f bd ca b9 a4 5a 6c bc db c6 58 bc
       -0.029102497 -0.00038669302 -0.014425907 -0.013231005
000230 39 b6 b6 ba c9 95 68 3c 70 46 b8 3c 93 31 17 bc
       -0.0013939805 0.014195868 0.022494525 -0.009228128
000240 60 3d fa bb 00 02 d5 3c ae ba 86 3c bf f9 c9 3c
       -0.007636711 0.02600193 0.016446438 0.024655221
000250 c3 cd aa 3c ec d1 84 3c 55 a7 da 3c cc ef 75 bc
       0.020850068 0.01621338 0.026691118 -0.015010785
000260 34 41 97 3c 7f 39 88 bc 0d a2 e4 3b 5d 7a 85 bc
       0.018463708 -0.016628979 0.006977326 -0.016293699
000270 fd 35 3e 38 f7 ae db bb 01 34 b0 3c cf 2b 41 3c
       4.534981e-05 -0.006704207 0.021509172 0.01179023
000280 25 4f 94 bc 26 9c 8f bc 40 2b e9 3c 84 6b aa bc
       -0.018104145 -0.017530512 0.028463006 -0.02080322
000290 3f c6 c0 bc 22 91 ea ba ab fb 3b 3c 86 e2 ab bb
       -0.023532031 -0.0017896036 0.011473577 -0.0052455096
0002a0 fc f6 96 3c 2f 3e 2d 3c 94 26 d6 3c 99 1e 93 bc
       0.018428318 0.010573908 0.026141442 -0.017958926
0002b0 65 06 35 bc 32 60 e0 bc df ea 09 bc 12 6b a0 bb
       -0.011048888 -0.02738962 -0.008417814 -0.0048955763
0002c0 fd 00 87 ba 6e b9 c8 bc b8 29 c2 bc a8 3a 1c 3c
       -0.0010299977 -0.024502482 -0.023701534 0.009535469
0002d0 a9 6e 4c 3d c8 a9 1b 3c 68 44 55 bc b1 1a 93 3c
       0.04991022 0.009500928 -0.013016798 0.017957063
0002e0 e5 76 90 3b 98 9b 13 b9 59 73 4e 3c bf c6 67 bb
       0.0044087046 -0.00014076976 0.012600743 -0.0035366265
0002f0 63 8e 5a 3c 00 c8 a5 3a e2 2f 4e bc 9b f1 bb 3c
       0.013339612 0.0012648106 -0.012584658 0.022942355
000300 ea b9 a8 ba 05 2c a3 bc e1 39 4a 3b 6e bf bf bc
       -0.001287279 -0.019918451 0.0030857252 -0.02340671
000310 e1 15 b9 3c 7f 4a 7f 3c 87 77 ef bb 3c de bc bc
       0.02259344 0.015581726 -0.00730795 -0.023055188
000320 50 a4 f0 b9 07 c5 10 bc ec 19 35 3b a2 64 15 3c
       -0.0004589879 -0.0088360375 0.002763386 0.009118231
000330 bf dd dc bc fc ec ed bb e1 ad d5 3b 32 53 94 bc
       -0.026961206 -0.0072609168 0.006520972 -0.018106077
000340 79 6e f3 3c e4 a6 cf 3c a2 bb 9d 3b be ba 22 bc
       0.029715763 0.025348134 0.0048136273 -0.009932218
000350 07 37 9a 3c 3e 5b d0 bc 42 42 ba bb 38 c2 08 3c
       0.018825067 -0.025434133 -0.005684168 0.008347087
000360 73 3f 32 bb 1b 24 32 bc 62 24 39 bb 65 ea c7 bc
       -0.0027198463 -0.010872866 -0.0028250446 -0.02440376
000370 09 8d fd 3b 16 87 53 3c 90 0a d4 3c 44 9c 47 bc
       0.00773776 0.012910625 0.025883943 -0.012183253
000380 1b df 8b 3c 90 a5 ae 3c 66 c8 5b 3c 0b 26 eb 3b
       0.017074158 0.02131918 0.013414478 0.007176166
000390 a7 53 e6 3c 88 b4 c1 bb e4 84 63 bc d2 9c c3 3c
       0.02811606 -0.0059114136 -0.013886664 0.023878489
0003a0 dc c0 d9 3c b4 76 f5 ba 28 c4 c1 bb 50 2c e8 bb
       0.02658122 -0.0018727393 -0.005913276 -0.0070853606
0003b0 2d 2e be 3c 70 3e 38 bc 14 f5 eb 3c 3c 82 21 3b
       0.023215378 -0.011245355 0.028803386 0.0024644276
0003c0 0a b8 8b 3c 88 60 fa 3c 25 75 ab 3c 40 17 ad 3c
       0.01705553 0.030563608 0.020929882 0.02112925
0003d0 a9 6e cc bb 51 d1 ad bc c5 14 77 3b 6a bb d6 bc
       -0.0062387777 -0.021217974 0.0037701589 -0.026212413
0003e0 8b 69 63 3b e7 19 ce bb 81 3e 80 3c e8 7b 88 bc
       0.003470036 -0.006289709 0.015654804 -0.016660646
0003f0 fa a7 e7 38 9e 79 ee 3b 89 74 93 3b 6e e9 7a 3c
       0.000110462264 0.0072776815 0.004499976 0.015314443

bn1.weight f4 [400]
000000 99 0b df 3d ba cb fe 3d ef f2 2f 3e f7 c5 6f 3d
       0.10890884 0.124412015 0.17182516 0.058538403
000010 56 52 15 3e 66 f7 2a 3e ef 5b 2d 3f 3e cc 2b 3e
       0.1458219 0.16695938 0.67718405 0.16777131
000020 ce 10 58 3e 61 10 ac 3f ca 32 3c 3e 45 0e da 3d
       0.2110016 1.3442498 0.1837875 0.10647253
000030 83 a6 22 3e c7 07 00 bd 2f ef 87 3d a8 1d 2a 3e
       0.15883832 -0.031257417 0.066374175 0.16612875
000040 58 b7 98 3e 52 d9 d2 3e 50 5e 00 bf 10 87 41 3e
       0.2982738 0.41181427 -0.5014391 0.18899179
000050 7d 8a 75 3d 46 92 c3 3d c5 36 e3 3d 8a 34 b4 3d
       0.059946526 0.09549384 0.11094431 0.087990835
000060 1d e5 d1 3e ec a8 c1 3d 90 e5 0e 3e 0c 0d 66 3d
       0.40995112 0.094560474 0.13954759 0.056164786
000070 6e dc 8a 3e e6 4a 03 3e 2d 01 0a 3e f5 f4 98 3d
       0.271213 0.1282154 0.13477011 0.07468597
000080 13 3d 0d 3e af 89 87 3d fb e4 d0 3d cf 42 95 3e
       0.13792829 0.06618058 0.101999246 0.29152533
000090 f4 fb 18 3f 9c 4b a2 3d e8 b2 93 3f 38 28 19 3f
       0.5975945 0.079245776 1.1538973 0.59826994
0000a0 c2 b9 0d 3e 4a c4 87 3e 6d b2 3c 3e 48 a7 a4 3d
       0.13840392 0.26516944 0.18427439 0.08039719
0000b0 ba 25 80 3f 11 6d ae bd 9c f1 56 3d af 71 2d 3e
       1.0011513 -0.085168965 0.05247651 0.16937898
0000c0 97 14 6d 3f b6 f3 13 3e 80 6e 24 3d a5 09 2b 3f
       0.9260954 0.14448437 0.040144444 0.6681159
0000d0 ef ad 83 3d 56 1f 04 3e 3c 35 ee 3d 80 d3 3f 3f
       0.064296596 0.12902579 0.116312474 0.749321
0000e0 b5 da b7 3f 56 85 88 3e f4 5d e5 3e 3e 13 d2 3d
       1.4363619 0.26664227 0.44798243 0.102575764
0000f0 01 0d 19 3e a6 67 fb 3d 83 cc 23 3e 4f da 85 3d
       0.14946367 0.12275629 0.15995984 0.0653578
000100 7c 3b af 3d 5b 8f d4 3d e8 8c 3f 3e 1d c7 2d 3f
       0.085562676 0.103789054 0.18706095 0.6788195
000110 bc 34 97 3e b6 0e 87 3d 3b d6 88 3d 4c 72 f2 3d
       0.2953242 0.06594603 0.06681486 0.11838207
000120 8e 81 52 3d 6c 9c ef 3d 06 e8 ae 3c 26 e8 17 3f
       0.051393084 0.11699757 0.021350872 0.59338605
000130 22 eb fe 3d 59 ee e9 3d a0 b5 e5 3d 6a ef 8d 3d
       0.12447192 0.11422414 0.11216283 0.0693043
000140 41 f0 89 3d 00 87 8f 3d 0c b2 d5 3d 86 94 20 3e
       0.06735278 0.07008171 0.1043435 0.15681657
000150 c9 03 85 3e ca e2 c5 3d df d1 1c be b5 28 13 be
       0.2597945 0.09662397 -0.15314434 -0.14370997
000160 b2 3a a8 3e 82 d7 c9 3c d3 d7 5f 3e 61 45 0d 3e
       0.3285728 0.024638895 0.21859674 0.13795997
000170 f8 ff 3e 3d aa 12 65 3f 4f d8 de 3e be 0a 12 3e
       0.04663083 0.89481604 0.43524405 0.1426191
000180 a1 47 1f 3e b6 58 ed 3d 9b 0b 8a bd 2b 5b 25 3e
       0.15554668 0.11589186 -0.06740495 0.16148059
000190 ba 70 dd 3e 32 f7 99 3d 68 bc 45 3f bb 77 6c 3e
       0.43250066 0.07517852 0.7724061 0.23092549
0001a0 ef 6f e4 3d 8c 62 8a 3d 7b fa 01 3f 9a b0 da 3d
       0.11154162 0.067570776 0.5077283 0.10678215
0001b0 4f f8 d4 3d f4 4e 24 3f b7 8f dc 3d 76 ac 66 3e
       0.103989236 0.6418297 0.10769599 0.22526726
0001c0 09 be 56 3d e8 df b7 3d bb 52 d8 3d 39 85 ca 3d
       0.052427325 0.089782536 0.105626546 0.098886915
0001d0 88 01 c5 3d a5 9e 00 3e 8f c1 8d 3d e9 ee 61 3e
       0.09619433 0.12560518 0.06921684 0.22063793
0001e0 5c 45 dd 3d c6 2d 88 3e 8d 53 8b bd 71 a9 1d 3e
       0.10804245 0.26597422 -0.068030454 0.15396668
0001f0 e9 45 52 bd bd 88 d1 3d 5e 08 90 3e 11 ff 74 3e
       -0.051336203 0.10231159 0.28131384 0.23925425
000200 db 47 e5 3d c0 dc dc 3d 76 96 be 3d f5 bd 7f 3e
       0.11195346 0.10784292 0.09306042 0.24974807
000210 fd 4c be 3d 64 63 aa bd ab 67 6f 3e aa 07 e8 3c
       0.09292028 -0.083197385 0.2337939 0.028323967
000220 f6 e4 ca 3d 51 f1 96 3e c1 cf 9d 3e 49 d4 76 3e
       0.09906952 0.29480985 0.30822566 0.24104418
000230 7e 1c a0 3d 43 b7 09 3e c4 87 d4 3d 86 06 1a bf
       0.078179345 0.13448815 0.10377458 -0.60166204
000240 8e a3 f4 3e 1f cf 91 3e 42 96 fe 3d ae 3c 5a 3e
       0.47781032 0.28478333 0.12431003 0.2131221
000250 5f 46 c7 3d dc 6b ba 3d c5 80 12 3e bd 89 0d 3e
       0.09730219 0.09102604 0.14306934 0.13822074
000260 fa 9c 03 3e 9b 9c 1f 3e 30 23 9e 3e 17 74 1a 3e
       0.1285285 0.15587084 0.3088622 0.15083347
000270 a3 67 69 3f 4a 9f e5 3a 10 36 eb 3d 57 fc 22 3e
       0.9117376 0.0017518785 0.11484921 0.15916573
000280 cd 68 97 3f 7e 89 9b 3d cf 3c 01 3e f8 c0 1e 3e
       1.1828858 0.07594584 0.12620853 0.15503299
000290 95 6f bc 3f 53 4b 3c 3d 7e 65 75 3e 55 5e 86 3d
       1.4721552 0.045970272 0.23964497 0.06560961
0002a0 cd 81 87 3d 2f 51 2d 3d bc 02 b5 bd 61 33 23 be
       0.066165544 0.04231375 -0.08838412 -0.15937568
0002b0 a3 f2 b6 3d 34 73 98 3d a6 14 41 3e 22 a7 c9 3d
       0.08932998 0.07443848 0.18855533 0.09846331
0002c0 a3 48 1b 3e 19 f2 3a 3e f9 db 06 3e 41 7f 4f 3e
       0.15164427 0.18256415 0.1316985 0.20263387
0002d0 0e 05 4c 3f 10 92 71 3e 89 dc 8d 3f 90 85 1d 3e
       0.7969521 0.23590875 1.1082927 0.15382981
0002e0 f0 f2 db 3d 8b 7b 49 3d 5d 1c 9a 3d 55 d0 2a 3e
       0.10739696 0.049190085 0.07524941 0.16681035
0002f0 a0 12 09 3f ba 24 17 3e 85 9c a6 3e 26 89 30 3e
       0.53544044 0.14760104 0.3254129 0.17239818
000300 ea f5 57 3d b6 a5 c6 3e 00 c6 d3 3e c9 90 c0 3d
       0.052724756 0.38798302 0.41362 0.094026156
000310 27 3e 99 3e 1b 8f a7 3d 75 64 3b 3f 72 a2 c4 3d
       0.2993023 0.08181592 0.7320016 0.096012965
000320 57 ef d2 3d 21 77 59 3d 91 94 c4 3d f2 aa 20 3e
       0.10299557 0.053092126 0.09598649 0.1569021
000330 03 86 e8 3d e9 89 dd 3d 6f cd 01 3f 0a 6f 45 3d
       0.11353686 0.1081732 0.5070409 0.0482016
000340 e6 39 66 3e bd 04 b6 3d 63 b3 4f 3e 2f 72 97 3e
       0.22483024 0.088876225 0.20283274 0.29579303
000350 25 fc 75 3d 51 8b ef 3d 28 46 93 3e 5f cf 98 3e
       0.060054917 0.11696494 0.28764462 0.29845712
000360 b2 1d 94 3f 53 85 77 3e 9d 39 d4 3d 05 fa 2e 3d
       1.1571562 0.24171953 0.10362551 0.042718906
000370 39 de fd 3d 3c 83 ec 3d 56 3a 8c 3d 02 ac ca 3e
       0.12395901 0.115484685 0.06847064 0.39584357
000380 c9 5e 32 3e d3 eb 44 3e bd cd 70 3d 99 1a 06 3e
       0.1741897 0.19230585 0.058789957 0.13096084
000390 90 3e 92 3d 06 f8 75 3f fe bd d8 3d 11 e8 7b 3d
       0.07140839 0.9608158 0.10583113 0.061500613
0003a0 51 64 8c 3d 74 92 54 3d c6 55 d2 3e c7 66 b6 3d
       0.06855071 0.05189748 0.41081065 0.08906322
0003b0 69 4b a8 3d a2 80 91 3e 1c 97 11 3e d3 7a 0d 3d
       0.08217508 0.28418452 0.142178 0.034540962
0003c0 75 be a0 3d a7 fe c6 3d b6 28 04 3e c9 f1 8a 3f
       0.07848827 0.0971654 0.12906155 1.0855037
0003d0 7c f4 50 3e bd 81 62 3e bb da c6 3d e3 25 cb 3d
       0.20405763 0.22119804 0.09709688 0.09919336
0003e0 78 6f 9c 3e 0c 82 ae 3d 38 68 64 3e 3c 33 98 3d
       0.30553794 0.08520898 0.22305381 0.07431647
0003f0 e5 16 3a 3e 45 59 b9 3d a4 c6 58 3e fa 62 27 3e
       0.18172796 0.0905023 0.21169525 0.1634635

bn1.bias f4 [400]
000000 71 fe c1 3c 66 ef d2 3b c1 05 b1 3d f3 9c be bb
       0.023680897 0.00643723 0.086436756 -0.0058170496
000010 b7 5b b1 3c d5 2c 2d 3d cd c7 aa 3e 38 1a 22 3c
       0.021650178 0.042279083 0.3335556 0.009893946
000020 48 fd 5b 3d 74 59 b2 3e 3d 4a 8e 3d 7d 1a af 3c
       0.053708345 0.34833872 0.069477536 0.021374935
000030 aa e1 ef 3c 3c 34 bf ba 2b 32 78 ba 5b 8e 38 3d
       0.02928241 -0.0014587711 -0.0009467925 0.045057636
000040 6b c9 0d 3e e6 cf 98 3d aa 46 69 b9 b2 1f 63 3c
       0.13846366 0.074615285 -0.00022246936 0.013862537
000050 8f 79 15 bb 0d bf 05 3c 73 41 93 3a 9f 26 81 3c
       -0.002280805 0.008163226 0.0011234715 0.015765486
000060 c3 ac 46 38 3e 7b 18 3c 8f 59 e6 3c d1 df a5 3a
       4.7367776e-05 0.009306727 0.028118877 0.0012655203
000070 ff 8f 2b 3d 5f 37 d0 3c bb a4 44 3d e1 3e a7 3b
       0.041885372 0.025417028 0.04800866 0.0051039313
000080 fa 17 c9 3c 12 29 33 3c bc 0c 14 3d 17 e2 81 3d
       0.024547566 0.010935085 0.036144957 0.06341951
000090 6b 6a 46 3e 37 48 ad 3b b5 59 05 3e e5 15 40 3e
       0.19376533 0.0052881497 0.13022502 0.18758352
0000a0 f4 76 95 3b 2c 26 52 3d 5e 42 9e 3c 37 5b 71 3c
       0.0045612995 0.051305935 0.019318756 0.01473122
0000b0 2b 3e 35 3e fd 81 c2 bb ee 15 64 3b c4 ec 24 3d
       0.17699496 -0.005935906 0.003480311 0.04026486
0000c0 b9 50 1d 3e ea 39 c4 3c 3d 66 4f 3c 16 b6 10 3e
       0.15362824 0.023953397 0.012658653 0.1413196
0000d0 6a a2 15 3b 1a 02 3f 3c 2d 18 cb 3c 2c f6 06 3e
       0.0022832402 0.011658216 0.024791801 0.13179845
0000e0 5e 59 85 3e f2 3c 93 3d b1 08 15 3e 39 27 8b 3c
       0.26044744 0.07189359 0.14554097 0.016986476
0000f0 6e 3e 8f 3a 2c 06 9f 3c ab 59 1a 3d 36 82 8a 3c
       0.001092864 0.019412123 0.03768317 0.016907793
000100 65 6b 04 3c 2a d1 f3 3c fc 50 42 3d c5 c8 9c 3a
       0.0080822455 0.029762823 0.047440514 0.001196169
000110 d0 9f b4 bc e0 79 3a 3c 91 09 04 3c 71 52 1f bd
       -0.02204886 0.011381596 0.008058921 -0.03889698
000120 1d 07 48 bb 0e 98 0c 3b 97 7b 79 39 cd d5 c6 3d
       -0.0030521818 0.0021452936 0.00023792531 0.09708748
000130 bc bd ba 3c 3c 30 17 bd ce 54 e4 ba a4 f2 00 bc
       0.02279555 -0.036911234 -0.0017420293 -0.00787035
000140 ec 88 dd 3b 6c 3f ce 3c 77 c0 42 bb 9b 9a 82 bb
       0.006760707 0.025176726 -0.0029716769 -0.0039857156
000150 ce b1 21 3d 93 12 80 3c eb 55 91 bc 13 81 e4 bc
       0.03947621 0.015633857 -0.017741164 -0.027893579
000160 f4 e8 b3 3d c2 92 3d 3a 3d 11 6d 3d d3 f4 39 3d
       0.08784667 0.00072316465 0.057877768 0.0453995
000170 19 b8 45 ba ad dd aa 3e 21 18 5d 3e fe 51 76 3d
       -0.00075423863 0.3337225 0.21591236 0.060136788
000180 29 f0 72 3d b5 0c 0c 3c 35 9f 61 bc d7 73 0b 3d
       0.059311066 0.0085479515 -0.013770868 0.03404602
000190 da a6 59 3e 6b 68 ab 3b 3e 93 35 3e 44 29 91 3d
       0.21255055 0.0052309535 0.1773195 0.07087949
0001a0 81 80 1d bc 02 fd 40 3b 95 6f 72 3e 90 ec 83 bc
       -0.009613157 0.002944768 0.23675378 -0.016104013
0001b0 02 1b 5d bc 6a 9b 01 3e e9 aa 7b bc da d0 da 3d
       -0.013495209 0.12656942 -0.015360572 0.106843665
0001c0 f2 cc cb 3b 4d 18 45 bc 13 e5 de 3c 9a 24 30 bc
       0.0062194997 -0.01202972 0.02720884 -0.010750914
0001d0 6c 91 46 3c 5c f8 f5 3b d6 4c 0a 3c eb f3 d3 39
       0.012119632 0.0075064134 0.008441171 0.0004042679
0001e0 e6 13 8b 3a fe 98 ff b8 68 8a 8c bb 8c 54 13 3d
       0.0010610789 -0.000121878445 -0.0042889602 0.035969302
0001f0 e1 bf 83 3b 21 d2 0c 3b 90 31 86 3a dc 47 7d 3d
       0.0040206765 0.0021487551 0.001023816 0.06183611
000200 de d8 60 3c f1 ba 71 3c 57 fa 02 3d 85 97 a9 3d
       0.01372358 0.014754043 0.031977024 0.08280853
000210 fb 91 d3 3c fb de 17 bc f1 25 80 3b 98 2f a5 3a
       0.025826445 -0.009269471 0.003910773 0.0012602685
000220 3a a4 34 3c f0 04 86 3d c2 82 16 3e f9 fe 83 3d
       0.011025483 0.065439105 0.14698318 0.064451165
000230 3c e2 97 bc 6e 7d 20 3d f2 d5 62 3d f3 fb 85 ba
       -0.018540494 0.03918212 0.055379815 -0.0010222181
000240 f2 92 c0 bb 1c 59 50 39 70 28 05 3d 90 00 14 3d
       -0.0058768922 0.00019869622 0.032509267 0.03613335
000250 0f 8e b7 3b 8e 48 bf 3c b9 79 3b 3d db c3 0c bc
       0.0056016515 0.023350026 0.04577038 -0.008591617
000260 26 9b 2e 3d a8 1c cd 3d e7 ac 08 3e ce 8d f1 3c
       0.04262843 0.10015231 0.13347207 0.029486563
000270 6d 43 9e 3e 0e 8c 7a b8 34 00 24 3c 7a ac 8a bc
       0.30910817 -5.973508e-05 0.010009814 -0.016927946
000280 79 9a b6 3e dd d3 cd 3c bb 6c a9 3c ec ba 4a 3d
       0.35664728 0.025125438 0.02068173 0.04949467
000290 7c 01 38 3e ca c3 77 3b 54 14 9b 3d b7 8f 67 3b
       0.17969316 0.0037805908 0.07572237 0.0035333463
0002a0 52 bb 85 3b aa e9 d5 39 4c 74 3e bc 8c 02 92 b9
       0.004081168 0.0004080062 -0.011624407 -0.00027849188
0002b0 25 04 9b 3b fd 06 13 3c d1 4d 20 3d 24 e3 de 3b
       0.0047307187 0.008973834 0.03913671 0.0068019796
0002c0 8d 41 9f b8 3c d4 35 3d f4 12 d8 3c 26 30 0e 3d
       -7.5939206e-05 0.044391856 0.026376225 0.034713887
0002d0 e1 6b 76 3d 20 7a 23 3d 26 a9 2e 3e 72 87 66 3d
       0.060161475 0.03991139 0.17056713 0.056281514
0002e0 2a b0 24 3c 27 c7 5a 3c 68 93 26 3c af 66 92 3d
       0.010051766 0.013353146 0.01016698 0.071484916
0002f0 6a a1 d7 3d 0a 2e ff 3c b7 97 fc 3d f2 a5 64 3d
       0.10528834 0.031149883 0.12333625 0.05582232
000300 db 8a 09 3c e8 ba ad 3d b5 c0 5a 3e c9 1b a1 3c
       0.008394922 0.08482915 0.21362574 0.01966657
000310 b3 7c dc 3d fd 03 27 3c d7 d0 b3 3d 86 8c 05 3d
       0.10765972 0.010193822 0.087800674 0.032604717
000320 d6 2a 13 3d b1 ed 5d 3c d0 e1 07 3c 0a f4 3b 3c
       0.035929523 0.01354544 0.008293584 0.011471758
000330 b4 ac af 3c af 37 35 3c c7 4d f9 3d 69 20 4a 3b
       0.021444656 0.011060639 0.12173038 0.0030842072
000340 ed 5f d2 3c b3 14 8d 3a 39 11 33 3d 3d 03 cb 3d
       0.025680507 0.0010763615 0.043717597 0.09912727
000350 97 f3 95 3b 44 f9 b8 3b e1 09 89 3d bf 7b 2b 3d
       0.0045761573 0.005644949 0.066913374 0.04186606
000360 9a 6f 29 be 9f a6 d7 3d 5b 5c d3 3c fe f4 f5 ba
       -0.16546479 0.10529827 0.025800874 -0.001876503
000370 37 76 66 3c 39 5c 20 3c 42 7e 6d 3c 2e 26 07 3e
       0.014066271 0.009787613 0.014495434 0.13198158
000380 5b c6 5b 3d e9 0d d0 3c da ae 20 3c a9 1e e2 3c
       0.053655963 0.025397258 0.009807313 0.02760251
000390 44 e1 18 bb 7f 46 ae 3e e4 88 b9 3b 18 ce 09 39
       -0.0023327628 0.3403816 0.0056620706 0.00013142114
0003a0 d5 8f dd 3b d8 aa bc bb fc b6 9b 3d 19 3b 5f 3c
       0.006761531 -0.005757671 0.07603261 0.01362493
0003b0 02 8a e1 3b ae 27 63 3d 3f aa cb 3c 00 2a 86 3b
       0.006882907 0.055457763 0.024861453 0.0040943623
0003c0 9c f1 cd 3c 8d a0 11 bd 10 73 c6 3c 1a eb 33 3e
       0.025139622 -0.035553504 0.024224788 0.17570153
0003d0 a5 0c e0 3d f4 a5 22 3d 37 6c 37 bc 0e 7a 72 3c
       0.10939912 0.039709046 -0.011195234 0.014799608
0003e0 e6 f6 f6 3c d5 11 e6 3b fb ad 85 3d bf e5 f3 3b
       0.030147027 0.0070211687 0.06527325 0.0074431594
0003f0 89 35 98 3d f2 61 2a 3c 1a 8f 1c 3d 51 32 65 3d
       0.07432086 0.010399329 0.03822241 0.05595619
