checkpoint_actor_local_1.pth (torch, 533842 bytes, 10 tensors)

fc1.weight f4 [400, 24]
000000 04 3d 76 bd be 87 4b 3e 4f 1d 7b 3c 13 e0 9e 3d
       -0.060116783 0.19876 0.015326812 0.077575825
000010 61 7e 2e bc 18 db 3c bd 80 41 1c 3c f2 3e b9 3d
       -0.010650248 -0.04610738 0.009537101 0.09045209
000020 fe 13 a0 bd 8e 35 51 3e 80 64 2b 3c bb d6 8a bc
       -0.07816313 0.20430586 0.010460973 -0.016948095
000030 88 8f 70 3d 52 42 6e be ba a4 ad 3c 8f ba 2e bc
       0.058730632 -0.23267487 0.021196712 -0.010664596
000040 c6 06 08 bd bf 6e 67 3e da ae 14 b9 a9 50 73 bd
       -0.033209585 0.2260084 -0.00014179517 -0.059403095
000050 ee 44 f0 3d ae 87 57 be 88 de 0f bc 26 3b 0f bc
       0.11731897 -0.21047851 -0.008781083 -0.008742129
000060 17 30 91 bd 72 dd b0 3d b2 03 1c 3a 19 4e 7b bc
       -0.070892505 0.08635987 0.00059514784 -0.015338444
000070 93 f0 69 bd a9 aa 03 3e 09 74 0d 3d a4 c7 5c 3d
       -0.057114195 0.1285807 0.034534488 0.05390133
000080 c2 8d a2 bb 95 fd fd 3d 96 8d 90 3c 6d 4d 4a 3d
       -0.0049607465 0.124018826 0.017645638 0.049390245
000090 f0 41 25 3a e8 37 ce bd 6d af 15 bd 21 79 a3 bc
       0.0006304076 -0.10069257 -0.036544252 -0.01995522
0000a0 eb c9 96 3b a4 11 f9 3d 55 c8 5f bd 5b e4 a1 3d
       0.004601707 0.12161568 -0.05463441 0.079048835
0000b0 33 45 90 3d 71 ed cb be ec d9 98 3c f6 12 84 3d
       0.07044449 -0.3982959 0.0186586 0.06448929
0000c0 74 94 14 3c d2 2d 55 be 24 39 46 bd ee bd 19 bc
       0.009068597 -0.2081826 -0.048394337 -0.009383662
0000d0 43 50 86 bd 65 67 10 be f9 57 c1 3c 32 ad e9 3c
       -0.065582775 -0.14101942 0.023601519 0.028524969
0000e0 0d 95 2c 3d c4 ed 67 be 74 d8 f8 bb 15 f7 9d bc
       0.042134333 -0.22649294 -0.0075941626 -0.019282857
0000f0 b1 3c 82 3d 91 67 22 3e 8b da e3 bb d8 39 1a bc
       0.06359232 0.1585982 -0.0069535426 -0.009413205
000100 4c d7 de 3c 99 a9 5a be 65 b6 a4 3c 83 08 14 bd
       0.02720227 -0.21353759 0.020106504 -0.03614093
000110 97 35 52 3e a1 49 61 3e 14 4a 64 3b a8 2d 0b bb
       0.20528255 0.22000743 0.0034834193 -0.002123693
000120 39 9a 74 bd f8 30 1f be 34 0b f9 3c 27 f1 07 3d
       -0.05971739 -0.15546024 0.03040085 0.033188965
000130 cf 0f 39 bc 15 b8 2f 3e 5c 7a 0e bc bd 48 88 bc
       -0.011295273 0.17160065 -0.008696165 -0.016636247
000140 dd 6e 92 bd b9 3e af bd 7a 18 43 39 4f 80 8c bd
       -0.07150052 -0.08556885 0.00018605767 -0.068604104
000150 7f aa 14 3d 55 45 0f 3e fb a2 c3 3c 9a bc 44 bd
       0.03629541 0.13991292 0.023881426 -0.048031427
000160 1f 6a 26 bb 71 01 90 bd 41 d3 65 3d be 1b 09 3e
       -0.0025392843 -0.07031525 0.05610967 0.13389489
000170 16 2c 2a 3e b4 e8 54 3e ce de 88 bc 6c fa 08 3e
       0.1661838 0.20791894 -0.016707804 0.13376778
000180 9b 4c be 3d 78 46 98 bd cd e2 27 3b 5f 39 32 bd
       0.09291955 -0.07435316 0.0025617362 -0.043511745
000190 a6 a1 e2 3c c5 d0 4b be a8 3a 75 bc ec a4 03 bd
       0.02766497 -0.19903858 -0.014967598 -0.032139704
0001a0 24 c4 c5 3d 62 59 dd bc 5b f4 04 bd 97 7c 10 3b
       0.096565515 -0.02702016 -0.032459598 0.0022046918
0001b0 11 86 60 3d a1 fc 95 3d a4 3c c8 3c f0 2a 93 bd
       0.054815356 0.07323576 0.024442978 -0.07185924
0001c0 10 ba 43 3e 3f 0b ae 3c 44 af cb 3b f5 35 0b bd
       0.19113946 0.021245597 0.0062159617 -0.033987004
0001d0 ca d5 29 bd c1 0a e5 3e e4 c4 bb bb 51 23 04 bd
       -0.04146365 0.44734767 -0.0057302583 -0.032260243
0001e0 20 1e de 3d 66 8f 9b bd 78 21 79 3b 80 90 a9 3c
       0.1084559 -0.075957105 0.0038014334 0.020698786
0001f0 2d 71 80 bd d9 c3 d9 3d 37 af aa 3c b1 5c 63 3c
       -0.062715866 0.10633058 0.020835502 0.01387708
000200 04 0b b0 3d bf 7e fe bd 6f 52 44 bc 06 20 aa bd
       0.08595851 -0.12426519 -0.011982544 -0.08306889
000210 8c bf 49 3c 57 5c 1a 3e 62 6a ab 3c 81 19 05 bc
       0.012313735 0.15074287 0.02092475 -0.008123756
000220 3d e7 3c 3d 64 71 f8 bd b8 a4 40 3d 4f cc 7c 3d
       0.046118964 -0.121310025 0.047032088 0.06171828
000230 63 52 07 3e b7 b8 66 3e a3 28 05 3d cd 5c 5e 3b
       0.13215022 0.225314 0.032509457 0.0033929825
000240 d4 7a 92 bd d3 7c b4 3c b1 dd 19 3d 23 85 3f bc
       -0.07152334 0.022032177 0.037564937 -0.011689457
000250 12 82 d2 3d 22 40 1b be af 28 cb 3c 74 42 24 bc
       0.10278715 -0.15161183 0.024799673 -0.010025609
000260 c4 cc 3a 3b 30 d7 93 bc 35 ed b7 3c 99 8d 09 bc
       0.0028503397 -0.018046945 0.022451976 -0.008395576
000270 21 9d 0e 3e 23 b0 6d be 05 7b 20 ba 7a 1e 38 3d
       0.13927127 -0.23211722 -0.0006121847 0.04495094
000280 94 8e 0f 3d 51 48 62 3d 92 31 aa bc dc ea c7 3d
       0.035048082 0.055244748 -0.02077559 0.09761593
000290 d2 32 cc 3d d6 80 b1 bd 88 21 ec bc f8 cf 52 3d
       0.09970631 -0.08667152 -0.028824583 0.051467866
0002a0 de 85 b6 bc b6 f4 9e bd 1d 4b 7d 3d 92 da 03 bd
       -0.02228063 -0.07761519 0.06183921 -0.032190867
0002b0 6a c2 90 bd 1d 50 68 3d b3 2a ed bb c7 da 89 ba
       -0.070683315 0.056717027 -0.007237756 -0.0010517471
0002c0 1f 86 1a 3c 9e 90 59 bd da 8a 81 3d 12 b6 61 3d
       0.009431391 -0.053116433 0.06325312 0.055105276
0002d0 16 75 a5 bd f4 20 e0 3d b0 a5 b8 3d f9 98 87 3d
       -0.08078973 0.10943785 0.090159774 0.06620974
0002e0 31 7e 3a 3d d3 57 03 be dd 77 12 3c 08 22 f9 3d
       0.0455305 -0.12826471 0.00893971 0.12164694
0002f0 08 16 8d bc b0 04 3d 3e f5 8f 34 3d 0c b5 09 3e
       -0.01722242 0.1845882 0.0440826 0.1344797
000300 44 e5 71 3d 1f 2e 3d bc 0c dd 95 bc 19 17 4d bd
       0.059056535 -0.011546641 -0.01829388 -0.050070856
000310 f7 eb dc 3d 96 fa 08 be 5f 5c d6 bc ba e5 73 bd
       0.10787194 -0.13376841 -0.026167093 -0.059545256
000320 fc 4c 69 3c 53 ec 4e bd 3d e0 c8 3c f5 d9 2d bb
       0.014239546 -0.050518345 0.024520988 -0.0026527618
000330 3e 5d cb 3d b9 a2 75 3c 7c 13 3e bd 32 fb cc 3c
       0.09929894 0.014992409 -0.0464053 0.025022123
000340 99 fd ab 3c 85 31 c0 bd f1 df d9 3c 18 48 08 3e
       0.020994948 -0.09384445 0.026596041 0.13308752
000350 9d 42 2d 3e 1b 44 28 3e 24 64 c6 bc bb 39 35 3e
       0.16919942 0.1643223 -0.024217673 0.17697804
000360 34 32 d0 bc 96 97 e3 bd 54 76 18 bc 31 e7 96 3d
       -0.025414564 -0.11112897 -0.009305555 0.07368315
000370 d9 fa 8c bc 06 81 d4 bd 3d 4c 10 3c c2 33 78 bb
       -0.017209457 -0.10376172 0.008807239 -0.0037872647
000380 f0 f3 89 3b a7 b9 6c bd 62 f4 58 3c ec 03 bb bc
       0.004209988 -0.05779424 0.013241859 -0.022829019
000390 19 a5 81 bc 09 5c 04 3e 42 51 8a bc 16 6c ce 3c
       -0.015825795 0.12925734 -0.01688445 0.025198024
0003a0 2a eb ce 3c 74 d0 ca 3b 98 a7 6e bc 8c 1a 13 bd
       0.02525862 0.0061894003 -0.014566325 -0.03591399
0003b0 8b 8c f2 bd 29 89 0c 3f ad 30 f5 3b 7f 0a 2b bd
       -0.11843213 0.5489679 0.0074826092 -0.041758057
0003c0 6b a3 66 39 8b 3a 9b 3e 61 69 1e 3d c7 bd cc 3d
       0.00021995387 0.30318102 0.038674716 0.09997135
0003d0 8d 1e 4e bc 7f df 04 bc 8a 56 ea bc 33 89 ea 3d
       -0.012580526 -0.008109926 -0.028605718 0.1145195
0003e0 25 ab 66 3d 8d c4 c4 3e 90 0e ce bb 52 45 2b bd
       0.05631556 0.38431206 -0.006288357 -0.041814156
0003f0 6e cd 8b bc ae da 26 be 7a 1d 17 3c e9 0c b7 3c
       -0.01706573 -0.16294357 0.009223336 0.022345023

fc1.bias f4 [400]
000000 93 76 14 bd 63 3d 8c bc fa 33 d9 bd bc b6 95 bd
       -0.036245894 -0.017119115 -0.10605617 -0.073102444
000010 df 21 fe bd 89 f7 10 be 59 2a 9a be 04 3b 1b 3e
       -0.12408804 -0.14156927 -0.30110434 0.15159231
000020 9f e6 30 3c 6a e7 7b bd 8f 2e 5e 3e a9 90 ae 3d
       0.010797172 -0.06149999 0.21697448 0.085236855
000030 4c 6d 74 be 5d 08 66 bd ac 8c 9f bd 61 16 5a be
       -0.23869818 -0.05616032 -0.07790503 -0.212976
000040 c5 05 88 be 59 3f 76 bc e8 06 85 bd e9 8a 25 be
       -0.26566902 -0.015029752 -0.06495458 -0.16166271
000050 3a 87 d5 bd 56 6e d2 be 6a 3c 0d be 36 9c 4f 3e
       -0.10426183 -0.41099805 -0.13792577 0.20274433
000060 ad cd ac be 97 84 6a 3d c3 fb 8e be 53 78 35 be
       -0.33750668 0.057255354 -0.27926454 -0.17721681
000070 c5 68 1b be 8b 2c 27 be 54 c4 4c 3e cf 63 c4 be
       -0.15176685 -0.16325586 0.19996768 -0.38357398
000080 aa cd 6a 3d df 0e 8b bc 43 2e 02 be a5 e9 13 3d
       0.057325043 -0.016974865 -0.1271296 0.036111493
000090 30 58 bd bd 29 05 9f 3c ab f8 ac bd b8 ab 0b bd
       -0.09245336 0.01941164 -0.08445867 -0.03409931
0000a0 ac 50 7e be 0d bd db bd 94 71 7f be b3 d5 20 be
       -0.24835461 -0.10729418 -0.2494567 -0.1570652
0000b0 57 6f 02 bd 1a 13 e6 3b 4e 6e aa bc dd f8 5a be
       -0.031844463 0.00702132 -0.02080455 -0.21383996
0000c0 8b dc 20 3d 65 8c 1d be 6f f7 d4 be e6 b2 7b bd
       0.039272826 -0.15385588 -0.41595027 -0.061449908
0000d0 3f ef f4 bd 39 94 06 bc fb 1f 6e bd 1b fa 81 be
       -0.11959695 -0.00821405 -0.058135968 -0.25386128
0000e0 dd 1c 28 3d b4 a8 8e be 6a cb ba bb a8 c5 06 be
       0.04104315 -0.27863085 -0.0057005184 -0.13161337
0000f0 c7 34 0a bd fb cc d9 3d d3 a0 96 3d 19 e6 a1 be
       -0.03374174 0.106348 0.073548935 -0.31620863
000100 81 7d 19 3e 5a 28 4e be c3 ca 21 3e 93 e2 be 3d
       0.14989282 -0.2013258 0.15800004 0.09320559
000110 3a 5e f0 3d 3b e1 a6 be 3c cd 61 be 7c 19 59 be
       0.11736722 -0.32593712 -0.22050947 -0.21201128
000120 fa 1c 40 be 28 47 85 3d 09 eb df bd ab 3e cc be
       -0.18761054 0.065077126 -0.10933501 -0.39891562
000130 a5 45 41 3e 13 70 f0 3c 84 5d ba 3c 03 4f 81 be
       0.18874224 0.029350316 0.02274967 -0.25255594
000140 c0 61 ad 3d f1 55 08 be 43 52 f0 3d 0b 9b 91 be
       0.0846591 -0.13314034 0.1173444 -0.284386
000150 02 ec 14 3e c0 5a 59 3c 23 8f 3b 3e 00 11 d4 3d
       0.14543155 0.013266265 0.18316321 0.10354805
000160 52 22 24 be 20 8f a9 be 7c ee 7b 3c 9e 89 b5 bd
       -0.16028717 -0.33117008 0.015376683 -0.08864139
000170 81 21 9a 3d 35 a9 59 bd 43 d2 05 bd 51 58 9f 3d
       0.075259216 -0.053139884 -0.032671224 0.07780517
000180 b5 03 30 3e 6f b8 22 be 82 f0 b3 bd 42 45 70 bb
       0.17188914 -0.15890668 -0.087861076 -0.0036662375
000190 2b 02 4f 3c 7e e8 c8 3d dd 69 93 be 10 3b 2f be
       0.012634794 0.09809969 -0.28791705 -0.17112374
0001a0 16 3b a8 be 8a ae 14 be 44 dd a6 bd e3 13 99 be
       -0.3285758 -0.14519706 -0.08147672 -0.29897985
0001b0 f9 cb 8b bd 52 ed e7 bd a7 6f ae 3c 93 2b ed be
       -0.06826014 -0.11324562 0.021293474 -0.46322307
0001c0 25 0e 86 be b3 9d 8f be f2 8c ed 3d e8 1f 0a be
       -0.26182666 -0.28050002 0.11599149 -0.13488734
0001d0 fd 47 d8 3c 50 7e a1 be 1f d9 b1 bd 88 fa 60 be
       0.026401514 -0.3154168 -0.08683991 -0.2197057
0001e0 42 6c 1e be cc 8f b1 be ab 1c 38 be 0b 26 f2 3a
       -0.15470985 -0.3468002 -0.17979686 0.0018474472
0001f0 be 6c ac be c5 c8 61 3c a6 bf 5c be 65 38 ff 3b
       -0.33676714 0.013780777 -0.21557483 0.007788705
000200 12 f6 39 3e 2a 91 39 be fd 25 57 be 38 19 3c be
       0.18160275 -0.18121782 -0.21010585 -0.18368995
000210 c0 64 96 bd 3d 55 b8 bd 27 af cb be dd 32 ab be
       -0.07343435 -0.09000633 -0.39782068 -0.33437243
000220 ab 05 85 bd 82 a9 42 be 05 ba 9f bc 7d 30 de 3d
       -0.06495222 -0.19009975 -0.01949788 0.10849092
000230 98 da 43 bd e6 6e 34 be ba a2 b0 bd 64 49 e3 3d
       -0.04781589 -0.1762043 -0.08624788 0.110979825
000240 9a a6 45 bd 84 73 14 bd e3 0c 85 3d cf a1 07 3e
       -0.048254587 -0.036242977 0.064965986 0.13245319
000250 f3 41 3c 3b 35 21 b4 bc 81 e4 0f be aa 4e 96 be
       0.0028725832 -0.02198849 -0.14052011 -0.2935689
000260 e4 93 29 be e9 e3 4f 3c 99 fa 09 be d7 67 2a be
       -0.16560322 0.012688615 -0.13474502 -0.16641174
000270 13 67 8e bd 6b c5 ad bd 1f 74 a3 bd d4 1f da 39
       -0.069532536 -0.0848492 -0.07981133 0.00041603914
000280 1b 64 3f bd ea f7 47 be ef e1 68 be 72 78 65 be
       -0.046726327 -0.19528165 -0.22742437 -0.22409227
000290 37 19 ee 3d 91 86 16 3d 99 cf c5 bd 30 f9 bb bd
       0.11625903 0.036749426 -0.09658737 -0.09178388
0002a0 ca 9b 44 bd 83 48 b2 be d2 60 ae bc 2a e3 9b bc
       -0.048000135 -0.34820947 -0.021286402 -0.019029219
0002b0 8c 80 ee bd a4 d6 99 bd 67 4c b2 bb 55 a6 a0 bc
       -0.11645612 -0.075116426 -0.005441237 -0.019610563
0002c0 a4 6d 59 3e 26 9d 31 be dc 57 0e 3d fc 0c 07 be
       0.21233231 -0.17345104 0.034751758 -0.13188547
0002d0 4e 3b 3f bd a9 e6 b5 be 38 1b d9 bd d4 9a 4e be
       -0.046687417 -0.35527542 -0.10600895 -0.2017625
0002e0 59 58 c9 be 45 c3 6b 3e e0 48 92 bd 2e 65 9e 3d
       -0.39325216 0.23023708 -0.07142806 0.07734142
0002f0 b4 b8 13 be 1e 5d 32 be 29 7e 5b be e6 5f cf 3d
       -0.14425927 -0.17418334 -0.21434845 0.10125713
000300 4c 49 9c bc 36 62 a0 be 48 ce bf 3c ac 59 a1 3d
       -0.01907792 -0.3132493 0.023413792 0.07878432
000310 8e 81 f5 3c 76 26 13 be 1a 58 90 be 6d b3 93 bd
       0.029969003 -0.1437014 -0.28192216 -0.07211957
000320 ab e9 10 3e 04 f6 b8 bd f2 89 3b be a5 28 91 3b
       0.14151637 -0.09031299 -0.1831434 0.004429894
000330 5a 06 09 bd 0b a9 06 be a9 86 49 3d 4a 50 54 3e
       -0.033453323 -0.13150422 0.049200688 0.20733753
000340 44 64 6c 3c 80 73 33 3e 0b 42 94 bd 16 c6 1c bd
       0.014428202 0.17524529 -0.07239159 -0.038274847
000350 35 96 b8 bd 16 08 c9 bd 36 2e 3c bd 3b 8b 43 3d
       -0.09013025 -0.098159954 -0.045942508 0.047740202
000360 70 4d f5 bd f7 8e cf bd d3 dd be be 96 d1 58 bd
       -0.11977661 -0.1013469 -0.37278613 -0.05293425
000370 07 7e 7e bd 7f 21 ab 3d a2 64 90 bd 62 b3 8c be
       -0.062131908 0.08355998 -0.07050444 -0.27480608
000380 09 dd 99 bd aa 8b 34 be ec 3a 94 be 4c 39 65 be
       -0.07512862 -0.17631403 -0.28951204 -0.22385138
000390 7d 2c c7 3d d1 60 95 be 42 a8 0f 3e 39 91 2b be
       0.09725282 -0.29175428 0.14029029 -0.16754617
0003a0 37 98 91 3d 59 f7 f8 bc a7 17 e3 bd 51 33 68 be
       0.07109111 -0.030391382 -0.11088496 -0.22675826
0003b0 a9 1f fb bd 90 f5 27 bd 1f 6d 38 3d 61 79 17 be
       -0.12261898 -0.04100567 0.04502594 -0.14792396
0003c0 0a 81 5d be fa c2 b5 3b 7a 10 fe 3d d0 36 4a be
       -0.21631256 0.0055469247 0.124054864 -0.19747472
0003d0 a6 a2 b1 3d bf 94 9f 3d 71 45 8e be a1 f3 44 be
       0.08673601 0.07792043 -0.27787355 -0.19233562
0003e0 40 65 48 3d 41 c2 bb bd 57 20 9f 3c db 27 55 be
       0.048924685 -0.0916791 0.0194246 -0.20815985
0003f0 20 c9 76 bd a0 e5 8d be 4e d5 3a be 97 0b af be
       -0.0602504 -0.27714252 -0.18245432 -0.3418853

fc2.weight f4 [300, 400]
000000 d1 74 97 be c9 44 cb 3a 30 fd bf 3c cd a7 f9 bb
       -0.2958131 0.001550817 0.023436159 -0.0076188804
000010 10 89 ec bd e1 c5 e0 3d 4e 3b 9a bd 31 f4 3f 3c
       -0.1154958 0.109752424 -0.07530843 0.011715935
000020 85 82 c9 bc 89 cc 1a bd 0a 7c 0f be 7b d6 64 bd
       -0.02459837 -0.037792716 -0.14012161 -0.055868607
000030 d3 0f 43 3d 46 1c 09 3d 74 cf 73 3d 10 52 0d bd
       0.047622513 0.03347423 0.059524015 -0.03450209
000040 6c b4 82 3d d1 4f 3c bd df 78 32 3c b2 53 05 bd
       0.06382069 -0.045974556 0.010893076 -0.03255052
000050 4d 87 07 bc 46 83 41 be 75 dc a7 3d 31 5a cf bc
       -0.008272004 -0.18897733 0.08196346 -0.025311561
000060 6d 10 50 be 6e 53 da bd 0f 1b 3f 3d 22 12 f4 bd
       -0.20318766 -0.10660444 0.046656664 -0.11917521
000070 a4 8f 8f 3d be f4 9a bd 5f 92 2b be 7b 5c 6d bd
       0.07009819 -0.07566212 -0.16755055 -0.057949524
000080 75 0c 39 be cf 58 23 3d ff 48 5a 3d bb 36 76 3d
       -0.18071158 0.039879616 0.05329227 0.06011079
000090 5d 85 7d 3c 65 90 e7 bd 68 00 cd 3d a4 4a 22 bd
       0.015473691 -0.11306838 0.10009843 -0.039621964
0000a0 d9 49 27 be 8d 81 fd bc 80 c8 fa bc 96 e2 bb 3d
       -0.16336764 -0.030945564 -0.030613184 0.09174077
0000b0 f3 b4 d9 bd e9 74 01 3d 7d 2b b7 3c e8 ea 61 bd
       -0.106302164 0.031605635 0.022359604 -0.055155665
0000c0 98 4d c3 bd 6d 77 f8 bb dc 3d 8a 3d 7b 6c 94 3c
       -0.09536284 -0.007582596 0.0675008 0.018118134
0000d0 7d e9 7b bc 26 59 10 be 61 0a cd bc 35 e5 cb ba
       -0.015375492 -0.14096507 -0.025029363 -0.001555598
0000e0 30 a3 05 bc 22 b8 2a be f4 32 f3 3d 01 20 37 3d
       -0.008156583 -0.16671804 0.11874953 0.044708256
0000f0 55 2a 9e 3d 60 35 7c bd 10 7d 54 bc 45 ef 12 3d
       0.07722918 -0.06157434 -0.01296927 0.035872716
000100 04 cb a7 3d 79 44 85 3d 1c d9 5d b9 26 78 db 3c
       0.08193019 0.06507201 -0.00021157082 0.02679069
000110 f9 e7 b1 3d 27 82 5c bc 28 ad 0d 3c 32 c8 9e bc
       0.086868234 -0.013458765 0.008647241 -0.01938257
000120 b5 3b db bd d5 5d 98 3d 5d e0 71 bd db 99 b5 3c
       -0.107047476 0.07439772 -0.05905186 0.02216809
000130 f3 ea 15 3e b1 cf e7 bc ca 81 be 3c 44 a6 95 3d
       0.14640407 -0.028297277 0.023255248 0.07307103
000140 4b c8 1b 3d c3 9d b7 bd 09 bc f0 bc 9e ac 2a 3c
       0.03803281 -0.089656375 -0.029386537 0.010417132
000150 ad 92 7d 3d 08 88 3e 3d 78 65 e6 3d f9 00 98 3d
       0.06190746 0.04651645 0.112498224 0.074220605
000160 ec 4d 62 3e e8 6d 10 bc 3c 91 c2 3d 73 74 c0 bc
       0.22100037 -0.008815266 0.095003575 -0.023493027
000170 50 c9 07 be 4b 05 26 3e d9 53 0d 3d 5c 18 83 bd
       -0.13260388 0.16212957 0.03450379 -0.064011306
000180 17 10 b9 3a 4d 86 f3 3d 27 50 31 3d 94 bd 35 bd
       0.0014119175 0.1189085 0.04328933 -0.04437025
000190 6e 05 27 3b 80 0f 51 bd fe 24 63 be 2f f5 9d bd
       0.0025485414 -0.051040173 -0.2218208 -0.07712781
0001a0 67 12 53 bd e7 4e 25 bd 63 9c b7 bc b3 e8 54 3d
       -0.05153122 -0.04035845 -0.022413438 0.05197973
0001b0 83 63 91 bc d0 8e 52 bd ed 25 93 3c c5 1c ec bc
       -0.017747646 -0.051405728 0.01796242 -0.028822312
0001c0 83 c9 90 bc 15 3b 43 3d 2a d1 a4 3c 5c 6e 0a 3c
       -0.017674213 0.047663767 0.020119268 0.008449163
0001d0 36 bc 1e be 30 c7 c4 bd 41 4a da bd e0 ce 60 bd
       -0.15501484 -0.096083045 -0.10658694 -0.05488479
0001e0 e9 16 bf bd a8 66 b4 bb 44 bc 39 3d 7d 42 29 3b
       -0.09330542 -0.0055054016 0.04534556 0.0025826984
0001f0 9d 08 44 be 33 86 60 3d ea 38 13 be 3d 3b a8 bb
       -0.1914391 0.054815482 -0.1437718 -0.005134015
000200 d4 63 05 be 5d a1 88 bd 09 42 ca 3b 33 ae d1 bd
       -0.13026363 -0.066714026 0.006172423 -0.10238304
000210 22 56 17 bd 19 1e 8f bb c1 49 57 bd b6 34 a9 bd
       -0.036947377 -0.0043676016 -0.05256057 -0.08262007
000220 ac ce da bd 5d f5 aa bc 4a d1 db 3c 2d 5a 99 3c
       -0.10683951 -0.020868951 0.026833195 0.018719757
000230 8f 4e fa 3b 30 6b 45 bc 75 a6 d4 3d f3 21 3b 3b
       0.0076387594 -0.012049481 0.10383312 0.002855417
000240 24 64 86 3c 69 73 0c be 68 58 94 3d 2a 07 0f 3c
       0.016405173 -0.137159 0.07243425 0.008729735
000250 e5 b7 d6 3c c9 6c aa bc bd 19 a8 3d 35 95 0f bd
       0.026210735 -0.020803826 0.08208034 -0.035054404
000260 b5 12 e4 bd 3a 8d ea 3c 6f 50 47 bd 07 ff d3 3c
       -0.111363806 0.028631795 -0.04866069 0.025878442
000270 e2 50 c7 3c 7a 89 56 3d 08 4a 56 bc 6b 46 4a be
       0.02433056 0.0523772 -0.013079174 -0.19753425
000280 96 7e 19 be e7 64 1a 3e 81 1e a6 3d 38 3e d4 bc
       -0.14989695 0.15077554 0.08111287 -0.025908574
000290 59 9e c0 3d 65 00 96 3d d1 b5 75 3c eb 60 c0 39
       0.094052024 0.07324294 0.014996962 0.00036693303
0002a0 63 08 b1 bd c0 c1 77 3d 3a 7f 02 3e 2d 64 c2 3d
       -0.08644178 0.06048751 0.12743846 0.09491763
0002b0 4f 7f 7f 3c 43 00 c7 bd c8 86 32 bd b5 c6 18 3d
       0.015594318 -0.09716847 -0.04358557 0.037298877
0002c0 af ef 36 be fa fb 61 bd 36 78 20 3d e2 9b 41 3c
       -0.1786487 -0.055171944 0.039177142 0.0118169505
0002d0 a0 ef 38 3d 63 16 55 3c 58 cf f8 bd 71 ae 16 be
       0.0451504 0.013005826 -0.12148923 -0.14714982
0002e0 38 8b 2f bb ba e8 82 bd 18 e4 9b bd f5 a3 98 3d
       -0.0026785862 -0.06392045 -0.07611865 0.07453147
0002f0 76 95 1f be 44 27 18 bc 45 60 13 3d 6c 16 81 3d
       -0.15584359 -0.009286705 0.03598048 0.06303105
000300 f0 7a 44 bd 34 70 96 bd 13 6d bd 3d 77 6d c9 bd
       -0.047968805 -0.0734562 0.0924932 -0.09835332
000310 a2 39 73 bc 95 20 98 bd 9c 96 8b 3c e2 88 d1 3d
       -0.014845284 -0.074280895 0.01703959 0.102311864
000320 b3 26 34 bd 66 07 4d 3d 98 31 f8 3d 63 b9 cb 3d
       -0.04398222 0.050055884 0.12118834 0.09947469
000330 65 37 5a 3c 84 e4 ca bd 08 83 5c be 23 dd 9f 3c
       0.013318871 -0.09906867 -0.2153436 0.019514626
000340 6b 95 94 3d ea 82 8f 3d 35 fb 6d bd f1 b4 a8 3d
       0.07255062 0.07007392 -0.058100898 0.08237637
000350 0f e6 c0 bd 42 c0 c2 3b ee c9 c2 3b 2f e1 29 bc
       -0.0941888 0.005943329 0.005944482 -0.010368629
000360 59 ef a1 3d 04 bb 25 3c ad 59 d4 bc 89 7c 75 bb
       0.0790698 0.010115389 -0.025921667 -0.0037458262
000370 a7 d2 cf bd 13 61 f7 bd dd 9c 03 be 31 e6 f5 bd
       -0.101476006 -0.12079062 -0.12852807 -0.12006796
000380 18 58 c0 bd 7d 5a 72 be 77 2d 1a bd a9 de 1f be
       -0.093918025 -0.23667331 -0.037641015 -0.15612282
000390 6d 45 25 bd e2 bf 8c 3d 49 ab 59 be 3d 07 fc 3d
       -0.040349413 0.06872536 -0.21256746 0.12306068
0003a0 9a 0c cd bd 47 e9 7f bd bc 1d 88 bd 4b 9b a8 3b
       -0.10012169 -0.06247833 -0.066462964 0.0051454655
0003b0 29 e8 92 3c 69 25 d3 3c d4 2c 9b bd 05 9d 6f 3d
       0.017932968 0.025774674 -0.0757691 0.058499355
0003c0 3c c9 8a bc 9a a7 06 3c 8f c6 02 3d c5 8e 56 3d
       -0.01694166 0.00821867 0.03192764 0.05238225
0003d0 da 3d fb bc 78 89 08 be a6 91 0a be a1 6b a9 3b
       -0.030669142 -0.1333369 -0.13532123 0.005170301
0003e0 a9 ae cb bc 43 4e 24 bd aa 12 49 be fe f5 87 bd
       -0.024863558 -0.0401137 -0.19636026 -0.06638716
0003f0 9a 71 46 be a5 0c 75 bd 87 70 04 3d 19 67 3d bc
       -0.19379273 -0.059826512 0.032333877 -0.011560225

fc2.bias f4 [300]
000000 fc db 38 bc d8 5a 80 3d a4 b8 54 bd cd 92 c6 bd
       -0.011282917 0.06267327 -0.0519339 -0.09695969
000010 2f 55 c4 bd 27 f6 25 bd 13 ce ff 3c 7c 02 7a bd
       -0.0958656 -0.040517952 0.031226194 -0.061037526
000020 28 ef 9c bc 50 50 ea bd 82 79 7e 3c 86 e8 bd 3c
       -0.019157007 -0.114411 0.015531899 0.023182165
000030 e2 57 bd ba b6 52 2f bd 2d 6a 97 bc 5d cd f7 bc
       -0.0014445747 -0.04280349 -0.018483246 -0.030249292
000040 1c 24 03 be 22 6b 69 bb f8 14 f1 3c 79 06 95 bc
       -0.12806743 -0.0035616835 0.029428944 -0.018191563
000050 3f af ae 3d cc 8c b4 bc 9f db d2 3c 95 e3 d0 bd
       0.08529519 -0.022039793 0.02573949 -0.10199658
000060 47 88 83 3c a1 b1 76 bd 2d c4 37 bd d5 de 35 bd
       0.016056193 -0.060227994 -0.044864822 -0.044401962
000070 41 a9 ef bc 32 b1 c5 bd a0 34 ac 3d 62 cd e6 bd
       -0.029255511 -0.09652938 0.08408475 -0.112696424
000080 b7 f7 07 be 11 f4 1a bc 0b 5d c9 3c ea cc 81 bd
       -0.1327809 -0.009457604 0.0245805 -0.063379124
000090 78 13 37 3d 99 d8 2c 3d 66 c5 49 bd 26 55 9e 3c
       0.0446963 0.04219875 -0.04926052 0.019327711
0000a0 5b f1 b4 bd 73 22 d9 bd 95 6e ac 3d 54 0c f5 bb
       -0.088350974 -0.10602274 0.08419529 -0.0074782763
0000b0 9d 39 84 3c 43 fc 7f bd a1 f2 cb bd ea 84 4c bd
       0.016140753 -0.062496435 -0.09958387 -0.049931444
0000c0 bb 25 66 bd 90 2d 53 bd ab 21 6b 3d 42 93 14 be
       -0.056188326 -0.051557124 0.057405155 -0.145093
0000d0 82 b6 87 bc 94 09 94 bc ff f8 9d bd a0 56 fc bb
       -0.016566519 -0.018070973 -0.07713508 -0.007700756
0000e0 f4 bf 2a be 5b 2b e1 bd 95 46 0c be 9f db 6e bd
       -0.16674787 -0.109945975 -0.136988 -0.058314916
0000f0 9a 82 af bd 28 d4 59 3d cd b0 24 bd bc 63 18 bc
       -0.08569832 0.053180844 -0.040207673 -0.009301122
000100 11 a2 ab bc 94 f9 6d bd 20 d7 62 bc f1 43 2b be
       -0.020951303 -0.058099344 -0.013845235 -0.16725136
000110 ea 46 23 be 84 6f 11 be 0b 3e c1 bd c6 bd ac bd
       -0.1594502 -0.14202696 -0.09435662 -0.08434634
000120 19 43 d4 3d f9 db 9e 3d 17 7a d2 bd 5f 2c fd bd
       0.1036436 0.077568 -0.10277193 -0.12361979
000130 f1 b3 7a bd c1 cf af bd 3b da f6 bd 7d d7 77 bd
       -0.06120676 -0.08584548 -0.12053343 -0.06050824
000140 0c 11 81 bd d1 d5 ab 3d 02 44 5b bd e9 89 b3 bc
       -0.063020796 0.083903916 -0.053531654 -0.021916347
000150 ae ac 01 be 57 d8 2a 3d 8f f7 3d be bf da c7 bb
       -0.12663528 0.041710224 -0.18551467 -0.0060990746
000160 7b 79 50 bd b1 f5 50 bd 90 19 09 ba c9 a9 96 bd
       -0.050897103 -0.05101556 -0.00052299444 -0.07356603
000170 09 38 a3 3c ee e9 3a 3d d2 33 14 bd 49 81 93 3d
       0.01992418 0.04563325 -0.036182232 0.072023936
000180 23 f1 ca bd d0 67 86 bd 12 0e b1 bc f0 38 50 be
       -0.099092744 -0.065627694 -0.021613155 -0.2033422
000190 25 5d e6 bd 07 d2 e0 bd be aa ad 3d e4 9c a4 bd
       -0.11248235 -0.109775595 0.08479832 -0.08037737
0001a0 f4 9a fe bd de 79 d8 bd 96 b9 b2 bd 4f 7c 05 be
       -0.12431899 -0.10570119 -0.08726804 -0.13035701
0001b0 34 5e de bd 55 36 0a be 45 8e 26 be 45 aa 8d be
       -0.108578116 -0.13497289 -0.16265209 -0.27668968
0001c0 d8 c3 ae bd 66 62 3a be ca 81 10 bd 45 ea 1d be
       -0.08533448 -0.18201599 -0.035280026 -0.15421398
0001d0 a6 68 88 bd 9d a9 98 3c ba f4 d6 bc 74 14 98 bc
       -0.06660585 0.018635565 -0.026239742 -0.01856444
0001e0 b8 12 2d bd c4 a6 10 bd c4 94 e7 bd b2 4e 83 bd
       -0.04225418 -0.03531529 -0.11307672 -0.06411494
0001f0 21 fb 63 bd e7 f9 89 3d 17 02 d1 bd 09 97 04 bc
       -0.055659417 0.06737118 -0.10205477 -0.00809265
000200 1e 45 7b 3c df 45 89 bd a4 b3 2e be af 78 78 bd
       0.015336303 -0.0670278 -0.17060715 -0.060661968
000210 de 97 e1 bc 4e 1f bc bd 65 5d 8b bd cf 2f eb bc
       -0.027538236 -0.091856584 -0.06804923 -0.02870932
000220 f0 fb 8b bd 0f 2f 50 3d 27 05 24 be cf c2 31 be
       -0.06835163 0.05082613 -0.1601759 -0.1735947
000230 91 9e 8d bd 4d 1d 98 bd 78 e2 02 bd 7d f2 b1 bd
       -0.0691501 -0.07427464 -0.03195426 -0.08688829
000240 81 4e d2 3b cc c5 d3 bc 1d 1e b6 3b a2 bf a8 bd
       0.00641805 -0.025851153 0.005557789 -0.08239676
000250 a7 af ee bd de 2d f4 bd cd 8e 75 be d4 50 14 3b
       -0.11654597 -0.11922811 -0.23980255 0.0022631185
000260 a8 3a 1b 3c c0 1f 84 bd 54 c1 53 3d 65 a8 b2 bd
       0.009474434 -0.06451368 0.051698044 -0.08723525
000270 98 69 54 bc 54 84 d2 bd 4a 85 4e 3c 2e 5c ce bc
       -0.012964629 -0.10279146 0.012605021 -0.02519044
000280 83 7c 73 bd 16 4a 85 bd ba b4 a4 bd 8d 5a 30 bd
       -0.059444916 -0.065082714 -0.08042283 -0.043055106
000290 af 6a 81 bd b5 96 55 3d 4d 88 22 bc 0b 62 01 bc
       -0.063191764 0.05214568 -0.009920192 -0.00789691
0002a0 c1 06 e4 bd e7 6f 4e be 68 bc 05 be cb 8b 29 bd
       -0.11134101 -0.20159875 -0.13060153 -0.041393083
0002b0 dc 13 1a bb 4e 1a 17 be 4d 88 0f be 5b 8b 78 bd
       -0.0023510372 -0.14756128 -0.14016838 -0.060679775
0002c0 39 2e ee bd d9 8a c3 bd 65 77 39 bd b4 ce 83 bd
       -0.1162991 -0.095479675 -0.04527988 -0.0643591
0002d0 ee 2f bb bd 26 ac 11 39 f2 02 66 3c e8 db 1f 3d
       -0.09140001 0.00013892408 0.014038788 0.03902808
0002e0 f3 2e 15 bd da ae e4 bd c3 60 f7 3b a6 c4 8e bd
       -0.036421727 -0.11166163 0.0075493767 -0.069711015
0002f0 54 f9 b6 bd 1e 75 5f bd 4d fa 49 3d e9 b3 a9 bd
       -0.08934274 -0.05455505 0.04931097 -0.08286268
000300 3e 03 a9 bd 69 5c 7d bd 59 ea 72 bd 25 37 44 bc
       -0.082525715 -0.061855707 -0.059305523 -0.011976038
000310 76 03 69 bd 56 a4 70 bd d0 d7 2c 3d 2f fc 21 3b
       -0.056888066 -0.058750473 0.042198002 0.0024716964
000320 8a 4c 90 bd 9f b4 8f bd 89 c4 14 be 45 6a d0 bd
       -0.07045849 -0.070168726 -0.14528097 -0.10176519
000330 e1 26 3d bd c6 c2 5f 3d 28 76 20 be 16 c1 50 bd
       -0.046179656 0.05462911 -0.15670073 -0.05096539
000340 92 f2 05 be 7e 0c fd 3c 9d b8 37 bd 82 55 1f be
       -0.13080814 0.030889746 -0.044853795 -0.15559962
000350 cc 59 71 be 2a 66 3e 3d aa cb 72 be 4c 6b eb bc
       -0.23569411 0.04648415 -0.23710504 -0.028737687
000360 49 e3 78 3d 79 05 ba bc 81 cf 7b 3d 38 39 ee bc
       0.06076363 -0.022707688 0.061477188 -0.029080018
000370 27 19 26 bd a2 a7 40 be 95 29 c5 bd d6 92 ab bb
       -0.04055133 -0.18813947 -0.09627072 -0.00523601
000380 bd e7 51 be 08 e0 90 bd 84 bc 18 be ae a5 bb bc
       -0.20498557 -0.070739806 -0.14915663 -0.02290615
000390 b0 61 1c bc d8 52 eb bc 51 bc 0c 3d 56 c8 10 bd
       -0.009544775 -0.028726026 0.03435928 -0.035347305
0003a0 f2 7a 06 bd 23 4f 04 bd fe b6 c0 bd 87 87 6e bd
       -0.032832094 -0.032302033 -0.09409903 -0.058234718
0003b0 6a 65 2c 3d df bf 1b 3d 4b f1 d2 bd b5 e0 5d 3c
       0.042088903 0.03802478 -0.10299929 0.013542344
0003c0 a1 27 9d 3c 37 6a a6 bd 90 ca 2e be a1 dc 25 be
       0.019183936 -0.081257276 -0.17069459 -0.16197444
0003d0 e1 48 e7 3a d8 58 f6 bd 93 b0 b8 bd f1 02 0a be
       0.0017645621 -0.12028664 -0.09018054 -0.13477685
0003e0 92 c8 44 3c 6b 78 96 bd be 40 89 bc 84 35 0b 3c
       0.01201071 -0.07347187 -0.016754504 0.008496646
0003f0 9d 95 0f 3c 01 0c ed bc db 63 20 be 2d 18 56 3c
       0.008763698 -0.028936388 -0.15663092 0.013067287

fc3.weight f4 [2, 300]
000000 79 85 b1 3a d4 3d 3c be 5f 9d eb 3d ee d8 ff bc
       0.0013543806 -0.1838296 0.115046255 -0.03123137
000010 7b e7 3b 3e 3e 10 41 bc d4 05 93 bc c2 40 16 bb
       0.18350022 -0.011783658 -0.017947115 -0.0022926782
000020 da 6d 9d bd ab eb 7a be dd 82 04 bd c7 6d 0a be
       -0.07686968 -0.24503963 -0.032351363 -0.13518439
000030 ff ff e3 3d c8 d4 3a bd 23 9c e2 3e 45 53 1a be
       0.11132812 -0.04561308 0.44259748 -0.15070827
000040 c7 4f 68 be e2 11 87 bd 11 7a ba 3d f4 21 45 be
       -0.22686683 -0.06595208 0.091053136 -0.19251233
000050 fc 77 3c 3d ee 9c 2c 3e 7d 2b 23 3d d0 ed c2 bc
       0.046012864 0.16856739 0.039836396 -0.023795038
000060 d2 38 fd bd 88 22 57 be cb dd 49 be 05 4e 8e 3d
       -0.12364353 -0.21009266 -0.19713514 0.06948475
000070 48 74 23 bd 86 05 85 bc 91 b7 7c bd 2d b1 a6 be
       -0.039905816 -0.016237985 -0.0616985 -0.3255705
000080 39 eb da bc 37 62 a0 3d e1 42 16 bd 55 d9 b8 3b
       -0.026723491 0.07831233 -0.036684874 0.0056411424
000090 05 7b 86 3d 5e 5e 69 bd 99 0b be bd 44 b1 ec bd
       0.06566433 -0.05697476 -0.09279556 -0.11557248
0000a0 59 32 06 be 3f 4e 0e bd e2 74 19 3e f6 ed 5a 3c
       -0.13105144 -0.03474259 0.14985994 0.013362398
0000b0 41 04 20 bc 09 11 31 3c 17 0d c3 ba 19 ec be 3c
       -0.009766639 0.010807284 -0.001488122 0.02330594
0000c0 f0 0c f4 bd 27 6f 19 be 55 e7 2b bd 5c e9 99 be
       -0.1191653 -0.14983808 -0.041968662 -0.30060852
0000d0 82 44 d0 bb fb 60 3c 3e 0d 88 05 be be 8b 8a 3d
       -0.006355823 0.1839637 -0.1304018 0.06764935
0000e0 90 f9 f5 3e ed 87 cb 3d 2c 96 f4 3c 2b 5a 0c be
       0.48041964 0.09938035 0.029856764 -0.13706271
0000f0 bd 7e 64 bc 23 00 27 bd c4 8e 91 bd 59 b0 dd 3d
       -0.013946232 -0.040771615 -0.071073085 0.10824651
000100 af 70 0e bd 45 13 3d bd 38 49 77 bd 36 dc 94 bd
       -0.034775432 -0.046160955 -0.06037256 -0.072685644
000110 25 de 70 3e e5 3a bc 3d 51 40 07 3e b2 e1 3f bc
       0.23522241 0.09190921 0.13208129 -0.011711525
000120 00 17 d4 bc f4 2b 8e bc d5 5a 56 3e e1 35 69 be
       -0.025889874 -0.017354943 0.20933087 -0.2277446
000130 ca 8b b6 bd 83 d6 15 3e 12 0c a8 bc 10 9f 10 3e
       -0.089133814 0.14632611 -0.020513568 0.14123178
000140 4a 15 9b be bd 00 1e be dd 4b 77 3d 6f 4d 61 bd
       -0.3028968 -0.15429969 0.060375083 -0.055005487
000150 57 1d c9 bd 5b 29 b1 bd 00 60 83 be d6 38 73 bd
       -0.09820049 -0.08650466 -0.2565918 -0.059380375
000160 4f 1d 2e 3e 91 9e aa bb 02 58 7c 3c be 4b 10 3e
       0.17003368 -0.005206891 0.015401842 0.14091393
000170 ff 22 9b 3c c9 b2 4c 3d af 0a 05 3e a7 b8 4f 3e
       0.018937586 0.04997519 0.12992357 0.20285283
000180 01 f2 85 bd 7b 28 28 be fa fd e6 bb d7 f5 3f bb
       -0.06540299 -0.16421692 -0.0070493193 -0.002929082
000190 4a b6 bd 3d 31 30 ac be 44 12 d5 3c 74 d6 37 3e
       0.092632845 -0.33630517 0.026009686 0.17952901
0001a0 95 3e 70 3b 28 75 0b bd 2f ea 6b bc ff 9a 55 bc
       0.0036658396 -0.034047276 -0.014399095 -0.013037442
0001b0 3a a9 8f 3e ad a5 ae 3d 7e 6e 4c 3e 67 2b 01 3f
       0.28058797 0.08527694 0.19964024 0.5045685
0001c0 43 bc 30 bd 46 0e 3a 3b d7 e9 99 3e 7b 9b cc 3d
       -0.04314829 0.0028389855 0.30061218 0.09990593
0001d0 67 be a2 3d 0e 1b 36 3d 17 36 56 3e 75 21 49 bd
       0.079464726 0.044459395 0.20919071 -0.049104173
0001e0 d6 96 00 bd c8 fc d7 bd e6 70 01 be 43 95 f7 3d
       -0.03139385 -0.10546261 -0.12640724 0.12089016
0001f0 6f c6 bf 3d e4 f8 15 bd 32 4e 74 be 09 f8 8c bd
       0.0936402 -0.036614314 -0.23857954 -0.068832465
000200 48 cc 11 3c d4 3c 53 bd 9b 4e cc 3d 95 69 5e bc
       0.008898802 -0.051571682 0.0997593 -0.013574977
000210 ad 82 ea 3b e0 e5 f0 bd b0 e0 10 bd f0 18 81 3d
       0.007156691 -0.11762595 -0.03537053 0.063035846
000220 3c 62 43 3e a4 11 3a 3b 43 3d 42 3c 1e 65 a9 be
       0.19080442 0.0028391862 0.011855426 -0.3308496
000230 19 e0 02 3e 65 88 14 be f2 3b 51 3e 72 93 a4 bc
       0.12780799 -0.14505155 0.20433024 -0.020089839
000240 4c 09 b9 3d 67 7c 18 be 31 40 1a bd 56 58 f6 bd
       0.09034976 -0.14891206 -0.037658874 -0.120285675
000250 3a 50 44 3f 37 7b a5 be ad 7c 6d be 04 93 00 be
       0.76684916 -0.32320568 -0.23192091 -0.12556082
000260 2f 8b b3 bc 23 cf e7 bd f1 8d ef 3c da 33 45 be
       -0.021916954 -0.11318805 0.029242488 -0.19258061
000270 95 5f 88 bd 9e 4f 31 3e 9c e8 03 3d c1 0d 54 3e
       -0.06658856 0.17315528 0.032204255 0.20708372
000280 c1 33 ca bd 0b 07 89 be b3 65 34 3b 0a 82 32 3c
       -0.098731525 -0.26763186 0.0027526438 0.010895262
000290 aa 78 e1 bc 7b d9 61 3e 44 5d 9c 3d 04 c1 04 3e
       -0.027523357 0.22055618 0.076349765 0.12964255
0002a0 04 e1 b0 3b 1c 1d f4 3d 3e 10 11 3e ca 7b a5 3d
       0.0053979177 0.11919615 0.14166352 0.080802515
0002b0 be e7 5d 3b 28 3a 89 3e 5b dd 07 be bf 04 56 3e
       0.0033860053 0.26802182 -0.13268034 0.20900248
0002c0 67 e7 e5 3e fd 57 87 be 84 c1 29 3c c2 dd 20 be
       0.44903108 -0.26434317 0.010361079 -0.15709594
0002d0 b5 65 d5 3d 6d 1e 00 3e 4d 4e 1a be 93 be f8 3d
       0.1041979 0.12511607 -0.15068932 0.12145724
0002e0 63 48 e2 3b 6a af b0 3e 37 7a a4 bd 6b 21 a8 bc
       0.006905602 0.3450883 -0.08031123 -0.020523747
0002f0 83 e1 79 be c0 e1 73 3d 76 12 bd bd c6 43 1d bc
       -0.24402432 0.059541464 -0.09232037 -0.009598678
000300 92 94 30 3d 0f d6 be bc 94 4a c1 3e 0a 8d fe 3b
       0.043110438 -0.02329543 0.3775221 0.007768278
000310 f8 55 e6 3b 98 f5 a9 35 90 8e 9f 3e a8 f9 3b be
       0.0070292912 1.2662958e-06 0.31163454 -0.18356955
000320 6a 00 7b 3c 12 62 54 3e ba b3 b3 3e aa d6 07 3e
       0.015319923 0.20740536 0.35098058 0.13265482
000330 7e 26 8f 3d 24 1d 76 bd 3d 8e e4 bd 44 dc 38 be
       0.06989764 -0.060086384 -0.11159942 -0.18052775
000340 59 b6 ab be 02 39 d7 3d 58 4f 54 be 7d 5e d5 bd
       -0.33537558 0.1050892 -0.20733392 -0.10418413
000350 ba ed 3b 3f e7 2c d7 3d ec a5 42 be 64 87 12 3c
       0.73409617 0.10506611 -0.19008607 0.008943412
000360 7e 0f f7 bd 5f 3f ff bc ba 25 38 3c 27 bf 19 bd
       -0.12063502 -0.031158147 0.011239463 -0.037535813
000370 97 76 4c be 38 73 0b 3f b0 c3 dc 3d cb 95 a3 bd
       -0.19967113 0.54472685 0.10779512 -0.07987555
000380 5b 05 ae 3d 62 1d f7 bd 5f fa 7f be 6a 6e 88 3d
       0.08497115 -0.12066151 -0.24997853 0.06661685
000390 e9 5f 8d 3d 52 ff 84 bd 18 d4 2c 3e 58 4b 64 ba
       0.06903059 -0.06494011 0.16877782 -0.0008708737
0003a0 82 e6 e5 bc a2 42 79 be aa 7f 7d bc 79 76 d7 bc
       -0.028064016 -0.24341825 -0.015472332 -0.02630161
0003b0 fa 85 84 bc 0f f1 14 3e d6 63 7c bb fb bd 0b 3e
       -0.016177166 0.14545082 -0.0038511655 0.1364669
0003c0 95 56 88 3e 1f 9c 01 3e 63 9b 57 3e c4 18 53 be
       0.26628557 0.12657212 0.21055369 -0.20614916
0003d0 5b a3 18 bd 49 c6 01 3e 49 4c b9 be 0e 74 2d be
       -0.037265163 0.12673296 -0.36191013 -0.16938803
0003e0 45 54 9e bd b9 fb d1 3e f9 93 a2 bd 9c 25 5d be
       -0.07730917 0.41012362 -0.0793838 -0.21596378
0003f0 53 92 14 3d 25 e9 8b bd a0 b5 d9 3b 27 fc 1a 3e
       0.03627236 -0.06831578 0.006643966 0.15135251

fc3.bias f4 [2]
000000 b6 e6 e8 ba 81 ef 1f bd
       -0.0017768953 -0.039046768

bn1.weight f4 [400]
000000 d1 01 9a 3f 50 86 9b 3f 73 44 92 3f a6 ea 84 3f
       1.2031804 1.2150364 1.1427139 1.0384109
000010 13 53 9f 3f ed 37 80 3f f7 01 7f 3f 20 bf 2b 3f
       1.2447227 1.0017067 0.99612373 0.6708851
000020 f2 6e 78 3f 9d 92 8a 3f a9 7f 8e 3f dd 83 6f 3f
       0.9704429 1.0825993 1.1132709 0.9356058
000030 e6 85 98 3f 9f 37 83 3f 4a 91 67 3f aa 42 7c 3f
       1.1915863 1.0251349 0.9045607 0.9853922
000040 e6 96 81 3f ae 16 7a 3f e7 7d 4b 3f 2a bc 3f 3f
       1.0124176 0.97690856 0.79488987 0.7489649
000050 95 0a 87 3f 5b 6c ad 3f 3d 4e 61 3f 0b e1 7e 3f
       1.0550104 1.3548692 0.8801001 0.9956214
000060 0d 94 a8 3f 47 33 cf 3f 5c 6e 4f 3f 3f c9 84 3f
       1.3170182 1.6187524 0.8102777 1.0373915
000070 9c 92 73 3f 55 3c 89 3f 24 ae 92 3f 49 cf 92 3f
       0.95145583 1.0721537 1.1459394 1.1469508
000080 11 c7 8d 3f fc 06 8b 3f c9 9a 7f 3f ef c1 9d 3f
       1.1076375 1.0861506 0.9984556 1.2324809
000090 1c 55 7a 3f a9 39 8d 3f ae d8 63 3f d6 43 78 3f
       0.97786117 1.1033221 0.890025 0.9697851
0000a0 b3 b6 8f 3f 46 72 87 3f 71 69 db 3f d5 40 81 3f
       1.122763 1.0581748 1.7141553 1.009791
0000b0 3a d7 8a 3f 1e a0 46 3f 25 5b 67 3f e8 a9 84 3f
       1.0846932 0.7758807 0.9037345 1.0364351
0000c0 d7 5a a1 3f c9 11 98 3f 34 23 b0 3f 2a ca b6 3f
       1.2605847 1.1880428 1.3760743 1.4280446
0000d0 8a b2 9b 3f ea 06 7a 3f 36 e0 5a 3f c8 8b 8b 3f
       1.2163861 0.976668 0.8549837 1.0902033
0000e0 aa b2 6f 3f 73 08 82 3f 67 e5 75 3f 1a 8f b2 3f
       0.93631995 1.0158828 0.96053165 1.3949921
0000f0 e4 4d 8c 3f 21 fa 8e 3f 06 10 60 3f 3c bb 5d 3f
       1.096127 1.1170083 0.8752445 0.8661382
000100 ec ec 8b 3f 6a 6f e5 3f 5a a7 90 3f 21 16 6d 3f
       1.0931678 1.7924626 1.1301072 0.9261189
000110 33 52 76 3f f7 59 97 3f 4a ec 98 3f 2a 9e 80 3f
       0.96219176 1.182433 1.194711 1.0048268
000120 5e 52 82 3f b3 bd 70 3f 14 24 82 3f 33 fc 82 3f
       1.0181386 0.9403946 1.016726 1.0233215
000130 a9 0f a5 3f 1f e5 8c 3f 66 90 8b 3f f9 5e a4 3f
       1.2895404 1.1007422 1.0903442 1.2841483
000140 be 57 67 3f f7 9c 8c 3f 59 4f 86 3f a5 5a 64 3f
       0.9036826 1.0985402 1.0492965 0.8920081
000150 05 51 5d 3f a0 0b 8c 3f 5f c5 81 3f 91 60 62 3f
       0.8645175 1.0941048 1.0138358 0.884286
000160 2e 55 ad 3f 92 5f 98 3f 9b 3f 59 3f 3b a1 78 3f
       1.354162 1.1904166 0.8486268 0.9712102
000170 9f 39 77 3f 81 bf 80 3f a5 5c 66 3f 8b b9 77 3f
       0.965723 1.0058442 0.89985114 0.9676749
000180 56 32 8c 3f 99 78 87 3f a4 b6 72 3f b1 2a 76 3f
       1.0952861 1.0583678 0.9480994 0.9615889
000190 a2 57 64 3f 32 c2 85 3f 00 c7 9f 3f cc 6e 55 3f
       0.8919622 1.0449889 1.2482605 0.8337219
0001a0 2a e2 9f 3f de 9f 96 3f 96 ca 4d 3f 02 ef 8a 3f
       1.2490895 1.1767538 0.80387247 1.0854189
0001b0 6a 42 84 3f 62 86 85 3f 21 65 67 3f 56 1f 8e 3f
       1.0332768 1.0431635 0.90388685 1.1103313
0001c0 d5 c1 7b 3f 32 2e 87 3f f9 41 66 3f 12 37 86 3f
       0.9834264 1.0560973 0.89944416 1.0485556
0001d0 b4 a2 87 3f 78 01 93 3f b4 5f 7d 3f 12 13 8a 3f
       1.0596528 1.1484823 0.98974156 1.078707
0001e0 05 5c 72 3f 2f fc 80 3f a0 5b 84 3f a6 9b 88 3f
       0.9467166 1.007696 1.0340462 1.06725
0001f0 a3 b4 ad 3f 55 23 70 3f 41 da 84 3f c9 5d 4f 3f
       1.3570751 0.9380391 1.0379106 0.8100248
000200 bd 65 89 3f ff 61 97 3f a2 36 64 3f 56 e5 78 3f
       1.0734173 1.1826781 0.89145863 0.9722494
000210 94 a5 70 3f a2 b1 68 3f a0 67 9c 3f 10 91 81 3f
       0.9400265 0.90896046 1.2219124 1.0122395
000220 be 73 78 3f 60 bf 7b 3f 62 4b 6d 3f 21 b5 62 3f
       0.9705161 0.9833889 0.9269315 0.8855763
000230 fb 4c 6c 3f 99 c4 8b 3f 51 e9 8d 3f 76 f5 8c 3f
       0.9230496 1.0919372 1.1086828 1.1012409
000240 1c 64 95 3f dc 6a 8f 3f 45 a3 70 3f ed a6 5c 3f
       1.1671176 1.1204486 0.9399913 0.8619221
000250 c1 c2 79 3f 94 80 41 3f a4 e3 b6 3f 6b 2e 75 3f
       0.97562796 0.7558682 1.428822 0.95773953
000260 d1 3b 7c 3f 1c c6 8a 3f 34 57 83 3f 17 fb 6c 3f
       0.9852877 1.0841708 1.0260987 0.9257063
000270 ad 90 c5 3f 11 52 b9 3f 4a c8 6f 3f 96 a1 8d 3f
       1.5434777 1.447817 0.9366499 1.1064937
000280 e8 d6 58 3f 0b ac 92 3f 62 32 86 3f 1f 6d 3f 3f
       0.8470292 1.1458753 1.0484126 0.7477588
000290 15 d3 5d 3f 2e ac 60 3f 87 bf 90 3f 10 cd b8 3f
       0.8665021 0.87762725 1.130845 1.443758
0002a0 c5 89 62 3f 1a ba 84 3f 48 45 96 3f 75 77 7c 3f
       0.8849147 1.0369294 1.1739893 0.98619777
0002b0 47 3e 6a 3f f0 a8 80 3f ae 9b 8e 3f 63 dc 72 3f
       0.9150128 1.0051556 1.114126 0.94867533
0002c0 05 42 93 3f dc ce 86 3f 76 85 78 3f 7d ac 8e 3f
       1.1504523 1.0531878 0.97078645 1.1146389
0002d0 fb 46 95 3f dc 95 73 3f 16 d3 90 3f 5a b1 81 3f
       1.1662287 0.9515054 1.1314418 1.0132248
0002e0 dd 05 91 3f fb c1 cd 3f 5a 0f 95 3f ca 1b 4a 3f
       1.1329914 1.6074823 1.164531 0.7894865
0002f0 55 e9 94 3f ea 36 b6 3f 2d 3c 7e 3f 85 ed 5c 3f
       1.1633707 1.4235508 0.9931057 0.86299926
000300 88 ba 9d 3f 78 1a 89 3f f6 8b 57 3f 2a e3 65 3f
       1.232255 1.0711203 0.8419794 0.8979975
000310 96 9c 69 3f 01 df 8b 3f 3d f7 76 3f 0e 94 8f 3f
       0.91254556 1.092743 0.96471006 1.1217058
000320 2b ae 5e 3f 37 92 85 3f 51 f0 72 3f 80 61 95 3f
       0.8698451 1.0435246 0.94897944 1.167038
000330 d6 0b 4c 3f b1 69 b7 3f 59 75 90 3f 7e 5a 6c 3f
       0.7970556 1.432913 1.1285812 0.9232558
000340 48 ae 9a 3f 8b 65 9d 3f 72 59 78 3f ca 92 8e 3f
       1.2084436 1.2296613 0.9701148 1.1138546
000350 b9 74 83 3f 42 75 6f 3f d2 d1 5f 3f a8 d2 86 3f
       1.0269996 0.93538296 0.87429535 1.0533037
000360 5f 0f a0 3f 7f 1e 87 3f 87 b5 8e 3f b4 16 8f 3f
       1.2504691 1.0556182 1.1149148 1.1178803
000370 b8 6b 9b 3f c7 a0 8a 3f 7e 20 7f 3f 5f a9 9e 3f
       1.2142248 1.0830315 0.99658954 1.2395438
000380 e7 08 87 3f 91 50 98 3f 61 3d 9f 3f 09 8b 78 3f
       1.0549592 1.1899587 1.2440606 0.9708715
000390 16 9e c0 3f 14 dd 7d 3f 11 86 a3 3f d8 d5 77 3f
       1.5048244 0.99165463 1.2775289 0.96810675
0003a0 91 29 86 3f 91 9a 8d 3f 4e 82 cb 3f 48 64 7b 3f
       1.0481435 1.1062795 1.5899141 0.9819989
0003b0 95 8b 80 3f ab db 75 3f f9 ee 82 3f eb 93 a2 3f
       1.0042597 0.9603831 1.0229179 1.2701391
0003c0 f4 79 93 3f a0 87 80 3f 15 f7 56 3f f4 f2 85 3f
       1.1521592 1.004139 0.8397077 1.0464768
0003d0 68 d7 83 3f 06 69 7d 3f db f1 75 3f a1 c9 83 3f
       1.0300112 0.9898838 0.9607217 1.0295907
0003e0 dc ae 86 3f b1 59 6b 3f c2 99 8f 3f aa 2c 94 3f
       1.0522113 0.91933733 1.1218798 1.157613
0003f0 ae 54 79 3f d5 b3 75 3f 1c 94 83 3f 62 b8 ab 3f
       0.97394836 0.95977527 1.0279574 1.3415644

bn1.bias f4 [400]
000000 aa ee 05 3e 3a 4b 0a 3e ff 8d 4a be 67 37 ba be
       0.13079324 0.13505259 -0.1978073 -0.36370394
000010 2c 88 f8 3d 28 aa 00 be 42 d5 b2 3d 2b c9 13 3e
       0.12135348 -0.1256491 0.08732082 0.14432208
000020 22 2e 1d be 84 fa 85 3c 34 1d 30 3e c2 29 4d 3e
       -0.1534963 0.016354807 0.1719864 0.2003546
000030 cd 0a 96 3c dd c4 4d 3d d9 64 24 3e e8 17 2f 3e
       0.018315697 0.05023657 0.16054095 0.17098963
000040 d3 3d 2e be 7c f2 26 3e 51 f9 74 be 01 6e 52 3e
       -0.17015772 0.16303438 -0.23923232 0.20549776
000050 5c c7 1b 3e f8 79 86 bd 06 47 bf bd 6a 2f 49 be
       0.15212768 -0.065662324 -0.093397185 -0.19646993
000060 7f dd dd bb d6 db 3a be dc 1f 32 3e 77 5b 5c be
       -0.006770789 -0.18247923 0.17394966 -0.21519266
000070 41 c3 d8 bd ee b3 d1 bc 5d f3 ac 3d 50 97 17 3e
       -0.10584117 -0.025598492 0.08444855 0.14803815
000080 28 90 0f 3d 1c 5d 69 3d eb 64 c1 3c 2d ec 06 3d
       0.035049587 0.05697356 0.023607692 0.03294008
000090 b7 63 28 3c 17 71 a2 3e 83 b4 ed 3d c8 59 dd bd
       0.01027768 0.31726906 0.116066955 -0.1080814
0000a0 6d 3c 1f 3e 1a bf 07 3e d1 76 bb 3d e0 dd 2d 3e
       0.15550394 0.13256493 0.09153522 0.1697917
0000b0 83 a4 03 bc 37 b2 ea 3d 9c 87 e6 3d b4 72 35 3c
       -0.008034828 0.11459773 0.11256334 0.011074711
0000c0 b9 85 2b be 7b 6c 27 3e 0a 85 87 3e d8 5f 0a 3d
       -0.1675023 0.16349976 0.26468688 0.03378281
0000d0 24 fc 1e 3e cb 0e 93 3e 10 46 67 3d 42 5e b2 3b
       0.15525872 0.28722224 0.0564633 0.0054433653
0000e0 93 7b 01 be a6 67 86 3c 28 40 61 3d be e9 67 3e
       -0.12644796 0.016406845 0.054992825 0.2264776
0000f0 9a 5f 4c 3d ea b1 75 3d 98 10 c0 3d b3 ce 63 3e
       0.04989586 0.059984125 0.09378165 0.22246818
000100 c7 69 75 bd fe e3 ff 3d 91 c1 f1 3d 92 8e 29 3d
       -0.05991533 0.12494658 0.11804498 0.04139573
000110 0e 61 0b bd d4 0c 72 3d 8c 7e 54 3e 5e c5 a1 3d
       -0.034028105 0.059094265 0.20751399 0.07898973
000120 51 bd b8 bd d5 5d ee 3d 00 1c 1c 3e 60 7a 36 be
       -0.09020484 0.11638991 0.15245056 -0.1782012
000130 81 c2 0f 3e e3 c2 2a 3e 51 02 93 3e 82 23 10 be
       0.14039041 0.16675906 0.28712705 -0.14076045
000140 bc f6 22 bd cf 5f 29 be 1b 85 77 3e 00 62 0d bc
       -0.039786085 -0.16540454 0.2417187 -0.008629322
000150 38 59 cc 3d 4d 2a ac be af 27 23 3e a4 52 7c 3d
       0.099779546 -0.33626023 0.15933107 0.06160225
000160 f4 95 0e 3e 60 b4 93 3d 07 3c 6c 3e 40 a5 7f 3d
       0.1392439 0.07212138 0.23069774 0.062413454
000170 76 2f 03 be 44 0d 60 be 07 fe 72 bd 2a 8f 24 3d
       -0.12811074 -0.2188006 -0.05932429 0.040175594
000180 cf d1 af 3d 58 23 7f 3b 60 86 3b be f4 c4 60 3d
       0.0858494 0.0038930979 -0.18312979 0.05487533
000190 e6 c1 09 be b9 e5 a1 3e fe d4 08 3d a6 cc 55 3e
       -0.13452873 0.31620577 0.03340625 0.20878848
0001a0 f7 a8 6b 3d 32 95 cb 3c c6 f4 38 bd d0 90 8e be
       0.057534184 0.024851415 -0.04515531 -0.27844858
0001b0 8c 2c 5a 3d 6d 3c 04 3f 15 1e 78 3e 99 7f 8a be
       0.05326514 0.516547 0.24230225 -0.27050474
0001c0 05 91 02 be 68 c1 c1 3d 5c 2b 97 3c 3f 34 99 bd
       -0.12750633 0.094607174 0.018453293 -0.07480668
0001d0 17 45 18 3e ad 6f 75 be e9 1a 17 bd a5 8a 45 bd
       0.14870106 -0.23968382 -0.036890898 -0.048227925
0001e0 e1 58 44 be ce 47 d0 3d 09 18 fd bc 37 ec 23 bd
       -0.1917453 0.10169946 -0.03089525 -0.040020194
0001f0 04 8f d3 3d 6b 9f 09 be 92 77 1c 3d 4a 0d 06 3d
       0.103300124 -0.1343972 0.03819997 0.032727517
000200 a6 1c 34 3e 17 2f 2b be 32 af ed 3d 0f 62 88 3d
       0.17589054 -0.16717182 0.116056815 0.06659328
000210 b0 f5 c4 3d bd d7 91 3c 79 34 8c 3d a7 3a 3a be
       0.09617174 0.017803067 0.06845946 -0.18186437
000220 3f bc 51 3d 0e fa 9a 3d aa fb de 3d 7a d3 8d 3d
       0.051204916 0.075672254 0.10887845 0.069251016
000230 d1 58 d0 3c 2e e7 2a be 3d b1 9e 3e 96 e0 8f 3b
       0.025432976 -0.1668975 0.30994597 0.0043907864
000240 b7 e5 65 3d d0 28 0e be b7 8d 4c 3e da 7c 96 3e
       0.056127276 -0.13882756 0.19975935 0.2939213
000250 47 b3 35 3b 42 ac 17 be b2 c4 86 3e e5 9c c4 3d
       0.0027725266 -0.14811805 0.26321942 0.09600238
000260 34 19 12 be 6e c7 e6 3d 5b 02 3e 3f be 0b be bd
       -0.14267427 0.11268507 0.74222344 -0.092795834
000270 f0 ce 60 be 31 a0 04 3e 39 13 95 3c 3f 4e 1e 3e
       -0.2195394 0.12951733 0.018197643 0.15459536
000280 35 ba 85 3d 10 a5 4d bd b4 ee 02 3e 02 ee 9c 3d
       0.06529657 -0.050206244 0.1278637 0.07662584
000290 32 71 eb bc 68 2b aa 3e 50 06 a5 be c9 5c 28 3d
       -0.0287405 0.3323624 -0.3223138 0.04110411
0002a0 61 6d 91 3d 5f e2 3f be 6a 25 85 3e d7 58 07 3d
       0.071009405 -0.18738697 0.26005107 0.03304371
0002b0 9a d8 e9 3e e9 84 87 bd a8 5e b1 bd 6b 72 8a 3d
       0.45673066 -0.066171475 -0.08660632 0.06760105
0002c0 c7 fb 02 3d 1b 72 7d 3e d0 03 1b bd 7b 6f 4d 3e
       0.031978395 0.24750559 -0.037845433 0.20062058
0002d0 39 06 2e 3e 66 4e d6 3d 8f 19 34 bd a2 a3 9a 3e
       0.16994561 0.10464172 -0.043969687 0.30202967
0002e0 3f 02 5f 3e 43 ac 37 be 16 a1 a7 3e 13 c1 b8 3e
       0.217782 -0.17936806 0.32740086 0.36084804
0002f0 2b fa 7b 3e 31 7b 58 be 8b 37 62 3e 68 cc 7a 3d
       0.2460715 -0.21140744 0.220915 0.061230093
000300 ee 51 24 3e 48 99 15 3c ce a7 58 bd c3 ce f2 3c
       0.16046879 0.009130783 -0.052894406 0.029639607
000310 48 a4 31 3e ff ce 81 be 89 77 37 3e 70 eb 21 bd
       0.17347825 -0.25353238 0.17916693 -0.03953117
000320 dd 41 ee 3d 52 9c f5 bc b8 be 0c 3e f7 e4 27 3e
       0.11633656 -0.029981766 0.13744628 0.16395937
000330 3c a8 c7 bc 72 41 c3 bd 84 c9 99 3d e6 7e d0 3d
       -0.024372213 -0.09533967 0.07509139 0.10180454
000340 ea 8f 2b be 70 92 3b 3e b6 aa 1e 3e cd a3 42 3d
       -0.16754118 0.1831758 0.15494809 0.047519494
000350 93 6d 75 3e f9 93 ec bd f8 7f 8d 3d 85 48 d3 bd
       0.2396758 -0.11551661 0.06909174 -0.103165664
000360 d1 f9 2e be b6 10 6d 3d 7d fd 65 be 66 d4 42 3e
       -0.17087485 0.057877265 -0.2245998 0.19026336
000370 6d 7e c8 3c 25 40 4f bd f8 af 42 bd 35 d6 60 3e
       0.024474347 -0.050598282 -0.047531098 0.21956713
000380 74 29 4b be 3c b9 4f 3e e9 e9 62 3e 0f 9d b7 bd
       -0.19840032 0.20285505 0.22159542 -0.089655034
000390 e5 9a 06 3e 4f d9 10 be 59 09 77 3e b2 d0 b7 bc
       0.13145025 -0.14145397 0.2412466 -0.02243838
0003a0 f1 3c 94 3d 1a 66 54 bd e8 eb ab be fc b9 60 3e
       0.07238186 -0.051855184 -0.3357842 0.21945947
0003b0 e9 ba 4b 3d 39 33 8a 3c 82 f6 b8 3e 90 f0 c7 bc
       0.0497388 0.016870128 0.3612557 -0.024406701
0003c0 2f 8e 3b 3d 1c 0e 79 be dc 00 17 3e 18 29 9d bd
       0.045789894 -0.24321789 0.14746422 -0.07673854
0003d0 c5 0c 1a 3e d8 e2 b8 bc 32 04 44 3e 7b 17 05 bd
       0.15043934 -0.022569105 0.19142225 -0.032493096
0003e0 06 5f 7a 3e 3b 72 5e be 88 d9 25 3d 0d b2 41 be
       0.24450311 -0.21723263 0.040490657 -0.18915577
0003f0 46 8e 8a 3e 1e 00 61 be 29 bf 50 3e e5 b4 7c 3c
       0.2706167 -0.21972701 0.20385422 0.015423988
