checkpoint_actor_target_1_5808.pth (torch, 533842 bytes, 10 tensors)

fc1.weight f4 [400, 24]
000000 e8 e2 c8 bc 10 2f 21 3d 65 7c 1c bb 89 e2 33 3d
       -0.02452226 0.039351523 -0.0023877856 0.043917213
000010 48 51 91 3c e8 08 86 bd 3b fb 05 bc e6 a1 68 3d
       0.017738953 -0.065446675 -0.008177574 0.056795023
000020 46 dc 08 bd 45 d3 89 3c ae 4f fe bb 33 13 fd bc
       -0.033413194 0.016824374 -0.0077609634 -0.030892944
000030 7a 63 93 3c 1a c6 0b be 84 f0 42 3b 6d 9a c9 bc
       0.01799177 -0.13649788 0.002974541 -0.024609769
000040 68 76 c9 3c b7 8f 50 3d 19 33 d6 bb 06 ff a7 bd
       0.024592593 0.050918307 -0.006536853 -0.08202939
000050 84 72 7a 3d ce d9 2d be 3c a7 78 bc d4 7a 00 bd
       0.061144367 -0.16977617 -0.0151765905 -0.031367138
000060 8c bf 1e bd aa 56 b1 3d 4a c4 b0 bc 37 b8 83 3b
       -0.038756892 0.08659108 -0.021577973 0.004019763
000070 fa 37 80 bd 4e c8 00 bc a0 8a 4a 3c 9a 09 96 3d
       -0.06260677 -0.007860256 0.012362152 0.0732605
000080 ff 46 7e 3c b6 ea dd 3d f4 98 3d 3c f7 aa 3d 3d
       0.0155198565 0.10835783 0.011572111 0.046305623
000090 33 64 e7 bc 89 bb ae bd 74 90 2e bd d7 be bc bc
       -0.02824602 -0.08531863 -0.04261823 -0.023040218
0000a0 a3 6d 4c 3d 63 fa b2 3d 0c e9 87 bc e0 e9 3e 3d
       0.049909245 0.08739164 -0.016590618 0.04660976
0000b0 26 8d bb 3c 9b af 26 be 74 40 68 3d b8 48 03 3d
       0.022894453 -0.16277926 0.056702092 0.032051772
0000c0 d9 b6 86 3c 41 a9 4e bd 26 80 52 bd 35 7f 10 bd
       0.01644461 -0.05045438 -0.051391743 -0.035277564
0000d0 e1 b5 3f bd 03 f6 fc 3c 3a cd a8 3c 52 7b 2c 3b
       -0.046804313 0.030879026 0.020605672 0.0026318622
0000e0 82 23 47 3d 80 48 ca bd f2 fe ac bc 1d 45 f4 bc
       0.048617847 -0.098771095 -0.021117661 -0.029818112
0000f0 69 c0 82 3d 3d 3b d2 3d ec bf a7 bc 99 6a a3 bc
       0.063843556 0.10265205 -0.020477258 -0.01994829
000100 55 99 0b 3d 68 94 bc bd f8 7a 2b 3b b8 85 7f bd
       0.034081776 -0.09207994 0.0026165824 -0.062383384
000110 6e 49 a5 3d 77 7c 1b 3e a1 7c 65 bc 90 5c e8 bc
       0.08070646 0.15184198 -0.014006765 -0.02836445
000120 ca 63 e5 3c 41 d8 90 bd 7a a5 49 3c 65 cf 55 3d
       0.028001685 -0.07072497 0.012307519 0.05219974
000130 23 9b 46 bc 63 db cc 3c d7 76 db bc f6 85 1b 3b
       -0.012121948 0.025006955 -0.026790066 0.002373097
000140 8c 3f 99 3b d2 27 97 bc 68 f6 3d bc be 9f 65 3d
       0.004676765 -0.018451605 -0.011594392 0.056060545
000150 f5 99 ad 3b dd e2 a4 bc 18 44 46 3c 64 f2 9c 3d
       0.005297894 -0.020127708 0.012101196 0.0766342
000160 89 0c 19 3d 6d 5e a6 bb dc 09 cc 3c 2a 27 c2 3d
       0.03736547 -0.0050771744 0.024907045 0.09480126
000170 4d 71 a4 3d 42 0e 4d 3d 60 3e 44 bd 89 e4 c1 3d
       0.08029423 0.050062425 -0.047911048 0.09467418
000180 15 df 09 3b af 0b 8c bd 70 3d 11 3c 44 fd b0 bc
       0.0021037508 -0.06838166 0.0088647455 -0.021605141
000190 85 a1 ce bc 90 09 9a bb 57 f7 0d bc d5 a7 27 bc
       -0.025223503 -0.004700847 -0.008664927 -0.010232885
0001a0 db a3 3f 3d 06 9d 60 bd 01 4b e6 bc 51 85 22 3d
       0.046787124 -0.05483725 -0.028111937 0.03967792
0001b0 ce 58 1b 3a 84 3a 22 3e 51 dd eb 3c 69 d8 0c bd
       0.00059260137 0.15842634 0.028792055 -0.034386072
0001c0 c5 65 82 3d 2e 88 14 bd 64 23 bb 3b 36 0f fa 3b
       0.06367067 -0.036262684 0.005711006 0.007631208
0001d0 bc 9f ab bd 4e 47 a7 3e c4 52 cc bb bf 51 19 3c
       -0.08380076 0.3267159 -0.0062354524 0.009357869
0001e0 a1 58 bd 3d ac 54 4b b7 f8 4a 22 bc ce 81 1c 3d
       0.0924542 -1.2119457e-05 -0.009905569 0.03820973
0001f0 54 4d 01 bd b7 9f 5b 3c 94 98 e9 3b 77 90 00 3d
       -0.031567886 0.013404778 0.0071287844 0.031387772
000200 8f 39 b2 3d d1 b0 33 bd 3d 32 b2 3b 5a a6 1c bd
       0.08702385 -0.043869797 0.005438118 -0.038244583
000210 7f 35 23 3c c5 0d 0e 3b 0c 10 1d 3d 91 54 16 3d
       0.009961485 0.0021675688 0.03834538 0.036701743
000220 31 9d 42 3d 74 b3 40 bd b2 09 02 3d 17 16 85 3d
       0.04751319 -0.04704614 0.031747527 0.06498354
000230 18 5a a2 3d f7 05 34 3d 36 1c 8d 3c 39 26 da 3b
       0.0792734 0.043951 0.017225366 0.0066573885
000240 ca bf 12 bd b0 33 83 3d 24 89 ac bb 62 2e b7 bc
       -0.035827436 0.06406343 -0.005265372 -0.022360984
000250 00 95 0d 3d 56 43 00 bd 4b b4 93 bc 50 8d a9 bc
       0.034565926 -0.031314217 -0.018030306 -0.020697266
000260 26 1c df 3c dd d9 cf 3c 38 6e 0f 3c 3d f5 78 bb
       0.027235102 0.02537244 0.008754306 -0.003798797
000270 0e dd 93 3d 16 bd f1 bd 9a 74 6a bc 32 f4 4a 3d
       0.07219897 -0.118036434 -0.014310027 0.04954929
000280 c5 9e 8a 3d ba 1c be 3d 9a 86 85 ba a6 25 5d 3d
       0.06768564 0.09282823 -0.0010187209 0.053990982
000290 b4 0d 42 3d 4b ac c6 bc f6 91 14 bc 12 88 00 3c
       0.04737635 -0.024252078 -0.009068003 0.007844942
0002a0 03 12 23 b9 a6 1f f1 bc ff 21 58 3d 29 c3 81 bc
       -0.00015551601 -0.029434036 0.052766796 -0.01584013
0002b0 65 9c f0 3c 4f 4a a5 bd 8d 9a 85 bc ad a8 7a 3c
       0.02937145 -0.08070814 -0.016309047 0.0152990045
0002c0 96 e0 b8 3c cd ba 6c bb f6 b2 b2 3c 3d f6 9e 3c
       0.022568028 -0.0036122084 0.02181385 0.019404525
0002d0 47 44 5a 3c c2 59 36 bd 96 8f 47 3d 1f ed f9 3c
       0.013321943 -0.044519193 0.04872092 0.030508576
0002e0 d5 87 36 3d 94 b2 8b bd be 6d a2 3c 93 0c ba 3d
       0.044563133 -0.068211704 0.01982772 0.090844296
0002f0 a3 7d 62 3d 1e 2b 8f ba 52 29 61 3d 68 54 d4 3d
       0.055295598 -0.0010922884 0.054971047 0.10367662
000300 0e be c0 3a 22 4b d7 3d 2b 9b c0 bc bd 73 3f bd
       0.0014705078 0.10512377 -0.02351149 -0.046741236
000310 a0 eb 39 3d 33 02 a6 bd 6a 8d 00 bd 13 42 66 bd
       0.045390725 -0.08105888 -0.031384863 -0.056215357
000320 1c a2 7c bc ca bb 86 3d 0e ba 45 3d 69 ea 6e 3d
       -0.015419509 0.06578787 0.04827314 0.05832902
000330 d7 f0 1e 3c cc cf 79 bc 4e 95 b9 bc fe 23 b0 3d
       0.009700975 -0.015247297 -0.022654202 0.08600615
000340 44 8b 36 bc 14 10 86 3b 54 66 23 3d 4c 07 01 3d
       -0.011141602 0.004091272 0.03989251 0.0315011
000350 f9 0c 87 3d e3 d9 8c 3d 4f f4 32 bc 4d 67 9a 3d
       0.06594271 0.06877496 -0.0109225055 0.07539234
000360 4f 8a 82 bd 16 be cc bd 8e 54 55 bb f9 44 f6 3c
       -0.063740365 -0.099971935 -0.003255162 0.030062186
000370 87 d2 12 bd ca 1a 91 3d 7f 6d 73 3c 80 30 42 bd
       -0.035845306 0.07085188 0.014857649 -0.047409534
000380 17 de b8 bc 5f 15 d0 bd 65 69 a3 3c 5e 90 dd bc
       -0.022566838 -0.10160326 0.019947717 -0.027046379
000390 54 df a9 bb d3 29 85 3d f0 c4 26 bc 4f e1 ab 3c
       -0.0051840935 0.06502118 -0.0101787895 0.020981459
0003a0 2c d6 29 3c 26 21 2c bd b6 44 0a bc a7 98 03 3c
       0.010366004 -0.0420238 -0.0084392335 0.008032001
0003b0 14 60 95 bd cb ec 5c 3e 2b fd 5e 3c 0d 61 0f 3b
       -0.07293716 0.21574704 0.013610165 0.0021877915
0003c0 a8 a5 80 bc 34 a9 a8 bb a0 6f 0c 3d 16 74 9f 3d
       -0.015703991 -0.0051471237 0.03428614 0.077858135
0003d0 eb 20 aa 3c 08 21 df bd 6d 26 07 bd 12 40 bd 3d
       0.02076765 -0.10894972 -0.03299563 0.09240736
0003e0 47 38 17 3d b1 32 87 3c 00 a0 21 bc 08 1e f9 ba
       0.036918905 0.016503664 -0.009864807 -0.0019006142
0003f0 e3 53 e6 bc 72 98 fb bd c8 07 b9 3b ce 03 7f 3d
       -0.028116172 -0.12284936 0.0056466796 0.062259488

fc1.bias f4 [400]
000000 50 1b d0 bc 4e 63 09 bd 60 a4 38 3d 02 f9 ae bd
       -0.025403649 -0.03354197 0.045078635 -0.08543588
000010 6f a3 5a 3c a4 e2 4b be ca c4 58 be 8e db ff 3d
       0.01334463 -0.19910675 -0.21168819 0.124930486
000020 75 42 bb 3d 7e 24 6c bc 38 95 50 3e ff 64 e4 3d
       0.09143535 -0.014412997 0.20369422 0.11152076
000030 d0 6a 41 be e5 02 d9 3c 11 97 db bd 96 5c 83 be
       -0.18888402 0.026490638 -0.10722173 -0.25656575
000040 5a 1b 8b be 88 5e c0 bc 94 c4 e8 bd eb ff 0d bd
       -0.27169305 -0.023482576 -0.11365619 -0.03466789
000050 b3 89 c7 bd 87 f3 99 be c7 4d 39 be 9a 2f 35 3e
       -0.09743061 -0.3006861 -0.18096076 0.1769394
000060 e1 ee d7 bd 3b ca 10 bd e6 46 2a be d5 81 0b be
       -0.105436094 -0.035349112 -0.16628608 -0.13623746
000070 4f 75 3a be 30 0d e2 bd 03 b4 24 3e b1 43 82 be
       -0.18208812 -0.110376716 0.16084294 -0.2544227
000080 2f ab d6 3d 52 26 32 bd 83 f6 a5 bd 4d 16 08 3e
       0.104818694 -0.043493576 -0.08103659 0.13289757
000090 5b ec b9 3c 9b 07 06 3e 18 52 59 3d 71 80 c3 bc
       0.02269571 0.13088839 0.053056806 -0.023864957
0000a0 af 69 62 be 7f 34 30 3e 1b 2b 46 be de 8c 96 bd
       -0.22110628 0.17207526 -0.19352381 -0.07351087
0000b0 3e e1 b2 bd a8 f8 9b bd 36 3c e7 3d 7a 60 19 be
       -0.08734368 -0.07615787 0.11290781 -0.14978209
0000c0 c6 24 de 3d 76 8d 46 bc 2b 7b 6a be 72 8c 5d 3c
       0.10846858 -0.012118688 -0.22898547 0.013522254
0000d0 53 59 48 bc 93 88 81 3d ef 69 d1 bd a7 62 20 be
       -0.012228328 0.063248776 -0.10225283 -0.15662633
0000e0 4a 20 bf 3d a1 9f 38 be dc 57 bd bc 73 d7 4c bd
       0.093323305 -0.18029644 -0.023113184 -0.050010156
0000f0 b4 64 36 3d 50 0d 81 3d bb 3f f9 3d 8e b6 ff bd
       0.04452963 0.06301367 0.12170359 -0.124859914
000100 0b 2c 28 3e ed 55 3e be e0 63 af 3d b0 a5 60 3e
       0.16423051 -0.18587466 0.085639715 0.21938205
000110 f7 dc a2 3d fe b9 71 be af d4 59 be d9 30 8c bd
       0.07952302 -0.23606107 -0.21272539 -0.068452545
000120 d9 52 02 be 0b 62 b0 3d b1 d0 30 3a d3 29 43 be
       -0.12726916 0.0861245 0.00067449646 -0.19058923
000130 4c b6 2a 3e ad 0b 74 3d 15 04 ea 3d 80 d6 7c be
       0.16671103 0.059581447 0.1142656 -0.246912
000140 68 07 9e 3c 73 82 f3 bd c7 80 44 3e 59 80 35 be
       0.019290641 -0.118901156 0.1918975 -0.17724742
000150 81 58 32 3e 1f f3 7a 3c 86 5b 23 3e 10 b1 55 3d
       0.17416574 0.015316754 0.15952882 0.052170813
000160 de 5c 6d 3c 90 0c 2c be ae 75 58 3d 7e a3 d4 bd
       0.014487473 -0.16801667 0.052846603 -0.10382746
000170 b6 a7 6e 3d 38 0d 1a bc ba 06 53 bd bb e7 28 3d
       0.05826541 -0.009402566 -0.051520087 0.04123662
000180 25 2b 66 3e be c8 7d be bd 32 78 bd d5 b8 24 bd
       0.22477396 -0.24783608 -0.060595263 -0.040215332
000190 99 69 05 bd a0 01 26 3e 25 0e 34 be 70 97 81 bd
       -0.03257141 0.16211557 -0.1758352 -0.063277125
0001a0 6b ad 95 be 37 36 42 be 4e 8c b8 3c ab b6 95 be
       -0.2923387 -0.18965994 0.02252784 -0.29240927
0001b0 2e 65 a5 bc 8c 69 e3 bd e4 61 b6 3d 68 24 24 be
       -0.020189848 -0.11104116 0.0890539 -0.16029513
0001c0 f8 b5 1a be 39 6f 2b be 37 71 e0 3d ce 4e 44 bd
       -0.15108478 -0.16741647 0.10959094 -0.047926717
0001d0 cb 13 d0 3d ac 91 d9 bd f3 48 90 3b a2 5e 40 be
       0.10160025 -0.10623488 0.0044032275 -0.187861
0001e0 88 b0 86 bd dd 8c 6e be 68 60 0e be 6a 71 fa 3c
       -0.065766394 -0.23295923 -0.13903964 0.030571658
0001f0 95 fc 7c be 6e 36 db 3d 10 95 89 bd 69 d4 00 bd
       -0.24705727 0.10703741 -0.067178845 -0.03145257
000200 e8 04 e0 3d 87 a8 06 be 1f 40 67 be dd 4b 0a be
       0.10938436 -0.13150226 -0.22583054 -0.13505502
000210 5a 35 1a be bc 5c 81 3d 22 5e 5c be 8b 7d 60 be
       -0.15059415 0.06316516 -0.21520284 -0.21922891
000220 ef f6 28 3d 85 a8 e0 bd 8d 0d 26 3c fa fa 14 3e
       0.04125112 -0.109696425 0.010135067 0.14548865
000230 65 48 4f bb a0 c3 ab bd a4 96 33 bd ef f2 38 3e
       -0.0031628844 -0.08386922 -0.043844834 0.18061422
000240 ec e9 8f bd 33 59 0b 3d 65 98 e1 3d 98 9f 94 3d
       -0.07027039 0.034020614 0.11015395 0.072570026
000250 de 2b 67 bc a0 ea 2f 3d 73 1b b8 bd 5d cd cc bd
       -0.01410958 0.042948365 -0.089896105 -0.100001074
000260 29 a3 72 bd fe ac e8 3b ae e9 09 be 7e f8 b3 bd
       -0.059237633 0.0071007004 -0.13468048 -0.087876305
000270 f5 b6 fd bd d7 79 4e bd 32 b3 1f bb 24 be 3c bd
       -0.12388412 -0.050409164 -0.0024368283 -0.04607977
000280 54 c4 14 bd 3e 9c 1f be 43 99 6a be cf 30 a1 bd
       -0.036320046 -0.15586945 -0.22910027 -0.078706376
000290 93 6e 14 3e dc 03 97 3d 24 70 b3 bd f4 18 72 bd
       0.14495306 0.07373783 -0.087616235 -0.05910583
0002a0 3c c7 53 bd 5c d7 77 be 99 c9 3d 3c f6 ed ea 3c
       -0.051703677 -0.24203247 0.011583709 0.028677922
0002b0 70 e5 24 be 30 00 07 bb 7a 08 41 3d 58 8f 2d bd
       -0.16103148 -0.0020599477 0.047127225 -0.04237303
0002c0 ee 5b 34 3e 25 68 3b be 0d da bd 3d f7 e2 11 be
       0.17613193 -0.18301447 0.092701055 -0.14246736
0002d0 2e 26 a4 3d 96 15 42 be f1 dc b8 3d 7b f3 dc bd
       0.08015095 -0.18953547 0.09026516 -0.10788628
0002e0 27 34 25 be a9 92 e4 3d 04 12 f3 3c 13 0d da 3d
       -0.16133176 0.11160786 0.029671676 0.10647025
0002f0 7a 82 a1 bd dd 7e b8 3c b6 47 ed bd 35 fc ea 3d
       -0.078862146 0.02252143 -0.115859434 0.11473886
000300 8e b1 8a 3d 08 bc 6a be 4f 49 8e 3d b4 47 e2 3d
       0.06772147 -0.2292329 0.06947576 0.110488325
000310 72 4a 97 3d 64 63 17 bd 9c 12 36 be 4b c1 99 3d
       0.07387246 -0.03696002 -0.17780536 0.07507571
000320 df 73 bf 3d 6c e9 56 3d c9 f5 8a bd a1 2c 81 3d
       0.093482725 0.052468702 -0.06785161 0.063073404
000330 05 2d e7 3c fc 95 2c bd 15 99 8c bb 85 8a 1b 3e
       0.02821971 -0.042135224 -0.0042907097 0.1518956
000340 81 4f d6 3d 78 e7 f9 3d 0e f6 12 be 5f 9c 8d bc
       0.10464383 0.12202352 -0.14351675 -0.017286478
000350 a4 6b c8 bd de 20 9c bd 47 bb a6 3d 64 39 9d 3d
       -0.09786156 -0.076234564 0.08141189 0.07676962
000360 ee a8 a4 3d 80 fc 22 3d cb d0 71 be e3 c9 ed bc
       0.08040033 0.039791584 -0.23614804 -0.029026931
000370 84 82 3d 3d 7a e9 e4 3d 3d e2 80 bd 03 4a 2a be
       0.046267048 0.111773446 -0.062931515 -0.16629796
000380 de 72 95 bc 42 b6 63 3d 04 c3 13 be 00 f1 83 be
       -0.01824325 0.055593736 -0.14429861 -0.25769806
000390 16 04 7e 3d a1 64 8c be 06 24 06 3e ef 39 0c be
       0.062015615 -0.27420524 0.1309968 -0.13693975
0003a0 1d 7f 0d 3e 02 30 e6 bc 95 b6 05 be 52 24 25 be
       0.13818021 -0.028099064 -0.13057931 -0.16127136
0003b0 bc f6 62 bd 9b 2d 43 3d 2a 57 53 bc 65 cc d2 bd
       -0.055411085 0.047650915 -0.0128991995 -0.102928914
0003c0 99 ed a2 bd 74 6e dd 3d 59 c5 82 3d 06 f6 23 be
       -0.079554744 0.10812083 0.06385297 -0.16011819
0003d0 55 45 e6 3d bc 4f c1 3c c4 b9 07 be 88 e6 4a 3d
       0.11243693 0.02359759 -0.13254458 0.049536258
0003e0 4a 85 a5 bb 39 95 74 bd c4 28 6f bc 4a 2c 82 bd
       -0.0050512897 -0.059712622 -0.014597122 -0.06356104
0003f0 cb d7 59 3d 0e c6 6c be 2f b8 17 be 0b 31 6e be
       0.05318431 -0.23122427 -0.14816354 -0.23260896

fc2.weight f4 [300, 400]
000000 9b 71 0a be ae 6a 3d bc 31 5f ec 3c a6 0a 0a bd
       -0.135199 -0.011561079 0.028853985 -0.03370156
000010 c4 12 bc bc 57 d5 4b 3d 02 e8 70 bd 70 65 2e bd
       -0.022958167 0.049764004 -0.05881501 -0.042577207
000020 b0 70 42 bc d8 71 20 bc f5 94 e3 bd 48 ab df bc
       -0.011867687 -0.009792767 -0.11112396 -0.027303353
000030 a2 39 5d bd e2 0e 9c bc 7f da 7c 3d f2 c9 9d bd
       -0.05401004 -0.019050065 0.06173181 -0.07704534
000040 06 1d b7 3d 3c 9a c9 bc ca 4f 9b bc 88 91 d3 bc
       0.08941083 -0.024609677 -0.018958945 -0.02582623
000050 f5 70 32 bb b4 2d 9d bd 5a dd 9c b9 ef 5b d1 bc
       -0.0027227972 -0.07674733 -0.00029919558 -0.025556533
000060 9b e5 e3 3b 5c 00 28 bd a6 52 d5 3c 37 2d 4d bd
       0.0069548613 -0.041015968 0.026040386 -0.05009195
000070 07 a3 11 3c 82 e8 57 bc a5 4f c6 bd 5e 2b 60 bd
       0.008888966 -0.013177993 -0.0968316 -0.05472886
000080 07 fd 9f bd ff 8f 20 3c 2e ad b7 3d dd 5c 2b bb
       -0.07811933 0.009799956 0.08968578 -0.002614788
000090 19 54 f1 3c 2e bd bf bc 46 25 8a 3d ae 90 e7 bc
       0.029459046 -0.023405638 0.067453906 -0.02826723
0000a0 90 b2 4b bd 15 99 0a 3d b8 c9 c6 bd 2a b1 51 3d
       -0.049730837 0.033837397 -0.097064435 0.051194347
0000b0 0e 75 68 bd fd 7b fa bb 22 ee 20 bd a2 eb c2 bc
       -0.056752257 -0.007644175 -0.0392896 -0.023794
0000c0 d1 78 52 bd b5 b5 57 bd d7 e0 5c 3d 9a 07 fe 3b
       -0.05138475 -0.052663524 0.05392536 0.007752371
0000d0 8b e2 ce 3b 9f f5 2c bb 8c d5 b3 bd 36 da 1a 3d
       0.006313627 -0.0026391519 -0.08780965 0.03780576
0000e0 3a 66 bb bc 74 75 ac bd 8b 1c 45 3d 70 ea a8 3c
       -0.022875894 -0.0842084 0.048122924 0.020619601
0000f0 4d e2 98 3d 41 85 9d bd b7 c4 36 bd ce d8 33 3c
       0.074650384 -0.07691432 -0.044621196 0.010976983
000100 45 a8 06 3d d9 6f 7d bc a9 bf 86 bc c7 43 de 3c
       0.032875318 -0.015468561 -0.016448813 0.027131928
000110 ac d5 8e 3d d4 ad c8 bb 78 48 a9 bd 32 03 dd 3a
       0.069743484 -0.0061242376 -0.082657754 0.0016861914
000120 db b3 bc bc b4 58 63 3d 58 87 5a bd f6 57 2e 3d
       -0.02303498 0.055504516 -0.05335173 0.042564355
000130 e9 ee 94 3d ba 80 8a bd cc 2d 7b bd a2 5f 5c 3c
       0.07272131 -0.06762834 -0.061322972 0.013450535
000140 12 6b 15 bc b5 a3 b5 bd 8f e4 4b bd 74 bd 49 bd
       -0.009119766 -0.08869115 -0.049778517 -0.049252942
000150 79 ac 5d 3d 31 13 ea 3b 21 c5 5d 3d 47 cf 48 3c
       0.05411956 0.007143401 0.054143075 0.01225645
000160 84 f4 0c 3d 1c b6 5f bd c3 7e d4 3c d6 92 46 bd
       0.034412876 -0.054617032 0.025939351 -0.048479877
000170 c3 e8 b6 bd be 34 c2 3c 13 17 eb bc 7e 2c 4a bc
       -0.089311145 0.02370679 -0.028697526 -0.012339709
000180 6c 1f 0e 3d a5 9e 3c bb 83 1c 04 bd 09 8a c8 bc
       0.034697935 -0.0028781083 -0.032253753 -0.024479883
000190 e5 c4 b0 3c b0 ca 92 3d 9c 3a 17 be 90 7c 69 bd
       0.021578262 0.07167566 -0.14768451 -0.057003558
0001a0 48 e7 d6 bd 5b bc ca bd 73 81 b0 bc a2 77 6e 3c
       -0.10493332 -0.09899207 -0.021546101 0.01455489
0001b0 de e6 40 bc 08 89 29 bc c8 85 66 3c 64 4c 0e 3d
       -0.011773793 -0.010347612 0.014069982 0.03474082
0001c0 05 80 36 bc 00 96 2e 3d 88 ab 40 3c fc 0b 85 3b
       -0.011138921 0.04262352 0.011759646 0.0040602665
0001d0 77 95 b1 bd da cc 19 bd 6e fa 82 bd 37 41 68 bd
       -0.08671086 -0.037548877 -0.06395422 -0.05670282
0001e0 91 49 17 bd f3 89 ea bb 5c 2c 9e 3d 1b 7d 3c bd
       -0.036935393 -0.007157558 0.07723305 -0.046017747
0001f0 e6 40 c7 bd 74 25 40 3c 6e 30 b4 bd 14 f5 37 bd
       -0.09729175 0.0117276795 -0.087983 -0.04491146
000200 4e 04 05 bd 7e 41 5a bd 0d 70 12 bd 70 8f 98 bd
       -0.03247481 -0.053285114 -0.03575139 -0.074492335
000210 1f c2 c0 bd 74 e8 18 bd 69 3e 5f bc 98 00 e5 3b
       -0.09412026 -0.03733106 -0.01362572 0.006988596
000220 45 de 0c bc e3 04 2e bc f0 e8 2c bd 95 e5 3c bd
       -0.008597915 -0.010621282 -0.042214334 -0.046117384
000230 5d 2b 29 bd 80 5e 68 3c 86 51 08 bd d1 97 6d bc
       -0.04130112 0.014182687 -0.03328087 -0.014501528
000240 15 c2 50 bb 14 31 7b bd c3 99 ef 3c b9 f5 68 bd
       -0.0031853963 -0.0613261 0.029248124 -0.056874964
000250 b3 e6 5d bd 11 79 03 3c 38 c6 e1 3c 89 5d 13 bd
       -0.05417509 0.00802447 0.027560338 -0.035977874
000260 9d f3 a5 bd b2 fa 62 bc f9 a2 f7 bb 45 e2 6f 3d
       -0.08103106 -0.013853716 -0.0075572697 0.058565397
000270 a9 ba 48 3b b3 9c b5 bc b8 40 78 bd 27 e7 e9 bd
       0.0030628836 -0.022169447 -0.060608596 -0.11421042
000280 18 09 08 bd 08 ef 4f 3d 3b 68 3c 3d ca 3d cb bc
       -0.033211797 0.050765067 0.04599784 -0.024809737
000290 25 b9 85 ba 7f bb 18 3d db c6 ce bc 4e 44 07 3c
       -0.0010202272 0.037288185 -0.025241306 0.008256031
0002a0 54 ed 8e bd 33 4a 9b 3c 9e 21 85 3c be d3 64 3d
       -0.069788605 0.01895628 0.016251381 0.055865996
0002b0 d2 ed af 3c 91 36 80 bd 87 36 01 3d 74 74 e6 3c
       0.021475706 -0.06260408 0.031546142 0.028131701
0002c0 db 66 88 bd b5 b9 98 bd 91 45 aa bd db 9a 90 3c
       -0.06660243 -0.07457296 -0.0831405 0.017651966
0002d0 f6 9a 8c 3c cd 58 08 3d eb 2b 1e bd 3b 6b c8 3c
       0.017163735 0.033287812 -0.038616102 0.024465194
0002e0 6f 02 a4 bd c7 c5 1a 3c a4 09 67 bd ce 6f ca 3c
       -0.08008277 0.009446568 -0.05640568 0.024711516
0002f0 f6 88 6d bc 72 a6 33 3c 68 92 09 3d ee 46 51 3d
       -0.014497986 0.010964977 0.03358689 0.051093034
000300 27 11 b7 3c 98 9a 68 bd 37 04 52 3d 3f dc b5 bc
       0.022347046 -0.056788057 0.05127355 -0.022199748
000310 13 30 e9 3c b8 5c 56 bc a9 ec 0a bd 02 fd 10 3c
       0.028465306 -0.013083629 -0.033917103 0.008849384
000320 fb ff 31 3c 87 69 b6 3c 57 dd 53 3d 35 74 1a 3d
       0.010864253 0.022267116 0.051724758 0.03770848
000330 1b 49 13 3d c6 5c 7a bd 53 b1 04 be 24 29 02 3d
       0.03595839 -0.061123632 -0.12958269 0.031777516
000340 78 29 88 3d 92 1d a7 3d 04 44 40 bd 38 65 bd 3c
       0.066485345 0.08159937 -0.046939865 0.023119554
000350 87 23 40 3c 4b f1 5b 3c 42 0f 3d bd 2c cd 39 bd
       0.01172722 0.013424228 -0.04615713 -0.045361683
000360 b7 f8 c6 bc 25 06 4a 3d 94 29 71 bd 2b 11 c1 3c
       -0.024288518 0.049322266 -0.058877543 0.023567757
000370 95 ab 69 3c bc 00 c6 bc 60 1b 6d bd ed 01 93 bd
       0.0142621 -0.024170272 -0.057887435 -0.07178102
000380 05 31 27 bd 8a e4 04 be 98 e5 62 bd d7 19 01 be
       -0.040818233 -0.12977806 -0.05539474 -0.12607513
000390 11 96 e8 bd 52 9a a2 bc 69 ef 1c be 36 4e ae 3d
       -0.11356748 -0.019848976 -0.15325703 0.08511011
0003a0 36 21 93 bd db db b0 bd 4f dd 8b 3c d8 f1 82 bd
       -0.07184069 -0.08635684 0.017073302 -0.06393784
0003b0 65 d2 03 3d f1 ab 4b bc 10 9a 19 bd f9 66 f7 3c
       0.03218307 -0.012431131 -0.03750044 0.030200468
0003c0 c2 87 e8 3b 19 52 af 3c c5 aa 68 3d 3d fd 59 bd
       0.0070962617 0.021401452 0.056803484 -0.053220022
0003d0 5e 6d 5a 3c e6 68 12 bd 98 7b 61 bd b3 ba 1c 3d
       0.013331739 -0.03574457 -0.05504951 0.038263988
0003e0 e3 5d 81 3d 86 c6 96 bc 92 95 d2 bd ee 1a 59 bc
       0.063167356 -0.01840521 -0.102824345 -0.013251049
0003f0 c5 33 ab bd 9f 5b 8b bc bf 4a 26 3c f6 07 be 3c
       -0.08359484 -0.017011462 0.010149657 0.023197155

fc2.bias f4 [300]
000000 22 bb f3 3c bb 9c 92 3d 9d 49 09 bd 75 64 75 bc
       0.029752318 0.071588 -0.03351747 -0.014977564
000010 ae 45 28 3d 73 a7 51 3d 78 1d a1 3d 74 2a fe bb
       0.041082077 0.051185083 0.07866949 -0.0077565257
000020 32 65 f2 bc ce 3e 2d bd 09 63 95 3d 47 cb 10 3d
       -0.02958927 -0.042296223 0.0729428 0.03535011
000030 c7 f2 87 3c 00 9a 13 bc cc 12 4a 3c 79 ce e6 3c
       0.016595257 -0.009008884 0.012333583 0.028174626
000040 5e 63 f5 bb d1 93 02 3d e1 40 60 3d 30 f5 8b 3d
       -0.007488652 0.03187925 0.054749373 0.06833875
000050 41 37 f1 3d f2 1c 58 3c 5c f6 58 3d f6 c0 3b 3d
       0.11778117 0.013190495 0.05296932 0.04583832
000060 1b 07 8f 3c 23 50 26 3d 6f 2a bd bc ac 89 f0 bc
       0.017459443 0.040603768 -0.023091523 -0.029362522
000070 60 ea f3 3d b5 9d 93 bc 7d 54 ab 3d ef 45 8d bd
       0.11909938 -0.018019537 0.08365724 -0.068981044
000080 71 a5 5d b9 65 37 00 3d 23 26 59 3d 64 32 67 bc
       -0.00021137834 0.03130283 0.053014886 -0.014111135
000090 8a f6 73 3d c2 35 a1 3d 06 69 47 3c 44 76 4a 3c
       0.05956129 0.078715816 0.012171036 0.012357298
0000a0 16 72 14 bd 52 4a a8 bb c6 58 10 3d 1e df 2b 3d
       -0.036241613 -0.005135813 0.03524091 0.041960828
0000b0 ed 7f e6 3b 8b 87 7d bc 03 24 17 3b 57 50 b5 bc
       0.007034293 -0.0154742105 0.0023062236 -0.022133036
0000c0 60 47 a8 3b 22 39 84 3d a3 cc d7 bc e8 a2 50 3d
       0.0051354617 0.0645621 -0.026342696 0.05093661
0000d0 75 f3 00 3e 8c 57 c8 3c d5 71 95 3d d7 c3 9a 3d
       0.12592871 0.024455808 0.07297102 0.07556885
0000e0 f7 6a 8c bd 3a aa 90 b9 a6 bd 73 3c 2a 6e 49 3d
       -0.068563394 -0.0002759265 0.014876759 0.049177326
0000f0 99 12 22 3c 33 87 0d 3e d7 d4 8c 3d e0 c8 90 3b
       0.009892129 0.13821106 0.068765335 0.0044184774
000100 3d ba 8d bb 09 c9 b2 3c 8e 36 27 ba 05 86 9a bc
       -0.00432518 0.021824377 -0.0006378674 -0.018862734
000110 51 fc 9a bc 92 e8 2f bb 71 e6 b5 bc 0f 14 92 bc
       -0.018919142 -0.0026841504 -0.02220461 -0.01783183
000120 e5 7d 76 3d 87 47 86 3d 93 07 f0 bc 67 26 bf bc
       0.060178656 0.065566115 -0.029300487 -0.023333741
000130 de 11 10 3d 25 b9 4c bd d0 14 48 3d c0 6a 9a bc
       0.03517329 -0.049981255 0.048847973 -0.01884973
000140 af 4e d4 bb 7e c6 94 3d 23 be cb 39 8d 43 11 3c
       -0.0064791064 0.07264422 0.0003886084 0.008866203
000150 38 11 dd 3c b6 8e 6b 3d f0 6d cc 3b 9c 21 b9 3c
       0.02698575 0.057509147 0.0062386915 0.022599034
000160 ba 04 0a 3b b7 0f 20 3d 8f 6a eb bc 15 8a e9 3b
       0.0021059946 0.039077487 -0.028737335 0.0071270564
000170 04 8b c6 3d ba 2b a9 3d 3c 43 84 bc 8a 24 96 3d
       0.09694484 0.08260293 -0.016145341 0.07331188
000180 f8 93 dd bc cc 14 ff 3b 16 56 0d 3d 40 3a a3 bd
       -0.027048096 0.0077844616 0.034505926 -0.07970095
000190 59 a9 bc bc e4 71 25 3d cd ac 0c 3d b2 18 df bc
       -0.02302997 0.040391818 0.034344483 -0.027233455
0001a0 27 b7 7b bd a7 04 e5 bc 55 a6 b0 bc 74 8a 17 3b
       -0.061453965 -0.02795632 -0.021563688 0.0023123296
0001b0 c5 d4 48 bc 46 b8 37 bd 15 f0 a5 bd f1 e3 68 bd
       -0.012257759 -0.04485347 -0.08102433 -0.056858007
0001c0 e1 5b 25 3c 19 a2 ee bc 89 bc 9d 3d 41 d6 03 bd
       0.010092706 -0.029130029 0.07701976 -0.03218675
0001d0 e3 fc 85 bd 77 39 39 3d 9b 94 d1 3b dd 47 6e bc
       -0.06542375 0.04522082 0.006395889 -0.014543501
0001e0 52 2d c5 bc 56 9f 1d bc 9b 7e 03 bd c5 93 24 3d
       -0.024069462 -0.009620508 -0.032103162 0.040179987
0001f0 c0 4a 1b 3d 73 0c 68 3d 83 5b f8 3c 2d 6e 13 3d
       0.037913084 0.056652498 0.030317074 0.035993744
000200 3c 36 ba 3d 1f 86 3c 3d be 4d cf bd 6d 2f a3 3d
       0.09092376 0.046026345 -0.1012225 0.0796803
000210 af b3 69 3d be 91 db b9 35 ee 4a bc b9 47 9a ba
       0.057056125 -0.0004187952 -0.012385895 -0.0011770643
000220 6d 33 55 bd a0 33 07 3d cb dc d0 3c b1 75 88 bd
       -0.052050997 0.033008218 0.025495907 -0.06663073
000230 af ce 31 bd 05 b6 36 3d 33 81 ca 3b fe 8d 26 3c
       -0.04341 0.04460718 0.0061799525 0.0101656895
000240 c1 a8 80 3c 1d 57 8e 3d 33 c0 70 3c cd 31 1f 3d
       0.015705468 0.06950209 0.014694261 0.038865853
000250 61 16 c9 bc 9a 81 0e bd e2 2a 97 bc 8b fd 38 3c
       -0.024546804 -0.034791566 -0.018453065 0.011290918
000260 b7 f8 c3 3d 3f e8 28 3b cb 8f 94 3d 00 1e d0 bb
       0.09568923 0.0025773195 0.07253989 -0.0063512325
000270 ed bb a8 bb 8c 67 ec bc c2 b0 a3 b8 e5 fa 6b bc
       -0.0051493556 -0.028857969 -7.8053694e-05 -0.01440308
000280 ac 04 09 bd da 8c 26 3d 2c 5a 89 3d 5c ae a2 3c
       -0.03345172 0.04066167 0.06706652 0.019858532
000290 54 58 13 bd 5b 9d 0f 3d ac bc 11 3d 15 42 3b bc
       -0.03597291 0.035062175 0.035580322 -0.011429329
0002a0 02 a8 24 3d 82 fb ab bd e1 d3 1b bd a0 a6 b8 3a
       0.040199287 -0.08397581 -0.03804386 0.0014087744
0002b0 c2 df 51 3d ed 78 91 bd 1f 55 f4 3c 09 5f e9 3b
       0.051238783 -0.07103143 0.029825745 0.007121925
0002c0 08 73 0d bb bb 52 37 3b 88 3b b5 3c ce 3c 82 bc
       -0.0021583457 0.0027972895 0.022123113 -0.015898135
0002d0 84 14 60 3b d3 45 eb 3c 03 1f 48 3d 0a 8c c4 3d
       0.0034191916 0.028719818 0.0488577 0.09597023
0002e0 d2 aa c2 3b c7 ee c3 bb 68 45 8f 3d 7d 1f ac bc
       0.0059407735 -0.005979392 0.0699566 -0.021011109
0002f0 78 37 28 3d c9 99 19 bd 43 3f bf 3d ff 1f ad 3c
       0.041068524 -0.037500177 0.09338238 0.021133421
000300 e7 58 e6 bc c9 2a 7a bb d9 14 49 3c a4 72 bc 3c
       -0.028118564 -0.0038172475 0.012273037 0.023003884
000310 ad 46 f2 bc 8b 78 01 3d ef 37 4a bc 92 f3 11 3d
       -0.029574716 0.0316091 -0.012342437 0.035632677
000320 bf a3 d4 3a 9d ab 13 bd 09 38 79 bd 8e c3 4a bc
       0.0016223117 -0.036052335 -0.060844455 -0.012375725
000330 79 59 f5 3c 29 73 ea 3d 68 fc 38 bd c2 98 a3 bd
       0.02994989 0.11447746 -0.04516259 -0.079881206
000340 5b 76 8d 3b e1 2d 64 3c df e1 bf 3c 9e 2e 31 bd
       0.0043170876 0.013926954 0.023423133 -0.04325735
000350 d3 e4 e3 bc d6 85 6b 3d 8e 64 5e bd 2e 38 47 3d
       -0.027819073 0.057500683 -0.054295115 0.04863756
000360 6f bb c7 3d de 22 5a 3d ee de 3d 3d 33 5e 4b bc
       0.09752547 0.05325591 0.04635518 -0.012412596
000370 ad d7 56 3d ba 33 70 bd a3 13 a2 bb 2f f4 0f 3d
       0.05245178 -0.05864308 -0.0049461885 0.03514498
000380 ca 14 cb bc 64 36 4c ba 68 c9 cd bc 99 82 87 bb
       -0.024790186 -0.0007790087 -0.025120452 -0.0041354415
000390 8f 73 1a bc 6e 9a 84 3b 05 1e ef 3c b0 c3 ca 3c
       -0.009426965 0.0040467298 0.02918912 0.024751514
0003a0 38 ef ac 3c 6c a1 21 3d 71 89 7b ba 5e 9f 14 bb
       0.021110162 0.039460585 -0.00095953705 -0.0022677998
0003b0 ff 1e 80 3d 8c 34 49 3d 3c 28 0c 3d 40 7e f1 3c
       0.06255912 0.04912238 0.034218058 0.029479146
0003c0 cf 20 ca bc 11 79 ff bc fa 1e 54 bd 30 62 45 bc
       -0.024673847 -0.031185659 -0.051787354 -0.0120473355
0003d0 9a f6 60 bc c5 82 03 bd d1 a3 a8 3c 22 5a ca bc
       -0.013730669 -0.032107133 0.020585926 -0.024701182
0003e0 97 3e 17 3d 1a ef 20 3d ea 3c 62 3d f5 a4 0b bd
       0.036924925 0.039290525 0.055233873 -0.034092862
0003f0 14 f2 35 3c 7f fb ca 3c 18 99 3f 3b 22 50 30 3d
       0.011105079 0.024778126 0.0029235538 0.04304517

fc3.weight f4 [2, 300]
000000 2f 0a 5d 3d 9b 07 76 bd b9 b8 da 3d 7a 0e 5a bb
       0.05396479 -0.060065847 0.10679764 -0.003327279
000010 70 09 10 3e da a7 b6 3c 6a b6 0b bd 5d 1d 55 bd
       0.140661 0.022296835 -0.03410951 -0.052029956
000020 3f 06 a0 bc 26 0c 2b be 03 46 63 bd b7 23 d9 bd
       -0.019534228 -0.16703853 -0.05548669 -0.10602515
000030 2d 4e 26 3d c4 3f 37 bd 7c 9b 4d 3e 16 b9 86 bd
       0.040601898 -0.044738546 0.20078844 -0.06578271
000040 b2 d0 2f bd 20 7c 37 bd fe 19 c8 3d cf c8 c8 bd
       -0.042923637 -0.04479611 0.097705826 -0.09803926
000050 39 f2 98 3d 31 74 8e 3d ad b0 22 bd 2a 2d 9b 3a
       0.07468075 0.069557555 -0.039719272 0.0011839021
000060 16 ea 08 bd d3 e6 cd bd b4 3a f8 bd 07 3f 81 3d
       -0.033426367 -0.10053792 -0.12120572 0.0631085
000070 7b c5 7b bb 3e c3 02 3d 2e a7 b2 bd 1f 13 27 be
       -0.0038417268 0.03192448 -0.08723293 -0.16315888
000080 a5 1d 62 bd 18 c2 d5 3d 5c 95 66 bd 6a 65 d5 3c
       -0.055204052 0.10437411 -0.056294784 0.026049335
000090 99 48 47 3c 4f 67 2a bd bd 9d 70 bd 56 fe fc bd
       0.012163305 -0.04160243 -0.05874418 -0.12353198
0000a0 5f 3d a5 bd 09 ee 9a bd d6 8f a0 3d 1a b2 70 ba
       -0.08068346 -0.07564933 0.078399345 -0.00091818126
0000b0 71 5f 4b 3a 85 3d 44 3c b3 f9 07 3d 6a 88 24 3d
       0.00077580573 0.011977558 0.033197116 0.040169157
0000c0 20 ee ba bd b5 8d 92 bd 3e ae 53 3b eb b5 c3 bd
       -0.0912745 -0.07155935 0.0032299901 -0.095561825
0000d0 6a 8b a8 bc cc 4b de 3d a7 96 9f bd f7 4b 50 3d
       -0.02057429 0.10854301 -0.077924065 0.050853696
0000e0 c5 e1 54 3e 7d 2f 28 3d 1f 73 d8 3c 68 d0 b2 bd
       0.20789249 0.041060913 0.026422082 -0.087311566
0000f0 fc d8 21 bd 27 41 81 3b bc 7f cc bd 79 ba 64 3d
       -0.039513573 0.0039445343 -0.09985301 0.055841897
000100 e2 42 ad bc 76 d4 be bd d6 4c 90 bd 06 de 3e 3c
       -0.021150056 -0.093178675 -0.07045905 0.011649614
000110 ea a5 29 3e 93 c6 8f 3c 1d f0 f3 3d f1 80 93 bd
       0.16567197 0.017550742 0.11911032 -0.07202328
000120 56 a2 1b bc 86 17 27 bd 7a 5c 18 3e 06 49 5d bd
       -0.009499153 -0.040793918 0.14879027 -0.05402472
000130 b5 11 10 3c fd 92 64 3d 01 6c 06 3d d7 3c ba 3d
       0.008793284 0.05580424 0.032817844 0.090936355
000140 96 ba fd bd 87 03 00 be cf 56 5a 3d 40 31 45 bd
       -0.12389104 -0.12501346 0.053305443 -0.04814267
000150 31 c3 29 bd 5a 22 2f bc cb 20 cc bb 6a 2b 91 bc
       -0.041445915 -0.010689342 -0.006229495 -0.017720897
000160 3c 9d 94 3d 35 e2 3e b9 0f b7 ae bb c9 5f 67 3d
       0.072565526 -0.0001820408 -0.005331881 0.056487832
000170 65 73 e1 3c b7 81 9c 3d 3a 5d 81 3d eb 07 48 3e
       0.027520845 0.07641929 0.0631661 0.1953427
000180 5e d2 37 bd f3 46 bd bd 99 b6 c1 3b 99 70 d1 3c
       -0.044878356 -0.09242048 0.00591166 0.025566386
000190 9f b6 8f 3d 02 72 c5 bd 5d d6 92 bc 4b e0 57 3e
       0.07017254 -0.09640886 -0.017924482 0.21081655
0001a0 35 41 d7 3c 4d 7a db bc ae 8d da 3c 34 55 ea bc
       0.02627621 -0.026791716 0.026678886 -0.028605081
0001b0 e0 8c 75 3e 0d 41 89 3d ad 7a b1 3d ea 3c 91 3e
       0.23979521 0.067018606 0.08665977 0.28366786
0001c0 0b 6a 2b bd 98 ce 58 3c 41 32 cb 3d 4a d7 29 3d
       -0.041849177 0.01323285 0.099216945 0.04146508
0001d0 79 14 01 3c 26 59 e9 3c 43 12 90 3d 2a 60 9a 3c
       0.007878416 0.028484892 0.07034733 0.018844683
0001e0 77 f5 94 bd ff af d0 bd 62 ce 00 bd 7f 1b e9 3d
       -0.07273381 -0.101898186 -0.031446822 0.113821976
0001f0 56 0a 7b 3d 8a 5b 2f 3c c7 f2 47 bd da 67 e7 bc
       0.061289154 0.010702977 -0.048815515 -0.028247762
000200 8d 49 c6 bb ac e5 89 bc dd c7 48 3d 0d 97 23 38
       -0.0060512484 -0.016833149 0.04901873 3.9002905e-05
000210 26 f1 0e bd 28 34 18 bd 71 b6 f9 ba 64 63 92 3d
       -0.034897946 -0.037159115 -0.0019051564 0.071478635
000220 59 37 f5 3d 4d 31 e4 bb ca d5 62 3c 71 8a bd bd
       0.11973447 -0.006963885 0.013844917 -0.09254921
000230 a0 1b da 3d ee 6f 9e bd 96 83 b8 3d cb ff b6 bb
       0.106498 -0.07736193 0.09009473 -0.005584692
000240 86 bc 7d 3d 8e ad dc bd 43 10 15 bc 55 80 90 bd
       0.061947368 -0.107752904 -0.009098115 -0.070557274
000250 ff 0f 73 3e 35 cb fd bd 51 f3 98 bd e9 e2 bd bd
       0.23736571 -0.12392274 -0.07468284 -0.09271795
000260 92 82 c6 bc a3 fc 87 bd 0d 1c 94 bc cd 68 a1 bd
       -0.024232183 -0.066399835 -0.018079782 -0.07881317
000270 a6 ea 96 bb b2 29 85 3d 44 4a 8e 3d 32 cc 1b 3e
       -0.004605609 0.065020934 0.06947759 0.15214613
000280 d1 70 91 bc 50 5d 7e bd 54 63 92 bc 49 bf 21 bc
       -0.01775399 -0.06210071 -0.017869629 -0.009872266
000290 b5 dc e1 3c 4d c5 03 3e 2d 28 9b 3b 86 dc 78 3d
       0.027571062 0.12868233 0.004735014 0.060757183
0002a0 74 9e 22 3c f0 3d 1d 3e ea 9e 41 3d 23 5e b2 3d
       0.0099254735 0.15355659 0.047270693 0.087093614
0002b0 69 ff 72 3c 01 5b ca 3d d8 60 22 bd 57 54 46 3e
       0.014831402 0.09880639 -0.03964314 0.1936811
0002c0 37 27 3d 3e 7d 98 06 be 4e 31 d3 bc 10 46 13 bd
       0.1847199 -0.13144107 -0.025780346 -0.03595549
0002d0 0a a7 b3 3c 6c 6c c9 3d f8 ed b1 bd 37 b1 1e 3e
       0.021930236 0.09835133 -0.08687967 0.1549729
0002e0 ad b6 dd bc e0 8c 0e 3e 87 62 75 bc 86 78 59 bd
       -0.027064646 0.13920927 -0.014977104 -0.053093456
0002f0 7c 3e 31 be 39 68 8d 3d a7 f3 03 bd fd ed 2e 3c
       -0.17308992 0.069046445 -0.032214787 0.010676858
000300 87 0a 02 3d 10 2e 90 bb eb c8 1d 3e e7 ec e8 3b
       0.03174832 -0.0044000223 0.15408675 0.007108319
000310 91 b3 5d 38 11 19 a2 3a 5a 38 fb 3d c6 8d 18 be
       5.285774e-05 0.001236709 0.122666076 -0.14897832
000320 cd 2b 54 bc 88 fd 19 3d 63 2a 10 3e 3d fb bb 3d
       -0.012949896 0.037595302 0.14078669 0.09178779
000330 46 bb 95 3d ff 49 3b bd 26 2a 8f bd d1 25 23 be
       0.0731111 -0.045724865 -0.06990461 -0.15932395
000340 b8 fe 9b bd 03 2b 15 3d 17 19 cb bd 3e c9 9c 3a
       -0.07616943 0.036417972 -0.09916895 0.001196183
000350 be 13 87 3e 2f 52 2c 3d 46 94 b0 bd 14 17 f1 3c
       0.2638225 0.042070564 -0.08622031 0.02942995
000360 08 3c ed bd 70 f8 0a 3c a1 2e 93 bc f5 5d 34 3b
       -0.11583716 0.008482084 -0.01796657 0.0027521823
000370 53 03 9d bd 6e 54 6e 3e a1 6c 6c 3d 16 ac ab bd
       -0.0766665 0.23274395 0.057720784 -0.08382432
000380 7a 55 30 3d 90 31 02 be a0 35 ca bd d6 29 4c 3c
       0.043050267 -0.12714219 -0.098735094 0.012461146
000390 2b fa e1 bc d9 3c df bc d8 14 eb 3c 62 0c 81 bc
       -0.02758511 -0.027250694 0.028696463 -0.015752975
0003a0 08 86 09 3b f5 7a c2 bd eb ba e8 bc 4e 15 7e bd
       0.002098443 -0.094961084 -0.028409442 -0.062032036
0003b0 c3 58 b2 bc f2 e2 1e 3d a7 c1 68 bd c6 29 ab 3d
       -0.02177084 0.03879065 -0.056825306 0.08357577
0003c0 f1 e7 2f 3e 27 a4 79 3d 89 19 72 3d b1 b8 0e bd
       0.17178322 0.060947563 0.059106383 -0.034844104
0003d0 48 a8 e1 bc 6d 1c 39 3d 40 b4 00 be e7 b4 e9 bd
       -0.027546063 0.045193125 -0.1256876 -0.114114575
0003e0 ef 98 57 bd 4e e8 6c 3e d6 3b 8c bb 9f fb 14 be
       -0.052636083 0.23135492 -0.004279594 -0.14549111
0003f0 0b fd c8 3c ff 52 d6 3a 5e 68 ce bb 20 87 c8 3d
       0.024534723 0.0016351639 -0.0062990626 0.09791398

fc3.bias f4 [2]
000000 ae 54 ac 3b d8 c7 42 bd
       0.005259118 -0.047553867

bn1.weight f4 [400]
000000 7f a4 93 3f 09 8a 85 3f f9 93 8b 3f 49 45 8a 3f
       1.1534575 1.043275 1.0904533 1.0802394
000010 65 77 8f 3f 6f b6 92 3f b4 31 86 3f 7e 3b 7f 3f
       1.1208311 1.1461924 1.0483918 0.9970015
000020 28 56 83 3f 6a 39 86 3f 32 1f 8a 3f 7a a7 89 3f
       1.0260668 1.0486271 1.079077 1.0754235
000030 e8 0f 8e 3f 06 94 88 3f e2 9c 83 3f ef 97 88 3f
       1.1098604 1.0670173 1.0282252 1.0671366
000040 83 f4 89 3f bd a7 89 3f 30 68 83 3f 75 bd 73 3f
       1.0777744 1.0754315 1.026617 0.95210963
000050 ea 77 8d 3f 2a f6 a1 3f 79 ca 84 3f ac fa 80 3f
       1.105222 1.2653248 1.037429 1.0076499
000060 f5 81 8d 3f 8f 31 97 3f aa 40 7d 3f d4 db 8d 3f
       1.1055285 1.1811999 0.98926795 1.1082711
000070 0a 75 8a 3f 94 4d 8e 3f c7 ae 93 3f 9a c6 87 3f
       1.0816967 1.1117425 1.1537713 1.0607483
000080 0b 96 89 3f f9 83 8b 3f 80 d2 8b 3f 22 a7 94 3f
       1.0748914 1.089965 1.0923615 1.1613505
000090 63 d3 81 3f 45 ac 7e 3f 9a a5 81 3f 8d c8 82 3f
       1.0142635 0.9948161 1.0128663 1.0217453
0000a0 94 57 95 3f df a7 83 3f 6d 58 9f 3f 17 d2 7c 3f
       1.1667352 1.0285605 1.244886 0.9875807
0000b0 ce 54 8c 3f 31 dc 80 3f d3 fb 83 3f f5 8b 86 3f
       1.096338 1.0067197 1.0311226 1.0511461
0000c0 4e 06 8a 3f 02 8e 96 3f 83 e8 88 3f 8b f6 8a 3f
       1.0783174 1.1762087 1.0695957 1.0856489
0000d0 3d 3d 98 3f 8d 71 80 3f 9c 39 87 3f 78 96 8e 3f
       1.1893688 1.0034653 1.0564456 1.113967
0000e0 2a ec 81 3f c5 7f 83 3f a8 f0 83 3f b1 0a 92 3f
       1.0150197 1.0273367 1.0307817 1.1409513
0000f0 13 a8 8b 3f aa 23 8e 3f 87 02 82 3f 49 42 81 3f
       1.0910667 1.1104634 1.0157021 1.0098354
000100 01 c9 78 3f 86 a5 83 3f 6b 23 8c 3f 43 bd 85 3f
       0.9718171 1.0284889 1.0948309 1.0448383
000110 63 ca 86 3f f9 00 8d 3f b3 45 94 3f 65 bc 8a 3f
       1.0530514 1.1015922 1.158377 1.0838743
000120 e2 8f 85 3f 04 fc 84 3f 56 5d 88 3f e2 03 86 3f
       1.0434535 1.0389409 1.0653484 1.0469935
000130 d2 9c 89 3f 8c 8b 8e 3f cc a1 89 3f 09 a8 87 3f
       1.0750983 1.1136336 1.0752501 1.0598155
000140 16 8e 80 3f fa 2d 85 3f 27 3e 81 3f df 81 88 3f
       1.0043361 1.0404656 1.0097092 1.0664634
000150 f6 02 83 3f 6c b0 8c 3f 39 47 89 3f 00 a9 83 3f
       1.0235279 1.099134 1.072486 1.028595
000160 39 3e 82 3f 1e bf 86 3f f3 e3 7c 3f 59 d7 8b 3f
       1.0175239 1.0527074 0.9878532 1.0925094
000170 63 75 8e 3f b0 a0 85 3f 53 6f 88 3f 37 cf 8d 3f
       1.1129574 1.0439663 1.0658973 1.1078862
000180 79 75 91 3f b6 07 91 3f 88 b4 85 3f ad 41 89 3f
       1.1363975 1.1330478 1.0445719 1.0723168
000190 89 6e 89 3f 36 bb 88 3f f7 57 95 3f 2f 9f 75 3f
       1.0736858 1.0682132 1.166747 0.9594602
0001a0 5f 59 99 3f 60 54 93 3f 67 88 80 3f 62 50 8c 3f
       1.1980399 1.1510124 1.0041627 1.0962031
0001b0 0d b3 8c 3f b5 12 86 3f 5f c6 81 3f 25 e5 81 3f
       1.0992142 1.0474459 1.0138663 1.0148054
0001c0 59 93 88 3f 47 88 8f 3f 53 1d 82 3f 0f 0e 8f 3f
       1.0669967 1.1213464 1.0165199 1.1176165
0001d0 33 3b 75 3f 32 93 82 3f ba 0c 7d 3f 1a 1c 8d 3f
       0.95793456 1.020117 0.98847544 1.1024201
0001e0 79 f6 85 3f 2a 2a 89 3f 3a 0d 95 3f 3d c7 93 3f
       1.0465842 1.0715992 1.1644661 1.1545178
0001f0 9f 2f 9a 3f d5 1a 86 3f 5e 5d 89 3f a1 f7 81 3f
       1.2045783 1.0476938 1.0731618 1.0153695
000200 a9 22 85 3f 8c 85 91 3f 6c bd 7d 3f 2c be 82 3f
       1.0401202 1.136888 0.9911716 1.0214286
000210 a9 81 8c 3f a3 b6 82 3f 89 e3 93 3f 2b 26 88 3f
       1.0977069 1.0211986 1.1553813 1.0636648
000220 15 46 89 3f 24 7d 86 3f 64 54 85 3f ab e4 85 3f
       1.0724512 1.050694 1.0416379 1.0460409
000230 7a 0a 83 3f e6 fb 86 3f 56 6d 9b 3f be 86 8b 3f
       1.0237572 1.0545623 1.2142742 1.0900495
000240 47 4a 98 3f 8e 18 8b 3f de 56 7b 3f 6a 04 86 3f
       1.1897668 1.0866868 0.98179424 1.0470097
000250 11 1c 90 3f 8e 63 80 3f d3 51 8f 3f 96 e3 77 3f
       1.1258565 1.0030382 1.1196846 0.96831644
000260 2a 6c 82 3f 1f 31 8b 3f 62 5b 83 3f 2d 3f 82 3f
       1.0189259 1.0874366 1.0262263 1.017553
000270 d9 79 92 3f 53 66 8d 3f 7c dd 81 3f 84 e3 90 3f
       1.1443435 1.1046852 1.0145717 1.1319432
000280 62 91 84 3f c1 df 8d 3f 78 75 86 3f 0e d8 74 3f
       1.0356867 1.1083909 1.0504599 0.95642173
000290 8f 41 84 3f 3a 43 7e 3f 0e 94 91 3f 9a 8d 8a 3f
       1.0332507 0.9932133 1.1373308 1.0824463
0002a0 97 54 85 3f 81 0d 92 3f 21 f2 84 3f 0a ec 81 3f
       1.041644 1.1410371 1.0386392 1.0150158
0002b0 59 92 81 3f 9c 5b 85 3f 38 65 90 3f b4 7a 86 3f
       1.0122787 1.0418582 1.128089 1.0506196
0002c0 f0 38 97 3f b2 7c 91 3f ba e6 87 3f d2 cf 84 3f
       1.1814251 1.1366179 1.0617287 1.0375922
0002d0 ce 7c 85 3f 9c a6 8b 3f d8 c1 7e 3f 1d df 84 3f
       1.0428712 1.091022 0.9951453 1.0380589
0002e0 d1 8e 8b 3f b7 8e 8a 3f 90 10 81 3f 5c 93 7f 3f
       1.0902959 1.0824803 1.008318 0.9983423
0002f0 b7 97 87 3f 58 25 8f 3f b8 3d 81 3f df 95 84 3f
       1.0593175 1.1183271 1.009696 1.0358237
000300 9e a6 8d 3f b2 46 89 3f 2c 5a 84 3f 9b 75 77 3f
       1.1066473 1.07247 1.0340018 0.96663827
000310 9e 9c 7b 3f 76 ed 7f 3f b0 7e 77 3f 95 3e 8a 3f
       0.98285854 0.9997171 0.96677685 1.0800349
000320 5d ef 82 3f 52 c6 85 3f b8 db 76 3f 62 65 8a 3f
       1.0229298 1.0451148 0.96429014 1.081219
000330 65 61 83 3f 83 b8 8a 3f 01 51 8b 3f 57 a9 8b 3f
       1.0264097 1.0837559 1.0884095 1.0911053
000340 61 1a 91 3f 02 0f 94 3f fc 98 8a 3f a1 ec 8f 3f
       1.1336175 1.156708 1.0827937 1.1244088
000350 82 b9 83 3f 27 fd 88 3f 82 9f 86 3f 52 19 8e 3f
       1.0290987 1.0702256 1.0517428 1.1101477
000360 01 69 87 3f 01 a4 80 3f fe 4b 85 3f 3a 27 8e 3f
       1.057892 1.005005 1.0413816 1.1105721
000370 f4 2a 88 3f 59 cc 86 3f d3 59 86 3f 5a 1d 84 3f
       1.0638108 1.0531112 1.0496162 1.0321457
000380 c7 c1 86 3f 0f c6 87 3f 57 ee 8e 3f 0e 98 85 3f
       1.0527886 1.0607318 1.1166486 1.0437028
000390 d9 16 9f 3f d6 b3 87 3f 94 62 a8 3f c4 2d 8a 3f
       1.2428848 1.0601757 1.3155084 1.0795217
0003a0 f6 78 86 3f 95 70 8b 3f 34 d0 8c 3f 1e 45 81 3f
       1.0505664 1.0893732 1.1001039 1.0099218
0003b0 dd 65 86 3f bc 50 81 3f 86 3f 81 3f c9 2f 85 3f
       1.0499836 1.0102763 1.0097511 1.0405208
0003c0 9f 65 8b 3f ce 57 8a 3f 44 cd 7d 3f e7 2c 85 3f
       1.0890387 1.0808046 0.99141335 1.0404328
0003d0 bd 55 84 3f b4 72 8b 3f d5 3f 7b 3f 21 5d 88 3f
       1.0338665 1.089438 0.98144275 1.0653421
0003e0 6f 5d 91 3f 56 91 8c 3f bf 7d 8c 3f f8 15 87 3f
       1.1356639 1.0981853 1.0975875 1.0553579
0003f0 9c 0f 7f 3f b8 9f 80 3f 1c d3 84 3f 81 e0 8c 3f
       0.99633193 1.0048742 1.0376925 1.1006013

bn1.bias f4 [400]
000000 92 92 6d bc 72 ac dc 3b c7 16 45 bd 77 ee 74 bd
       -0.014500277 0.0067344243 -0.048117425 -0.05979773
000010 9b e0 8d 3c 88 4c 94 bc 0d 9f 86 3c 83 1a 9c bb
       0.017319014 -0.0181029 0.016433263 -0.0047639026
000020 29 fe 31 bb df e1 30 38 6c 80 6e 3c a0 7d e5 3c
       -0.0027159548 4.217203e-05 0.014556985 0.028014004
000030 d8 25 01 bd 0e aa df bb 45 e4 f3 3c 45 b8 23 3d
       -0.03153023 -0.006825692 0.029771933 0.039970655
000040 96 2c ec bc 65 38 2c 3c 01 5f 93 bc c0 69 29 3d
       -0.028829854 0.010511492 -0.017989637 0.041360617
000050 b1 7c b5 3c 46 e8 83 bc df 96 e7 bc 63 5a c1 bb
       0.022154184 -0.016101968 -0.028270183 -0.0059006675
000060 25 98 c4 bc 6b 75 45 bd b8 14 bf 3c 68 b0 63 3c
       -0.02399833 -0.04820768 0.02332531 0.013897039
000070 12 d0 11 bd 48 3a 32 bc fe c4 28 3d dc 68 ab 3a
       -0.035598822 -0.010878153 0.04120349 0.0013077515
000080 96 f2 a1 b9 81 4d 77 bc 14 42 c2 3c 41 df b1 bb
       -0.00030889054 -0.015094162 0.02371315 -0.0054282253
000090 14 31 2f bc 00 e9 73 3c a3 c7 69 3c 69 6c 94 bc
       -0.0106928535 0.0148870945 0.0142687885 -0.0181181
0000a0 27 af de ba 65 d9 ff bb 3a ad d5 bc 8c 7e 14 3d
       -0.0016989455 -0.007807898 -0.026083577 0.036253497
0000b0 0b 40 7e 3b 79 7b 2d 3d a1 aa 55 bc 03 41 f1 bb
       0.0038795497 0.04235408 -0.013041169 -0.0073624863
0000c0 e9 d3 ce bc dd 06 1d 3c 1e ad f2 3c 19 1b 76 3d
       -0.025247531 0.009584156 0.029623564 0.060084436
0000d0 cb 66 81 3c 28 ee 3b 3d 96 2d e1 bb a8 87 a5 3c
       0.015796086 0.04588142 -0.0068718893 0.020206288
0000e0 9e 6b 1a 3d 09 e8 a5 bc 4c f2 05 3d 8a 73 91 3c
       0.037700288 -0.020252245 0.032701775 0.017755289
0000f0 d7 99 47 bc 44 d8 a9 bc 8d 96 47 3c a7 77 4a 3d
       -0.012182674 -0.020733006 0.01218189 0.049430516
000100 e1 21 b0 3c f3 29 0b 3d 3a f3 14 3c 29 ad c7 bc
       0.02150053 0.033975553 0.009091193 -0.024374561
000110 2f 5a fc bc c1 bb 98 3c 4f 3e 58 bc d4 de 3a 3d
       -0.030804722 0.018644216 -0.013198449 0.04562266
000120 ed c7 5d bb b0 6b 60 3c 68 67 0f 3d da 37 31 bd
       -0.003384109 0.01369755 0.035010725 -0.043266155
000130 e8 b3 3e bc f7 00 9d 3c b0 3b 62 3c a0 19 eb bb
       -0.011639573 0.0191655 0.013808176 -0.0071746856
000140 e7 4b 61 bc 40 e8 f4 3c 97 10 82 3d e8 f8 67 bd
       -0.013751007 0.029895902 0.063508205 -0.05663386
000150 58 8d 07 bb 7d 1a 20 bd ba 73 64 3c 6a 5b c2 ba
       -0.0020683613 -0.03908776 0.013943607 -0.0014828269
000160 23 21 21 3c 16 50 87 3c a8 94 30 bc ff bf 37 bb
       0.009834561 0.01651768 -0.01077763 -0.0028038023
000170 3f 98 74 3b 6a 7d 32 bc 8d ae 1f bd 17 bf ca 3b
       0.003732219 -0.010894159 -0.038984824 0.0061873305
000180 7b 10 be 3c 91 2f 17 ba 03 b7 6e bd 9e fd 32 3d
       0.023201218 -0.0005767281 -0.058280002 0.0436989
000190 24 1b ea bb 87 7a 28 3d 3f 5a 41 bc dd c6 9a 3d
       -0.0071443487 0.041132476 -0.0118013015 0.075574614
0001a0 34 df 20 bc dc 59 ff bb f4 7a 1f bb b8 9d 49 bd
       -0.009818841 -0.0077926945 -0.002433476 -0.049222678
0001b0 2d 8e 09 bd 52 cd 98 3d e5 56 dd 3c ef 89 6c 3a
       -0.033582855 0.07461037 0.027018974 0.0009023239
0001c0 bc cc a9 bc 8a ac d7 3b 6f 21 c2 bc 53 45 31 3c
       -0.020727508 0.0065818476 -0.023697583 0.010819751
0001d0 c3 b6 5a bc a3 b8 48 bd 23 e5 f9 3a b4 84 98 3b
       -0.013349238 -0.04900421 0.001906548 0.0046544913
0001e0 92 21 3e bc 5a c7 64 3d 79 3c da bc 05 79 cb bc
       -0.0116046835 0.05585418 -0.026640164 -0.02483798
0001f0 07 64 cc 3c 3a b9 7b 3b 3e d7 a1 bc 5a a9 0d bc
       0.02495004 0.0038409964 -0.019755956 -0.008646334
000200 a4 39 99 3c 55 1b ec bc 8a d7 d6 3c 85 ae 95 bb
       0.018704243 -0.028821627 0.026225824 -0.0045679235
000210 6a 21 53 3c 81 e2 ad bc b1 1b f0 37 4a 69 23 bd
       0.0128863845 -0.02122617 2.8623124e-05 -0.039895333
000220 a6 72 18 bb f2 54 ae bc dc ba 62 3c ed be 7e 3c
       -0.0023261695 -0.02128074 0.013838496 0.01554845
000230 87 31 d4 ba fd b7 b0 3c 05 2a d3 3c a5 c4 40 bb
       -0.0016189077 0.021572107 0.025776872 -0.0029414084
000240 61 25 fe bc 63 fc 86 bd f2 11 3e 3d a2 0e 17 3d
       -0.031023683 -0.06591108 0.046403833 0.03687919
000250 75 42 e6 3b 50 f6 57 3b 6a aa fb 3b 3e 5c 20 3d
       0.0070269653 0.003295321 0.007680227 0.03915047
000260 43 4d b7 bc 64 fc 88 3c af 7d 12 3e 6d dc 9f bc
       -0.022375708 0.016721912 0.14305757 -0.019514287
000270 ce 80 2b bd 5e 3a f9 bc 6f 83 97 bb 61 6d 26 3d
       -0.041870885 -0.03042334 -0.0046238224 0.040631656
000280 b4 3f 11 3d 5e d5 21 3b 68 08 1b bb d0 58 0e bb
       0.035461143 0.0024693827 -0.0023656134 -0.0021720417
000290 4b 9c d8 3b fb 01 76 3c 27 63 75 bd 1b 43 6b 3d
       0.0066104284 0.015015121 -0.059909012 0.057437044
0002a0 49 2d b0 3b a8 c4 dc bc 89 b4 4c 3d b5 5b 49 bc
       0.005376492 -0.026949242 0.04997686 -0.012289931
0002b0 8e d4 f9 3c 72 3f 00 3d 37 45 eb bc d6 67 d6 3c
       0.030496862 0.031310506 -0.028719528 0.02617256
0002c0 ac ca ab bc f6 83 2f 3d 91 ec 96 3c 8a f3 33 3d
       -0.020970665 0.042850457 0.01842335 0.04393343
0002d0 05 73 23 3c 0c d8 8f 3c c9 b7 40 3d 96 01 bd 3c
       0.009976153 0.017559074 0.04705027 0.023072045
0002e0 b0 dd 8a bb 93 88 bb bc f2 65 cd 3d 50 6a 95 3d
       -0.004237853 -0.022892272 0.1002921 0.07295668
0002f0 72 1f 2d 3d 94 91 e5 bc dd 0a 06 3d 0f fd 77 bc
       0.042266317 -0.028023519 0.032725204 -0.015136017
000300 bb 06 63 3d 41 31 3d 3c fe 39 7d 3c 8e 01 e9 3c
       0.05542634 0.011547388 0.015455721 0.028443124
000310 81 9b d1 3c 77 90 3b bd bf 4b 22 3d 31 fe 02 bd
       0.025586845 -0.04579207 0.03962302 -0.031980697
000320 98 3c 8b 3b 53 46 1b 3d 29 f1 1b 3d 55 e5 0c 3d
       0.0042491667 0.037908863 0.038071785 0.034398396
000330 20 05 80 3c 75 a2 9b bc 04 07 de 3c b1 55 21 3d
       0.015627444 -0.018998364 0.027102955 0.039388362
000340 34 b6 53 3a 59 48 02 3d 34 37 5c 3c 40 28 83 3c
       0.00080761616 0.031807277 0.013440896 0.016010404
000350 02 1b eb 3c 50 66 b2 bc ad f3 ff 3c 19 a8 57 b9
       0.028699402 -0.021777302 0.031244123 -0.00020566619
000360 33 48 c1 3c 15 1b 86 3c 11 7f 45 3c fb f1 da 3c
       0.023593998 0.016370336 0.012054221 0.026726713
000370 6c c6 50 bd 58 48 7d bc 85 df a1 3c c7 2d f4 3c
       -0.05097048 -0.015459143 0.019759903 0.029806985
000380 0c f5 b1 3b 7e e3 87 3c 0f 65 b2 bb 72 08 e0 bc
       0.005430823 0.016587969 -0.005444176 -0.027347777
000390 26 fc 04 bd 09 e5 2a bc 71 ed 15 3d 42 85 23 bd
       -0.03246703 -0.010430583 0.036603395 -0.039922006
0003a0 a9 12 02 b9 4a 26 3d 3c 36 9e 8d bd 0b 13 47 3d
       -0.00012404718 0.011544773 -0.06914942 0.048602145
0003b0 3f e7 5c bc 2b 20 91 bc 56 ba 93 3d 56 3c 7a 3c
       -0.013482868 -0.017715534 0.07213275 0.015273174
0003c0 f7 a7 22 bc 01 16 73 bc 7c 1b 4b 3c 0e 51 9c 3c
       -0.009927741 -0.014836789 0.0123966895 0.019081619
0003d0 d2 e4 e9 3c ff 9d 0d bd 07 fb f0 3c c3 fd 93 bb
       0.028551493 -0.034574505 0.029416574 -0.0045163347
0003e0 ba 21 d0 3a 38 f0 6f bd 13 2f 9e 3c ad dc ea bc
       0.0015879192 -0.0585787 0.019309556 -0.02866968
0003f0 ec 35 75 3d b8 10 76 bc f8 83 1a bc cf d2 9a bb
       0.059865877 -0.0150186345 -0.009430878 -0.0047248374
