checkpoint_critic_local_1.pth (torch, 577426 bytes, 9 tensors)

fcs1.weight f4 [400, 52]
00000000: 4455 24bd e34c fb3f ae93 8ebe df37 143f
00000010: a231 b53e 85ed 91bf f027 9abe fdbd 1d3f
00000020: 801f bebd ccca 0840 3248 743e 14ac 0b3f
00000030: 7187 3c3e f620 babf 31c9 433e ce8c 183f
00000040: ecc4 de3c 7eb1 1040 d7f7 46bd 2c2c 16be
00000050: a138 eb3d 0395 cbbf 80de a1bc da19 12be
00000060: 3771 b03e 7b24 433c 9932 fc3e 5388 97bf
00000070: ba7a b0be b6ba 8bbf ea0e f23e bf96 91bf
00000080: 89ce 353f 37be 1ebd e42c 8fbc d2c2 993f
00000090: ce8a 84be 709f b9bf a51a 86bd 4759 9d3f
000000a0: 9f3d 883f 636c c93e 0f27 0d3e daf1 043f
000000b0: f460 e2bd 1173 cfbf 53dc 0e3e 6b99 f03e
000000c0: 5b48 84be 4bc0 eb3e 4267 16c0 130c 4dbf
000000d0: 68d3 603c f0a6 3ebf 8565 10be 240e 8cbe
000000e0: 3292 213e b1ec 40bf 71b2 d9bd 36ed 62be
000000f0: 78bc c13d 5e4c ccbe 1e05 12be ed2d a3bb
00000100: 341a 103f cbb3 f7bf b1af fcbd 2cb0 a8bc
00000110: 309a a13e a81b 0abf b9a7 8cbc 32ce 9cbe
00000120: 352e 8c3f d771 9cbf c12b 1ebd 361b 97be
00000130: 7daf 333f d3fc ef3e 4f0c de3c d282 8a3f
00000140: 98e1 45be 8b68 3cbf a3fd 873d 7fac 8a3f
00000150: 90ab 8f3f 9320 a03f 7048 a33d 05af 843f
00000160: 66ff 00bf 5434 f5bf ecdb ca3d 0fe3 7e3f
00000170: b00d bb3f 9f92 8c3f bef8 ed3d 0e71 21bf
00000180: 5691 95bf 0ae2 a3bf d76f fd3d 08f2 14bf
00000190: b9a9 5abf f55e 4abf 2a17 c43f ad3f 403e
000001a0: 3b8b 1bbe 372f a0be 4a57 fbba 7464 8d3d
000001b0: 6a7c 70bf a5cf 15bf 88c1 d83c aa93 903d
000001c0: e43e ac3d 0200 773f 1b7e 8d3c e4e6 4e3f
000001d0: e546 1a3c d06d c93e 1b44 28bd c529 583f
000001e0: 549e b03e 3de1 d43f ee5b 96bb 5824 0abf
000001f0: 413c ca3f 3add b23f 5ea0 33bc 582f 1cbf
00000200: 97b6 2cbf cef5 93bf 5539 34bd 4519 0cbe
00000210: 4e47 773f 7a5d 16bf 8824 59bc e940 e0bd
00000220: fe9b f33d 3df5 b4be 93e5 a3bd 8383 9cbb
00000230: 96b5 3f3c d1a9 ee3e 4a06 3ebd 3ee9 81bd
00000240: 6de1 c93f d01a da3e da78 38bd d553 13bd
00000250: bc0a cbbf a9d3 b43f 0b43 87bd c7f9 bfbb
00000260: a3de 3abf 3d97 c6bd 3184 473f c2a2 9b3f
00000270: 402f 463e e25c 903f 76cb a03e 86eb 60be
00000280: f40c 38bf 63f4 03bf f282 a83e 4dba 25be
00000290: 1b8e c53e 5ace 2b3f a8a7 153e cd29 b3bd
000002a0: d1b8 84be b683 eebd 4684 163e e75c aabd
000002b0: de33 da3d 5de2 bfbd b737 8e3d b981 b83e
000002c0: 2fae 3e3e ab11 a43e 123c 033e 41af 923e
000002d0: 879f 093f 418f 793d 0635 0e3e 60ef a8bd
000002e0: 9620 353f e0dd 13bf 2b2d 473e 4f62 25be
000002f0: 1605 013f 1f16 9d3d 88fb 58be 4f0f a43f
00000300: e60b 5d3e 0be2 0cbe 0278 7fbe 4aa5 aa3f
00000310: a12b d53e c265 073f bd46 49be 2734 1440
00000320: 87b4 33be a207 b33e 5aa1 42be 8094 1240
00000330: eb9b d33f 7d3b 24be 8835 b440 af12 9cbf
00000340: 39cd d03e 2110 2c3f 8ffe 103c 7bbd 993d
00000350: 958b 953f 5fbb 58bf 62c3 06bd ffb4 b43c
00000360: 301b fd3e 3184 3d3f 79b9 453d 76d0 46bd
00000370: 8609 803f 1fe3 9dbf 036c 303d 1673 36bd
00000380: a08f 0c3f 1aa7 6a3f 6134 343e f2d3 c93d
00000390: 8d6e 053f 8ff2 65bf 3fad ab3d 832a 853d
000003a0: e9a1 233f 94b8 f2be 344b b03d 762e b13e
000003b0: e2d2 8fbf e857 54bf 5a02 c23d 2ad3 a73e
000003c0: a071 9a3f b399 f0be 3a2c 693e 5caf 1dbf
000003d0: 3705 72bf de14 a4bf 8826 6f3e 6a87 1ebf
000003e0: e541 af3f c6c7 c93c b092 ec3e f877 ac3e
000003f0: 3802 0abf a15f 56bf 0b8c d03e f8ff cb3e
-0.040120378 1.9632839 -0.27847046 0.5789775 0.3538943 -1.140061 -0.30108595 0.61618024
-0.09283352 2.1373777 0.23855665 0.54559445 0.18411042 -1.4541309 0.19119717 0.5958985
0.027193509 2.2608333 -0.048576202 -0.14665288 0.114854105 -1.590485 -0.019759417 -0.14267674
0.34461376 0.011910553 0.49257353 -1.1838478 -0.34468633 -1.0916355 0.47277004 -1.1374129
0.7101827 -0.03875562 -0.01747746 1.201258 -0.2588715 -1.4501781 -0.06548051 1.229287
1.0643805 0.39340505 0.13784431 0.51931536 -0.110536486 -1.620699 0.13951235 0.4699205
-0.25836453 0.46045145 -2.3500524 -0.8009655 0.013722278 -0.74473476 -0.14101227 -0.27354538
0.15778425 -0.7536116 -0.10629738 -0.22160801 0.09459776 -0.39902014 -0.14259765 -0.00497984
0.5628998 -1.9351743 -0.12338198 -0.020591818 0.31562948 -0.5394845 -0.01716982 -0.30626065
1.0951601 -1.2222241 -0.038615946 -0.29512948 0.7018965 0.46872577 0.027105479 1.0821173
-0.19324338 -0.7359702 0.06640174 1.0833892 1.1224232 1.2509941 0.07972801 1.0365912
-0.5038971 -1.9156594 0.09905228 0.99565214 1.4613552 1.0982245 0.116197094 -0.6306313
-1.1684978 -1.2803357 0.123748474 -0.5818181 -0.85415226 -0.7905114 1.5319569 0.1877429
-0.15189831 -0.31286022 -0.0019175794 0.069039255 -0.9393984 -0.58519965 0.02645947 0.07059415
0.08410433 0.96484387 0.017272046 0.8082106 0.009416317 0.39341593 -0.041080575 0.84438735
0.34495795 1.6631237 -0.0045885956 -0.53961706 1.5799638 1.3973763 -0.0109635275 -0.6100974
-0.6746611 -1.1559389 -0.04399999 -0.13681515 0.9659318 -0.58736384 -0.013253339 -0.10949881
0.118949875 -0.35343352 -0.08002772 -0.0047764196 0.011701008 0.46613935 -0.046392716 -0.063433155
1.577192 0.4259858 -0.045037128 -0.03596862 -1.5862651 1.4127094 -0.06604584 -0.005858633
-0.72995967 -0.09696815 0.77936083 1.2159045 0.19353962 1.1278346 0.31405228 -0.21964845
-0.71894765 -0.5154478 0.32912403 -0.1618435 0.3858498 0.6711174 0.14614737 -0.08748207
-0.25922254 -0.116462156 0.14698896 -0.08318501 0.10654424 -0.09369347 0.069442205 0.3603647
0.18621133 0.3204473 0.12815884 0.28649333 0.53759044 0.060927633 0.13887414 -0.08248782
0.7075285 -0.5776043 0.19450824 -0.16150783 0.50398386 0.07670235 -0.21189702 1.2817172
0.2158657 -0.13758104 -0.24948123 1.3331692 0.4163485 0.52889645 -0.19655891 2.3156831
-0.17549334 0.3496676 -0.19006863 2.2903137 1.6531957 -0.16038318 5.6315346 -1.2193202
0.40781572 0.6721211 0.008849754 0.07506844 1.1683222 -0.84660906 -0.032901175 0.022058962
0.49434805 0.74029833 0.048272584 -0.048538648 1.0002906 -1.2334937 0.043071758 -0.04454335
0.54906654 0.91661227 0.17598106 0.098548785 0.5212181 -0.8982324 0.083826534 0.06502249
0.6391893 -0.47406447 0.08608094 0.3460576 -1.1236231 -0.82946634 0.09473105 0.32778293
1.2065926 -0.46992263 0.22770777 -0.615957 -0.9453921 -1.2818868 0.23354542 -0.61925375
1.3691984 0.024631392 0.46205664 0.3368528 -0.53909636 -0.8373967 0.40731844 0.39843726

fcs1.bias f4 [400]
00000000: 2c37 3dbf 2d4e 4bbf 9b0b 97c0 8dae a6bf
00000010: a5b5 97bf ba58 ad3f 09e0 d3bd bf6f 1cc0
00000020: 08c1 06c0 7639 a0bf d1af 4f3d 84a8 1a3e
00000030: 6471 203f 5d4e aebe a6de 473d 8ada 9ebf
00000040: 59b2 0bc0 3c32 25c0 6668 6dbf 5d94 6f3e
00000050: 6a5e d1be 4758 473e e5ff 54bf 4706 1abf
00000060: 74ff 95be ce4b 343e 495a 83be 3455 64bf
00000070: 4949 4dbf 310c acbe 0ac3 a1be beb7 a43e
00000080: 5838 dabf cd91 76bf 16a5 39c0 f878 90c0
00000090: 8d2f 0ec0 b999 803f 8c2e 99bf a317 1fc0
000000a0: fa14 14bf 26eb 8b3f 596a d1be 1160 55bf
000000b0: 944b 18bf f087 903e 45f9 dfbe 6395 c7bf
000000c0: 6360 383d 16cd ad3e 7329 abbf ff99 07c0
000000d0: ec4b 21bf 86eb 463f dcaa 69bf e25a 8bc0
000000e0: e338 d2be 03b0 02c0 17e3 ab3d 0c5d 16c0
000000f0: a063 3abf d1ba 6cbe 15bd 71bf ef7d 3cbf
00000100: 769f a0be 65d4 bb3e 3874 1bc0 995f a3bf
00000110: 204b c7be 27d0 4fbf cf5b 91bf d243 aebe
00000120: b39a 233d 819d 45be d074 9cbf cd48 353f
00000130: 1c05 b0bf 6e6e 91bf 3e09 24c0 db93 adbf
00000140: d732 9fbf b91a 16bf 7dde 07bf 521f 103f
00000150: 5e05 36bf d148 5cbf ebcb 4ebf 66be 40bf
00000160: 7deb 6dbf e0ba babf e907 87c0 4623 6dc0
00000170: a899 58bf 4677 79c0 15db aabe 5f06 acbf
00000180: 5033 e7bd e8c5 20bf e8ec 93be a912 363f
00000190: 5b8a 8cbf 4319 cfbf 7193 1ac0 4f75 bbbf
000001a0: f10a 6a3f 902f 49bf 2244 6ac0 0005 ccbd
000001b0: bef2 f4be ff67 acc0 3f9e d53e 9f26 92bf
000001c0: 82b1 61bf 4c9f 57bf 35b5 32bd 822b a63e
000001d0: a20b 9e3d f3ae 20bf 8c40 853e e5c3 74bf
000001e0: 5132 3abf f04f 383f cd70 b4be d0ad a2bd
000001f0: 04e9 5cbf 3d7d 37bf 5867 1fbf 1588 9fbd
00000200: 769a d0bf 6395 8dbe a169 93bf 20fe b9bf
00000210: 298c e5bf 0756 1dbf abb9 e2bd 617f 28be
00000220: 0796 75bf 78dc a1bf 88e8 5abf 3c49 55c0
00000230: 9a8b 82bf 47a1 513f 2480 b8bf 3df3 80bf
00000240: 30ec debe a4fb c7be 77d5 2fbf b7b4 473f
00000250: 8843 1e3f fb0f 93bd 1a48 31be 3e3e a7bf
00000260: 0664 e9bf 2480 46c0 feb2 2ac0 20a3 ffbe
00000270: 5220 cebf af8a 993d c47e f8bf 281d 2bc0
00000280: 10a7 83be f157 11c0 fed0 4cbf 7189 5c3d
00000290: 5e16 7ebf b432 ed3c 67bc 7bc0 0468 a8bf
000002a0: c0fb 03bf 31e7 c9be c3fc 99bf db88 97bf
000002b0: b95c f8be 5927 cfbe 823f bfbf b87f 91c0
000002c0: cd12 1dbf c2ff 3fbf dc8b 443d 3ef7 2ac0
000002d0: 33cb 083f 5abf 18c0 9c32 27c0 e855 7fbf
000002e0: 3454 09bf 9222 adbf 7493 04bf 7bc6 1dbf
000002f0: 7c62 c6bf 94fc f0be b20f 8c3d 0d9f 8ebf
00000300: 3ec1 003d b330 39c0 97c9 47c0 002f c2bf
00000310: d720 52be 33cd 0fbf 7ea2 13c0 ae5e 2bbe
00000320: f805 5fbe d37c 32bf 1df9 a9bf 4524 dcbf
00000330: f762 8abf de55 6d3e 8093 95c0 b57d 4abf
00000340: de61 cd3c 8c1c 90bf 2038 74bf 867e ab3e
00000350: aa85 10bf 3170 bbbf 3186 20c0 55a6 98be
00000360: 001e 71bf 0c45 04c0 e747 a0bf 6c06 23bf
00000370: defe 97bd cea7 bfbe 474f d0bf 388c 8cbe
00000380: 0fc4 a2bf da70 91bf 4fa6 c9bf 4799 98bf
00000390: ec6b 61bf 2b75 53bf b754 47bf 2f71 88bf
000003a0: 0376 5fbf 530d 24bf c027 5dc0 1482 8d3d
000003b0: 634c 0ebf 1aac b3bf a0e6 82bf 2c34 4dbf
000003c0: 99a4 29be 1a65 cbbe 1cc6 89bf 4b4e 623e
000003d0: e02f 9ebf 4416 c0bf bafc 51c0 88e7 acbe
000003e0: 10ee 2dbf b22c 84be c1b4 e2bd 1b41 16bf
000003f0: e12c 2bc0 d38d c7bf c342 e6bf 3ac2 b9bf
-0.7391231 -0.7941616 -4.7201667 -1.3022019 -1.1852309 1.3542702 -0.10345466 -2.4443204
-2.1055317 -1.2517536 0.05070478 0.15103346 0.6267302 -0.3404416 0.04879632 -1.2410443
-2.1827605 -2.581191 -0.92737424 0.2339644 -0.40892345 0.19467269 -0.83202964 -0.6016583
-0.29296458 0.17607042 -0.2565482 -0.8919251 -0.8018995 -0.3360305 -0.31594115 0.32171434
-1.7048445 -0.96316224 -2.900701 -4.5147667 -2.2216523 1.0046912 -1.196733 -2.4858177
-0.5784451 1.0931137 -0.4090145 -0.8334971 -0.59490323 0.28228712 -0.43744865 -1.5592464
0.045013797 0.3394553 -1.3372024 -2.1187742 -0.6300647 0.7770313 -0.91276336 -4.354844
-0.41059026 -2.041993 0.08392923 -2.3494291 -0.72808266 -0.2311814 -0.9442914 -0.7362966
-0.3137166 0.36685482 -2.4289684 -1.2763549 -0.38924503 -0.8117699 -1.1356143 -0.34036118
0.039942455 -0.19298364 -1.2223148 0.7081421 -1.3751559 -1.1361825 -2.563064 -1.3560747
-1.243739 -0.58634526 -0.53073865 0.5629779 -0.7110194 -0.8604861 -0.80779904 -0.75290525
-0.9293745 -1.458828 -4.2197156 -3.705278 -0.8460946 -3.8979049 -0.3337027 -1.3439444
-0.11289084 -0.6280198 -0.28891683 0.71122223 -1.0979723 -1.6179584 -2.415249 -1.4645175
0.91422945 -0.785882 -3.6604085 -0.09961891 -0.47841448 -5.387695 0.41722295 -1.1418036
-0.8816148 -0.8422744 -0.043629844 0.3245507 0.077170625 -0.6276695 0.26025808 -0.9561141
-0.72733027 0.71996975 -0.3524231 -0.07943308 -0.86293054 -0.71675473 -0.62267065 -0.077896275
-1.6297138 -0.27653036 -1.151661 -1.4530678 -1.7933398 -0.6145939 -0.110705696 -0.16454841
-0.9593205 -1.2645407 -0.85511065 -3.3325949 -1.0198853 0.81886715 -1.4414105 -1.007423
-0.43539572 -0.39059174 -0.68685097 0.78010124 0.61821795 -0.071807824 -0.17312661 -1.306587
-1.823365 -3.101571 -2.6671748 -0.49929142 -1.6103613 0.07497155 -1.9413686 -2.6736546
-0.25713396 -2.2709925 -0.80006397 0.05384201 -0.9925288 0.028954841 -3.9333742 -1.3156743
-0.51556015 -0.39434198 -1.2030262 -1.183864 -0.48508242 -0.40459707 -1.4941256 -4.5468407
-0.6135681 -0.7499963 0.047984943 -2.6713405 0.5343506 -2.3866792 -2.612464 -0.9974046
-0.5364411 -1.3526175 -0.51787496 -0.6163098 -1.5498805 -0.47067702 0.06838931 -1.1142288
0.03143429 -2.8935974 -3.121679 -1.5170593 -0.2052034 -0.56172484 -2.3067927 -0.16735336
-0.2177962 -0.69721717 -1.3279148 -1.7198569 -1.0811452 0.23177287 -4.6742554 -0.79098064
0.02507108 -1.1258712 -0.9539814 0.33494967 -0.56453955 -1.4643613 -2.5081904 -0.298144
-0.941864 -2.0667143 -1.2521943 -0.63681674 -0.07421659 -0.37432712 -1.6274194 -0.27450728
-1.2716082 -1.1362565 -1.5753878 -1.1921777 -0.880553 -0.8260066 -0.7786364 -1.0659541
-0.87289447 -0.6408283 -3.4555511 0.06909576 -0.55585307 -1.4036896 -1.0226631 -0.8015773
-0.16566695 -0.39725572 -1.0763583 0.22100179 -1.235836 -1.5006795 -3.2810502 -0.33770394
-0.6794138 -0.2581535 -0.11069632 -0.58693093 -2.6746142 -1.5590156 -1.7989124 -1.4512398

fc2.weight f4 [300, 400]
00000000: 13b6 8f3d 41e8 733d 26ca ea3c 3dce 90ba
00000010: 23b2 723d 9ea6 28bd 6bc8 5bbd 577a 0dbe
00000020: 9861 f5bd 956f 7ebd 3cc3 b1bd adb3 813d
00000030: 1099 7ebd c81c b7bc e077 c63c feb8 2fbe
00000040: 13a2 b3bd 1fa8 933c ce7f 38bd b7d0 7ebb
00000050: 9d51 a93c 19d8 d73c 9c30 bf3c bf52 873c
00000060: ca1a bfbd 8177 e03d fc90 ff3d fe6b 483d
00000070: c17d b13c c390 8e3d 999f 39bd c232 5e3d
00000080: bc07 84bd 59dd 253d 04f8 8fbc cefe 883d
00000090: 30d5 1dbc c887 05be 541c 4cbc 3ac2 003d
000000a0: b150 7bbd bd36 193d b665 a1bd 4a0f d2bd
000000b0: 8e2b 35be 689c 643c dac7 5dbd add4 b3bd
000000c0: 5993 ad3c e4fa 7fbd 5a28 023e 76e5 33be
000000d0: 5da6 813d 6cef 41bd 14ec 10bd e78b 3b3c
000000e0: 7cb8 83bc 6d59 1dbd 67e1 b63b e9d9 d63d
000000f0: a9a5 8ebd c2d1 c23a 41cf 213d 0771 bbbd
00000100: a05c 2bbd 6032 643d bb46 5b3d 01c9 0ebd
00000110: f5cb 963d c409 0abe 0ccb 863c 2666 c13b
00000120: 1e8d d83d 22fd 2cbc b5fe 583d 4a5a a7bd
00000130: c817 87bc 2893 863d b75f 8bbb 3922 b1bd
00000140: 9b12 6f3c e0d8 eebd f147 953d 0929 873d
00000150: 24e0 40bd 8143 c83c 4073 28bd f525 f13c
00000160: da29 d83c 7d72 343d 5754 53bd a2f0 07be
00000170: 959a 713d a333 0dbd 0f64 21bd d32d 663c
00000180: 73f2 a4bd 0875 5ebc 5381 873d f41f d1bc
00000190: 95fd 4dbe 63a8 a73d 83ad a23a 28d4 233d
000001a0: 99c8 043c b028 e73d eeec b1bd 8ff3 323d
000001b0: a0fc dd3c 1e58 ca3d 3e97 bd3d 0c46 29bd
000001c0: 2737 93bc cec3 6ebd 3519 e5bb c3c0 38bc
000001d0: 1e5c ca3c 1cac 163c d3f6 c4bc 4ca8 113d
000001e0: 2a30 d03b 6f6a 43bd 9c23 0c3e 6134 893d
000001f0: a7dc b93c fe7e f53c f0ca db3c 6628 0d3b
00000200: 46a7 0e3d e9b6 3ebe 1bc8 4ebe efae e5bc
00000210: 7f2b 953a 129a 213b f1f4 313e 291a 0a3b
00000220: 76e0 71bd 9c42 08be 3767 45be 097a 26bd
00000230: c6c0 893d e4fe fabc 30fb 51be 0868 d13d
00000240: 070b 9cbd 397d 37bd 6236 0dbe 3b19 793d
00000250: 9a47 883c afa1 e4bd 8209 02be 8461 b83b
00000260: 275a 10be 4aa6 67bd d1be a0bd 4afa bebd
00000270: 9c22 3ebd 0e39 173d 9ea7 8f3d 9896 143c
00000280: a313 11bd 8c69 5f3b c597 39bd fca2 7c3c
00000290: 70f1 cdba 4236 173d f8c8 29bd 809d 92bd
000002a0: 904e cc3d 21d7 113c 9848 d9bd e579 46b9
000002b0: aab6 673d 7f37 0e3d e4a3 37bd 62b6 b9bd
000002c0: 3a61 66bd c219 1b3e ed06 bc3c 2ed2 c43d
000002d0: 3bfc 7e3d 933f 88bd 1e8a 91bc 33b2 a6bd
000002e0: abac 87bc 3d62 33be 9be8 2bbc d3f3 073e
000002f0: 2a22 17bd 620e 5dbd 0f47 1c3c d001 953d
00000300: 4a98 e23d 8df3 cebd 0d62 67be 7769 56bd
00000310: 2d0c a8bd f9f1 b7bd 9cfc 1b3d 2467 f8bd
00000320: b810 85bc 6b46 dabd cf6f 7a3d cde9 953c
00000330: a142 bfbd ac91 9d3c 84a6 c7bd 730f 353d
00000340: c847 cdbc b9f7 563c 5b9a f6bb cd86 94ba
00000350: 4f2d bc3c cdaf 573d 22d7 66bd 5787 8ebd
00000360: e45b 3f3e dd50 103e 08a3 a7bb a20f 6abb
00000370: 0bcf 3a3e d427 85ba 77ba 023d 6371 11bd
00000380: 8e07 ce3d 9258 4a3d 260d 8bbd 0569 563d
00000390: ffa5 7f3d 54ae 4cbe 801f 723d a2d1 82bc
000003a0: df95 273e c391 fc3d d88c b4bc 2e78 35be
000003b0: 9608 05be 7ef7 e3bd 96d0 8f3d 56a0 3fbe
000003c0: 39ea 1e3d da5c 1c3e 2f1b 55bd 5a83 e33c
000003d0: 24b3 86be 6a93 563b c646 e33c 6f63 02be
000003e0: bf18 94bd 0788 803d 73eb 2bbd b282 6e3c
000003f0: a516 ba3a 90f8 9cbd 003c f6bd 6271 54be
0.0701715 0.059547666 0.028660845 -0.0011047792 0.059251916 -0.041174524 -0.05365793 -0.138162
-0.11981505 -0.06211813 -0.08679816 0.063330986 -0.06215769 -0.022352591 0.024227083 -0.17160413
-0.087711476 0.018024502 -0.04504376 -0.0038881728 0.020668799 0.02634816 0.023338608 0.016518949
-0.093312815 0.109602936 0.124788254 0.048931114 0.02166641 0.06961205 -0.04531822 0.054247625
-0.06446788 0.040494297 -0.017574318 0.06689225 -0.009633347 -0.13040078 -0.012457926 0.03143523
-0.06135625 0.037405718 -0.07880728 -0.102568224 -0.17692396 0.013953306 -0.05414567 -0.08780799
0.021188425 -0.062495127 0.12710705 -0.17568001 0.063305594 -0.04734747 -0.03538139 0.01144693
-0.01607918 -0.03841536 0.0055810693 0.10490782 -0.06965191 0.0014863538 0.039504293 -0.09152418
-0.04183638 0.055712104 0.05353425 -0.03485966 0.073631205 -0.13480288 0.016454242 0.0059020696
0.10573791 -0.010558398 0.052977283 -0.08171518 -0.016490832 0.065710366 -0.0042533535 -0.086491056
0.014591838 -0.116624594 0.07289112 0.06599624 -0.047088757 0.02444625 -0.041125536 0.029437045
0.026387144 0.044054497 -0.051594105 -0.13275388 0.05898531 -0.034473073 -0.039402064 0.014049011
-0.08054056 -0.013577707 0.066164635 -0.025527932 -0.20116265 0.08186414 0.001241133 0.03999725
0.008104467 0.112870574 -0.08687769 0.043689307 0.027098 0.09880088 0.09257363 -0.041326568
-0.017970635 -0.058292203 -0.0069915303 -0.011276427 0.024702128 0.0091963075 -0.024043476 0.03556089
0.006353398 -0.047708925 0.13685459 0.066994436 0.022688223 0.029967781 0.026830167 0.0021538972
0.034827493 -0.18624462 -0.20193522 -0.028037516 0.0011380761 0.0024658483 0.17378594 0.0021072722
-0.059051953 -0.1330666 -0.19277655 -0.040643726 0.06726222 -0.03063912 -0.20505977 0.102249205
-0.07619291 -0.044797156 -0.13790277 0.060815077 0.016635705 -0.11163651 -0.1269894 0.005626859
-0.1409689 -0.05655507 -0.07848895 -0.093250826 -0.046419725 0.036919646 0.07014392 0.0090691075
-0.035419118 0.003409001 -0.045310754 0.015419718 -0.0015712213 0.03691698 -0.041451424 -0.07158947
0.09975922 0.008901388 -0.10609549 -0.0001892816 0.056570686 0.034720894 -0.044834033 -0.0906799
-0.056245066 0.15146545 0.022952521 0.09610401 0.062252264 -0.06652751 -0.017766055 -0.081394576
-0.016561827 -0.17517944 -0.010492469 0.13276605 -0.036897816 -0.053968795 0.009538426 0.07275736
0.11064203 -0.101050474 -0.22595997 -0.052346673 -0.08205447 -0.089816995 0.038082704 -0.121290475
-0.016243324 -0.106579624 0.061141785 0.018299961 -0.0933888 0.0192345 -0.09748557 0.044204187
-0.025058642 0.013120585 -0.007525725 -0.0011331678 0.022970824 0.05265789 -0.05635751 -0.06959408
0.18687397 0.14093347 -0.0051158704 -0.0035714884 0.18243043 -0.0010158964 0.031916108 -0.035508525
0.10060035 0.049400873 -0.06789617 0.05234625 0.062414166 -0.19988376 0.059112072 -0.015969101
0.16365765 0.12332489 -0.022039816 -0.17721626 -0.12991557 -0.1113119 0.070222065 -0.18713507
0.03879759 0.15269795 -0.052027877 0.027772594 -0.26308548 0.0032741674 0.027743708 -0.12733243
-0.072312824 0.06275945 -0.04197259 0.014557527 0.0014197422 -0.07664597 -0.12023163 -0.20746377

fc2.bias f4 [300]
00000000: 294c 9abe 63ff 37bf 6ed2 45be 9a51 b6be
00000010: bc57 9abe fac2 a4be 821e cdbe 3373 80be
00000020: 2619 95be bf30 8fbe d417 8fbe a2b8 7bbe
00000030: bfb6 96be 3298 c4be c247 72be 0730 eebe
00000040: fbd8 76be 3622 aebe c67f 23bf f020 88be
00000050: 0f64 a1be 4a6c 00bf 2896 b9be 81ab fcbe
00000060: 2565 a3be 1938 f9be e4ab 5dbe 2e26 8bbe
00000070: fe2d 87be 1284 9cbe 852b 4fbe 5436 8fbe
00000080: 6f23 72be 4517 87be 6777 69be 59bc acbe
00000090: 5ea7 89be 4add abbe c6ba a5be 2f48 cfbe
000000a0: 9463 63be 1787 95be d7c1 ecbe 7e29 d23d
000000b0: 7ff7 28be bf4d 5dbe d025 84be 90ff 13bf
000000c0: ee11 b7be cf1c 70bf 6ebf 9dbe c427 7ebe
000000d0: 66c3 9abe 04ca c1be 4281 adbe b3b7 87be
000000e0: 5234 4abe 9eeb 70be 37d7 d0be 12c7 2abe
000000f0: b363 bebe b4e4 99be c748 fbbe c082 9abe
00000100: b3ac 26be e60d 9dbe 8273 74be 1e18 c6be
00000110: 6abc 71bf 23b9 ebbe 77b6 bbbe 3a91 a43d
00000120: 9c49 babe 08df 85be 8963 81be 0a6a 07bf
00000130: 4fbe aebe 73ee aebe 7942 b8be 7367 72be
00000140: 35fc 81be 9187 b4be 5285 d2be a0a4 e2be
00000150: 628a a3be 0bab a4be f66e e6be b421 8dbe
00000160: bdf9 a2be 12d7 4fbe 022c f8be 4114 88be
00000170: a836 73be b71f 97be 3f49 c1be dd1a e7be
00000180: 983e d9be 284b ccbe 5ff5 7ebe cfd4 c3be
00000190: 9743 74be 2975 84be e05b 7dbe 3a8a 99be
000001a0: ec72 8abe 7bbb a1be 8924 a4be f00c 6fbe
000001b0: 5b4d 93be cdca 6dbe ab4b 7abe 7f3e 99be
000001c0: da6b 9ebe ed9a a4be 172c 8ebe 349e 60be
000001d0: 45f6 6abe 88a8 9ebe d738 ebbe 9046 b2be
000001e0: 7ebf c2be 50e3 dfbe a071 54be 0be1 c8be
000001f0: d174 b4be 49bc cbbe 4b1d 7fbe 6cbe 82be
00000200: a09b 9fbe 2ea6 8abe 5986 c0be e194 b4be
00000210: c507 7ebe 05eb c5be 46c1 d3be 8db9 08be
00000220: 2bfe 2dbf 68a3 90be 040a a8be 9ff8 d0be
00000230: 4786 15bf f241 48be 5ac9 c0be fefb c2be
00000240: 061e 46be c580 c9be a611 82be 62dc 0bbf
00000250: b7c5 44bf 22f8 aebe 932b 3dbe 1816 b7be
00000260: 5563 12bf 3326 ccbe 01b1 d3be 22b7 acbe
00000270: c960 b1be 2c10 09bf ddb1 ecbe dccf b2be
00000280: af72 34bf 6fda 78be 461a c7bd 22f4 ddbe
00000290: 569b 92be f124 1fbf 7b7e 50be bf9b cfbe
000002a0: ec90 6abe 8b6e a7be 68ad b0be ca47 90be
000002b0: 4d7c 0fbf 2c5a b2be 5854 ffbe 9346 95be
000002c0: f753 a0be 5beb d3be 1404 a8be 1964 76be
000002d0: 072c 5fbe 0c26 5fbe 9d44 a9be ad63 82be
000002e0: f4f7 b2be 5c82 adbe 77af cabd 70b1 93be
000002f0: ace6 eabe dc48 6dbe 99f0 bebe bc79 abbe
00000300: b446 06bf 4192 20bf 70f8 73be 87a7 bfbe
00000310: b9f4 adbe 6809 1bbf 3268 85be ea62 53be
00000320: ace8 47be b41a afbe aa83 18bf 772c a2be
00000330: 903e 9abe 08a7 c1be 1736 c2be 6d74 9bbe
00000340: a925 22bf 7b18 7cbe 6222 92be 068c 14be
00000350: 34b3 e9be b2e0 d1be 6c32 0fbf 5b9e aebe
00000360: 738b 81be cd41 8bbe baac a5be fd82 9cbe
00000370: 7b91 97be 9eab 93be a5b8 73bf 6983 6cbe
00000380: 438f 9ebe 3aec c7be b8ed 7cbe e103 90be
00000390: e598 e2be 5128 bebe 7d4c c7be b21b 8bbe
000003a0: 0ac1 a9be d168 c0be 3c90 c7be c0e2 e1be
000003b0: c217 f3be 9a23 4cbe b0e7 d1be ba22 b4be
000003c0: 865a bcbe c0a6 91be a779 b9be 4010 1bbe
000003d0: 8eb0 cdbe da4f 67be 0055 9cbe c75b 94be
000003e0: ff57 a1be cc8b 53be c38c 9fbe 3869 9fbe
000003f0: 0c76 fabe 630c 17bf 998f 5dbe c608 55bf
-0.3013623 -0.71874064 -0.19318554 -0.35609132 -0.3014506 -0.32180005 -0.40062338 -0.2508789
-0.2912075 -0.27966878 -0.27947867 -0.2458215 -0.294363 -0.38397366 -0.23660186 -0.46521017
-0.24106209 -0.34010476 -0.6386684 -0.2658763 -0.3152165 -0.50165236 -0.36247373 -0.49349597
-0.31913105 -0.48675612 -0.21647602 -0.27177566 -0.26402277 -0.30569512 -0.20231445 -0.27971137
-0.2364633 -0.2638494 -0.22799455 -0.33737448 -0.26885504 -0.33567268 -0.3236906 -0.4048476
-0.22205955 -0.29204628 -0.46241638 0.1026182 -0.16500662 -0.21611689 -0.258101 -0.5781183
-0.35755867 -0.9379396 -0.30810112 -0.24819857 -0.30227202 -0.37849438 -0.33887678 -0.2650734
-0.19746521 -0.23527381 -0.40789196 -0.16677502 -0.3718544 -0.300573 -0.49078962 -0.3017788
-0.16276817 -0.30674666 -0.23872188 -0.38690275 -0.9442812 -0.46039686 -0.36662647 0.08035512
-0.36384284 -0.26146722 -0.25271252 -0.5289618 -0.3412957 -0.34166297 -0.35988215 -0.23672275
-0.2538773 -0.3525968 -0.4111734 -0.44266224 -0.31941515 -0.32161745 -0.4500653 -0.27564776
-0.3183116 -0.20296887 -0.48471075 -0.26577953 -0.23751318 -0.29516384 -0.37751195 -0.45137683
-0.42430568 -0.3990109 -0.24898289 -0.38248298 -0.23853908 -0.25870636 -0.24742079 -0.2998827
-0.27040803 -0.3158835 -0.32059124 -0.23344779 -0.28769955 -0.23221894 -0.24442928 -0.29930493
-0.3094166 -0.3214945 -0.27768013 -0.2193535 -0.22945507 -0.30987954 -0.45941803 -0.3481946
-0.38036722 -0.43728113 -0.2074647 -0.39234194 -0.35245374 -0.39792088 -0.24913518 -0.25535905
-0.3117342 -0.2707991 -0.376025 -0.35269836 -0.24807651 -0.38655868 -0.41358393 -0.13352032
-0.67965955 -0.2824967 -0.3282014 -0.40814683 -0.58408016 -0.19556406 -0.3765362 -0.3808288
-0.1934739 -0.39356056 -0.2540409 -0.5463315 -0.7686419 -0.34173685 -0.18473653 -0.35759044
-0.5718282 -0.39872894 -0.4134598 -0.3373347 -0.34644154 -0.535403 -0.4622945 -0.3492421
-0.70487493 -0.24302076 -0.09721808 -0.4335032 -0.28634137 -0.62165743 -0.20360748 -0.40548512
-0.22906846 -0.32701525 -0.34507298 -0.2817977 -0.5604904 -0.3483442 -0.49869037 -0.29155406
-0.3131406 -0.413905 -0.3281561 -0.24061622 -0.21794139 -0.21791857 -0.3306016 -0.25466672
-0.34954798 -0.3388852 -0.098967485 -0.28846312 -0.45879114 -0.23172325 -0.37292936 -0.33491313
-0.52451634 -0.62723166 -0.2382524 -0.374325 -0.3397577 -0.6056123 -0.26056057 -0.20643201
-0.19522351 -0.3420006 -0.59575903 -0.3167455 -0.30125856 -0.37822747 -0.37931892 -0.30362263
-0.63338715 -0.24618714 -0.28541857 -0.1450654 -0.45644534 -0.4099174 -0.5593631 -0.3410519
-0.25301704 -0.2719864 -0.32358342 -0.30568686 -0.2960318 -0.2884187 -0.9520362 -0.23097004
-0.30968675 -0.39047414 -0.24700058 -0.2812796 -0.44257274 -0.37140134 -0.38925543 -0.27169567
-0.3315509 -0.3757997 -0.3897723 -0.4411831 -0.47479063 -0.19935456 -0.40997076 -0.35182744
-0.36787814 -0.28447533 -0.36225626 -0.15142918 -0.40173763 -0.22589055 -0.305336 -0.2897627
-0.31512448 -0.20658797 -0.3116208 -0.31134963 -0.48918188 -0.59003276 -0.2163681 -0.8321651

fc3.weight f4 [1, 300]
00000000: 4669 8dbb 3a2f a13c 0a4e f7bc 58e9 493c
00000010: a32e babc 1a06 6bbc 93c4 583b 394b 093b
00000020: 0a95 9ebc 30f6 fcbb 70c2 06bc 485f 1c3d
00000030: bb46 25bc d453 863c b8fa 193c 5885 ebbc
00000040: 59de f3bc e8a2 07bc d398 abbc f997 1e3c
00000050: 4cb9 32ba ec6d 03bc 1fdc ff3c ada2 beba
00000060: 5bf0 813c c9a5 b53c 430e 523d 5aea 063c
00000070: 7262 843c 178d 5fbb 2b4a c73c 5ac4 ffbb
00000080: 1855 dfb9 fe55 c13c d6f9 47ba d3cf 3cbc
00000090: 2018 02bb 3c1c 25bc 4f03 863c 66c1 3bbb
000000a0: 9d34 55bc b47a 3a3c 892a 813c 539a 503c
000000b0: 3487 85ba 434f 24bc 4254 b1bb 2afb 1cbd
000000c0: 25a1 80bc b685 f13c c6b0 37bc c594 d43c
000000d0: 0736 1aba 94cf 26bb 306d aa3c 5ac3 cdbb
000000e0: ea93 e83c 9a9a b239 5cba 633c 1b5f c638
000000f0: 16ee 9d3b b7b9 263b 876c ab3c 6b7c e63b
00000100: fa6d f13b 205a ec3c 837b 813c 9cdc df3c
00000110: b86a 283d ce45 dc3b 7b78 8c3c e75a b1bc
00000120: 053f 453c c60e 3f3b 4421 d63c 5da7 30bd
00000130: 8f3a d53c 3060 bfbc a7a3 2fbc 3a71 e2bc
00000140: 0bc1 efbb 0180 a9bc 7b07 00bd 4412 eb3c
00000150: b62e 363a 8ba7 b9bc 27a0 0b3c 0f14 82bc
00000160: 139f c33c a941 eb3b 1d3c 55bb cc44 c8bc
00000170: f5c3 f23c 02e0 4fbc 613c da3a f9c7 23bc
00000180: 5ec7 263c 478c f53a a506 a93b 829b a3ba
00000190: b15e bb3c cdc1 b1bb 20cb 0a3c 3ba9 003c
000001a0: 29cd 92bc e157 a2bb 8f75 53bb 48b3 ed3b
000001b0: 1e08 a3bc 835a 0e3c e065 14bc c34a 4e3c
000001c0: 3ceb f63b 6a9e 753b 0d72 4e3c a3c7 893c
000001d0: 1b49 fb3c de97 bcbc 6695 a5bc f237 dd3b
000001e0: f2be c83b 0af4 d6bb f02c 6fbc c11d 32bb
000001f0: a0c9 903c 68b6 98bc 4f3b 09bc ac48 bfbc
00000200: efac 923c c6d6 7c3b 91e3 cf3b a5be d3bb
00000210: 5715 d0ba 7c60 813c e999 f9bc b15b e2bc
00000220: 60be f4bc 5db9 cab9 725a 6cbc 66c9 58bc
00000230: b5b1 fbba d298 683c 3649 b83c 162f 17bc
00000240: 0040 fabb 2504 d53c 6fbc 863c 46fa c93c
00000250: cad5 aa3c 1c82 8d3c caa8 da3c b4f2 75bc
00000260: 4344 973c 7b39 88bc aaa1 e43b cb7c 85bc
00000270: 2536 3e38 2e1f 01bc 7e36 b03c 682c 413c
00000280: c392 51bc e79d 8fbc 5c0f f33c 136c aabc
00000290: 9ac8 c0bc f795 eaba 41fb 3b3c 1fe3 abbb
000002a0: 9ef7 963c c640 2d3c 81db d83c ed21 93bc
000002b0: 2c08 35bc 4563 e0bc a670 14bc 67e4 92bb
000002c0: 7900 87ba d1bb c8bc 4529 c2bc e63c 1c3c
000002d0: 0b6f 4c3d 5885 1b3c 4144 55bc 351c 933c
000002e0: 1b73 903b df99 13b9 3cdd 523c 1ec3 67bb
000002f0: 7cf0 623c 31c9 a53a 2930 4ebc f83e bc3c
00000300: 0cb8 a8ba e528 a3bc 2067 783a 8d37 f4bc
00000310: 5e84 bb3c e239 e93b 1579 efbb 8fde bcbc
00000320: dda6 f0b9 83c6 10bc 1619 353b 7e62 153c
00000330: 38e0 dcbc 41ea edbb d9af d53b 4b55 94bc
00000340: 3b09 f93c e7a9 cf3c 46da 9d3b e1ba 22bc
00000350: b936 9a3c 2d93 d4bc 3b42 babb 9fc4 083c
00000360: 3b40 32bb 4426 32bc 35db 46bb 9dea c7bc
00000370: 8e88 fd3b d085 533c c7c9 e33c c499 47bc
00000380: c0de 8b3c 93a8 ae3c 3ec8 5b3c 7928 eb3b
00000390: 6456 e63c 63b6 c1bb be85 63bc f29c c33c
000003a0: 73c3 d93c 0d77 f5ba 53c7 c1bb b12c e8bb
000003b0: a62f be3c 2f9a 64bc 83f4 eb3c 857f 213b
000003c0: 3db9 8b3c cf5f fa3c 5876 ab3c 5ace b13c
000003d0: 2a6e ccbb 92d6 adbc cb15 773b 2dbe d6bc
000003e0: c766 633b ab32 cebb 7d3f 803c d17c 88bc
000003f0: b58f e738 5c7b ee3b 2174 933b d53e 7e3c
-0.004315528 0.01967584 -0.03018858 0.0123237 -0.022727316 -0.014344716 0.0033076152 0.0020949377
-0.019358177 -0.0077197775 -0.008225068 0.038176805 -0.010087664 0.016397394 0.009398155 -0.028750107
-0.02976911 -0.008278586 -0.020946896 0.009679788 -0.00068177725 -0.008021813 0.031232892 -0.0014544331
0.01586168 0.02217378 0.051283132 0.008234585 0.016160224 -0.0034111196 0.024327358 -0.0078053894
-0.00042597274 0.023600575 -0.0007628476 -0.0115241585 -0.0019850805 -0.010077532 0.016359 -0.002864921
-0.013013032 0.011381794 0.015767353 0.012732106 -0.0010187388 -0.010028663 -0.0054116556 -0.038325466
-0.01570184 0.029482704 -0.01121158 0.025949845 -0.00058826845 -0.0025453316 0.020804018 -0.0062793912
0.028390843 0.00034065993 0.013899412 9.4590905e-05 0.004819642 0.0025440285 0.020925773 0.0070338747
0.0073678466 0.028851569 0.015805965 0.027326874 0.0411174 0.0067221886 0.017147293 -0.02164979
0.012038951 0.0029153093 0.02613891 -0.04312836 0.0260289 -0.023361295 -0.01072017 -0.027641881
-0.0073167137 -0.02069092 -0.031257134 0.028695233 0.00069497095 -0.022662899 0.00852207 -0.015878705
0.023879563 0.007179458 -0.003253705 -0.024446867 0.029634455 -0.012687685 0.0016650074 -0.009996408
0.010179369 0.0018733823 0.005158263 -0.0012482258 0.0228723 -0.005424714 0.00847128 0.007852848
-0.017920094 -0.0049543236 -0.0032266115 0.007254038 -0.019901332 0.008688572 -0.009057492 0.012591067
0.0075353663 0.0037478455 0.012600434 0.016818827 0.030674508 -0.023021635 -0.02021284 0.006751054
0.006126278 -0.0065598534 -0.014598116 -0.002717838 0.017674267 -0.018641666 -0.008375957 -0.023350082
0.017904727 0.0038580163 0.0063442667 -0.0064619356 -0.00158755 0.015793078 -0.030468898 -0.027631612
-0.029875934 -0.0003866655 -0.014425861 -0.013231611 -0.0019202741 0.014196591 0.022495847 -0.009227535
-0.007637024 0.026002953 0.016447274 0.024655472 0.020853896 0.017273955 0.026691813 -0.015011478
0.018465167 -0.016628971 0.0069772797 -0.016294857 4.5349956e-05 -0.007880969 0.021510359 0.011790372
-0.012791338 -0.017531348 0.02967041 -0.020803487 -0.023533154 -0.0017897476 0.011473478 -0.005245581
0.01842862 0.010574525 0.026471855 -0.017960513 -0.011049312 -0.027391085 -0.009060061 -0.004482794
-0.0010299823 -0.02450362 -0.02370132 0.009536004 0.049910586 0.009492241 -0.013016761 0.017957786
0.004408253 -0.00014076334 0.012870129 -0.0035364102 0.013851281 0.0012648461 -0.012584724 0.022979245
-0.0012872233 -0.019916961 0.0009475816 -0.029811645 0.022890266 0.007117496 -0.0073081353 -0.023055343
-0.0004590069 -0.008836391 0.002763336 0.009117721 -0.026962385 -0.0072605913 0.006521207 -0.018107077
0.03039991 0.02534957 0.00481728 -0.009932251 0.018824922 -0.025949085 -0.005684165 0.008347659
-0.002719893 -0.010873381 -0.003034306 -0.024403865 0.007737226 0.012910321 0.027806176 -0.012182657
0.017073989 0.021320617 0.013414441 0.0071764556 0.028117366 -0.005911635 -0.013886867 0.023878548
0.026582455 -0.0018727496 -0.005913654 -0.0070854058 0.02321608 -0.013952776 0.028803116 0.0024642658
0.017056102 0.030563263 0.020930454 0.021704841 -0.0062387185 -0.02122048 0.0037702199 -0.02621373
0.0034698711 -0.006292661 0.015655274 -0.01666108 0.00011041706 0.007277889 0.0044999276 0.01551791

bn1.weight f4 [400]
00000000: e08f e63d efd2 ee3d c817 363e f781 6a3d
00000010: c1b0 153e cbac 1e3e d883 2d3f ad76 2d3e
00000020: 6f6d 603e cbfd ab3f b512 473e 2880 e73d
00000030: a97c 183e fcea 03bd c9a4 6b3d a779 2e3e
00000040: 4e8b 983e cb3e d63e 8ee7 05bf f750 393e
00000050: dee9 793d 2328 c33d 4e80 e23d 4b1a c53d
00000060: 78e2 d13e a3a1 c13d 96e5 163e 9873 6b3d
00000070: 37c1 893e 3195 0d3e 3913 0a3e d36f d63d
00000080: 5ae6 133e 867e 843d 5ce7 df3d 13ba 993e
00000090: b788 173f 41b5 a63d 7787 933f b578 183f
000000a0: 53f4 0d3e 7434 883e abfe 403e a0ef a73d
000000b0: ef8e 7e3f 235d d1bd 998f 303d 7bf2 313e
000000c0: cd48 6f3f 14ff 273e a8a5 313d 8b4c 2a3f
000000d0: d5b9 913d f9c2 f63d 0b05 f33d a288 403f
000000e0: c3d0 b73f 6a7c 853e ef6b e53e 578c cb3d
000000f0: dfc2 f63d 1d30 003e b334 123e 975f 7a3d
00000100: 39f1 bf3d 8ed7 d13d 01bc 453e 977c 2a3f
00000110: cad2 9a3e 6a67 823d 983a 633d 7f94 f33d
00000120: 03e9 3f3d f797 ac3d 55d5 34bb aeaa 193f
00000130: 366e 023e 6886 d93d b3cc ef3d c8ad 943d
00000140: 8d9f 8f3d 96cf a03d 00a8 e73d 2695 263e
00000150: e6ae 843e aa5d d03d c797 1bbe 54a5 0ebe
00000160: 097b a93e 6880 573c e166 5f3e 540d 0c3e
00000170: 2fe6 123d 387f 663f 0673 de3e 84e0 1c3e
00000180: a1ab 243e b4cc d93d eb2d a1bd a6b5 1b3e
00000190: c3b4 dc3e 1e57 a53d 6471 443f a31b 6b3e
000001a0: 4dc4 ec3d 5ed0 8e3d 1d45 003f 9a47 cf3d
000001b0: 3524 c13d d9ad 243f 1ffa ef3d 1649 663e
000001c0: af0a 593d ad8b bc3d 9687 e73d 5dea c83d
000001d0: 72e9 ce3d 6730 043e 2c4c 983d 2e6b 6e3e
000001e0: db69 d33d d02a 883e c366 84bd e6ab 253e
000001f0: a0db 37bd f702 db3d e92a 8a3e f20f 7c3e
00000200: 0b9c ec3d e083 d33d 6a5f ba3d dba7 723e
00000210: 5a32 cc3d a433 88bd d671 643e 3652 8b3c
00000220: d18f b43d 6f37 963e c82a a03e 62df 7c3e
00000230: a971 a23d 1401 0a3e 30bc e23d d08d 14bf
00000240: b3c2 f23e 84ce 993e 7132 fc3d 6873 593e
00000250: 925d c33d 784b b83d 40dd 0f3e a04b 0a3e
00000260: de23 ef3d d2bd 203e a28b 9e3e a349 1e3e
00000270: fa93 6a3f 6284 423b a056 f93d 97a1 213e
00000280: c061 973f 797e 923d efd9 043e 4ab6 113e
00000290: 7d7d bc3f c4bd 523d 12c2 6f3e 4c6f 8f3d
000002a0: 26f5 993d d518 de3c a3db d7bd 81bc 0dbe
000002b0: 93da ae3d 64da 9b3d a799 3e3e 9a48 d73d
000002c0: f305 313e ee2f 2e3e d895 093e fbc7 513e
000002d0: c0c5 4d3f 7dad 763e e9ba 8d3f fb7a 143e
000002e0: fd17 da3d f453 6f3d 5ef6 873d 133e 263e
000002f0: 4b79 093f 1a24 113e 683d a43e 72c1 2f3e
00000300: 348b 453d f6d8 c43e 3055 d43e 9f84 de3d
00000310: 3de1 993e 1050 903d 7c99 3c3f 7bec 863d
00000320: 702c de3d 9c07 823d 56a0 c73d f131 273e
00000330: 793c c23d ef4b d83d 8dde 003f 13f8 203d
00000340: 970a 643e 1b87 c13d 0020 4d3e 35e2 963e
00000350: b2a8 8b3d 8c67 ee3d a8a4 933e 1843 933e
00000360: 502d 943f 91ce 753e 038d ec3d 7e2c 103d
00000370: b430 e73d 71ac dd3d e7a8 763d fc6f c63e
00000380: 8f27 353e b4ff 393e 8800 613d 4e53 103e
00000390: 4577 8a3d 1017 763f 6b87 d33d c113 443d
000003a0: e055 703d 3554 173d 2515 d33e 9040 ba3d
000003b0: 2035 be3d bdb0 933e ac0a 0e3e 5ec2 1b3c
000003c0: 8c68 993d ff25 c33d 24f2 073e 11b1 8a3f
000003d0: 465d 4f3e a8f4 663e 0992 c13d af53 c73d
000003e0: ef0f 9e3e bba6 b93d 1115 663e 6b72 b13d
000003f0: 7b42 3e3e cd9e c83d e04d 4e3e e98f 253e
0.11257911 0.11661326 0.1778251 0.05725285 0.14618208 0.15495603 0.677793 0.16939802
0.21916746 1.3436826 0.1944073 0.11303741 0.14891304 -0.03220652 0.0575302 0.17038594
0.2979378 0.41844782 -0.5230645 0.18097292 0.06101405 0.0952914 0.110596284 0.096241556
0.40993094 0.09454658 0.14736018 0.057483286 0.26905224 0.13826443 0.13483895 0.104705475
0.14443341 0.06469445 0.109328 0.30024776 0.59192985 0.0814004 1.1525716 0.59559184
0.13862734 0.2660252 0.18847148 0.08200002 0.9943685 -0.102228425 0.043105695 0.17377655
0.9347046 0.16405898 0.043370873 0.66523045 0.07115523 0.12048907 0.11866196 0.75208485
1.4360584 0.26071483 0.4480891 0.09938877 0.120488875 0.12518354 0.14277916 0.061126318
0.093721814 0.10246192 0.19309999 0.6659636 0.30238944 0.06367381 0.0554758 0.11893558
0.046853077 0.084274225 -0.0027592976 0.6002606 0.12737355 0.10621339 0.11708965 0.07259709
0.07012854 0.07852094 0.1131134 0.16267833 0.25914687 0.10174115 -0.15194617 -0.13930255
0.3310168 0.013153173 0.21816589 0.1367696 0.03586405 0.9003787 0.4344713 0.15320021
0.16081096 0.10634747 -0.07870086 0.15206012 0.4310666 0.08073257 0.7673552 0.22959761
0.11560879 0.06973337 0.5010546 0.10121079 0.09430734 0.6432777 0.11717629 0.22488818
0.052988704 0.092063285 0.11305158 0.09810326 0.1010312 0.12909089 0.07436404 0.23283073
0.10322925 0.26595163 -0.06464913 0.16178855 -0.044887185 0.10693925 0.26985863 0.24615458
0.115532 0.103278875 0.0910023 0.23696844 0.09970541 -0.06650475 0.2230905 0.017006975
0.08816493 0.29339167 0.3128264 0.24694589 0.07931835 0.13476974 0.1107105 -0.5802889
0.4741417 0.3004037 0.123143084 0.2123543 0.095393315 0.089987695 0.14049244 0.13505411
0.11676763 0.1569741 0.30965906 0.15457778 0.91632044 0.0029680957 0.121747255 0.15784298
1.1826706 0.07153029 0.1297376 0.14229694 1.4725796 0.051450506 0.23413876 0.0700365
0.075174615 0.02711145 -0.10539939 -0.1384144 0.085377835 0.07610014 0.18613301 0.105118945
0.17287426 0.17010471 0.13436067 0.20486443 0.8037987 0.24089618 1.1072665 0.14500038
0.10649107 0.058429673 0.06638788 0.16234617 0.53700703 0.14173928 0.320781 0.17163637
0.048228458 0.38446778 0.41471243 0.10865139 0.30054656 0.07046521 0.736717 0.06588074
0.108483195 0.063491076 0.097473785 0.16327645 0.094841905 0.10561358 0.50339586 0.039299082
0.22269665 0.094495974 0.20031738 0.29469457 0.068192855 0.11640844 0.2883656 0.28762126
1.1576328 0.2400458 0.11550333 0.03519868 0.11288586 0.10823906 0.06021967 0.38757312
0.17690872 0.18163949 0.054932147 0.14094278 0.0676103 0.9612894 0.10328563 0.0478704
0.058675647 0.03694554 0.4122707 0.090943456 0.092874765 0.28845778 0.13871258 0.00950679
0.07490644 0.095287316 0.13275963 1.0835286 0.20250425 0.22554266 0.09451682 0.09732758
0.3087153 0.090650044 0.22468974 0.086644016 0.18580048 0.09795914 0.20146894 0.16168179

bn1.bias f4 [400]
00000000: 3f2e a73c 8b79 353c 5d9a af3d 850e 33ba
00000010: aa68 ac3c 8e67 223d 7f0d aa3e 7f9e c83b
00000020: 74d7 533d 9c2a b23e 9aac 8b3d b666 af3c
00000030: cc18 f33c 0c5e fdb9 441f 2cbb 8027 3c3d
00000040: d88a 0d3e 31e6 983d e4b3 8fb9 575f 663c
00000050: 5587 4d39 446b 0b3c 7122 a137 7d5f 823c
00000060: 0e2d e13a 1980 253c 556c c23c ca0c 4239
00000070: 01b4 2a3d d523 e23c 0eb8 383d 05c8 f83b
00000080: 0b6e bc3c a4af 763c deec 103d 510b 7d3d
00000090: e034 463e b8d9 ff3b 6bcd 053e e633 3f3e
000000a0: a1e0 b439 56d0 523d 654d 883c 1da5 8a3c
000000b0: a58a 353e 825d e1bb 480c 8838 97df 253d
000000c0: 8b2a 1c3e e406 ba3c a49d 2a3c a1da 0f3e
000000d0: 28cf 243b 8221 463c 8a7c bb3c 6009 063e
000000e0: b8c1 853e 192b 913d 5f52 153e 6ef9 933c
000000f0: 1199 113a e78b 953c e7a0 083d 5820 863c
00000100: ec78 143c 554d ce3c 04ad 453d 7a95 de3a
00000110: 2e28 bdbc fd45 3e3c 5cfb be3b 3e86 1abd
00000120: 0b79 b23a 7e4b 513b 492d 29ba ecdd bf3d
00000130: 25d7 bf3c c99c 0dbd 9101 0cbb 61fd 1fbc
00000140: e45a 353c 539d c83c f174 2d3a 947b 21bb
00000150: 260b 1b3d 7baf 5d3c b3f4 97bc 7879 cebc
00000160: 7ecf b43d 5467 61ba 424e 6d3d 7fe5 3a3d
00000170: 2737 19b8 8218 ab3e 7103 5c3e 651e 6e3d
00000180: bf96 743d 4b0f f93b e874 22bc 9154 153d
00000190: d128 563e bd7b d93b e37e 333e 1719 8a3d
000001a0: e0f0 f0bb 46d6 7c3b c010 723e 6304 84bc
000001b0: e200 3ebc d0fe 003e 4716 5abc 3766 db3d
000001c0: 3020 d13b 6c18 49bc f9b5 da3c 9fea 00bc
000001d0: fcc5 303c db0c 1e3c 6c2b 263c cfe2 66bb
000001e0: 96bc df3a 3869 89b8 4607 94bb 553a 1f3d
000001f0: ebd7 903b 769a 4eba 35e8 653b 0917 7e3d
00000200: 0469 693c 0c38 5b3c 338b ea3c 5157 ab3d
00000210: 67fe ed3c 0ef5 73bc 7456 083b b9bb 86ba
00000220: 73c0 3a3c 7a63 873d b203 153e 3327 7e3d
00000230: d6ed 87bc 6d1c 1d3d bceb 483d 7014 873a
00000240: 0619 b3bb 5641 3e3b 5188 fd3c 6680 0c3d
00000250: 007c e93b 289f b63c 1cc7 423d 6a4b 78bb
00000260: fad5 2e3d 1ea5 c83d 0e71 073e 5eb0 e33c
00000270: 3753 9e3e 24e5 ef3a a3e1 223c 6905 8abc
00000280: 241b b73e eea9 d63c 181b a43c ca40 3f3d
00000290: 9bac 373e 6eca f4ba 8720 993d 04ff 383b
000002a0: b2af 653b 6361 123a b3f3 36bc 5583 413b
000002b0: 3fb7 0c3c 090f fc3b 3005 193d e5c5 8d3b
000002c0: 9175 913a 2e82 413d ac02 ce3c 0de8 0d3d
000002d0: fbfb 7e3d 2fe4 263d 9558 2f3e f374 633d
000002e0: 17b1 253c 5615 463c 0b3b 293c b5b3 933d
000002f0: 3fca d93d a14a 013d 7130 f93d 797b 623d
00000300: e177 ad3b dd0a ac3d 6107 5a3e 3c57 a03c
00000310: 125f d93d 06e9 413c 1584 b73d 3942 f73c
00000320: 8287 073d 9714 3c3c 4c6c 1f3c 50c3 4d3c
00000330: 3da4 953c f4a3 153c 5cef fa3d 6914 323b
00000340: 0015 e33c cddb e03a ca1b 2b3d 8e75 c93d
00000350: 7aaa 5b3b 51f9 3a3c 48b2 8c3d a1e9 2a3d
00000360: 8b6e 29be 7fa3 d33d 9978 a13c 26ed 82ba
00000370: 1c0a 443c 3167 103c d6ef 4c3c c5ab 063e
00000380: bf7e 603d 2823 db3c c082 603c 9cdf d63c
00000390: d500 a6ba fdca ad3e 7fe1 043c 3073 8cba
000003a0: 0174 a03b 0f96 b3bb be30 9d3d 88ff 5c3c
000003b0: 00d1 c33b a05e 613d df28 c43c c650 043b
000003c0: d3f8 c03c 6de8 ecbc 3e41 ee3c 4fb7 303e
000003d0: 41fc dc3d 3b72 213d 91f4 27bc 04e7 4c3c
000003e0: efa1 f33c dd1d 063c 3f8d 823d 8f7f 113c
000003f0: 84af 9a3d fb7d 393c 72ab 1e3d 1e6e 643d
0.020407794 0.011076341 0.08574364 -0.00068304717 0.021046001 0.03964954 0.33213422 0.00612241
0.051719144 0.34798133 0.068200305 0.021411281 0.02967491 -0.0004832599 -0.0026263753 0.045936108
0.13822496 0.074657805 -0.00027409114 0.014060817 0.00019600739 0.008509461 1.9208734e-05 0.015914673
0.0017179565 0.010101342 0.023733297 0.00018506046 0.04167557 0.027604977 0.045097403 0.0075922036
0.023001691 0.015056524 0.035382144 0.06177837 0.19356108 0.0078079365 0.13066642 0.18672141
0.00034499637 0.051468216 0.016638467 0.016924435 0.1772867 -0.006877602 6.487273e-05 0.040496435
0.15250604 0.022708364 0.010413561 0.14048244 0.0025147889 0.01209295 0.022886533 0.13089514
0.26124358 0.07088298 0.14582203 0.018063273 0.00055541197 0.018255187 0.033356573 0.016372845
0.009062033 0.02518336 0.048260704 0.0016981803 -0.023090448 0.011613366 0.005828304 -0.03772568
0.0013616396 0.0031935866 -0.00064535864 0.093685 0.023418019 -0.03457335 -0.0021363238 -0.009765
0.011069033 0.02448908 0.0006616852 -0.0024640309 0.03785243 0.013530607 -0.018549299 -0.025204405
0.088286385 -0.0008598466 0.05793596 0.04562902 -3.6529407e-05 0.33417135 0.21485688 0.058134455
0.059714075 0.0076007 -0.009915568 0.036457602 0.20914008 0.006637065 0.17528872 0.06743067
-0.0073529333 0.0038579865 0.23639202 -0.016115373 -0.01159689 0.12597203 -0.013310975 0.10712855
0.006382011 -0.012273889 0.0266981 -0.007868438 0.010789391 0.00964662 0.0101421885 -0.0035230403
0.0017069753 -6.5522676e-05 -0.0045174686 0.03887399 0.0044202707 -0.0007881293 0.0035081033 0.062033687
0.014246229 0.013380062 0.028630828 0.08366264 0.029051973 -0.014889969 0.0020803483 -0.0010279334
0.0113984225 0.066107705 0.14552191 0.062049102 -0.016592901 0.038357187 0.04905294 0.0010305773
-0.0054656295 0.0029030642 0.03094879 0.034302138 0.0071253777 0.022292688 0.047553167 -0.0037886747
0.042684533 0.097971186 0.1322672 0.02779406 0.30922863 0.0018302542 0.009941491 -0.016848283
0.35762894 0.026204076 0.02003245 0.046692647 0.17936938 -0.0018676051 0.07476907 0.0028228173
0.003504735 0.000558397 -0.011166501 0.0029527743 0.008588611 0.007692222 0.037358463 0.0043265694
0.001109766 0.04724329 0.025147758 0.03464513 0.062252026 0.040744957 0.17123635 0.055531453
0.010113022 0.012090048 0.010329018 0.07212011 0.106342785 0.031565312 0.121674426 0.055293534
0.0052938317 0.084005095 0.21291877 0.019572847 0.10613836 0.011835342 0.089607395 0.030182945
0.033088215 0.011479518 0.00973041 0.012558773 0.018266791 0.009133328 0.122526854 0.002717281
0.027719975 0.001715535 0.04177455 0.09836875 0.003351836 0.011411981 0.06869942 0.041726712
-0.16546075 0.10333919 0.019710826 -0.0009988889 0.011965301 0.008813665 0.012508353 0.13151462
0.054808374 0.026750162 0.013703048 0.026229672 -0.0012665043 0.3394393 0.008110403 -0.0010715481
0.0048966412 -0.005480535 0.076753125 0.013488658 0.0059758425 0.055021882 0.02394527 0.0020189746
0.023556149 -0.028919423 0.029083844 0.17257427 0.10790301 0.03941558 -0.01025118 0.01250625
0.029740302 0.008185831 0.06374597 0.00888051 0.07553008 0.01132154 0.03873772 0.05576908

bn1.running_mean f4 [400]
00000000: acf6 093f 9e40 9a3e 777b d73f aef6 cd40
00000010: d5e1 9e3f 4295 3240 bf9e 5442 62a6 6440
00000020: b6d3 7440 259d 0240 e355 cd3e c021 9b41
00000030: 7576 5340 b6ff 1b3d 2156 173f b27e d53e
00000040: 1e52 b340 a393 ca40 8ac8 9414 0095 193e
00000050: 7882 2e3e 97d1 543e c49f 833f de55 e93f
00000060: 0400 0000 890e 783e 105e 943f 5736 bf3d
00000070: 8750 083f ee5a bf3e 0d81 aa40 a5a2 203f
00000080: 9ef0 3d3f b3ce ad3f 64eb de3f ff81 2340
00000090: b187 0341 9b5b a93f 5e13 e23f bc47 fa3f
000000a0: 4cb8 3341 b235 e240 aafe e93d 7f8a 713f
000000b0: 9d73 883e 953c cb3e 0bce 2f3e 1854 1242
000000c0: 0618 f940 bc93 873e 7dc7 0b40 b3e4 593e
000000d0: 060e 2f3e 9528 2640 d9bc 503e 0892 8c40
000000e0: dbf1 7042 5f8a a23f 3fc4 1f3f d489 083f
000000f0: 7cd9 c433 2737 3e3f 57ad 083f 9fa9 8b41
00000100: c042 303f c724 8c3f 2898 0840 0400 0000
00000110: f334 e140 5d47 3d40 1256 4a3f c9dc e540
00000120: 471c 863f 43d0 bd3c fc4a a03d c6fb 0240
00000130: 2488 333f 7d40 d740 cf61 503f 2316 7e41
00000140: 7754 c43f 937c 403f 6863 053f bd02 1340
00000150: bbed 1341 d985 993f 8b72 8a3e 6493 af3f
00000160: 3809 d440 2d71 eb3d 93ef 0c40 aae0 3740
00000170: 0f2a cc3e 15bc 2840 9c7e 1a42 8d7e 1a41
00000180: e013 c140 459f 4e3f 5503 c73e 6528 4a3f
00000190: 5858 173f 445b ad41 9417 3b3f 5c64 7040
000001a0: b4f9 d240 de34 8840 26ec 7c3f 05d8 3940
000001b0: 9d12 5140 26f2 213f 89a8 b43f 1065 3140
000001c0: 0320 0c3c ea07 cd3f 952f 2740 c008 d03f
000001d0: 4649 6940 a7d5 1d40 1667 7d3e 1bd6 5037
000001e0: b6fa 0e3f b474 7d36 f22e 3c3e 9ec9 0d3f
000001f0: 7e2c 333d 6e74 e53f 0ccb 483b ec04 bb3f
00000200: 5ae4 a43e dab2 003f d96d 573f 82a6 9440
00000210: eb9d 0b40 b270 833e 50d5 8740 3653 103f
00000220: fdbd ec3e dc53 113f 1c94 e541 ba44 ed40
00000230: 7769 1a3f 191f 1640 7373 1d41 49b6 a032
00000240: 2315 f740 99c9 bb12 f650 953f 5351 9441
00000250: 9da9 f43f 909d d53f 9cf4 8f40 fcd1 6941
00000260: 06c5 d53e 55f6 c740 fcb5 d340 55ab 9040
00000270: 35c9 3a40 05a5 6841 719c 7d40 813e 423f
00000280: d722 6842 759d eb3d ce07 7840 571b de3f
00000290: 4271 6742 7817 b93f 2374 0f41 a9d4 e840
000002a0: ded5 4c3e cea8 383d 2aa6 a13e f864 b835
000002b0: e35e 143f 35c9 473f e33c 883f ee88 243f
000002c0: 48ff ae32 b6af 6e3f 6a08 8a41 3a78 5d40
000002d0: 9b15 a140 69e2 043f 7203 6d40 ce50 a840
000002e0: 9db4 9e3e 0f5b a241 8524 8e41 f33f 393f
000002f0: 1611 7d41 c202 3b3f e892 0d40 981f fc40
00000300: bc97 633f b978 d83f f092 8840 b06b ad40
00000310: 58a6 8a40 a137 f13e 951d ac3f 0192 9d3e
00000320: 6cd0 9c3e f06d 823d 8ea9 9b40 41df 7840
00000330: 1ed8 c93e 7cbb d240 6b0e 6c3f 0e25 6940
00000340: d10b 9540 1922 0c3e e990 913f ddcb 2c40
00000350: 578a 3f3f 34c4 e03e f570 8540 69f3 453f
00000360: e6b9 0642 02f7 0f40 2a73 4c3f f00f a53e
00000370: 4387 4a40 89fb db40 35cb 2941 6a71 0640
00000380: c06a ff40 4a3c 2f3f 3548 0a40 3d75 5941
00000390: 8cd0 393f c4b3 d53f 13b2 c240 b374 f93d
000003a0: 1ddb 2e3d 78b3 353f 007b fc41 8d92 543f
000003b0: 84a4 e93c 3eee 2941 9782 573f 65a1 313c
000003c0: 0d21 7440 d0c9 1a41 39a4 6540 82b1 ab40
000003d0: a916 9740 e9d2 e13e ee39 493f 813c 933f
000003e0: 636c 313e 6371 4a40 28d7 2540 fae5 cd3e
000003f0: f443 7640 ebc8 803e f231 963f 1497 5a40
0.53892016 0.30127424 1.6834553 6.4363623 1.2412668 2.79036 53.155025 3.5726552
3.8254218 2.0408413 0.4010459 19.39148 3.304105 0.03808566 0.591158 0.41698223
5.603774 6.330522 1.502328e-26 0.14998245 0.17041957 0.20783077 1.0283132 1.822933
6e-45 0.24224295 1.1591206 0.093365364 0.53247875 0.3737406 5.3282533 0.62748176
0.7419528 1.3578705 1.7415586 2.5548093 8.220628 1.3231081 1.766216 1.9553142
11.232494 7.0690546 0.114255264 0.94351953 0.26650706 0.39694658 0.17168443 36.582123
7.7841825 0.264799 2.1840508 0.21278648 0.17095193 2.596227 0.2038454 4.392826
60.236187 1.2698478 0.6240882 0.5333531 9.1665214e-08 0.74302906 0.53389496 17.457823
0.6885185 1.0948724 2.1342869 6e-45 7.0377135 2.9574807 0.7903758 7.1832013
1.047738 0.023170596 0.07826802 2.046617 0.7012961 6.726622 0.81399244 15.880404
1.5338277 0.75190085 0.52104807 2.2970421 9.24554 1.1993972 0.27040514 1.3716855
6.6261253 0.11496196 2.2021224 2.8730874 0.39875838 2.6364796 38.623642 9.655896
6.033676 0.80711776 0.3886973 0.7896789 0.59119177 21.669563 0.7308285 3.7561255
6.5929813 4.2564535 0.98797834 2.9038098 3.266761 0.63260114 1.4113933 2.7717934
0.008552554 1.601804 2.6122792 1.625267 3.6450973 2.4661653 0.24746355 1.2447616e-05
0.55851305 3.7767868e-06 0.18377283 0.5538577 0.043743603 1.7926157 0.0030638603 1.4610877
0.32205468 0.50272906 0.8415199 4.6453257 2.1815135 0.25671917 4.244789 0.5637697
0.462387 0.56768584 28.697319 7.4146395 0.60317177 2.345648 9.840686 1.8709345e-08
7.72133 1.1851057e-27 1.1665332 18.53971 1.9114262 1.6688709 4.4986095 14.613766
0.4175188 6.24882 6.615965 4.5209146 2.9185307 14.540288 3.9626734 0.75876623
58.034023 0.11504642 3.8754764 1.7352093 57.860603 1.4460287 8.965854 7.2759595
0.20003459 0.04508286 0.31572086 1.3738454e-06 0.57957286 0.7804139 1.0643581 0.6427144
2.0372354e-08 0.93236864 17.254108 3.460463 5.0338874 0.51907974 3.7033353 5.259864
0.30997172 20.294462 17.767832 0.72363204 15.816671 0.73051083 2.2120914 7.8788567
0.88903403 1.6911842 4.2679367 5.4193954 4.3328056 0.47112754 1.3446528 0.30775455
0.30627763 0.06368625 4.8644476 3.8886263 0.39422697 6.5853863 0.922095 3.6428866
4.6576924 0.13684882 1.1372348 2.6999428 0.74820465 0.4389969 4.1700387 0.7732454
33.68154 2.2494512 0.79863226 0.32238722 3.1645057 6.874455 10.612111 2.1006722
7.981781 0.6845137 2.1606572 13.591123 0.7258384 1.6695485 6.0842376 0.12180462
0.04268943 0.7097697 31.560059 0.8303612 0.02852083 10.620665 0.8418364 0.010841702
3.8145173 9.674271 3.5881484 5.3654184 4.721516 0.44106224 0.7860402 1.1502839
0.17326503 3.1631706 2.591257 0.4021452 3.8478975 0.25153288 1.1733992 3.415471
