checkpoint_actor_target_1.pth (torch, 533842 bytes, 10 tensors)

fc1.weight f4 [400, 24]
-0.060118333 0.19601817 0.0148724355 0.073701136 -0.007994298 -0.046459965 0.009082652 0.08657751
-0.078216866 0.20081612 0.0095533 -0.019651651 0.061347134 -0.23306309 0.020289173 -0.013368075
-0.032395296 0.22267792 0.002187202 -0.05932676 0.119867876 -0.21073104 -0.0064522 -0.008665221
-0.07201723 0.08089071 -0.0011561674 -0.020756748 -0.055845078 0.1269668 0.03278364 0.04848399
-0.005855133 0.11767177 0.019821916 0.046431877 0.0021197577 -0.102301046 -0.034368675 -0.022914475
0.004077614 0.11630371 -0.052600056 0.08600328 0.071991414 -0.39922488 0.020693935 0.071443625
0.009827739 -0.2087543 -0.045891654 -0.011798341 -0.064946495 -0.14228459 0.026105126 0.026110774
0.042666025 -0.22759522 -0.007824382 -0.020807564 0.064506106 0.15683486 -0.0071837544 -0.010937818
0.027515566 -0.21427862 0.019930517 -0.0351644 0.20602639 0.2181865 0.0033072133 -0.0011467916
-0.060582086 -0.1573563 0.03152938 0.033400882 -0.013163369 0.16904606 -0.0075681447 -0.016424965
-0.07232948 -0.08671102 -0.00082533655 -0.066820234 0.03454029 0.13719583 0.022870332 -0.04624706
-0.0032238173 -0.070065856 0.0562124 0.1379234 0.16409574 0.20466399 -0.016605956 0.13779624
0.09104854 -0.073711336 0.0019381914 -0.042991996 0.026040992 -0.19666256 -0.015591404 -0.031619854
0.09450137 -0.025677064 -0.03202996 0.0038302783 0.053575035 0.07571037 0.024873333 -0.07023455
0.18854947 0.023361206 0.007083595 -0.033041578 -0.042503905 0.44986638 -0.004862766 -0.031314734
0.107273705 -0.079597615 0.0037341923 0.019532008 -0.064115815 0.10552341 0.020768458 0.01271017
0.08472368 -0.12726913 -0.012476018 -0.08327194 0.010388551 0.14996243 0.0204317 -0.008325855
0.045230806 -0.123902604 0.04866204 0.06206629 0.12964489 0.22478724 0.034139227 0.0037402175
-0.06638035 0.027603522 0.038254574 -0.0076669045 0.10293259 -0.14989814 0.025489228 -0.00600303
0.00815284 -0.011844761 0.02335473 -0.00578284 0.13953303 -0.23101659 0.0002902781 0.047564354
0.03922493 0.060435493 -0.021434268 0.0929231 0.10027966 -0.08579461 -0.029483357 0.04677438
-0.02121297 -0.07861965 0.061172195 -0.03163703 -0.07144172 0.05501731 -0.007905603 -0.0004975208
0.010800153 -0.0533836 0.06498688 0.056979734 -0.08181744 0.108159676 0.09189374 0.06808426
0.04600712 -0.12862915 0.0059956876 0.11988913 -0.01852493 0.18307836 0.041138988 0.13272212
0.056776244 -0.015115495 -0.017606096 -0.053946257 0.10706094 -0.13364863 -0.025479427 -0.06342085
0.01295604 -0.053808257 0.027184173 -0.0048684156 0.09887122 0.013777102 -0.043743014 0.022806834
0.020370694 -0.09646964 0.029158153 0.13352783 0.16901907 0.16240779 -0.021656234 0.17741877
-0.027580954 -0.111743346 -0.0103646 0.070161656 -0.017214779 -0.102260426 0.0077484464 -0.0073096836
0.002081597 -0.059042282 0.013433306 -0.024508618 -0.015268277 0.12999904 -0.016693365 0.02351904
0.023283355 0.004567855 -0.01342361 -0.036949806 -0.11760028 0.54920095 0.008625616 -0.042793818
-0.0012891074 0.30133706 0.040082276 0.101397775 -0.012921422 -0.007048089 -0.027199054 0.11594607
0.055294253 0.38296086 -0.0065125586 -0.0424628 -0.017469205 -0.16189598 0.008999314 0.021697147
00000000: a43e 76bd fdb8 483e 84ab 733c 9ff0 963d
00000010: 84fa 02bc ce4c 3ebd 67cf 143c 8d4f b13d
00000020: 2a30 a0bd bea2 4d3e 7285 1c3c 80fc a0bc
00000030: 2247 7b3d 17a8 6ebe 7b35 a63c c505 5bbc
00000040: eeb0 04bd ae05 643e 2957 0f3b 9e00 73bd
00000050: 4a7d f53d e1c9 57be fa6c d3bb 92f8 0dbc
00000060: c57d 93bd 07aa a53d 8a8a 97ba 0e0a aabc
00000070: cfbd 64bd 9603 023e 2348 063d 2697 463d
00000080: 6adc bfbb e6fd f03d 9261 a23c 5a2f 3e3d
00000090: a2eb 0a3b 3683 d1bd 2bc6 0cbd 23b7 bbbc
000000a0: 819d 853b a430 ee3d 2873 57bd 7d22 b03d
000000b0: 3c70 933d 3467 ccbe 5486 a93c 0951 923d
000000c0: 8604 213c b0c3 55be e3f8 3bbd d44d 41bc
000000d0: ab02 85bd 0db3 11be 6bda d53c 43e6 d53c
000000e0: 92c2 2e3d b90e 69be d631 00bc a074 aabc
000000f0: c71b 843d 5199 203e b365 ebbb 8934 33bc
00000100: 5368 e13c db6b 5bbe 5345 a33c 8c08 10bd
00000110: 95f8 523e 486c 5f3e d5bd 583b f14f 96ba
00000120: ec24 78bd 0322 21be f324 013d 5dcf 083d
00000130: 2cab 57bc 691a 2d3e 33fe f7bb a68d 86bc
00000140: 7a21 94bd 8c95 b1bd 665b 58ba 0cd9 88bd
00000150: 1e7a 0d3d 107d 0c3e 905a bb3c 8f6d 3dbd
00000160: ae46 53bb b07e 8fbd f93e 663d cb3b 0d3e
00000170: b708 283e 7093 513e 3709 88bc 751a 0d3e
00000180: a877 ba3d f8f5 96bd e90a fe3a 6018 30bd
00000190: eb53 d53c e961 49be 1773 7fbc d283 01bd
000001a0: ef89 c13d b558 d2bc d931 03bd 6805 7b3b
000001b0: 7f71 5b3d 0a0e 9b3d 29c3 cb3c 22d7 8fbd
000001c0: 1d13 413e 0060 bf3c 801d e83b 9b56 07bd
000001d0: 9318 2ebd e354 e63e d657 9fbb e143 00bd
000001e0: 51b2 db3d 1304 a3bd 5ab9 743b 9701 a03c
000001f0: 274f 83bd a81c d83d 9d22 aa3c 513e 503c
00000200: 9c83 ad3d d752 02be 3668 4cbc 7b8a aabd
00000210: be34 2a3c c08f 193e 6160 a73c 2b69 08bc
00000220: f043 393d a6c0 fdbd d951 473d 3939 7e3d
00000230: a1c1 043e a02e 663e 93d5 0b3d 701e 753b
00000240: 6cf2 87bd c820 e23c d4b0 1c3d a83a fbbb
00000250: 52ce d23d e67e 19be c9ce d03c 11b5 c4bb
00000260: 7d93 053c 8710 42bc 6b52 bf3c fa7d bdbb
00000270: bfe1 0e3e 9d8f 6cbe 7830 9839 d7d2 423d
00000280: 52aa 203d 358b 773d eb96 afbc 774e be3d
00000290: 6c5f cd3d 16b5 afbd 1587 f1bc 7e96 3f3d
000002a0: d3c6 adbc 5703 a1bd b28f 7a3d d595 01bd
000002b0: 0950 92bd d559 613d 8186 01bc 0e6c 02ba
000002c0: 20f3 303c c3a8 5abd d717 853d 9563 693d
000002d0: e78f a7bd d282 dd3d c932 bc3d c36f 8b3d
000002e0: f671 3c3d 5cb7 03be 7977 c43b 6f88 f53d
000002f0: 98c1 97bc e578 3b3e 5b81 283d 4fe8 073e
00000300: 358e 683d fba6 77bc a93a 90bc c0f6 5cbd
00000310: c442 db3d 30db 08be 3bba d0bc cae2 81bd
00000320: 9245 543c 0c66 5cbd 58b1 de3c 3b87 9fbb
00000330: ff7c ca3d 5bb9 613c e02b 33bd 66d5 ba3c
00000340: 71e0 a63c e091 c5bd 14dd ee3c 85bb 083e
00000350: 5613 2d3e 3a4e 263e 6a68 b1bc 44ad 353e
00000360: 74f1 e1bc b2d9 e4bd 49d0 29bc eab0 8f3d
00000370: 0206 8dbc ea6d d1bd aee6 fd3b 1286 efbb
00000380: 676b 083b 52d6 71bd 5e17 5c3c 4cc6 c8bc
00000390: cc27 7abc 781e 053e 86c0 88bc 00ab c03c
000003a0: bcbc be3c f2ad 953b b3ee 5bbc ae58 17bd
000003b0: 6ad8 f0bd 6f98 0c3f 7552 0d3c 9248 2fbd
000003c0: 44f7 a8ba da48 9a3e 502d 243d a3a9 cf3d
000003d0: 5fb4 53bc a8f3 e6bb 8dd0 debc 2275 ed3d
000003e0: 3a7c 623d 7213 c43e 4d67 d5bb 79ed 2dbd
000003f0: 941b 8fbc 0fc8 25be dc71 133c 37be b13c

fc1.bias f4 [400]
-0.036744427 -0.015685191 -0.10545136 -0.072835565 -0.12166092 -0.14082667 -0.30416802 0.149324
0.01201358 -0.058797687 0.2179213 0.08846063 -0.23360753 -0.053509515 -0.07766615 -0.21150379
-0.26797086 -0.014184798 -0.06478055 -0.15888152 -0.105052345 -0.40990385 -0.13610832 0.20036578
-0.3357716 0.056812245 -0.27946237 -0.17519327 -0.15142721 -0.16505373 0.1998836 -0.3822871
0.055600088 -0.017462216 -0.12662913 0.03527545 -0.091920786 0.016829744 -0.08012976 -0.03388737
-0.24890566 -0.109337606 -0.2482189 -0.15390088 -0.029302113 0.009743299 -0.021088015 -0.21657303
0.04400674 -0.15625691 -0.41209164 -0.062512025 -0.122088045 -0.0077447183 -0.06100918 -0.25441465
0.037670802 -0.27881715 -0.0052098352 -0.1313579 -0.03303927 0.10662831 0.07449594 -0.31568345
0.14863746 -0.20426312 0.15767008 0.09402565 0.11844108 -0.32565284 -0.21979727 -0.21082677
-0.19070135 0.062787704 -0.10997421 -0.3969445 0.18880595 0.02473487 0.022115467 -0.25153157
0.09083817 -0.13131663 0.11703041 -0.2811518 0.14516751 0.013267326 0.18023023 0.10443609
-0.16088061 -0.33052978 0.01198655 -0.087442294 0.072446205 -0.051433112 -0.029029636 0.07807827
0.17114106 -0.1573919 -0.08403512 -0.0048163417 0.013141175 0.10037731 -0.2871468 -0.170187
-0.33030513 -0.1473489 -0.08296974 -0.29896587 -0.06514143 -0.11324656 0.01906653 -0.46150833
-0.26389623 -0.28106746 0.11959703 -0.13249892 0.028646618 -0.31417906 -0.085312486 -0.21552832
-0.15517639 -0.3450957 -0.17920113 0.0016209072 -0.33431423 0.016813727 -0.21528931 0.0036115274
0.1811216 -0.18210219 -0.20857158 -0.18109606 -0.06894894 -0.08845903 -0.3983859 -0.33563393
-0.06399709 -0.19084224 -0.017255723 0.10730457 -0.046764113 -0.17706841 -0.08822519 0.11291629
-0.049964357 -0.035275366 0.06713216 0.1366361 0.0064479145 -0.019555487 -0.13828678 -0.29221854
-0.16750626 0.009266269 -0.1347455 -0.16342741 -0.06697411 -0.086312324 -0.08124634 -0.002172915
-0.04547576 -0.19299959 -0.22653173 -0.22054377 0.11710037 0.034993626 -0.096586846 -0.092327245
-0.05176064 -0.350552 -0.020407338 -0.020385567 -0.118002646 -0.075191595 -0.003689093 -0.020271473
0.21504752 -0.1748039 0.03831579 -0.13188443 -0.045740534 -0.35123247 -0.105261154 -0.20434222
-0.3914638 0.22737254 -0.07106716 0.07769206 -0.14728837 -0.17242542 -0.2140129 0.10447907
-0.020513313 -0.3109028 0.021104006 0.08098309 0.0318347 -0.14179932 -0.28099024 -0.07113402
0.14169279 -0.09241499 -0.18347274 0.0029795575 -0.033889256 -0.1303087 0.048467215 0.2088457
0.013188733 0.17522387 -0.07403942 -0.037661985 -0.0873709 -0.10126002 -0.045813363 0.047746807
-0.11830202 -0.10237049 -0.37024328 -0.051431164 -0.062151123 0.08362644 -0.06865229 -0.27477577
-0.07499825 -0.17506215 -0.28913125 -0.22396086 0.096265025 -0.2926823 0.13590562 -0.16705789
0.072320886 -0.02959962 -0.11093404 -0.22521171 -0.12289696 -0.044749442 0.045468662 -0.14721057
-0.21804963 0.0035715525 0.12173991 -0.20052949 0.086261034 0.08201188 -0.27956444 -0.19291295
0.04782144 -0.09553993 0.019622771 -0.2092472 -0.05972173 -0.27622 -0.18334144 -0.34032446
00000000: 5381 16bd 3b7e 80bc e2f6 d7bd d02a 95bd
00000010: 5c29 f9bd de34 10be e9bb 9bbe 64e8 183e
00000020: 9bd4 443c d8d5 70bd c326 5f3e d92a b53d
00000030: d036 6fbe cb2c 5bbd 6e0f 9fbd 7394 58be
00000040: 7a33 89be 5b67 68bc aaab 84bd d6b1 22be
00000050: af25 d7bd ebde d1be fb5f 0bbe b02c 4d3e
00000060: 41ea abbe f5b3 683d b115 8fbe dd65 33be
00000070: bc0f 1bbe d803 29be 49ae 4c3e 23bb c3be
00000080: ebbc 633d ec0c 8fbc 11ab 01be fe7c 103d
00000090: f740 bcbd 88de 893c 121b a4bd 7ccd 0abd
000000a0: 20e1 7ebe 65ec dfbd 182d 7ebe 3198 1dbe
000000b0: fc0a f0bc 5ca2 1f3c c6c0 acbc 52c5 5dbe
000000c0: 6940 343d d001 20be adfd d2be 4e06 80bd
000000d0: 4c09 fabd 68c7 fdbb c3e4 79bd a342 82be
000000e0: b34c 1a3d 1fc1 8ebe 44b7 aabb af82 06be
000000f0: 3054 07bd f25f da3d 5491 983d 43a1 a1be
00000100: 6b34 183e 5a2a 51be 4474 213e 8590 c03d
00000110: 3d91 f23d f8bb a6be 8912 61be f9e2 57be
00000120: 3747 43be d796 803d 293a e1bd 4f3c cbbe
00000130: 5956 413e c8a0 ca3c 7f2b b53c bfc8 80be
00000140: 5d09 ba3d de77 06be a4ad ef3d 21f3 8fbe
00000150: cba6 143e 335f 593c 468e 383e 97e2 d53d
00000160: e3bd 24be 333b a9be 3c63 443c f214 b3bd
00000170: ad5e 943d 87ab 52bd 8fcf edbc 80e7 9f3d
00000180: 9a3f 2f3e 582b 21be 9b1a acbd 67d2 9dbb
00000190: 154e 573c 9e92 cd3d e804 93be 8045 2ebe
000001a0: c11d a9be a1e2 16be 0aec a9bd 0e12 99be
000001b0: df68 85bd d0ed e7bd 6931 9c3c d24a ecbe
000001c0: 681d 87be 13e8 8fbe 4aef f43d ccad 07be
000001d0: 50ac ea3c 14dc a0be 50b8 aebd 75b3 5cbe
000001e0: 8fe6 1ebe 62b0 b0be 8080 37be 9f74 d43a
000001f0: 3c2b abbe f1bc 893c cd74 5cbe 60af 6c3b
00000200: f177 393e ff78 3abe ca93 55be 3f71 39be
00000210: 1a35 8dbd 022a b5bd 3df9 cbbe 36d8 abbe
00000220: e810 83bd 266c 43be e05b 8dbc 80c2 db3d
00000230: ba8b 3fbd 6c51 35be 69af b4bd a840 e73d
00000240: 6da7 4cbd e77c 10bd 967c 893d 55ea 0b3e
00000250: 0749 d33b d432 a0bc 0d9b 0dbe ab9d 95be
00000260: c386 2bbe 8dd1 173c b9fa 09be 8459 27be
00000270: b929 89bd 84c4 b0bd 7b64 a6bd 7767 0ebb
00000280: ca44 3abd afa1 45be eff7 67be 3ad6 61be
00000290: 52d2 ef3d 7a55 0f3d 53cf c5bd 1116 bdbd
000002a0: f702 54bd 8d7b b3be 4a2d a7bc a2ff a6bc
000002b0: 5fab f1bd 0dfe 99bd b6c4 71bb 5c10 a6bc
000002c0: 6b35 5c3e cbff 32be 05f1 1c3d b60c 07be
000002d0: 6d5a 3bbd bed4 b3be 2993 d7bd 163f 51be
000002e0: f16d c8be 59d4 683e a98b 91bd 041d 9f3d
000002f0: c3d2 16be 4a90 30be 3326 5bbe 1ff9 d53d
00000300: 890b a8bc a72e 9fbe 4fe2 ac3c 76da a53d
00000310: 1a65 023d d733 11be f4dd 8fbe b7ae 91bd
00000320: ea17 113e 1244 bdbd 47e0 3bbe ae44 433b
00000330: 76cf 0abd a56f 05be 8f85 463d a6db 553e
00000340: 8e15 583c e36d 333e fba1 97bd 7443 1abd
00000350: 84ef b2bd 6a61 cfbd cba6 3bbd 2892 433d
00000360: 5448 f2bd 9fa7 d1bd 8790 bdbe 7ca9 52bd
00000370: 2d92 7ebd 5744 ab3d 9299 8cbd 69af 8cbe
00000380: af98 99bd 7e43 33be 0309 94be ff55 65be
00000390: 9926 c53d 74da 95be d82a 0b3e 3911 2bbe
000003a0: f91c 943d e77a f2bc 6331 e3bd e69d 66be
000003b0: 67b1 fbbd 314b 37bd 593d 3a3d 5ebe 16be
000003c0: 6748 5fbe b510 6a3b c652 f93d 9a57 4dbe
000003d0: a0a9 b03d d8f5 a73d 1223 8fbe f98a 45be
000003e0: 6ae0 433d 70aa c3bd efbf a03c e644 56be
000003f0: c69e 74bd b56c 8dbe dcbd 3bbe 023f aebe

fc2.weight f4 [300, 400]
-0.2966158 0.00024275963 0.02381801 -0.007183123 -0.11245321 0.11054443 -0.07430061 0.0125531405
-0.023965845 -0.038600568 -0.14084102 -0.054045487 0.046655905 0.033735096 0.0579776 -0.03328469
0.062120985 -0.04317465 0.011431941 -0.032068465 -0.005370717 -0.18831563 0.083845116 -0.025071498
-0.20379598 -0.106822655 0.047041826 -0.11805831 0.07110953 -0.07490791 -0.16734704 -0.055943817
-0.18016939 0.04084112 0.054349266 0.058531146 0.016574755 -0.11307409 0.10186512 -0.037655048
-0.16207606 -0.029378977 -0.033677425 0.09130056 -0.10650711 0.03201437 0.02214027 -0.054428153
-0.0958837 -0.0056348247 0.06585058 0.015998468 -0.014342454 -0.1418074 -0.024915125 -0.0022190972
-0.007912544 -0.16491568 0.11785561 0.04264316 0.07969906 -0.062281873 -0.011608018 0.03714379
0.08143245 0.06445311 0.00055358105 0.028932499 0.08715282 -0.013044323 0.009241449 -0.01991041
-0.10524892 0.07666258 -0.056715157 0.022878222 0.14381102 -0.024149457 0.024473626 0.07460524
0.039451003 -0.0883575 -0.031821884 0.010932634 0.06244693 0.047511294 0.11484843 0.07500452
0.2207331 -0.0103844935 0.09443573 -0.022759853 -0.13298246 0.16392954 0.036065344 -0.063206695
0.0024771753 0.121082425 0.043869726 -0.044514902 0.0040868227 -0.049463023 -0.22187164 -0.07776739
-0.05164984 -0.04031104 -0.020711847 0.05296949 -0.015482748 -0.052397717 0.015685732 -0.028242663
-0.014941931 0.047888655 0.020393582 0.009792112 -0.1546693 -0.09528875 -0.1064174 -0.05484278
-0.09309304 -0.005119969 0.045186404 0.003131356 -0.19317815 0.056193687 -0.14137264 -0.004434397
-0.1323656 -0.06556152 0.0047331285 -0.10417525 -0.034825996 -0.0070243767 -0.052678358 -0.08189076
-0.10674421 -0.021002587 0.02818777 0.020301785 0.008174465 -0.011112029 0.10674182 0.0042745834
0.017502468 -0.13532189 0.07415953 0.009485589 0.02631656 -0.02376638 0.07944917 -0.03629779
-0.11045004 0.030112494 -0.04965195 0.026512848 0.025738757 0.05025182 -0.012128091 -0.19476803
-0.14927661 0.14838122 0.08144288 -0.027255474 0.09709417 0.072422326 0.01598497 -0.00018943699
-0.08547506 0.06077107 0.12810831 0.09359749 0.016676355 -0.09502785 -0.046308838 0.03294738
-0.1767427 -0.054359324 0.03885308 0.0108222095 0.04382175 0.014592081 -0.12092717 -0.14668539
-0.0036902446 -0.06363235 -0.07473517 0.07560359 -0.15532917 -0.00935847 0.03530618 0.060880266
-0.04619056 -0.07258598 0.089500576 -0.09924669 -0.012805517 -0.07255126 0.018480334 0.10087713
-0.046746172 0.051354505 0.12289323 0.10194133 0.011768428 -0.09888899 -0.21569872 0.019688657
0.07202286 0.07068981 -0.056212764 0.08189321 -0.0908565 0.0070387605 0.0053610173 -0.011018036
0.07900961 0.011568089 -0.025569566 -0.0032917287 -0.101491705 -0.12045579 -0.12388561 -0.12067112
-0.09319425 -0.23629637 -0.03651053 -0.15533298 -0.041787863 0.0693805 -0.21478766 0.12596759
-0.098335646 -0.060216274 -0.065122336 0.0041814875 0.018584544 0.023424704 -0.07400591 0.058619842
-0.016367113 0.008187441 0.03220025 0.051833447 -0.02554381 -0.13492085 -0.13745347 0.006219349
-0.023660898 -0.0395931 -0.1957877 -0.06552505 -0.19553809 -0.059310958 0.033098105 -0.01125407
00000000: 07de 97be 4b8d 7e39 fd1d c33c 6760 ebbb
00000010: de4d e6bd 1e65 e23d eb2a 98bd b0ab 4d3c
00000020: 0554 c4bc a11b 1ebd a138 10be cd5e 5dbd
00000030: 431a 3f3d d02d 0a3d eb79 6d3d 8755 08bd
00000040: 9372 7e3d e7d7 30bd 094d 3b3c 395a 03bd
00000050: d7fc afbb d0d5 40be fdb6 ab3d be62 cdbc
00000060: e5af 50be d6c5 dabd eeae 403d 8ec8 f1bd
00000070: e0a1 913d 5169 99bd 065d 2bbe 5825 65bd
00000080: 537e 38be 0549 273d 569d 5e3d 5bbe 6f3d
00000090: c8c7 873c 6393 e7bd a99e d03d 2e3c 1abd
000000a0: 44f7 25be 2eac f0bc 57f1 09bd cafb ba3d
000000b0: 6620 dabd 8021 033d 835f b53c 0ef0 5ebd
000000c0: ac5e c4bd 56a4 b8bb abdc 863d 380f 833c
000000d0: 9dfc 6abc f635 11be ce1a ccbc 466e 11bb
000000e0: 9da3 01bc a8df 28be 485e f13d 98aa 2e3d
000000f0: 4339 a33d 471b 7fbd 8e2f 3ebc 1624 183d
00000100: 0ec6 a63d feff 833d 321e 113a d903 ed3c
00000110: 2d7d b23d dbb7 55bc 7269 173c 281b a3bc
00000120: bf8c d7bd 4501 9d3d 274e 68bd 1c6b bb3c
00000130: 3243 133e 15d5 c5bc ea7c c83c a2ca 983d
00000140: 6097 213d c7f4 b4bd aa57 02bd ca1e 333c
00000150: 5ac8 7f3d 349b 423d a735 eb3d f89b 993d
00000160: dc07 623e b923 2abc 8567 c13d df72 babc
00000170: 8e2c 08be 25dd 273e 41b9 133d 8372 81bd
00000180: 1b58 223b 10fa f73d beb0 333d 4255 36bd
00000190: c1ea 853b bd99 4abd 5232 63be 8244 9fbd
000001a0: c88e 53bd 301d 25bd e4ab a9bc 89f6 583d
000001b0: 5aab 7dbc fd9e 56bd 5d7f 803c 285d e7bc
000001c0: 00cf 74bc e526 443d 7110 a73c 186f 203c
000001d0: a161 1ebe c026 c3bd 5ef1 d9bd d3a2 60bd
000001e0: 90a7 bebd 6ac5 a7bb 6115 393d 7037 4d3b
000001f0: 7ed0 45be 5a2b 663d fdc3 10be 6b4e 91bb
00000200: d98a 07be 1e45 86bd 5c18 9b3b d559 d5bd
00000210: b4a5 0ebd be2c e6bb 43c5 57bd 58b6 a7bd
00000220: b59c dabd 9e0d acbc 0aea e63c ee4f a63c
00000230: 31ee 053c 3a0f 36bc 759b da3d ce11 8c3b
00000240: 5661 8f3c d291 0abe f4e0 973d 7269 1b3c
00000250: d495 d73c b6b1 c2bc 3fb6 a23d feac 14bd
00000260: a133 e2bd 7aae f63c d85f 4bbd 7931 d93c
00000270: 16da d23c dad4 4d3d e7b4 46bc 4571 47be
00000280: f8db 18be 3ff1 173e 86cb a63d df46 dfbc
00000290: 4fd9 c63d 2852 943d e9f2 823c 9ba3 46b9
000002a0: 8c0d afbd 16eb 783d d32e 033e 0ab0 bf3d
000002b0: da9c 883c f69d c2bd 56ae 3dbd d5f3 063d
000002c0: 0afc 34be e2a7 5ebd 6824 1f3d a34f 313c
000002d0: 6f7e 333d a013 6f3c aaa8 f7bd b234 16be
000002e0: 08d8 71bb ad51 82bd c10e 99bd 0ed6 9a3d
000002f0: 9c0e 1fbe 4554 19bc 379d 103d 965d 793d
00000300: 5032 3dbd f5a7 94bd 144c b73d d941 cbbd
00000310: 3bce 51bc c195 94bd 1264 973c ab98 ce3d
00000320: ea78 3fbd 1a59 523d 72af fb3d 9ec6 d03d
00000330: 5dd0 403c 5086 cabd 20e0 5cbe 1b4a a13c
00000340: b980 933d d2c5 903d 5b3f 66bd a1b7 a73d
00000350: f912 babd 67a5 e63b 79ab af3b fe84 34bc
00000360: cacf a13d 1588 3d3c 4477 d1bc 0bba 57bb
00000370: e2da cfbd 86b1 f6bd bdb7 fdbd 6c22 f7bd
00000380: a0dc bebd adf7 71be 118c 15bd 9c0f 1fbe
00000390: c029 2bbd 5d17 8e3d 4cf1 5bbe a6fd 003e
000003a0: 3364 c9bd 57a5 76bd dc5e 85bd dc04 893b
000003b0: 9d3e 983c 2ae5 bf3c 6990 97bd 5c1b 703d
000003c0: 5314 86bc 9e24 063c 69e4 033d 4f4f 543d
000003d0: 4141 d1bc b128 0abe 9ac0 0cbe aecb cb3b
000003e0: 80d4 c1bc 602c 22bd 927c 48be ff31 86bd
000003f0: 233b 48be 0cf0 72bd e191 073d fe62 38bc

fc2.bias f4 [300]
-0.012270998 0.0640705 -0.051963013 -0.098192334 -0.09772836 -0.04063634 0.031492427 -0.06176417
-0.020558761 -0.11413332 0.015806247 0.02646919 -0.0003959276 -0.042117827 -0.020226037 -0.028886368
-0.12831816 -0.0021561827 0.029689454 -0.016301908 0.08558019 -0.021613127 0.02662494 -0.10595139
0.018299993 -0.06154006 -0.045201145 -0.04219785 -0.028293857 -0.09632695 0.08402844 -0.11254104
-0.13516435 -0.0079496335 0.025407583 -0.06425187 0.04208754 0.04350201 -0.04816801 0.020921752
-0.089159936 -0.1058293 0.08365264 -0.008133085 0.015506549 -0.06438808 -0.10036657 -0.04857853
-0.0553354 -0.05174315 0.05760909 -0.14365867 -0.015897263 -0.019761171 -0.07502061 -0.008945727
-0.16930006 -0.111832194 -0.13505612 -0.057015434 -0.08520452 0.051835824 -0.038468163 -0.009015784
-0.019737022 -0.059367906 -0.013789763 -0.16525367 -0.15915655 -0.14215566 -0.09278362 -0.08545258
0.10389068 0.07808943 -0.10410515 -0.1201457 -0.058478158 -0.08592392 -0.11635377 -0.059867244
-0.06315029 0.08392975 -0.05386006 -0.021583652 -0.1266331 0.04149635 -0.18407267 -0.0035931824
-0.051563855 -0.0493506 0.00023412205 -0.07475294 0.02096218 0.04433622 -0.03556165 0.07238402
-0.09896517 -0.06446458 -0.023278773 -0.20030624 -0.1115296 -0.10891125 0.084781095 -0.082809746
-0.121716194 -0.10614415 -0.08541119 -0.13202532 -0.10974452 -0.1341386 -0.163736 -0.27636808
-0.08302724 -0.18378513 -0.03420887 -0.15365396 -0.06657233 0.018233338 -0.027033344 -0.020729842
-0.041980103 -0.03379832 -0.11358401 -0.06232768 -0.05699653 0.06538025 -0.10360994 -0.00808581
0.01473975 -0.06787869 -0.17177854 -0.06142582 -0.025831863 -0.089737855 -0.06626895 -0.028814238
-0.06837072 0.050988436 -0.16010755 -0.17421032 -0.06839766 -0.07309184 -0.033376668 -0.0837702
0.0048890817 -0.024987664 0.008371994 -0.08139989 -0.115032926 -0.119023666 -0.23822069 0.0018321923
0.011274405 -0.06246396 0.05174637 -0.08522765 -0.013521427 -0.10253099 0.0113019375 -0.025534408
-0.05940025 -0.06328707 -0.08002781 -0.04296721 -0.065107115 0.05252803 -0.009006348 -0.006786009
-0.10913189 -0.20256388 -0.1292065 -0.042924587 -0.0027082802 -0.14846435 -0.138349 -0.060812455
-0.11653735 -0.095142715 -0.045045186 -0.06331602 -0.090991616 0.001162861 0.015530214 0.039506674
-0.03975064 -0.11110058 0.0066134147 -0.06904444 -0.08669338 -0.054489978 0.048652206 -0.08325826
-0.08180541 -0.06285592 -0.057555407 -0.011447101 -0.055290285 -0.058933266 0.039320573 0.002398389
-0.07167663 -0.07067031 -0.1460196 -0.10039724 -0.044318445 0.053418048 -0.15919335 -0.050994653
-0.12842059 0.029601682 -0.043634582 -0.15557684 -0.23605771 0.047567528 -0.23481004 -0.02930785
0.061301745 -0.024420239 0.061869048 -0.029570779 -0.038856518 -0.18871519 -0.0972547 -0.0052341865
-0.20568974 -0.07124232 -0.14957884 -0.022737972 -0.0101450775 -0.030222021 0.033231497 -0.03523907
-0.032631334 -0.032108508 -0.09525399 -0.06113183 0.04155852 0.035332456 -0.1027023 0.012651206
0.019401534 -0.08311384 -0.17182614 -0.15988481 0.0035675429 -0.121030934 -0.086897105 -0.13563852
0.012560086 -0.07233517 -0.016996693 0.008496946 0.006773367 -0.029965227 -0.15359236 0.013242732
00000000: 4c0c 49bc 6537 833d 2bd7 54bd 1019 c9bd
00000010: ce25 c8bd 4a72 26bd 34fe 003d 6dfc 7cbd
00000020: d96a a8bc bbbe e9bd 1a7c 813c ead5 d83c
00000030: 8194 cfb9 be83 2cbd 13b1 a5bc 1ba3 ecbc
00000040: d665 03be be4e 0dbb 4c37 f33c 948b 85bc
00000050: ab44 af3d 030e b1bc 8c1c da3c 0bfd d8bd
00000060: dee9 953c 6e11 7cbd d624 39bd a7d7 2cbd
00000070: 85c8 e7bc 1047 c5bd 1a17 ac3d eb7b e6bd
00000080: 8668 0abe 2e3f 02bc 9023 d03c 7c96 83bd
00000090: fc63 2c3d 2a2f 323d d24b 45bd 1864 ab3c
000000a0: 7c99 b6bd 08bd d8bd 1352 ab3d a240 05bc
000000b0: 2e0f 7e3c e6dd 83bd fd8c cdbd 48fa 46bd
000000c0: 5fa7 62bd a0f0 53bd 82f7 6b3d 421b 13be
000000d0: fa3a 82bc 2ee2 a1bc 68a4 99bd 1991 12bc
000000e0: ff5c 2dbe 4708 e5bd 274c 0abe 0489 69bd
000000f0: b57f aebd cd51 543d cb90 1dbd f0b6 13bc
00000100: 89af a1bc c32b 73bd 75ee 61bc 4238 29be
00000110: eff9 22be 4191 11be 5705 bebd c301 afbd
00000120: a3c4 d43d 5aed 9f3d 1535 d5bd f30e f6bd
00000130: cb86 6fbd e1f8 afbd e34a eebd 5b37 75bd
00000140: f054 81bd 5ce3 ab3d 5e9c 5cbd 33d0 b0bc
00000150: 1bac 01be 14f8 293d 8c7d 3cbe 997b 6bbb
00000160: 9f34 53bd db23 4abd a97e 7539 1218 99bd
00000170: e1b8 ab3c e599 353d 18a9 11bd 133e 943d
00000180: 40ae cabd 0106 84bd 20b3 bebc 141d 4dbe
00000190: a269 e4bd dd0c dfbd b6a1 ad3d 2898 a9bd
000001a0: 5746 f9bd 1b62 d9bd 10ec aebd a531 07be
000001b0: bcc1 e0bd a15b 09be 69aa 27be 1e80 8dbe
000001c0: 300a aabd 2b32 3cbe 9a1e 0cbd 7757 1dbe
000001d0: 1357 88bd 155e 953c 0875 ddbc a1d1 a9bc
000001e0: 54f3 2bbd 1b70 0abd bc9e e8bd 4f4b 7fbd
000001f0: 3275 69bd 15e6 853d 7331 d4bd 587a 04bc
00000200: fe7e 713c fc03 8bbd b7e6 2fbe a499 7bbd
00000210: 589d d3bc 7bc8 b7bd 04b8 87bd d60b ecbc
00000220: f305 8cbd 40d9 503d 3cf3 23be 3164 32be
00000230: 1314 8cbd 2db1 95bd f9b5 08bd b68f abbd
00000240: 9734 a03b eeb2 ccbc b02a 093c fcb4 a6bd
00000250: 6296 ebbd aec2 f3bd 20f0 73be 2c26 f03a
00000260: 48b8 383c 36da 7fbd 00f4 533d d68b aebd
00000270: fa88 5dbc c5fb d1bd c32b 393c 892d d1bc
00000280: ad4d 73bd a79c 81bd 9fe5 a3bd 63fe 2fbd
00000290: e156 85bd a227 573d 5d8f 13bc 2b5d debb
000002a0: 8a80 dfbd e86c 4fbe b54e 04be b1d1 2fbd
000002b0: 677d 31bb 0a07 18be 5cab 0dbe 7b16 79bd
000002c0: 22ab eebd 2fda c2bd 4d81 38bd d4ab 81bd
000002d0: d059 babd 246b 983a 7072 7e3c c0d1 213d
000002e0: 91d1 22bd b388 e3bd 58b5 d83b 2c67 8dbd
000002f0: 4c8c b1bd e230 5fbd 8947 473d 4e83 aabd
00000300: 9889 a7bd 9bba 80bd 38bf 6bbd 9f8c 3bbc
00000310: 1178 62bd 0264 71bd 9c0e 213d 4a2e 1d3b
00000320: 32cb 92bd 98bb 90bd 2986 15be 119d cdbd
00000330: 4287 35bd e2cc 5a3d 9503 23be c5df 50bd
00000340: b080 03be 3a7f f23c 2dba 32bd 894f 1fbe
00000350: 1db9 71be 2bd6 423d 0b72 70be 0417 f0bc
00000360: 8a17 7b3d f40c c8bc 666a 7d3d 6b3e f2bc
00000370: 0328 1fbd 8e3e 41be 792d c7bd 8a83 abbb
00000380: 55a0 52be 7ee7 91bd 322b 19be fc44 babc
00000390: 8a37 26bc 2c94 f7bc c01d 083d d856 10bd
000003a0: 6fa8 05bd 3684 03bd 8614 c3bd 5f65 7abd
000003b0: 4439 2a3d c4b8 103d 9555 d2bd 0147 4f3c
000003c0: f7ef 9e3c 9737 aabd 31f3 2fbe d8b8 23be
000003d0: 70cd 693b 11df f7bd 1cf7 b1bd d3e4 0abe
000003e0: d2c8 4d3c 7624 94bd a63c 8bbc c636 0b3c
000003f0: 1ff3 dd3b a379 f5bc 5147 1dbe 0bf8 583c

fc3.weight f4 [2, 300]
0.0019566633 -0.18410721 0.116921 -0.031878367 0.18430886 -0.0112599265 -0.017930832 -0.0021517386
-0.076275915 -0.24588765 -0.032345705 -0.13641179 0.112654954 -0.046788704 0.4428263 -0.15150699
-0.22725824 -0.06568346 0.091401465 -0.19368121 0.044904705 0.16778617 0.040334545 -0.023011465
-0.12232803 -0.21073416 -0.19729546 0.07036201 -0.040036257 -0.01627168 -0.061997782 -0.32666174
-0.02683703 0.07829498 -0.038064245 0.006199081 0.06685108 -0.0557127 -0.09300529 -0.11682142
-0.13069215 -0.03431293 0.14907277 0.013730754 -0.010851977 0.010731354 -0.0017289591 0.023956615
-0.11957576 -0.14801191 -0.043293264 -0.3007206 -0.0056802607 0.18406272 -0.13261876 0.06589247
0.47677678 0.099164665 0.030700533 -0.13757752 -0.013379142 -0.04159001 -0.07151041 0.109319516
-0.035526685 -0.047534812 -0.060312796 -0.07157435 0.23592958 0.08949663 0.13436878 -0.0118069835
-0.02745911 -0.016752575 0.20730433 -0.22770172 -0.08823872 0.14646809 -0.020497888 0.14169393
-0.3031612 -0.15393798 0.06031154 -0.055424176 -0.097884625 -0.08619216 -0.25312427 -0.061500788
0.17051448 -0.004042015 0.013608686 0.14087017 0.01888875 0.050579973 0.1312408 0.20134588
-0.066038825 -0.16521826 -0.008116996 -0.0031611873 0.09367014 -0.33023256 0.025839796 0.17955051
0.005317788 -0.0311647 -0.014541002 -0.013082715 0.2822272 0.086427085 0.20020507 0.5027855
-0.04362302 0.005087602 0.30172372 0.09978932 0.07723379 0.045839768 0.2097539 -0.04765213
-0.031146798 -0.10574995 -0.12767929 0.121746115 0.093147755 -0.03710584 -0.23931327 -0.069784366
0.009580348 -0.051374797 0.09927602 -0.013142691 0.00762434 -0.11886658 -0.036498494 0.0641382
0.19058667 0.0027406125 0.011739809 -0.32963994 0.12864916 -0.14462774 0.20428656 -0.01984922
0.091074556 -0.14848377 -0.04072992 -0.11974118 0.7668684 -0.32239738 -0.23258188 -0.12550525
-0.023991108 -0.11275364 0.027777607 -0.19194779 -0.06725185 0.17355722 0.03150704 0.20745516
-0.0990885 -0.26475942 0.003518617 0.01130528 -0.025879372 0.22093557 0.07718237 0.128646
0.0060783653 0.118674524 0.14154305 0.080163926 0.0026503613 0.26690674 -0.13374706 0.2082691
0.44672787 -0.26464382 0.009438365 -0.15833391 0.10552595 0.12521538 -0.15124772 0.12150464
0.0074861413 0.34694764 -0.07751499 -0.022586549 -0.24529445 0.0595387 -0.09148352 -0.009800221
0.041963056 -0.022112401 0.37815717 0.009054765 0.006049092 0.00035124607 0.31181413 -0.1839845
0.014979042 0.20570739 0.35039482 0.13261998 0.069662094 -0.059430167 -0.11055484 -0.18077913
-0.33626503 0.10487146 -0.20696473 -0.10523615 0.73161906 0.10480657 -0.19121598 0.009120009
-0.1212007 -0.031355616 0.011283407 -0.037741307 -0.19962734 0.54308146 0.10837264 -0.08067702
0.083745725 -0.120776355 -0.25116852 0.06705887 0.06921667 -0.06352504 0.16913204 -0.00095031835
-0.029191699 -0.24242441 -0.016360369 -0.024588013 -0.017069953 0.14613122 -0.0035807504 0.13609801
0.2667727 0.12879163 0.212187 -0.20748895 -0.03757138 0.12823394 -0.35944852 -0.16891798
-0.0778385 0.4099174 -0.07857147 -0.21675603 0.035902347 -0.06909964 0.0063305646 0.1513168
00000000: 5d3b 003b 9a86 3cbe 4774 ef3d e492 02bd
00000010: 76bb 3c3e 8e7b 38bc aee3 92bc 2f04 0dbb
00000020: 8c36 9cbd f9c9 7bbe ee7c 04bd 88af 0bbe
00000030: a4b7 e63d 83a5 3fbd 21ba e23e a624 1bbe
00000040: 62b6 68be 0d85 86bd b130 bb3d 5e54 46be
00000050: ffed 373d 23d0 2b3e d635 253d 8a82 bcbc
00000060: 1e87 fabd b2ca 57be d207 4abe f519 903d
00000070: 0ffd 23bd 304c 85bc 63f1 7dbd 3540 a7be
00000080: 55d9 dbbc 1e59 a03d 41e9 1bbd a921 cb3b
00000090: 38e9 883d 0033 64bd 8f79 bebd 1240 efbd
000000a0: 2ad4 05be b78b 0cbd 88a6 183e f5f6 603c
000000b0: 7ecc 31bc 90d2 2f3c 3e9e e2ba aa40 c43c
000000c0: 23e4 f4bd 6f90 17be 4754 31bd 0df8 99be
000000d0: 7b21 babb f07a 3c3e 36cd 07be a2f2 863d
000000e0: 161c f43e d816 cb3d af7f fb3c 1fe1 0cbe
000000f0: 3034 5bbc 495a 2abd 0d74 92bd e9e2 df3d
00000100: 6e84 11bd ddb3 42bd 8d0a 77bd 9395 92bd
00000110: 8697 713e 024a b73d f897 093e 1472 41bc
00000120: edf1 e0bc b23c 89bc 9647 543e a42a 69be
00000130: 81b6 b4bd bbfb 153e 30eb a7bc 3718 113e
00000140: f237 9bbe eba1 1dbe 3c09 773d 7604 63bd
00000150: bc77 c8bd 8485 b0bd 8199 81be 40e8 7bbd
00000160: 599b 2e3e e172 84bb f7f6 5e3c 4540 103e
00000170: 94bc 9a3c f22c 4f3d fd63 063e 9d2d 4e3e
00000180: 5d3f 87bd fa2e 29be 26fd 04bc ec2b 4fbb
00000190: 21d6 bf3d 3e14 a9be fbad d33c 17dc 373e
000001a0: d740 ae3b 1d4d ffbc 623d 6ebc e258 56bc
000001b0: 1580 903e af00 b13d 8f02 4d3e 8db6 003f
000001c0: 0dae 32bd e6b5 a63b 887b 9a3e 585e cc3d
000001d0: c02c 9e3d 7bc2 3b3d bac9 563e e12e 43bd
000001e0: 9227 ffbc 6e93 d8bd 5cbe 02be 0756 f93d
000001f0: 40c4 be3d 4bfc 17bd 8a0e 75be 1beb 8ebd
00000200: e4f6 1c3c 616e 52bd 3a51 cb3d 7154 57bc
00000210: 99d5 f93b 5270 f3bd 727f 15bd e35a 833d
00000220: 2729 433e d99b 333b 5458 403c 91c6 a8be
00000230: 9bbc 033e 4b19 14be 7f30 513e d59a a2bc
00000240: 4c85 ba3d 210c 18be 6bd4 26bd dd3a f5bd
00000250: 7d51 443f 4511 a5be f229 6ebe 7384 00be
00000260: 0089 c4bc 61eb e6bd dd8d e33c f68d 44be
00000270: 57bb 89bd fcb8 313e 870d 013d 206f 543e
00000280: e9ee cabd 8c8e 87be 9998 663b c839 393c
00000290: fa00 d4bc ef3c 623e ca11 9e3d c7bb 033e
000002a0: 062d c73b a10b f33d a9f0 103e fc2c a43d
000002b0: afb1 2d3b 00a8 883e fdf4 08be 7f44 553e
000002c0: 84b9 e43e 657f 87be 5fa3 1a3c 4922 22be
000002d0: fd1d d83d 7638 003e afe0 1abe 6dd7 f83d
000002e0: 4e4e f53b 1fa3 b13e 2ec0 9ebd 6d07 b9bc
000002f0: 782e 7bbe dade 733d b65b bbbd 1b91 20bc
00000300: 74e1 2b3d 1125 b5bc d19d c13e 705a 143c
00000310: 7637 c63b 7327 b839 1aa6 9f3e 6f66 3cbe
00000320: a86a 753c f5a4 523e f366 b33e 88cd 073e
00000330: 00ab 8e3d 0c6d 73bd 936a e2bd 2a1e 39be
00000340: ee2a acbe d9c6 d63d 90ee 53be 0d86 d7bd
00000350: 634b 3b3f d4a4 d63d 1fce 43be 176c 153c
00000360: 1338 f8bd bf6e 00bd 0ade 383c a196 1abd
00000370: 1c6b 4cbe 6307 0b3f 7af2 dd3d fe39 a5bd
00000380: e182 ab3d 9859 f7bd 2999 80be 2956 893d
00000390: 78c1 8d3d 6b19 82bd f330 2d3e c91e 79ba
000003a0: 6e23 efbc 1b3e 78be 2e06 86bc cd6c c9bc
000003b0: 49d6 8bbc 6ca3 153e 06ab 6abb 475d 0b3e
000003c0: 6e96 883e f4e1 033e 8d47 593e fc77 54be
000003d0: 73e4 19bd c24f 033e a309 b8be d6f8 2cbe
000003e0: cb69 9fbd b2e0 d13e 14ea a0bd 4bf5 5dbe
000003f0: 570e 133d 1d84 8dbd a070 cf3b cbf2 1a3e

fc3.bias f4 [2]
-0.0022547734 -0.038162407
00000000: d2c4 13bb 2f50 1cbd

bn1.weight f4 [400]
1.2039571 1.2168703 1.1431693 1.0387233 1.2461932 1.0020323 0.9931094 0.6741064
0.97320354 1.0827223 1.1112168 0.93641454 1.1944587 1.0265453 0.90569586 0.98344606
1.0148563 0.9727268 0.79669946 0.7492281 1.057392 1.356604 0.87799406 0.99572545
1.3165438 1.6181695 0.8119284 1.0429492 0.95247513 1.0697515 1.14539 1.1470345
1.108104 1.0878062 1.0016514 1.232263 0.9779777 1.1021805 0.88908464 0.9724082
1.1226264 1.059073 1.7161727 1.0109572 1.084644 0.77636987 0.9018294 1.0366404
1.2611462 1.1856444 1.3755696 1.425888 1.2169477 0.9783716 0.856206 1.0909052
0.9387398 1.0140955 0.9604808 1.3955786 1.0959607 1.118422 0.8756833 0.8668076
1.0927432 1.791972 1.1319036 0.92316574 0.963111 1.1841952 1.1939268 1.0045905
1.0196611 0.9447216 1.0124716 1.0237597 1.2900887 1.102835 1.0924878 1.2863501
0.9041585 1.0963472 1.0507321 0.8910011 0.8637816 1.0941765 1.0159838 0.88619167
1.3531651 1.1914073 0.85159796 0.9718616 0.96841943 1.0072521 0.90126836 0.96823525
1.0949074 1.057311 0.94804776 0.9602223 0.8929106 1.0440515 1.2446061 0.8353225
1.2500229 1.1761515 0.8043257 1.0854741 1.0324346 1.0432734 0.90604585 1.11207
0.98411703 1.0566659 0.9015029 1.0474267 1.0596992 1.1487949 0.98872054 1.0805105
0.9469338 1.0085341 1.0332928 1.0691822 1.3554394 0.93582904 1.036228 0.8147364
1.0749711 1.1845163 0.8924718 0.9719711 0.9414013 0.9087631 1.221573 1.0130439
0.9684398 0.98522 0.92442495 0.8864349 0.92398745 1.0949866 1.1082493 1.1015459
1.1688968 1.1184603 0.9359137 0.8624929 0.9772011 0.75769114 1.4274293 0.95816225
0.9857392 1.0869564 1.0262263 0.92606413 1.5436245 1.4475293 0.9376151 1.1092433
0.84890014 1.1439403 1.0465975 0.7479423 0.8657333 0.8732992 1.1308935 1.4482216
0.88743126 1.0339406 1.1768913 0.987666 0.9157534 1.005046 1.1140593 0.946692
1.1510329 1.0542058 0.9719927 1.1146808 1.1669571 0.953857 1.1267554 1.0106137
1.1322881 1.607889 1.166308 0.79018736 1.1606209 1.4228659 0.99331576 0.8657613
1.2345196 1.0700895 0.84231937 0.89731795 0.90957636 1.0936923 0.96662945 1.121996
0.87112916 1.0468841 0.9461211 1.1676309 0.7959987 1.4314293 1.1263742 0.9228351
1.2078404 1.2303634 0.9705117 1.1148087 1.0249243 0.935644 0.87401867 1.0544783
1.2497388 1.0539072 1.115504 1.1198167 1.2142369 1.0841082 0.99432975 1.2391431
1.0562129 1.1878114 1.2419541 0.97051036 1.5052668 0.9893788 1.2788093 0.96854115
1.0465969 1.109358 1.5920103 0.9832038 1.0047728 0.9568023 1.0280323 1.2706413
1.1535343 1.0046684 0.8424393 1.0494626 1.0283417 0.99344224 0.9602108 1.032569
1.0540804 0.92163306 1.121238 1.1582321 0.9751343 0.9606466 1.0297289 1.3425393
00000000: 441b 9a3f 68c2 9b3f 5f53 923f e3f4 843f
00000010: 4283 9f3f 9842 803f 6b3c 7e3f 3d92 2c3f
00000020: de23 793f a596 8a3f 5a3c 8e3f ddb8 6f3f
00000030: 06e4 983f d665 833f afdb 673f 1fc3 7b3f
00000040: d0e6 813f a004 793f 7ff4 4b3f 6acd 3f3f
00000050: 9f58 873f 33a5 ad3f 38c4 603f dde7 7e3f
00000060: 8284 a83f 2e20 cf3f 8ada 4f3f 5c7f 853f
00000070: 69d5 733f 9eed 883f 249c 923f 07d2 923f
00000080: 5ad6 8d3f 3c3d 8b3f 1d36 803f cbba 9d3f
00000090: bf5c 7a3f 4014 8d3f 0d9b 633f beef 783f
000000a0: 39b2 8f3f b48f 873f 8cab db3f 0c67 813f
000000b0: 9dd5 8a3f 2dc0 463f 4bde 663f a2b0 843f
000000c0: 3d6d a13f 32c3 973f aa12 b03f 7f83 b63f
000000d0: f1c4 9b3f 9076 7a3f 5130 5b3f c8a2 8b3f
000000e0: 4051 703f e2cd 813f 12e2 753f 52a2 b23f
000000f0: 7148 8c3f 7428 8f3f c82c 603f 1ae7 5d3f
00000100: 02df 8b3f 575f e53f 38e2 903f 9754 6c3f
00000110: 718e 763f b593 973f 98d2 983f 6c96 803f
00000120: 4184 823f 46d9 713f ab98 813f 8f0a 833f
00000130: a021 a53f b329 8d3f a4d6 8b3f 1fa7 a43f
00000140: ee76 673f 1b55 8c3f 647e 863f a618 643f
00000150: ca20 5d3f fa0d 8c3f c20b 823f 75dd 623f
00000160: 8434 ad3f 0980 983f 5302 5a3f eccb 783f
00000170: 56ea 773f a3ed 803f 86b9 663f 44de 773f
00000180: ed25 8c3f f855 873f 42b3 723f 21d1 753f
00000190: ca95 643f 7ba3 853f 414f 9f3f b2d7 553f
000001a0: c000 a03f 228c 963f 4ae8 4d3f d1f0 8a3f
000001b0: d126 843f fc89 853f 9ff2 673f 4f58 8e3f
000001c0: 18ef 7b3f d440 873f e5c8 663f 1412 863f
000001d0: 39a4 873f b60b 933f ca1c 7d3f 2b4e 8a3f
000001e0: 416a 723f a517 813f f042 843f f6da 883f
000001f0: 0a7f ad3f 7e92 6f3f 1ea3 843f 9192 503f
00000200: a798 893f 3b9e 973f 0879 643f 19d3 783f
00000210: adff 703f b3a4 683f 815c 9c3f 6cab 813f
00000220: aceb 773f 6137 7c3f 1da7 6c3f 66ed 623f
00000230: 718a 6c3f 8528 8c3f 1ddb 8d3f 75ff 8c3f
00000240: 699e 953f b529 8f3f 0a98 6f3f 56cc 5c3f
00000250: da29 7a3f 0cf8 413f 01b6 b63f 1f4a 753f
00000260: 6759 7c3f 6321 8b3f 625b 833f 8a12 6d3f
00000270: 7d95 c53f a448 b93f 8b07 703f affb 8d3f
00000280: 8551 593f a36c 923f e8f6 853f 2679 3f3f
00000290: b3a0 5d3f 8990 5f3f 1ec1 903f 535f b93f
000002a0: b22e 633f 2a58 843f 60a4 963f aed7 7c3f
000002b0: d16e 6a3f 59a5 803f 7f99 8e3f 685a 723f
000002c0: 0c55 933f 37f0 863f 83d4 783f dcad 8e3f
000002d0: da5e 953f f92f 743f 8539 903f ca5b 813f
000002e0: d1ee 903f 4fcf cd3f 9549 953f b849 4a3f
000002f0: 3a8f 943f 7820 b63f f149 7e3f 88a2 5d3f
00000300: bd04 9e3f b1f8 883f 3ea2 573f a1b6 653f
00000310: ffd9 683f 1cfe 8b3f 0775 773f 919d 8f3f
00000320: 5202 5f3f 4c00 863f fe34 723f ee74 953f
00000330: 92c6 4b3f 1339 b73f 082d 903f ec3e 6c3f
00000340: 849a 9a3f 8c7c 9d3f 7473 783f 0db2 8e3f
00000350: b830 833f 5d86 6f3f b0bf 5f3f 25f9 863f
00000360: 71f7 9f3f 6ee6 863f d6c8 8e3f 2756 8f3f
00000370: 1d6c 9b3f 0fc4 8a3f 658c 7e3f 3e9c 9e3f
00000380: fc31 873f 340a 983f 5af8 9e3f 5e73 783f
00000390: 95ac c03f ee47 7d3f 06b0 a33f 50f2 773f
000003a0: e3f6 853f 71ff 8d3f fec6 cb3f 3fb3 7b3f
000003b0: 659c 803f fff0 743f 9096 833f 60a4 a23f
000003c0: 03a7 933f f998 803f 1aaa 573f ca54 863f
000003d0: b3a0 833f 3b52 7e3f 60d0 753f 392b 843f
000003e0: 1bec 863f 25f0 6b3f ba84 8f3f f340 943f
000003f0: 67a2 793f f0ec 753f 28ce 833f 54d8 ab3f

bn1.bias f4 [400]
0.13128674 0.13465893 -0.19673403 -0.35941002 0.11885857 -0.12515067 0.085744604 0.14363372
-0.15309586 0.01596923 0.1733714 0.20027187 0.015327765 0.05012026 0.15983644 0.17016423
-0.17043012 0.16128583 -0.23802936 0.20594199 0.15344715 -0.067014664 -0.094181366 -0.19501458
-0.007593446 -0.18176988 0.17421061 -0.21354985 -0.10397857 -0.026599213 0.08419923 0.14555064
0.035460822 0.055524465 0.023481283 0.031905554 0.010080664 0.31526342 0.11424784 -0.10704511
0.15316533 0.13344356 0.09030833 0.169746 -0.007185714 0.11491112 0.1111553 0.010922316
-0.16683668 0.1624359 0.26475015 0.03359299 0.15322587 0.28508922 0.058813028 0.0048802337
-0.12469665 0.01578254 0.054902602 0.22617836 0.047542196 0.059385017 0.09459742 0.22113156
-0.06033053 0.12545855 0.11645113 0.041735392 -0.035594095 0.05810778 0.20542984 0.07603263
-0.09045614 0.11509698 0.15250427 -0.17763306 0.13710195 0.1664521 0.28414023 -0.14029527
-0.03830919 -0.1617683 0.23921466 -0.010300058 0.09794452 -0.33473536 0.15796497 0.060583476
0.13875374 0.07030412 0.22810836 0.06149859 -0.12518704 -0.21888092 -0.05630407 0.041906256
0.08538151 0.0050152615 -0.18231282 0.05517594 -0.13568643 0.3133719 0.03328507 0.20981625
0.05704384 0.024298573 -0.04636222 -0.27510318 0.05429958 0.5126945 0.23928398 -0.27003115
-0.12653625 0.093732625 0.016650792 -0.07423027 0.148196 -0.2382357 -0.034509175 -0.049741495
-0.19225085 0.10105866 -0.031836588 -0.041279268 0.10317685 -0.13467006 0.037162412 0.033626758
0.17400277 -0.16523728 0.116594195 0.06642621 0.0971714 0.017022584 0.06698603 -0.18035072
0.05077734 0.07603423 0.10750759 0.07101444 0.027752785 -0.16656154 0.30819985 0.004487489
0.054908518 -0.13782384 0.19881298 0.29313886 0.0035670395 -0.1465959 0.2587669 0.09485064
-0.14264616 0.11191217 0.73917097 -0.09236085 -0.21955906 0.12906021 0.017702524 0.15355963
0.065392055 -0.05035634 0.12805058 0.07658814 -0.028053405 0.3289434 -0.31923467 0.038970042
0.069394365 -0.1851533 0.25820476 0.03316551 0.45663282 -0.06448634 -0.085584685 0.065476105
0.031739756 0.24619107 -0.037450507 0.19857341 0.16922554 0.10407993 -0.042063154 0.30001694
0.21502629 -0.17911045 0.32363126 0.35917658 0.24480124 -0.21014652 0.21975258 0.060350217
0.15907316 0.009816473 -0.05436079 0.029202836 0.17488033 -0.25077555 0.17717743 -0.041362856
0.116916 -0.029678708 0.1362319 0.16263004 -0.02488983 -0.094164446 0.07563978 0.10298973
-0.16578645 0.18180367 0.1562418 0.047526326 0.23780298 -0.11603949 0.070650525 -0.10285773
-0.16861545 0.059512645 -0.22271909 0.1891278 0.025054935 -0.051643338 -0.0470232 0.2198806
-0.19780464 0.2018492 0.22170854 -0.08890799 0.13003862 -0.14034003 0.24025394 -0.023691896
0.07129271 -0.051570714 -0.3356837 0.21738268 0.047576234 0.015910503 0.35896692 -0.026678724
0.04392029 -0.23993102 0.14546297 -0.07486598 0.14948046 -0.02308245 0.19187263 -0.032249745
0.24407166 -0.21586691 0.040868036 -0.18688217 0.27014667 -0.21772793 0.20073964 0.013993373
00000000: 0870 063e 08e4 093e a574 49be 9704 b8be
00000010: 1f6c f33d 7f27 00be de9a af3d b814 133e
00000020: 29c5 1cbe e7d1 823c 4688 313e 1214 4d3e
00000030: 4e21 7b3c e74a 4d3d 2aac 233e 883f 2e3e
00000040: 3c85 2ebe 1d28 253e f8bd 73be 75e2 523e
00000050: 4021 1d3e fc3e 89bd 29e2 c0bd e7b1 47be
00000060: 71d2 f8bb e221 3abe 4464 323e d0ac 5abe
00000070: b7f2 d4bd 98e6 d9bc a570 ac3d 3a0b 153e
00000080: 5e3f 113d 9f6d 633d d25b c03c 66af 023d
00000090: 5f29 253c 356a a13e c6fa e93d 773a dbbd
000000a0: 5fd7 1c3e 6ea5 083e 93f3 b83d e5d1 2d3e
000000b0: 2376 ebbb 8556 eb3d 64a5 e33d 84f3 323c
000000c0: 3cd7 2abe 9955 263e 558d 873e ce98 093d
000000d0: 3ee7 1c3e 37f7 913e eee5 703d 5eea 9f3b
000000e0: f560 ffbd 634a 813c 8de1 603d 4d9b 673e
000000f0: 9bbb 423d b43d 733d 4bbc c13d 5070 623e
00000100: 251d 77bd 3578 003e ee7d ee3d bbf2 2a3d
00000110: 1dcb 11bd 6c02 6e3d 335c 523e ffb6 9b3d
00000120: 1241 b9bd f7b7 eb3d 142a 1c3e 71e5 35be
00000130: 7464 0c3e 6b72 2a3e d47a 913e 90a9 0fbe
00000140: 19ea 1cbd 97a6 25be b0f4 743e 93c1 28bc
00000150: 2397 c83d 6f62 abbe 92c1 213e 6126 783d
00000160: 7615 0e3e 9bfb 8f3d 3d95 693e f2e5 7b3d
00000170: 0831 00be 5222 60be 199f 66bd e5a5 2b3d
00000180: 80dc ae3d 1057 a43b 36b0 3abe 2b00 623d
00000190: 62f1 0abe 4872 a03e ed55 083d 12da 563e
000001a0: cda6 693d cd0d c73c 50e6 3dbd 53da 8cbe
000001b0: 3d69 5e3d f23f 033f dc06 753e 8641 8abe
000001c0: b892 01be e4f6 bf3d 3e67 883c 0a06 98bd
000001d0: b1c0 173e 0ff4 73be 7e59 0dbd bdbd 4bbd
000001e0: 68dd 44be d8f7 ce3d 1567 02bd 7314 29bd
000001f0: 624e d33d f3e6 09be 9d37 183d 36bc 093d
00000200: c82d 323e f633 29be f0c8 ee3d 770a 883d
00000210: cd01 c73d f272 8b3c f92f 893d dcad 38be
00000220: e6fb 4f3d d6b7 9b3d f02c dc3d 0570 913d
00000230: cf59 e33c 1c8f 2abe 5fcc 9d3e c90b 933b
00000240: c1e7 603d b121 0dbe a195 4b3e 4c16 963e
00000250: fec4 693b 3c1d 16be 187d 843e 0d41 c23d
00000260: d611 12be 3532 e53d 4f3a 3d3f af27 bdbd
00000270: 17d4 60be 5c28 043e e204 913c bc3e 1d3e
00000280: 45ec 853d 7342 4ebd b11f 033e 3eda 9c3d
00000290: 41d0 e5bc 456b a83e ba72 a3be 0d9f 1f3d
000002a0: a21e 8e3d d498 3dbe 6a33 843e 8fd8 073d
000002b0: c7cb e93e 6a11 84bd 0647 afbd 5618 863d
000002c0: 8c01 023d 8319 7c3e b465 19bd d456 4b3e
000002d0: 7649 2d3e dc27 d53d 6a4a 2cbd d29b 993e
000002e0: da2f 5c3e bb68 37be ffb2 a53e fee5 b73e
000002f0: 2dad 7a3e a630 57be d206 613e ca31 773d
00000300: 13e4 223e 46d5 203c 6ba9 5ebd c93a ef3c
00000310: d413 333e a765 80be 006e 353e 196c 29bd
00000320: a871 ef3d c320 f3bc 6080 0b3e 7d88 263e
00000330: c2e5 cbbc 4ad9 c0bd 07e9 9a3d 48ec d23d
00000340: ecc3 29be be2a 3a3e dafd 1f3e f7aa 423d
00000350: a082 733e 1da6 edbd 39b1 903d 13a7 d2bd
00000360: 87a9 2cbe 88c3 733d 7910 64be b8aa 413e
00000370: 0240 cd3c f787 53bd 669b 40bd 6128 613e
00000380: 4d8d 4abe 8fb1 4e3e 9007 633e 6415 b6bd
00000390: d828 053e 4cb5 0fbe 2105 763e 8215 c2bc
000003a0: ea01 923d d03b 53bd bcde abbe 9199 5e3e
000003b0: 4cdf 423d be56 823c 83ca b73e 578d dabc
000003c0: c3e5 333d 7ab0 75be 3ff4 143e 5653 99bd
000003d0: 6811 193e 6817 bdbc 427a 443e 4f18 04bd
000003e0: eced 793e 370c 5dbe 3e65 273d 0a5e 3fbe
000003f0: aa50 8a3e 12f4 5ebe b18e 4d3e 7644 653c

bn1.running_mean f4 [400]
0.30703092 0.113119945 0.9462006 3.450751 0.17199469 1.4675484 0.33646697 3.396755
0.731997 2.2799132 0.099510185 0.024158224 0.36045733 0.523041 1.6495181 0.7963862
2.0151649 0.028051082 4.0012803 0.131313 0.06290754 0.38850775 0.04104713 1.2780423
0.2976477 0.27553996 0.8884555 0.020112494 2.731889 0.10279974 0.9403312 0.20538518
0.47352126 2.3645883 0.86550486 0.35264903 0.030486327 0.013243408 0.27001023 0.95216876
0.038296722 0.38641733 0.20711064 0.19974318 2.1731632 5.119289 0.03919224 0.030777693
1.737165 0.26658535 0.08352701 0.062624246 0.48966703 0.52840394 1.3712286 3.0937052
1.3387657 0.014721298 0.10627408 0.06675105 0.45324516 0.08447137 1.2940651 1.9406228
0.13359402 0.19149047 2.2820797 0.09708851 1.1814703 0.52046126 0.073060185 0.5903354
1.2528462 0.8350509 0.06821528 0.31987742 0.36441457 0.06625651 1.6050292 0.0024386076
1.8556474 1.4868768 0.59871703 0.7119913 1.5694784 6e-45 0.4226855 1.8556429
0.24404566 0.4969398 2.3852367 2.5712192 1.3833344 0.725519 1.3869684 1.2220212
1.2288928 0.29576814 1.4959915 2.1728725 0.15863785 0.5114237 0.18469375 0.0860605
0.06738842 1.97451 0.1480017 6e-45 0.5188297 6e-45 1.0218554 0.088388875
0.030707952 1.4087147 1.8288279 0.46471328 0.56717306 1.2317895 0.080028385 2.47398
1.3521763 0.06274691 0.5317376 1.36778 0.3932859 0.001523271 0.58786684 3.2372239
0.53819704 1.0222436 1.2793932 0.8375854 1.4756126 0.021906966 0.11638284 0.52521604
2.3708544e-06 0.056633946 0.042351734 0.231384 0.37984523 0.095752314 0.074572094 0.637995
0.86358523 0.019144166 0.087600045 1.1854017 0.15276043 1.5130748 0.27828512 0.36226696
0.6643261 0.07846617 2.1394837e-10 0.355806 0.09978954 0.17440242 1.984815 0.21279526
0.32629782 0.47817317 0.28755662 1.6923825 0.2538691 0.13487834 6e-45 0.15062846
0.5445587 0.060374055 0.58382505 0.67840827 0.53062356 1.1231698 0.0010638417 0.026267268
0.40668762 2.4395447 0.8372373 6e-45 0.54114974 0.27278867 0.010902432 0.2682183
0.26478493 0.87986434 0.09277898 2.308723 0.15712945 1.775833 0.21228272 1.2775085
0.38171414 0.303337 1.0091918 1.3718231 0.047574054 0.81322175 1.7657173 0.41168913
1.1519545 0.84645903 0.054296937 0.2358057 1.0100237 0.29207066 0.40406448 2.4175906
1.653813 0.7957551 0.2739526 0.39493084 0.054094154 2.7743974 0.1459845 1.7513899
0.4186026 0.5781806 0.7674784 0.73278517 0.42872724 2.5555513 0.06772745 0.2368345
0.70852965 0.08950784 0.4438476 0.5560785 0.31072906 0.032742105 0.12878545 0.88524264
0.3105205 0.12481863 0.25933704 0.0002804009 0.39577013 0.00010395127 0.10664676 0.15149635
0.7689533 0.091435134 0.46598288 0.40039113 0.013940692 0.705923 0.42221275 2.966065
0.6290514 0.13086827 1.0687966 0.5167626 0.09603274 0.18810059 0.03190159 0.37017098
00000000: 2833 9d3e 6eab e73d 343a 723f 1bd9 5c40
00000010: 601f 303e a0d8 bb3f 6645 ac3e 6f64 5940
00000020: 2864 3b3f 19ea 1140 ffcb cb3d 78e7 c53c
00000030: dd8d b83e 04e6 053f 6923 d33f f7df 4b3f
00000040: 76f8 0040 62cb e53c 7d0a 8040 ea76 063e
00000050: abd5 803d 7dea c63e 0921 283d e496 a33f
00000060: 4865 983e 9313 8d3e d271 633f f5c2 a43c
00000070: 45d7 2e40 ac88 d23d 8cb9 703f 7e50 523e
00000080: 6171 f23e 6a55 1740 ba91 5d3f 6a8e b43e
00000090: 76be f93c e1fa 583c c83e 8a3e 55c1 733f
000000a0: 06dd 1c3d 7ed8 c53e d014 543e 7a89 4c3e
000000b0: 1b15 0b40 37d1 a340 0b88 203d 8021 fc3c
000000c0: 6c5b de3f e07d 883e 3610 ab3d 2441 803d
000000d0: a3b5 fa3e 7b45 073f 6b84 af3f 44ff 4540
000000e0: ad5c ab3f 9931 713c 3aa6 d93d c6b4 883d
000000f0: c00f e83e 53ff ac3d eda3 a53f 5466 f83f
00000100: dfcc 083e 1416 443e 980d 1240 57d6 c63d
00000110: 6b3a 973f f33c 053f 94a0 953d 3920 173f
00000120: 445d a03f e5c5 553f 74b4 8b3d f9c6 a33e
00000130: 8c94 ba3e 7eb1 873d 9971 cd3f 0cd1 1f3b
00000140: db85 ed3f fb51 be3f 8545 193f 1045 363f
00000150: abe4 c83f 0400 0000 3c6a d83e b585 ed3f
00000160: 1be7 793e e56e fe3e b8a7 1840 db8e 2440
00000170: 1a11 b13f 9dbb 393f 2e88 b13f 316b 9c3f
00000180: 5c4c 9d3f ec6e 973e a67c bf3f 5810 0b40
00000190: f671 223e aaec 023f 5c20 3d3e 7d40 b03d
000001a0: f102 8a3d bebc fc3f c28d 173e 0400 0000
000001b0: 06d2 043f 0400 0000 28cc 823f 3a05 b53d
000001c0: 3e8f fb3c c350 b43f 0817 ea3f e6ee ed3e
000001d0: 4132 113f 47ab 9d3f ece5 a33d b055 1e40
000001e0: 1d14 ad3f 7481 803d f51f 083f 6a13 af3f
000001f0: c55c c93e 7ea8 c73a 717e 163f ad2e 4f40
00000200: 48c7 093f e1d8 823f 28c3 a33f ff6b 563f
00000210: e0e0 bc3f 3d76 b33c 205a ee3d 8f74 063f
00000220: f81a 1f36 fff8 673d 0379 2d3d edef 6c3e
00000230: 137b c23e ca19 c43d 41b9 983d a453 233f
00000240: ec13 5d3f 3ad4 9c3c a767 b33d 3ebb 973f
00000250: 3b6d 1c3e 6fac c13f 637b 8e3e 0e7b b93e
00000260: 4611 2a3f dfb2 a03d 1d3d 6b2f 342c b63e
00000270: 755e cc3d 8c96 323e 6b0e fe3f 00e7 593e
00000280: 8210 a73e 1dd3 f43e 9f3a 933e fd9f d83f
00000290: 21fb 813e 8c1d 0a3e 0400 0000 593e 1a3e
000002a0: 3368 0b3f c94a 773d 8f75 153f 2aac 2d3f
000002b0: f2d6 073f 07c4 8f3f 9b70 8b3a 742e d73c
000002c0: 5c39 d03e 8021 1c40 2f55 563f 0400 0000
000002d0: ca88 0a3f f5aa 8b3e 1da0 323c e953 893e
000002e0: e491 873e ca3e 613f e802 be3d 1ec2 1340
000002f0: 8be6 203e 7f4e e33f a460 593e 6685 a33f
00000300: 0970 c33e fd4e 9b3e 322d 813f e697 af3f
00000310: 03dd 423d 4d2f 503f 0603 e23f ebc8 d23e
00000320: 3f73 933f 8ab1 583f 7766 5e3d 0d77 713e
00000330: 7548 813f 498a 953e 8ae1 ce3e ceb9 1a40
00000340: 25b0 d33f 9bb6 4b3f 8443 8c3e 6034 ca3e
00000350: d591 5d3d ba8f 3140 f67c 153e 8b2d e03f
00000360: 1453 d63e a503 143f 7779 443f cf97 3b3f
00000370: 2382 db3e 278e 2340 b0b4 8a3d be84 723e
00000380: 3362 353f e34f b73d fe3f e33e 295b 0e3f
00000390: e117 9f3e 961c 063d 55e0 033e 439f 623f
000003a0: 8bfc 9e3e e9a0 ff3d d3c7 843e c602 9339
000003b0: 62a2 ca3e 6a00 da38 9e69 da3d dc21 1b3e
000003c0: 20da 443f 5842 bb3d 4f95 ee3e 1100 cd3e
000003d0: 8067 643c 5fb7 343f 452c d83e 02d4 3d40
000003e0: 8309 213f 5502 063e 54ce 883f 8e4a 043f
000003f0: d0ac c43d 719d 403e 3eab 023d 0d87 bd3e
