checkpoint_actor_target_0_5808.pth (torch, 533842 bytes, 10 tensors)

fc1.weight f4 [400, 24]
0.039557885 -0.07418775 0.0019741254 0.028723123 0.042571947 -0.053327706 -0.0038155676 0.041601066
0.03121359 -0.08737759 -0.0016080176 0.00515088 0.033552617 -0.10731705 0.009127569 0.011434107
0.085035674 -0.038734358 0.0040754573 0.012653971 0.09770657 -0.10110368 -0.0045641153 0.063316315
-0.03711841 0.014053048 0.0056071933 -0.039597437 -0.088371925 -0.08983554 0.03954713 0.029642629
0.01043964 0.009941106 0.026744565 0.04387105 -0.0415007 -0.047820125 -0.027445843 -0.025474245
0.058662105 -0.012214867 0.0046037724 0.018926924 0.030492734 -0.02879657 0.077896565 0.004368671
0.00753364 -0.038229417 -0.040356584 -0.050147545 -0.11374272 0.010892936 0.031640988 -0.012238467
0.060997657 -0.06719549 -0.0049540615 0.0064382516 -0.08337557 0.02540325 -0.0043136054 0.016308276
0.022861501 -0.06911064 0.008898269 -0.061025288 -0.11039676 0.06456615 -0.0077252933 -0.027005399
0.02938249 -0.03899942 0.019948196 0.010161983 -0.0685876 -0.09344436 -0.019149408 -0.039665874
0.03411188 -0.0022706762 -0.019038122 -0.014770161 -0.083360925 -0.084961064 0.0046574334 0.005803948
0.04508458 -0.023841582 0.03920952 0.009934775 -0.013295488 0.07248668 -0.033609074 0.0098077115
-0.04487813 -0.054868277 -0.024369553 -0.13255492 -0.0058025396 -0.025898362 -0.041899305 -0.121183544
-0.0026196542 -0.05933845 -0.01925081 -0.011657526 0.030925956 0.00761837 0.03765299 -0.08572127
-0.014057477 -0.046008125 0.02844062 -0.012754196 -0.041179307 0.04604799 0.016494319 -0.011027599
0.030754387 0.018874703 -0.025566459 0.048765123 -0.021328319 -0.014779933 -0.0085321 0.04194314
0.0220599 -0.015678423 -0.01859443 -0.028644517 0.017357893 -0.10990864 0.014312612 0.0463022
0.023924178 -0.0019527294 0.0066579473 0.03776946 0.06007063 -0.163572 -0.007864238 -0.020556444
0.0060759285 0.096886255 0.006584551 -0.02884937 -0.03324914 0.02205198 -0.0061801584 -0.02718578
0.05631767 0.045492504 0.008072481 -0.047111973 -0.024915487 -0.060911402 -0.014992308 0.006235821
0.14947055 0.102189444 -0.003270036 0.019233918 -0.060318124 0.0016304776 -0.011319168 -0.026912289
-0.031044241 -0.022941465 0.046806395 0.0103739705 0.058148365 -0.16676897 -0.022268895 0.04151307
-0.021659097 0.012034134 -0.018787406 0.018632686 0.02929574 -0.15445381 0.008119952 0.029736686
-0.010623655 -0.05677813 -0.02580843 0.031937998 0.057875182 -0.061786488 0.009334119 0.044770498
0.0009267507 0.060653236 0.01089627 -0.061316874 -0.017529396 0.08746002 0.0030228077 -0.07079138
-0.015904775 0.030904941 0.041110516 -0.0070689605 -0.04162297 0.16924533 -0.029817628 0.020607758
-0.03342874 -0.063588634 0.028452221 -0.0355183 0.029357947 0.17355278 -0.022363247 0.008372858
0.0021976084 -0.037599303 -0.018430742 0.04296191 -0.060049877 0.008846385 -0.00031787038 -0.034509398
0.0024453404 -0.07067193 -0.014639055 -0.028598921 -0.05256793 0.006532374 -0.044765156 0.019429075
0.029324627 -0.011190574 0.009083241 0.019042816 -0.13309647 0.10690115 0.03113268 0.013198667
-0.02229756 0.04839152 0.021059522 0.07096664 0.05840034 -0.088720106 -0.04622199 0.08551544
0.015677324 0.04018379 -0.021025073 -0.029580047 0.010802589 -0.064814776 -0.0055136112 0.03458008
00000000: 7307 223d bfef 97bd 5460 013b c14c eb3c
00000010: ec5f 2e3d 276e 5abd 9a0e 7abb e165 2a3d
00000020: a5b3 ff3c 06f3 b2bd 1ec4 d2ba b7c8 a83b
00000030: 786e 093d 0bc9 dbbd cd8b 153c 1f56 3b3c
00000040: 2f27 ae3d eba7 1ebd 6a8b 853b 9a52 4f3c
00000050: 621a c83d 720f cfbd 938e 95bb fcab 813d
00000060: 7909 18bd c13e 663c 8cbc b73b ec30 22bd
00000070: 57fc b4bd b2fb b7bd 2cfc 213d 19d5 f23c
00000080: 060b 2b3c 05e0 223c 6b17 db3c 21b2 333d
00000090: a3fc 29bd 09df 43bd 1bd6 e0bc 5daf d0bc
000000a0: ad47 703d de20 48bc 3edb 963b a30c 9b3c
000000b0: e6cb f93c c9e6 ebbc 3c88 9f3d 1227 8f3b
000000c0: c1dc f63b 7396 1cbd f24c 25bd 8367 4dbd
000000d0: f1f1 e8bd 4978 323c fb99 013d da83 48bc
000000e0: aed8 793d ca9d 89bd ae55 a2bb f8f7 d23b
000000f0: d0c0 aabd 7a1a d03c 2559 8dbb ef98 853c
00000100: 0b48 bb3c e189 8dbd 0cca 113c a7f5 79bd
00000110: b217 e2bd 423b 843d 7524 fdbb 6d3a ddbc
00000120: 8cb3 f03c dbbd 1fbd 666a a33c 727e 263c
00000130: a877 8cbd c25f bfbd 38df 9cbc af78 22bd
00000140: e6b8 0b3d a0cf 14bb d6f5 9bbc 8cfe 71bc
00000150: 22b9 aabd 1100 aebd 629d 983b 0b2f be3b
00000160: 9caa 383d 6c4f c3bc 299a 203d 77c5 223c
00000170: 52d5 59bc e573 943d aba9 09bd 86b0 203c
00000180: 21d2 37bd 8fbd 60bd a8a2 c7bc 7abc 07be
00000190: 3b23 bebb cd28 d4bc 9b9e 2bbd 142f f8bd
000001a0: 81ae 2bbb e00c 73bd e0b3 9dbc 35ff 3ebc
000001b0: 6e58 fd3c 85a3 f93b 063a 1a3d a28e afbd
000001c0: 5551 66bc 0473 3cbd 4efc e83c faf6 50bc
000001d0: a2ab 28bd d19c 3c3d 181f 873c 1aad 34bc
000001e0: a0f0 fb3c 1f9f 9a3c c070 d1bc f0bd 473d
000001f0: bab8 aebc 8827 72bc 39ca 0bbc 92cc 2b3d
00000200: f7b6 b43c 0970 80bc 5953 98bc e8a7 eabc
00000210: 2432 8e3c c817 e1bd 727f 6a3c 60a7 3d3d
00000220: a3fc c33c baf2 ffba e92a da3b 26b4 1a3d
00000230: 9f0c 763d 6b7f 27be 01d9 00bc fd65 a8bc
00000240: 9518 c73b 4d6c c63d 38c3 d73b 8455 ecbc
00000250: 4030 08bd 5ba6 b43c ed82 cabb b7b4 debc
00000260: 5bad 663d 5956 3a3d 7042 043c 7cf8 40bd
00000270: 901b ccbc 3c7e 79bd 4ca2 75bc dc55 cc3b
00000280: cf0e 193e b348 d13d 1a4e 56bb 7390 9d3c
00000290: 2310 77bd c0b5 d53a 0874 39bc 2977 dcbc
000002a0: 7e50 febc bdef bbbc 10b8 3f3d 96f7 293c
000002b0: fb2c 6e3d 7cc5 2abe 426d b6bc 9c09 2a3d
000002c0: 6b6e b1bc d12a 453c 0ce8 99bc 93a3 983c
000002d0: 9ffd ef3c 2429 1ebe 8c09 053c 5a9a f33c
000002e0: d70e 2ebc 2f90 68bd 336c d3bc 6bd1 023d
000002f0: 870e 6d3d d413 7dbd 22ee 183c 4561 373d
00000300: 30f1 723a 876f 783d 4586 323c 6727 7bbd
00000310: cf99 8fbc 3d1e b33d 4c1a 463b 12fb 90bd
00000320: bb4a 82bc 5c2c fd3c 8063 283d bda2 e7bb
00000330: d97c 2abd a64e 2d3e 1944 f4bc 9ad1 a83c
00000340: 93ec 08bd c23a 82bd a214 e93c a37b 11bd
00000350: 1480 f03c d2b7 313e 2133 b7bc 502e 093c
00000360: c005 103b ba01 1abd 11fc 96bc d4f8 2f3d
00000370: dcf6 75bd 6ef0 103c d7a7 a6b9 ba59 0dbd
00000380: 0142 203b 72bc 90bd a6d8 6fbc 4948 eabc
00000390: 7851 57bd 860d d63b ab5b 37bd b929 9f3c
000003a0: 333a f03c ab58 37bc e0d1 143c aeff 9b3c
000003b0: 714a 08be fdee da3d f609 ff3c 393f 583c
000003c0: 5fa9 b6bc 3036 463d 0585 ac3c f556 913d
000003d0: 3235 6f3d e3b2 b5bd 4553 3dbd b822 af3d
000003e0: bb6d 803c c297 243d c63c acbc db51 f2bc
000003f0: 58fd 303c 9cbd 84bd 86ab b4bb d8a3 0d3d

fc1.bias f4 [400]
-0.08931561 -0.07411289 0.0049329437 -0.0709672 0.11270028 -0.18518035 -0.22930205 0.164386
0.12755549 -0.014363398 0.11292255 0.006861061 -0.19901107 0.03302105 -0.085135505 -0.17133522
-0.1982752 -0.060974594 -0.07849279 -0.18511876 -0.16331981 -0.17707393 -0.18671444 0.14601964
-0.20245165 -0.16535616 -0.268933 -0.113531515 -0.2138173 -0.12352066 0.15857807 -0.26355195
0.050825514 -0.07488159 -0.04580642 0.04632693 0.03542586 0.09349776 -0.005496265 -0.03520144
-0.2481566 0.06987602 -0.026668545 -0.16114293 -0.12320721 -0.19180705 0.09581212 -0.07033189
0.047258344 0.04532667 -0.14748694 0.043851063 0.00085572066 0.051983528 -0.13683881 -0.12235478
0.112143695 -0.115809485 0.019799704 -0.19079521 0.019752542 0.03012674 0.11752162 -0.08669334
0.11527453 -0.116124935 0.07397779 0.17498077 0.09344313 -0.20387612 -0.2515266 -0.08084979
-0.17025436 0.077895924 0.022275046 -0.24239106 0.13391212 0.022815956 0.07950131 -0.1451507
-0.023533685 -0.15220015 0.2006056 -0.20204414 -0.015257306 -0.0011077523 -0.00091671996 0.05974858
-0.10394082 -0.19413912 -0.038323328 -0.09247677 0.13284044 -0.05487375 -0.09359893 0.028131004
0.1424547 -0.2356764 -0.06971858 -0.06676934 -0.06515783 0.08995207 -0.17669499 -0.156804
-0.20661324 -0.032991424 -0.047556143 -0.18356366 -0.046336778 -0.125768 0.049572248 -0.1485073
-0.20911351 -0.20515448 0.010322173 0.037742116 0.14464408 -0.13563825 -0.041922238 -0.14821595
-0.036140714 -0.15114535 -0.03626883 0.14450859 -0.29317582 0.025042053 -0.049782038 -0.13502672
0.099163555 -0.09822146 -0.28508675 -0.21256943 -0.19543038 0.12780195 -0.19853818 -0.13643959
0.037676077 -0.17782627 -0.039186023 0.16187623 -0.10124312 -0.08068267 -0.09540031 0.12424195
-0.18369041 -0.017509928 0.05626403 0.07089839 -0.013873462 -0.019655917 -0.12271513 -0.14739664
-0.028526094 0.09026443 -0.12475004 -0.044681586 -0.04372224 -0.009585158 0.054377403 -0.011705457
-0.014998919 -0.16972718 -0.25024965 -0.16050297 0.19296326 0.039121967 -0.0669341 -0.15126076
-0.054454733 -0.15831004 -0.028638441 0.12141565 -0.17843626 0.019725727 0.12412135 -0.012867533
0.065257564 -0.14884895 0.10345236 -0.14538302 0.07804797 -0.14718346 0.0862625 -0.14929649
-0.100957714 0.108662866 -0.043939285 0.09873112 -0.2060424 -0.015111477 -0.14386488 0.027627002
0.1527801 -0.2136901 -0.015586862 0.121496946 0.060532708 -0.07215774 -0.10565257 0.05448089
0.16400328 0.26634562 -0.05976363 0.025428033 0.064181715 -0.054350693 -0.0772595 0.11742049
0.10021131 0.17855398 -0.18585953 0.06454495 -0.033958413 -0.14835848 0.02132704 0.1228672
0.17441526 0.07337119 -0.110662974 -0.11621864 0.023060665 0.053439736 -0.1113685 -0.027396074
0.0033184995 0.17081617 -0.19809827 -0.29708874 0.08474685 -0.32853013 0.103307225 -0.076406054
0.11778307 0.09837163 -0.070230566 -0.12903711 -0.09043948 0.03481975 0.008606896 -0.091368996
-0.13150246 0.091672845 0.08535625 -0.1100702 0.10079618 0.018322788 -0.119801514 0.065083176
-0.021243721 -0.045459818 -0.03522964 -0.089823805 0.10600277 -0.17003572 -0.10637941 -0.16712414
00000000: 1aeb b6bd 80c8 97bd 88a4 a13b 4057 91bd
00000010: 68cf e63d eb9f 3dbe 28ce 6abe ce54 283e
00000020: e89d 023e 7554 6bbc f043 e73d c0d2 e03b
00000030: 8fc9 4bbe 1541 073d 865b aebd 8072 2fbe
00000040: a708 4bbe 7fc0 79bd d4c0 a0bd c68f 3dbe
00000050: 4f3d 27be de52 35be 1232 3fbe 2c86 153e
00000060: 7c4f 4fbe 2053 29be 96b1 89be 3683 e8bd
00000070: ecf2 5abe 66f8 fcbd 4a62 223e 48f0 86be
00000080: 6a2e 503d 855b 99bd 839f 3bbd 4fc1 3d3d
00000090: b51a 113d c17b bf3d 031a b4bb 632f 10bd
000000a0: c41c 7ebe 291b 8f3d fe77 dabc a702 25be
000000b0: 1054 fcbd 1169 44be 2539 c43d 2a0a 90bd
000000c0: f791 413d 75a8 393d d106 17be 2c9d 333d
000000d0: 7152 603a aeec 543d 791f 0cbe 2595 fabd
000000e0: 98ab e53d 862d edbd fd32 a23c d25f 43be
000000f0: 15d0 a13c 5acc f63c 2daf f03d 478c b1bd
00000100: 0e15 ec3d e9d2 edbd ab81 973d 292e 333e
00000110: 1d5f bf3d e7c4 50be 18c8 80be 9394 a5bd
00000120: 2957 2ebe e687 9f3d 287a b63c 5d35 78be
00000130: 4220 093e 87e8 ba3c 95d1 a23d 63a2 14be
00000140: b7c9 c0bc 5bda 1bbe 8e6b 4d3e a9e4 4ebe
00000150: c8f9 79bc 0032 91ba 0950 70ba edba 743d
00000160: edde d4bd 68cc 46be ecf8 1cbd 7664 bdbd
00000170: 5307 083e 4cc3 60bd ccb0 bfbd fe72 e63c
00000180: a5df 113e 2755 71be 9dc8 8ebd 5dbe 88bd
00000190: 7871 85bd ca38 b83d 88ef 34be 3a91 20be
000001a0: 6c92 53be 0422 07bd 3bca 42bd 1df8 3bbe
000001b0: a2cb 3dbd 54c9 00be 450c 4b3d 4c12 18be
000001c0: da21 56be 0414 52be 551e 293c 7a97 1a3d
000001d0: 941d 143e c1e4 0abe a7b6 2bbd ecc5 17be
000001e0: 4908 14bd d9c5 1abe a08e 14bd 0ffa 133e
000001f0: 241b 96be fe24 cd3c 40e8 4bbd 7244 0abe
00000200: 4316 cb3d 5528 c9bd e4f6 91be cdab 59be
00000210: e71e 48be 84de 023e 984d 4bbe d2b6 0bbe
00000220: 3b52 1a3d 1718 36be 8681 20bd e2c2 253e
00000230: 8e58 cfbd f53c a5bd 3d61 c3bd 9072 fe3d
00000240: 5719 3cbe fb70 8fbc 1d75 663d 2d33 913d
00000250: 844d 63bc 7205 a1bc 1252 fbbd 25ef 16be
00000260: 8eaf e9bc 8fdc b83d f37c ffbd 0a04 37bd
00000270: 1716 33bd 110b 1dbc d7ba 5e3d 3fc8 3fbc
00000280: 07be 75bc f6cc 2dbe b920 80be e45a 24be
00000290: 2998 453e 5b3e 203d bf14 89bd 1ae4 1abe
000002a0: ed0b 5fbd 071c 22be 2a9b eabc c5a8 f83d
000002b0: ffb7 36be d997 a13c 5633 fe3d 58d2 52bc
000002c0: c2a5 853d dc6b 18be d5de d33d 49df 14be
000002d0: 9dd7 9f3d 43b7 16be 65aa b03d 2ee1 18be
000002e0: ebc2 cebd a38a de3d aef9 33bd 8b33 ca3d
000002f0: c7fc 52be 2196 77bc 5151 13be 0652 e23c
00000300: 6372 1c3e 94d1 5abe 0a60 7fbc 64d3 f83d
00000310: 25f1 773d 70c7 93bd 6060 d8bd 5b27 5f3d
00000320: 7af0 273e 745e 883e b5ca 74bd 734e d03c
00000330: b471 833d d59e 5ebd 3b3a 9ebd 277a f03d
00000340: 963b cd3d dbd6 363e f651 3ebe 2530 843d
00000350: fa17 0bbd 49eb 17be 0bb6 ae3c cca1 fb3d
00000360: ea99 323e a243 963d 45a3 e2bd 0a04 eebd
00000370: b8e9 bc3c a0e3 5a3d 2b15 e4bd bb6d e0bc
00000380: 2f7b 593b 6fea 2e3e 46da 4abe 041c 98be
00000390: c28f ad3d 1a35 a8be bd92 d33d c77a 9cbd
000003a0: 4038 f13d 1177 c93d 0bd5 8fbd 4e22 04be
000003b0: 5638 b9bd 279f 0e3d f003 0d3c ab1f bbbd
000003c0: 95a8 06be f9be bb3d 42cf ae3d 7c6c e1bd
000003d0: 3a6e ce3d ac19 963c 7f5a f5bd 544a 853d
000003e0: 5007 aebc 1334 3abd f44c 10bd 8bf5 b7bd
000003f0: fb17 d93d d81d 2ebe 73dd d9bd 9722 2bbe

fc2.weight f4 [300, 400]
-0.029290719 0.021729672 0.009552348 -0.07855303 0.02819896 0.011267797 0.04906583 -0.038490538
0.0200758 -0.0037959903 -0.05851764 -0.0012060184 -0.026554462 -0.031828806 0.039779752 -0.02669387
0.028760755 -0.0001187663 0.001354998 -0.061823063 0.002108437 0.024937954 -0.05458122 -0.022401128
-0.018310029 0.0116400765 0.09922199 0.0008092913 0.031467147 0.037071086 -0.10989685 -0.013096617
-0.010226211 0.04654254 0.07270313 0.05318757 0.008137577 -0.08784554 0.09165724 -0.010884032
-0.055151 0.038208682 0.0029758147 0.062867336 0.0022139656 -0.04191939 -0.040208768 -0.104860626
-0.061625294 -0.05902373 -0.006036131 0.012674475 0.023055952 -0.019670915 -0.009618644 0.042830475
0.04786032 -0.033663265 0.06964101 0.04840144 0.0022765473 -0.0382734 0.011034313 0.008944552
0.058360744 0.049746435 -0.02352622 0.018905953 0.057379264 0.051759273 -0.04326955 -0.059682697
0.0434042 0.05994832 -0.04924507 0.08681162 0.09023272 0.121266745 -0.06320328 0.060898088
0.0733755 0.00070761313 -0.021922216 -0.07108556 -0.016668854 0.06489176 -0.059161197 0.08671989
0.065642744 -0.08750108 0.021479886 -0.0062991353 -0.102993906 0.071048036 0.07410263 -0.047745112
0.057476968 0.06216162 0.0056249164 -0.099594735 0.021126673 0.036088042 -0.09021852 -0.10250919
-0.10630322 -0.08730189 -0.043698426 0.022048533 -0.017174734 0.018280568 0.06264344 0.06432901
0.020634651 0.0684767 0.04414256 -0.07332607 -0.05268652 0.0014678679 -0.062474802 -0.10302867
-0.049885098 0.045659207 0.032767694 -0.009014638 0.04571809 0.059398543 -0.03738587 -0.07098575
-0.04541832 -0.05357558 -0.014376028 -0.03526979 0.044927016 -0.035152804 0.027100582 0.010162741
0.04335358 0.04075705 -0.03798329 -0.043340083 -0.009217985 -0.003418971 0.0034793762 -0.07024206
-0.034708306 -0.0006341382 0.042884976 -0.10368992 -0.17139527 -0.042256333 0.019723553 -0.00884828
-0.11105635 0.013125851 -0.09366618 0.06427268 0.06842501 0.016456246 0.0052369684 0.00041902956
-0.0036322745 -0.015309736 0.009968245 -0.02372767 -0.023793 0.08434766 -0.040727276 0.0826946
-0.115056135 0.022697082 -0.059936967 0.026342925 0.06931592 -0.04530814 0.05195838 0.071809925
0.0071834815 0.021950634 -0.028499737 0.008142789 0.01908159 0.011850621 0.017002497 -0.043596517
-0.0022268149 0.0042332974 -0.03968748 0.05090471 0.047898173 0.013360797 0.10214307 0.052911375
0.040675998 -0.03228992 0.045744825 0.004305012 0.034031603 -0.020977193 -0.034236863 -0.09313841
0.024226982 0.05188942 0.04063414 0.009785059 0.04472967 -0.095702775 -0.04091141 0.07779267
-0.01015342 0.014758906 0.048019145 0.005982643 0.028899878 -0.13697806 -0.011351847 -0.0004844387
0.0013875565 0.037264526 -0.042862836 0.069265366 0.23463748 -0.06407985 -0.023698762 -0.009088773
-0.120854706 -0.018835338 -0.12110433 -0.03703058 -0.0046238326 -0.0037175117 0.029625893 -0.0011811974
-0.03066985 -0.10357079 0.012354032 -0.03213165 0.04017275 -0.13989164 -0.037065145 0.063245624
-0.02868124 -0.047554813 0.0021213868 -0.054577976 0.04002816 -0.0525745 -0.068947844 0.0040471065
0.049556773 0.04558234 0.036098734 0.06445298 -0.052110605 0.018773593 0.06327613 -0.044843495
00000000: 17f3 efbc 6d02 b23c 7481 1c3c 69e0 a0bd
00000010: 8101 e73c 919c 383c 40f9 483d 41a8 1dbd
00000020: 0176 a43c 26c6 78bb 31b0 6fbd 4313 9eba
00000030: be88 d9bc ec5e 02bd 18f0 223d 1aad dabc
00000040: ad9b eb3c 2c12 f9b8 309a b13a 2e3a 7dbd
00000050: b42d 0a3b ae4a cc3c 8f90 5fbd 9282 b7bc
00000060: eafe 95bc 05b6 3e3c e634 cb3d 9f26 543a
00000070: b2e3 003d dad7 173d 9a11 e1bd 3193 56bc
00000080: d68b 27bc 64a3 3e3d 61e5 943d 36db 593d
00000090: 7953 053c 5de8 b3bd cbb6 bb3d f052 32bc
000000a0: 04e6 61bd b580 1c3d e305 433b 97c0 803d
000000b0: 2e18 113b abb3 2bbd f3b1 24bd 2bc1 d6bd
000000c0: ce6a 7cbd dec2 71bd bdca c5bb 9aa8 4f3c
000000d0: d6df bc3c e624 a1bc 8497 1dbc 026f 2f3d
000000e0: 2f09 443d 7ee2 09bd f29f 8e3d 9740 463d
000000f0: 2032 153b 92c4 1cbd 43c9 343c 2c8c 123c
00000100: ad0b 6f3d ebc2 4b3d 0fba c0bc a8e0 9a3c
00000110: 8506 6b3d 8801 543d 693b 31bd d875 74bd
00000120: 9ac8 313d 5f8c 753d 33b5 49bd 4aca b13d
00000130: efcb b83d b35a f83d b970 81bd 4670 793d
00000140: e545 963d 1d7f 393a 3896 b3bc 4e95 91bd
00000150: 1f8d 88bc f9e5 843d 0353 72bd 339a b13d
00000160: b46f 863d c433 b3bd 96f6 af3c fa68 cebb
00000170: 78ee d2bd a281 913d 1fc3 973d 6190 43bd
00000180: f86c 6b3d 2f9d 7e3d 3851 b83b 53f8 cbbd
00000190: d811 ad3c 0ed1 133d 7dc4 b8bd 57f0 d1bd
000001a0: 81b5 d9bd 55cb b2bd 1ffd 32bd 209f b43c
000001b0: 07b2 8cbc 21c1 953c 344b 803d eebe 833d
000001c0: 000a a93c 833d 8c3d d4ce 343d fb2b 96bd
000001d0: d2cd 57bd 7965 c03a 94e5 7fbd b200 d3bd
000001e0: 5154 4cbd 2605 3b3d 6b37 063d 22b2 13bc
000001f0: e442 3b3d e34b 733d ed21 19bd fa60 91bd
00000200: 8f08 3abd 1172 5bbd 6f89 6bbc 0e77 10bd
00000210: 6405 383d 63fc 0fbd 0a02 de3c a081 263c
00000220: 8693 313d ddf0 263d 5e94 1bbd 5f85 31bd
00000230: 0807 17bc d110 60bb 3f06 643b 12db 8fbd
00000240: 4c2a 0ebd 4b3c 26ba 28a8 2f3d 615b d4bd
00000250: 3e82 2fbe fa14 2dbd 4a93 a13c 60f8 10bc
00000260: 8371 e3bd cf0d 573c 0ed4 bfbd 65a1 833d
00000270: 6922 8c3d 40cf 863c e09a ab3b 32b1 db39
00000280: 740b 6ebb b0d5 7abc da51 233c 8860 c2bc
00000290: 8ae9 c2bc 77be ac3d a5d1 26bd c95b a93d
000002a0: 8da2 ebbd 3bef b93c 7780 75bd 1ecd d73c
000002b0: 81f5 8d3d 0795 39bd 4fd2 543d 1511 933d
000002c0: 6963 eb3b d1d1 b33c 4878 e9bc 5569 053c
000002d0: ff50 9c3c 1b29 423c d248 8b3c 4392 32bd
000002e0: c1ef 11bb 79b7 8a3b 578f 22bd 7581 503d
000002f0: e030 443d 3fe7 5a3c 6330 d13d 99b9 583d
00000300: e09b 263d 6f42 04bd ed5e 3b3d 0f11 8d3b
00000310: b964 0b3d 5dd8 abbc f43b 0cbd 5abf bebd
00000320: aa77 c63c 008a 543d fc6f 263d 8351 203c
00000330: 7536 373d d1ff c3bd b992 27bd c351 9f3d
00000340: 885a 26bc 57cf 713c b9af 443d 0c0a c43b
00000350: 70bf ec3c fa43 0cbe 19fd 39bc 43fc fdb9
00000360: acde b53a b0a2 183d f190 2fbd 00db 8d3d
00000370: cf44 703e 4c3c 83bd e823 c2bc 14e9 14bc
00000380: ac82 f7bd 914c 9abc 8c05 f8bd 61ad 17bd
00000390: 8583 97bb 7fa1 73bb 00b2 f23c 68d2 9aba
000003a0: 563f fbbc ec1c d4bd 9168 4a3c 7a9c 03bd
000003b0: 2e8c 243d c13f 0fbe 9fd1 17bd ec86 813d
000003c0: ebf4 eabc d6c8 42bd f706 0b3b 288d 5fbd
000003d0: 91f4 233d 5c58 57bd 8734 8dbd 979d 843b
000003e0: 0bfc 4a3d 8cb4 3a3d 44dc 133d edff 833d
000003f0: ee71 55bd 14cb 993c ea96 813d d0ad 37bd

fc2.bias f4 [300]
-0.017574763 0.11128807 0.030333232 0.03696394 0.0059192907 0.07921707 0.056235123 -0.062967785
0.03250697 0.05238707 0.049693685 -0.031512484 0.08538106 0.0371329 -0.034056902 0.048233554
0.015703505 0.06874163 0.09008707 0.08585859 0.03010008 -0.027325945 0.056066748 0.039972935
0.063327156 0.078151 0.017967513 0.018410504 0.06768709 -0.0215668 0.09272249 0.00842621
0.028673122 0.008808363 0.05216976 -0.049830362 0.0629446 0.09643217 0.072071165 0.070299275
-0.029804235 0.05928659 0.022974633 -0.003975936 0.00381276 0.056466356 0.020015322 0.017642343
-0.0035447348 0.099424936 -0.090184785 0.09881341 0.054405686 -0.018963223 0.076011464 0.04127518
0.002402535 0.06499679 0.078099735 0.11347903 0.07468674 0.08649503 0.01017601 0.0076468475
0.024395421 0.039918907 0.029736347 -0.0059495973 0.06766947 0.031718858 0.030965012 0.023618683
0.04229676 0.10090635 -0.04583755 -0.03459465 0.015027332 0.021707784 -0.005474589 0.018880764
-0.0066499817 0.12172023 -0.059992593 0.038295962 -0.03677815 0.05490236 -0.0585572 -0.0016340078
0.030947488 -0.0040317317 0.038412564 0.046928864 0.15059692 0.08340402 0.10910724 -0.009141484
-0.034886453 0.032632675 0.0034807909 0.0582603 0.022844788 0.09208214 0.0006318187 0.009747697
2.8968858e-05 -0.0046414323 0.023798957 -0.023204744 0.022836939 -0.0018038003 0.008821879 0.0013829054
0.014011255 -0.007966919 0.10294229 0.011202935 0.022282097 0.018256867 0.018528862 0.02834079
-0.010585029 0.05858404 -0.022654727 0.083462425 0.06394661 0.058796994 0.045226675 0.029244864
0.05866918 -0.018875627 -0.033027727 0.062120393 0.07987806 -0.034857403 -0.016798127 0.041439157
-0.019364944 0.07270471 0.067235164 0.03225678 0.021367364 0.12925133 0.048189234 -0.028177632
0.06344776 0.085915826 0.04064829 0.116665065 0.072234415 0.09389262 0.03783895 0.093916625
0.122102804 0.0002239978 0.086064056 0.034042835 0.077875964 -0.02667118 -0.013484285 0.019275703
-0.009478158 0.06313319 0.0490556 0.06189695 -0.026890721 0.09636934 0.09430047 0.06039199
0.101223074 -0.003982706 0.071987554 -0.008932776 0.09199407 -0.0051763174 0.08135129 0.03587453
0.029915242 0.044809256 0.054768387 0.007945057 -0.007932419 0.02252396 0.043486595 0.08511057
0.010965763 0.0041700965 0.121363446 0.0034740828 0.04136532 0.019050844 0.070127204 -0.023986004
0.016628964 0.0024578143 0.076531895 0.06375364 0.034877352 0.036341622 0.02213297 0.08685369
0.030204467 -0.009363457 0.011869702 -0.046239477 4.0206105e-05 0.14183655 -0.0017650025 0.013866609
0.032644726 0.051385522 0.010233649 0.009058781 -0.017719816 0.044746466 0.04559192 0.04178128
0.027235333 0.0055428226 0.0772223 0.01810451 0.0376312 0.072513744 0.077527925 -0.03304392
-0.001434671 -0.016269855 0.049899954 0.027809272 0.016466182 0.05061067 0.008865229 0.039142642
0.020077826 -0.0033541836 0.04381806 0.01659496 0.034840446 -0.015704291 0.0035554576 0.04873091
-0.023989866 -0.029721936 0.00038950235 0.043731764 -0.040622592 0.035632726 0.02107089 0.007052099
0.07000912 0.08467049 0.082919665 0.04156224 0.10575441 0.018910814 0.005878333 0.05371094
00000000: f3f8 8fbc 00eb e33d 667d f83c 8067 173d
00000010: 9cf6 c13b 8f3c a23d cd56 663d 41f5 80bd
00000020: 0726 053d d393 563d 9b8b 4b3d 3c13 01bd
00000030: 44dc ae3d ab18 183d 407f 0bbd 8c90 453d
00000040: a3a4 803c 69c8 8c3d 927f b83d a1d6 af3d
00000050: 7194 f63c a9da dfbc 3fa6 653d a9ba 233d
00000060: abb1 813d a20d a03d 9b30 933c a0d1 963c
00000070: 879f 8a3d dcac b0bc 4ae5 bd3d 160e 0a3c
00000080: e5e3 ea3c f450 103c f5af 553d ec1a 4cbd
00000090: 19e9 803d 3b7e c53d 0c9a 933d 11f9 8f3d
000000a0: 0328 f4bc 7fd6 723d 4c35 bc3c 9248 82bb
000000b0: 80df 793b 4449 673d 2cf7 a33c ad86 903c
000000c0: c84e 68bb 4d9f cb3d cdb2 b8bd af5e ca3d
000000d0: 7fd8 5e3d c358 9bbc e6ab 9b3d 2a10 293d
000000e0: d973 1d3b 091d 853d c1f2 9f3d b267 e83d
000000f0: 5df5 983d 4e24 b13d 48b9 263c 6892 fa3b
00000100: e8d8 c73c 0282 233d a499 f33c d7f4 c2bb
00000110: 4b96 8a3d a2eb 013d 56aa fd3c f87b c13c
00000120: 5e3f 2d3d fda7 ce3d 28c0 3bbd 1fb3 0dbd
00000130: 3335 763c 86d4 b13c 2e64 b3bb d5ab 9a3c
00000140: 17e8 d9bb 7548 f93d cbba 75bd 3adc 1c3d
00000150: afa4 16bd 4ce1 603d add9 6fbd 342c d6ba
00000160: 9685 fd3c 9e1c 84bb 7e56 1d3d 7b38 403d
00000170: 1436 1a3e bacf aa3d 9e73 df3d 2ac6 15bc
00000180: 19e5 0ebd d7a9 053d fb1d 643b 5aa2 6e3d
00000190: fe24 bb3c 9095 bc3d a3a0 253a ceb4 1f3c
000001a0: 2602 f337 2817 98bb 08f6 c23c e017 bebc
000001b0: 8814 bb3c 7f6d ecba a489 103c 9b42 b53a
000001c0: 778f 653c ae87 02bc 68d3 d23d 848c 373c
000001d0: f288 b63c 6d8f 953c d7c9 973c f22a e83c
000001e0: d46c 2dbc d1f5 6f3d 6896 b9bc 59ee aa3d
000001f0: 71f6 823d 1ed5 703d 9b3f 393d ed92 ef3c
00000200: 184f 703d 0fa1 9abc 1548 07bd f471 7e3d
00000210: 1c97 a33d a3c6 0ebd 3a9c 89bc 1bbc 293d
00000220: 3ba3 9ebc 35e6 943d 97b2 893d af1f 043d
00000230: 9c0a af3c 765a 043e 1362 453d c7d4 e6bc
00000240: e6f0 813d a3f4 af3d d27e 263d 18ee ee3d
00000250: a3ef 933d c64a c03d 04fd 1a3d 5c57 c03d
00000260: 0911 fa3d f4e0 6a39 5a42 b03d 8070 0b3d
00000270: 6f7d 9f3d 857d dabc 31ed 5cbc 14e8 9d3c
00000280: 474a 1bbc f94b 813d 86ee 483d a887 7d3d
00000290: ee49 dcbc 4a5d c53d 9b20 c13d 975d 773d
000002a0: 0b4e cf3d 5c81 82bb 366e 933d c75a 12bc
000002b0: 6367 bc3d 199e a9bb 819b a63d 2cf1 123d
000002c0: cf10 f53c e989 373d d154 603d fc2b 023c
000002d0: faf6 01bc 2b84 b83c 001f 323d 734e ae3d
000002e0: bea9 333c 4ea5 883b 668d f83d 70ad 633b
000002f0: af6e 293d 8410 9c3c da9e 8f3d 4c7e c4bc
00000300: 7739 883c 4813 213b c1bc 9c3d 4591 823d
00000310: 8edb 0e3d f4da 143d 3450 b53c 59e0 b13d
00000320: 5c6f f73c 2f69 19bc 2379 423c 9b65 3dbd
00000330: faa2 2838 9a3d 113e a857 e7ba c630 633c
00000340: 7ab6 053d a079 523d 09ab 273c 486b 143c
00000350: 2629 91bc 1248 373d 98be 3a3d d922 2b3d
00000360: a21c df3c 91a0 b53b ba26 9e3d e94f 943c
00000370: 2c23 1a3d 1682 943d f6c6 9e3d 1059 07bd
00000380: 920b bcba 5c48 85bc e563 4c3d 45d0 e33c
00000390: 16e4 863c 224d 4f3d 773f 113c 0954 203d
000003a0: 417a a43c ddd1 5bbb 917a 333d 27f2 873c
000003b0: dbb4 0e3d 49a6 80bc ae02 693b 109a 473d
000003c0: 6586 c4bc 6b7b f3bc 1f36 cc39 1420 333d
000003d0: e063 26bd 9ff3 113d dc9c ac3c 4b15 e73b
000003e0: f160 8f3d b967 ad3d c9d1 a93d 2b3d 2a3d
000003f0: c595 d83d daea 9a3c 089f c03b 0100 5c3d

fc3.weight f4 [2, 300]
0.14915335 0.09665092 0.054719258 -0.123060666 0.106305204 -0.12061267 -0.16278334 0.06846672
-0.09954732 -0.13704216 -0.08886086 -0.10599297 -0.12961751 -0.1011673 0.16131595 -0.008676205
-0.035642777 0.029687304 -0.13472757 0.11250735 -0.1422809 0.09751722 -0.12693936 -0.07000156
0.07517732 0.15156555 -0.10562033 -0.06535685 -0.043532632 -0.11876196 -0.099309236 -0.14965029
-0.114278115 0.16427378 0.17614843 0.014768259 0.027405873 -0.078707896 -0.051017784 -0.098043285
0.18120897 -0.028801499 -0.12133551 0.09117362 0.07636839 0.15133318 0.14868204 -0.031197442
0.16290197 0.12680458 0.0951671 -0.0532804 -0.009311435 -0.03264336 -0.13348444 -0.0023629179
-0.11618286 -0.039252162 -0.0990077 -0.022226958 -0.189307 0.0027147953 0.07201202 0.13096124
0.088160954 -0.13852632 -0.011112151 0.08167289 -0.033395823 0.06406329 -0.096032456 0.04367621
0.10723861 -0.07981538 0.2065301 -0.111552626 0.20744891 -0.0027050888 0.106191315 -0.020383367
0.10328162 -0.14071965 0.11865297 -0.039920755 -0.010019555 -0.0015688099 0.18492821 0.039674398
-0.071928695 0.1373048 0.101424895 -0.022824805 -0.075441875 0.19405326 -0.043748867 -0.041426253
0.085845605 0.0009909465 0.08609147 -0.0007036431 0.17021877 0.0968897 0.096904226 0.13371503
0.09150161 0.08610078 0.048575107 0.120865926 -0.11766427 -0.14669672 0.13886537 0.106645904
0.0030027886 0.110002175 0.018327657 -0.06570741 -0.05248187 0.09587784 0.10228185 -0.105294056
0.08615679 -0.06511367 0.019999778 -0.15250093 0.20105498 0.1785871 0.051344547 0.085867375
-0.009780269 0.09821894 0.08945369 0.0753026 0.16818683 0.2071413 0.1395009 -0.13034728
-0.06013209 -0.10411689 -0.19187708 -0.07910167 -0.09821526 -0.1185649 -0.075837 -0.059228107
-0.06288191 0.004913908 -0.12559791 0.02105723 -0.12867111 -0.113876656 0.0006659473 -0.08976776
-0.06382488 0.041734926 0.1603033 0.049406677 0.15478852 -0.04164095 0.22825049 -0.05300044
0.064988755 0.14728183 -0.13307512 0.10220903 0.122265704 -0.109251216 0.10006907 0.11347604
-0.14898558 -0.15269151 -0.11611463 0.058321502 -0.20154914 0.108537816 -0.105814055 -0.09777584
-0.11216503 -0.11653254 0.039971884 0.08360742 0.107935004 0.0069936677 0.07532772 -0.14197797
-0.15498428 -0.13985653 -0.10200997 0.117640726 -0.10298879 0.119004436 0.06410649 0.10893226
0.1314468 0.095697924 0.1883648 0.12229329 0.0035500037 -0.13727218 0.20940186 -0.21448243
-0.12469097 0.17648086 0.09577195 0.11861235 0.15115424 0.00972093 -0.12750782 -0.13194084
-0.12634303 -0.047958776 0.117917165 -0.19788426 -0.0769015 0.12506434 -0.074422464 0.028862914
0.11556866 0.089492194 0.12305014 0.15426798 -0.11252353 -0.07319938 -0.16012871 0.13985641
-0.043772895 0.23310857 -0.09396685 0.10913657 0.010386335 -0.09507096 0.1362884 0.15480071
0.12684369 0.096368834 0.109209165 -0.025093473 -0.22502671 0.11888994 -0.054447602 0.14600773
0.087815456 0.14434993 0.0091254935 -0.012293993 0.088188894 0.13829318 -0.17560977 -0.13088784
0.036416233 0.046196103 0.030732144 -0.108905226 -0.006138311 0.16051024 -0.1342012 -0.07622491
00000000: a8bb 183e ebf0 c53d 4d21 603d 3b07 fcbd
00000010: 8bb6 d93d c703 f7bd adb0 26be 4838 8c3d
00000020: 77df cbbd c854 0cbe affc b5bd d812 d9bd
00000030: 74ba 04be cd30 cfbd 0230 253e a426 0ebc
00000040: 29fe 11bd ca32 f33c 06f6 09be 416a e63d
00000050: 16b2 11be 1cb7 c73d 64fc 01be fa5c 8fbd
00000060: 91f6 993d 0034 1b3e 794f d8bd d0d9 85bd
00000070: 464f 32bd 7839 f3bd a462 cbbd ed3d 19be
00000080: a50a eabd 6337 283e 4160 343e 91f6 713c
00000090: 4882 e03c 9b31 a1bd 06f8 50bd ebca c8bd
000000a0: d88e 393e 1ff1 ebbc c07e f8bd 3cb9 ba3d
000000b0: 0867 9c3d 16f7 1a3e 1b40 183e c791 ffbc
000000c0: c6cf 263e 0fd9 013e f8e6 c23d 8c3c 5abd
000000d0: fd8e 18bc 0bb5 05bd 25b0 08be 2fdb 1abb
000000e0: 48f1 edbd e0c6 20bd 8dc4 cabd 4f15 b6bc
000000f0: b2d9 41be b5ea 313b 0a7b 933d b41a 063e
00000100: bb8d b43d d8d9 0dbe bd0f 36bc 1e44 a73d
00000110: 0fca 08bd 9d33 833d aaac c4bd d3e5 323d
00000120: eb9f db3d 3f76 a3bd a07c 533e b475 e4bd
00000130: 7d6d 543e dc47 31bb d57a d93d 05fb a6bc
00000140: 5085 d33d d018 10be 5400 f33d f283 23bd
00000150: 0f29 24bc 86a0 cdba d25d 3d3e 9f81 223d
00000160: 5a4f 93bd a199 0c3e dbb7 cf3d 16fb babc
00000170: 4581 9abd e6b5 463e 0332 33bd 93ae 29bd
00000180: d2cf af3d a6e2 813a ba50 b03d b074 38ba
00000190: d44d 2e3e 1b6e c63d b975 c63d 98ec 083e
000001a0: 3265 bb3d 9b55 b03d b1f6 463d 8e88 f73d
000001b0: f7f9 f0bd aa37 16be b932 0e3e 2b69 da3d
000001c0: 6fca 443b d248 e13d e223 963c 9b91 86bd
000001d0: 3bf7 56bd 9a5b c43d 2679 d13d 69a4 d7bd
000001e0: f972 b03d 515a 85bd 93d6 a33c 3429 1cbe
000001f0: 5be1 4d3e 89df 363e a94e 523d 3cdb af3d
00000200: 6c3d 20bc 0327 c93d 7f33 b73d 4038 9a3d
00000210: 2b39 2c3e d91c 543e 53d9 0e3e c279 05be
00000220: 114d 76bd 3c3b d5bd 6d7b 44be 0e00 a2bd
00000230: 1525 c9bd 27d2 f2bd 6e50 9bbd 2c99 72bd
00000240: 3bc8 80bd d904 a13b bd9c 00be 3680 ac3c
00000250: 5cc2 03be 2a38 e9bd f792 2e3a 29d8 b7bd
00000260: 9eb6 82bd 3ef2 2a3d 8c26 243e a85e 4a3d
00000270: e280 1e3e b38f 2abd 7fba 693e fd16 59bd
00000280: d318 853d 0cd1 163e d844 08be f852 d13d
00000290: 7166 fa3d 1abf dfbd 03f1 cc3d 2066 e83d
000002a0: ad8f 18be 2a5b 1cbe 82cd edbd 87e2 6e3d
000002b0: e662 4ebe 1349 de3d 0ab5 d8bd b33e c8bd
000002c0: c7b6 e5bd 9da8 eebd 8fb9 233d 5e3a ab3d
000002d0: 070d dd3d 232b e53b 6b45 9a3d ac62 11be
000002e0: 33b4 1ebe 8d36 0fbe 9aea d0bd 9fed f03d
000002f0: c9eb d2bd 99b8 f33d 434a 833d e017 df3d
00000300: fd99 063e 46fd c33d b4e2 403e e874 fa3d
00000310: 2ea7 683b 1491 0cbe 716d 563e 48a1 5bbe
00000320: fb5d ffbd 66b7 343e 1624 c43d 08eb f23d
00000330: 2dc8 1a3e 8944 1f3c 6991 02be 801b 07be
00000340: 1160 01be 6c70 44bd 8e7e f13d 2ca2 4abe
00000350: 897e 9dbd de10 003e ce6a 98bd eb71 ec3c
00000360: 43af ec3d af47 b73d b601 fc3d 6df8 1d3e
00000370: bd72 e6bd 8ee9 95bd c8f8 23be 8536 0f3e
00000380: 354b 33bd 03b4 6e3e b171 c0bd fe82 df3d
00000390: 722b 2a3c 90b4 c2bd 308f 0b3e 1484 1e3e
000003a0: 50e3 013e 065d c53d 0ea9 df3d d490 cdbc
000003b0: 676d 66be 927c f33d 7304 5fbd 0d83 153e
000003c0: 97d8 b33d 78d0 133e 1883 153c be6c 49bc
000003d0: 619c b43d ba9c 0d3e 0cd3 33be 7607 06be
000003e0: 3029 153d 2038 3d3d fac1 fb3c b409 dfbd
000003f0: e223 c9bb cc5c 243e 0a6c 09be ce1b 9cbd

fc3.bias f4 [2]
0.0016430735 0.0035447893
00000000: 665c d73a b24f 683b

bn1.weight f4 [400]
1.1587923 1.0973116 1.0652182 1.0962441 1.0452131 1.0917716 1.1188537 1.0673752
1.1317896 1.0492682 1.0649974 1.1215937 1.0825022 1.084099 1.0829241 1.0295895
1.1045632 1.0473733 1.0583072 1.113235 1.1647825 1.1185924 1.1302128 1.0342486
1.1439083 1.031101 1.1515912 1.073497 1.0607493 1.0500757 1.0484194 1.0616598
1.0830262 1.0825977 1.0951456 1.1078695 1.0330176 1.0393614 1.043964 1.0419488
1.0600833 1.0910051 1.0356745 1.0682436 1.1295232 1.1602966 1.074017 1.021386
1.0865914 1.0036863 1.015053 1.0142481 1.1979575 1.1154847 1.1152368 1.1366279
0.98178697 1.0314028 1.1054271 1.0619007 1.1818087 1.131532 1.0401529 1.0154021
1.0544009 1.0519142 1.0471447 1.1017107 0.9903099 1.1288118 1.084759 1.0436968
1.0477372 1.0890105 1.0875456 1.1064823 1.1186037 1.1268355 1.06782 1.0347673
1.0578684 1.0985705 1.0190508 1.0888945 1.1132097 1.1357509 1.0934312 1.1057392
1.0980066 1.0496608 1.1134683 1.145429 1.092747 1.1249634 1.158588 1.0578969
1.0583006 1.0643964 1.0946761 1.0755149 1.060982 1.0489682 1.0826131 1.0535016
1.1002045 1.0818086 1.1254886 1.0473776 1.060447 1.0526804 1.0281535 1.0747683
1.1102867 1.1062402 1.0833875 1.0611167 1.0170897 1.080598 1.053273 1.1011677
1.0409896 1.0458415 1.0093046 1.0289413 1.140336 1.0986029 1.1230096 1.1593673
1.1003647 1.0541247 1.1034614 1.0582694 1.0699692 1.0135874 1.0933421 1.0028273
1.0829812 1.1386406 1.0885998 1.0383373 1.2041006 1.0653733 0.9810018 1.0548395
1.1379032 1.1402142 1.0416548 1.0740453 1.079425 1.0878527 1.0780202 1.2290004
1.067084 1.0048151 1.1391498 0.98403555 1.1281029 1.1445936 1.0756552 1.032836
1.0767875 1.0481061 1.0821034 1.092481 0.99359876 1.0784657 1.0397341 1.1483514
1.0851171 1.1020855 1.0430133 1.117536 1.1145616 1.0067273 1.02475 1.0312004
1.1033144 1.0975753 1.0359762 1.171614 1.0577428 1.0530431 1.0509174 1.1252567
1.1116245 1.0077393 1.1139205 1.0674849 1.1424305 1.0400655 1.0978266 1.0966166
1.0022345 1.0528646 1.0724937 1.0303801 1.0033946 1.149458 1.0225544 1.0812936
1.097893 1.0083203 1.049453 1.1452863 1.0634077 1.0800903 1.1456752 1.1298946
1.054757 1.0772845 1.0811634 1.0217023 0.96245384 1.1380581 1.2067335 1.0173447
0.9634301 1.0592175 1.0334879 1.1558709 1.2449536 1.1257151 1.11491 1.0293818
1.0814992 1.0810277 1.1292319 1.0366588 1.0450461 1.0851165 0.98069304 1.0490855
1.0255232 1.0284374 1.0675168 1.0266691 1.0576931 1.129169 0.98071885 1.1277821
1.2225366 1.221765 1.1033348 1.0626936 1.0483651 1.0882797 1.1061577 1.0309895
1.1015116 1.0445395 1.0088086 1.0784762 1.0600381 1.0096662 1.0834622 1.1042025
00000000: 4e53 943f b574 8c3f 1259 883f ba51 8c3f
00000010: 8bc9 853f 2cbf 8b3f 9936 8f3f c09f 883f
00000020: 7bde 903f 6c4e 863f d651 883f 6290 8f3f
00000030: 6f8f 8a3f c2c3 8a3f 429d 8a3f 97c9 833f
00000040: 5462 8d3f 5410 863f 9c76 873f 7c7e 8e3f
00000050: 9817 953f 092e 8f3f d0aa 903f 4262 843f
00000060: 966b 923f 1efb 833f 5767 933f 5a68 893f
00000070: a2c6 873f e168 863f 9b32 863f 78e4 873f
00000080: 9aa0 8a3f 9092 8a3f bb2d 8c3f abce 8d3f
00000090: ec39 843f cb09 853f 9da0 853f 945e 853f
000000a0: cfb0 873f 0ea6 8b3f fb90 843f 35bc 883f
000000b0: 3794 903f 9984 943f 6479 893f c7bc 823f
000000c0: 6d15 8b3f cb78 803f 42ed 813f e2d2 813f
000000d0: ac56 993f 34c8 8e3f 14c0 8e3f 067d 913f
000000e0: 6456 7b3f 0205 843f a37e 8d3f 5dec 873f
000000f0: 8245 973f 0ad6 903f bb23 853f b2f8 813f
00000100: 9cf6 863f 20a5 863f d608 863f db04 8d3f
00000110: f384 7d3f e87c 903f 62d9 8a3f db97 853f
00000120: 411c 863f b264 8b3f b234 8b3f 36a1 8d3f
00000130: 682e 8f3f 253c 903f 53ae 883f 4173 843f
00000140: 3b68 873f f59d 8c3f 4270 823f e560 8b3f
00000150: a87d 8e3f 4960 913f 8ef5 8b3f dd88 8d3f
00000160: 7b8b 8c3f 495b 863f 2186 8e3f 6b9d 923f
00000170: 22df 8b3f cdfe 8f3f 9d4c 943f 2a69 873f
00000180: 6576 873f 243e 883f 591e 8c3f 79aa 893f
00000190: 42ce 873f 9744 863f 1193 8a3f 24d9 863f
000001a0: 80d3 8c3f b478 8a3f 0310 903f 7810 863f
000001b0: babc 873f 3bbe 863f 899a 833f 0292 893f
000001c0: e01d 8e3f 4799 8d3f 71ac 8a3f acd2 873f
000001d0: ff2f 823f 0951 8a3f a6d1 863f 10f3 8c3f
000001e0: 263f 853f 22de 853f e530 813f 59b4 833f
000001f0: 88f6 913f 059f 8c3f c7be 8f3f 2666 943f
00000200: c0d8 8c3f 8fed 863f 393e 8d3f 5f75 873f
00000210: c0f4 883f 3bbd 813f a2f2 8b3f a55c 803f
00000220: 219f 8a3f fabe 913f 3d57 8b3f 3de8 843f
00000230: f81f 9a3f 275e 883f ef22 7b3f fb04 873f
00000240: d0a6 913f 8af2 913f f254 853f 517a 893f
00000250: 992a 8a3f c23e 8b3f 91fc 893f e34f 9d3f
00000260: 3596 883f c89d 803f a9cf 913f c1e9 7b3f
00000270: ad65 903f 0b82 923f 12af 893f f833 843f
00000280: 2cd4 893f 5728 863f 5d82 8a3f 6bd6 8b3f
00000290: 7d5c 7e3f 2a0b 8a3f 0216 853f 2efd 923f
000002a0: 1ee5 8a3f 2311 8d3f 7681 853f 6b0b 8f3f
000002b0: f4a9 8e3f 71dc 803f 022b 833f 60fe 833f
000002c0: 6839 8d3f 597d 8c3f de9a 843f 73f7 953f
000002d0: 1e64 873f 1eca 863f 7684 863f 6908 903f
000002e0: b649 8e3f 9afd 803f f294 8e3f 58a3 883f
000002f0: 2a3b 923f de20 853f 9585 8c3f ef5d 8c3f
00000300: 3849 803f 44c4 863f 7947 893f 7fe3 833f
00000310: 3c6f 803f 7121 933f 10e3 823f d467 8a3f
00000320: c287 8c3f a410 813f 7a54 863f be98 923f
00000330: be1d 883f 6640 8a3f 7ca5 923f 63a0 903f
00000340: 4702 873f 75e4 893f 9063 8a3f 24c7 823f
00000350: 6063 763f e3ab 913f 3e76 9a3f 5a38 823f
00000360: 5ba3 763f 7094 873f 5549 843f 94f3 933f
00000370: a45a 9f3f 6f17 903f 5fb5 8e3f c8c2 833f
00000380: 916e 8a3f 1e5f 8a3f ac8a 903f 3cb1 843f
00000390: 12c4 853f 19e5 8a3f b30e 7b3f 6f48 863f
000003a0: 5844 833f d6a3 833f 64a4 883f e569 833f
000003b0: 7d62 873f 9c88 903f 6410 7b3f 2a5b 903f
000003c0: 147c 9c3f cc62 9c3f 133a 8d3f 5806 883f
000003d0: d430 863f c04c 8b3f 9396 8d3f 77f7 833f
000003e0: 55fe 8c3f 78b3 853f a420 813f 820b 8a3f
000003f0: 54af 873f be3c 813f e4ae 8a3f 8256 8d3f

bn1.bias f4 [400]
-0.045644533 -0.081028774 -0.07836667 0.05732897 -0.0106158685 0.033121444 -0.036549278 -0.024588129
0.08039272 -0.018452318 -0.031707875 -0.053939383 -0.07277525 -0.03727309 0.036818016 -0.027315564
-0.044427734 -0.058742385 -0.032458864 -0.033715054 -0.062599495 -0.01073111 -0.04366223 0.007172615
-0.008584294 -0.08999644 -0.04321908 0.0041310913 -0.04652514 -0.047169697 -0.038117103 -0.05569317
0.004219606 -0.034991343 -0.0036482355 -0.05866707 -0.04268232 -0.05829495 -0.017011313 -0.004685006
0.00833873 -0.056316946 -0.005877077 -0.07618061 0.0025847217 -0.021810437 -0.031111846 0.018508296
0.0063661677 -0.023767995 -0.022439405 -0.0106436405 -0.049219523 -0.03458705 -0.04713856 -0.013756665
-0.010775017 -0.03738572 -0.06864602 -0.034169123 -0.029676454 -0.037179966 -0.074375145 -0.03814777
-0.0513621 -0.00345949 -0.011056636 -0.08506675 -0.016921459 -0.05346178 -0.089531556 -0.022712111
-0.03266267 0.01088851 -0.013006393 -0.066560894 -0.07714 -0.06336728 -0.04634482 -0.005685169
-0.05230301 -0.024215939 0.01176538 -0.012715514 -0.05780257 -0.051409766 -0.041870687 -0.062482208
-0.013416169 -0.008439045 -0.048495613 -0.014813898 0.039298818 -0.003573029 -0.05352697 -0.011551291
-0.05638247 -0.05282608 -0.05582174 0.050600752 -0.060202777 -0.046869684 0.008960491 0.049926728
-0.022585029 0.013269923 -0.016330874 -0.051408105 -0.025817871 -0.018514756 -0.00837375 -0.0017255533
-0.07979876 -0.050751306 -0.030379362 -0.019043876 0.047613103 -0.021514392 -0.033875786 0.039056513
-0.009530088 -0.037183437 -0.061594658 -0.026461989 -0.043246288 0.03699329 -0.0056005777 -0.04005768
-0.03096114 0.01199929 -0.02612419 -0.11777516 -0.009622796 -0.03277945 -0.07538178 -0.043126214
-0.0702661 -0.039961986 -0.025451025 -0.013945854 -0.035980992 0.05131912 -0.08906315 -0.001819743
-0.05112538 -0.030207273 -0.053313427 -6.700214e-05 -0.026431927 0.059479024 -0.040601015 -0.004328172
0.007455309 -0.023212178 -0.011553622 -0.01640892 -0.007838525 -0.028228408 0.050339315 -0.07554342
0.047745146 0.0063393856 -0.045771632 0.025473077 0.0224649 -0.04065538 -0.04015235 -0.036632463
0.014462523 0.06487148 -0.049808577 0.023643682 -0.05443387 -0.07219425 0.009842475 -0.014098701
-0.049854167 -0.033171587 -0.03882157 -0.049124416 -0.012116442 -0.086171225 -0.011283386 -0.06111423
-0.016095161 -0.0692462 -0.040553235 0.0141836 -0.060660835 -0.031875532 -0.014874917 -0.051578194
-0.07203601 0.00022194815 -0.028534979 -0.054453604 -0.02537655 0.014182873 -0.053002194 -0.008749195
-0.0070050037 0.023698159 -0.03675266 -0.047592167 -0.0068412204 0.012819823 0.050707027 -0.024681251
0.041892048 -0.03482993 -0.07096116 -0.028596168 -0.048545137 -0.0090078795 0.0009355227 -0.0381768
-0.008918599 -0.0240678 -0.02552019 -0.04119005 -0.063812666 -0.013376586 -0.028465101 -0.012602542
-0.008176413 -0.059008643 -0.0034854994 0.022471378 -0.065491185 -0.06338949 -0.018284086 -0.02839372
0.0050751194 -0.019916298 0.05995055 0.012471909 -0.06740175 -0.02743591 -0.110135034 0.01821376
-0.063872 -0.038086824 -0.017178135 -0.009255084 -0.05868797 -5.690212e-05 0.012611643 -0.040869292
-0.040600862 -0.050677303 -0.012561431 -0.04586366 -0.044079762 -0.0052600717 -0.10647787 -0.0314667
00000000: c3f5 3abd 6af2 a5bd b47e a0bd c8d1 6a3d
00000010: 2eee 2dbc 5aaa 073d b2b4 15bd 0b6d c9bc
00000020: f0a4 a43d 5129 97bc 1ee0 01bd 8bef 5cbd
00000030: 310b 95bd abab 18bd 7dce 163d e4c4 dfbc
00000040: dbf9 35bd db9b 70bd 96f3 04bd cc18 0abd
00000050: 2a34 80bd 8ad1 2fbc 2bd7 32bd 4108 eb3b
00000060: 23a5 0cbc 0e50 b8bd 7d06 31bd 1b5e 873b
00000070: 2591 3ebd 0335 41bd ae20 1cbd 851e 64bd
00000080: 9f44 8a3b 1553 0fbd 3c17 6fbb e24c 70bd
00000090: a8d3 2ebd afc6 6ebd 4f5b 8bbc ae84 99bb
000000a0: 2b9f 083c 99ac 66bd 7f94 c0bb 9404 9cbd
000000b0: 6f64 293b cdab b2bc 45de febc b69e 973c
000000c0: 499b d03b 19b5 c2bc d8d2 b7bc aa62 2ebc
000000d0: 699a 49bd 27ab 0dbd 5d14 41bd a363 61bc
000000e0: b289 30bc c521 19bd 4996 8cbd ecf4 0bbd
000000f0: 091c f3bc 054a 18bd ff51 98bd d640 1cbd
00000100: 1161 52bd 9cb8 62bb e526 35bc 7a37 aebd
00000110: df9e 8abc bdfa 5abd 525c b7bd c00e babc
00000120: 4bc9 05bd b965 323c c418 55bc 1451 88bd
00000130: 94fb 9dbd b4c6 81bd 11d4 3dbd a74a babb
00000140: ae3b 56bd 8160 c6bc 95c3 403c bb54 50bc
00000150: 63c2 6cbd 0c93 52bd 9980 2bbd 58ed 7fbd
00000160: 7ecf 5bbc ec43 0abc 56a3 46bd feb5 72bc
00000170: ccf7 203d 7b29 6abb 193f 5bbd a041 3dbc
00000180: 4ef1 66bd 2960 58bd 56a5 64bd bc42 4f3d
00000190: 3097 76bd 6dfa 3fbd 06cf 123c f87f 4c3d
000001a0: 3d04 b9bc 176a 593c 53c8 85bc 4e91 52bd
000001b0: 0080 d3bc 42ac 97bc 0e32 09bc f62b e2ba
000001c0: 886d a3bd 9ae0 4fbd 24de f8bc e701 9cbc
000001d0: f505 433d f33e b0bc 56c1 0abd b9f9 1f3d
000001e0: 1624 1cbc a94d 18bd ae4a 7cbd d0c6 d8bc
000001f0: 0523 31bd 4786 173d 0d85 b7bb 8613 24bd
00000200: 37a2 fdbc ac98 443c 6602 d6bc 1a34 f1bd
00000210: efa8 1dbc bf43 06bd c361 9abd 1da5 30bd
00000220: ace7 8fbd 2eaf 23bd ab7e d0bc 277d 64bc
00000230: ce60 13bd ff33 523d be66 b6bd 7184 eeba
00000240: d968 51bd 3e75 f7bc 2e5f 5abd 8083 8cb8
00000250: c587 d8bc 47a0 733d 404d 26bd 57d3 8dbb
00000260: aa4b f43b 7727 bebc 674b 3dbc 006c 86bc
00000270: 286d 00bc 433f e7bc 9930 4e3d 82b6 9abd
00000280: 6a90 433d 9fba cf3b 097b 3bbd eaac d03c
00000290: 4f08 b83c 4186 26bd ca76 24bd ec0b 16bd
000002a0: 38f4 6c3c 57db 843d 1404 4cbd 65b0 c13c
000002b0: 0df6 5ebd 94da 93bd 5542 213c 3dfe 66bc
000002c0: e233 4cbd eede 07bd 5e03 1fbd af36 49bd
000002d0: 0b84 46bc 8a7a b0bd f3dd 38bc ea52 7abd
000002e0: 00da 83bc f4d0 8dbd 261b 26bd 5562 683c
000002f0: 7f77 78bd eb8f 02bd edb5 73bc a843 53bd
00000300: 9e87 93bd c1ba 6839 30c2 e9bc be0a 5fbd
00000310: 7ce2 cfbc 485f 683c d418 59bd c958 0fbc
00000320: 3b8a e5bb a422 c23c f589 16bd 01f0 42bd
00000330: 512c e0bb 3c0a 523c 2cb2 4f3d 5630 cabc
00000340: ff96 2b3d d4a9 0ebd 1654 91bd 8342 eabc
00000350: 44d7 46bd c995 13bc de3d 753a 475f 1cbd
00000360: 511f 12bc d629 c5bc b80f d1bc e6b6 28bd
00000370: 37b0 82bd 7829 5bbc a52f e9bc e47a 4ebc
00000380: 5df6 05bc 0cb3 71bd fa6c 64bb e515 b83c
00000390: 3e20 86bd 59d2 81bd 82c8 95bc f299 e8bc
000003a0: 304d a63b 8127 a3bc b58e 753d fa56 4c3c
000003b0: ee09 8abd 46c1 e0bc 7a8e e1bd 0635 953c
000003c0: 53cf 82bd ee00 1cbd 29b9 8cbc a3a2 17bc
000003d0: cc62 70bd 30aa 6eb8 11a1 4e3c 8f66 27bd
000003e0: 174d 26bd 0193 4fbd 76ce 4dbc 88db 3bbd
000003f0: fb8c 34bd ae5c acbb 1211 dabd 3ae3 00bd

bn1.running_mean f4 [400]
0.07714539 0.7785929 0.7487915 0.063431196 1.037345 0.019653717 0.0057066316 0.27083385
2.000437 0.8907887 0.33661395 0.18812913 0.0055023623 0.20558147 0.20860599 1.4218887
1.9387685 0.026565777 1.0848252 0.47598964 0.19442628 1.4069217 0.04710257 1.7070475
0.0033615283 0.7026028 0.09224977 0.063586965 0.27425587 0.14437273 0.7710284 0.59397084
0.37693837 0.031763673 0.8623451 0.010048958 0.22080696 0.053217053 1.3030468 0.96445197
0.02422134 0.76993644 1.0744258 0.4879849 0.14753656 0.016385058 0.1198822 2.0263698
0.026893908 1.1733829 1.0902678 2.1595802 0.016277524 1.3997859 0.027920559 0.96979046
1.2881035 1.0904205 0.06265969 0.76825017 0.27329364 0.018257627 0.5209616 0.8159906
0.15626934 0.71645683 0.8176076 0.55298185 1.4803559 0.07409604 0.08735068 0.0031290208
0.9951585 0.5378284 0.027571179 0.0033662447 0.36657137 0.0060185096 0.22130424 1.4882423
0.013792546 0.35097182 1.5804337 0.16522457 0.7997003 0.5392961 0.61450493 0.051225405
0.7009973 0.19401933 0.11939907 0.052786365 0.3120956 0.71971405 0.5863697 1.2949648
0.0039275815 0.57535744 0.3318668 0.03884253 0.00045429124 0.08397634 0.49219602 0.2986203
0.53956175 0.6838551 0.8506375 0.57729876 0.5175719 0.2513229 0.026471525 0.9100647
0.2588933 0.040660944 0.0021096242 0.10219109 2.29718 0.6958836 0.21540779 0.39988402
0.7513848 0.8938954 1.3743981 0.75184524 0.15237492 0.41759768 0.7196037 0.2786432
0.0116987545 0.55929726 0.13143983 0.09908193 0.078199476 1.6290413 3.5e-43 1.1110622
0.1671767 0.13676941 0.3745643 0.323184 0.066145726 0.023059156 0.423805 0.12802008
0.2972794 0.03530529 0.69403875 0.5088755 0.2774121 0.0025247133 0.04104662 0.14722423
0.3430584 2.803437 0.1958044 0.20564164 0.35188085 0.010822123 0.7027172 1.9374896
0.33775187 0.41030475 0.7657727 0.49369368 1.0839028 0.44920564 0.29689384 0.05034005
0.24373811 0.88260657 0.005501495 1.8917525 6e-45 1.2376927 0.9274614 0.6675687
0.21099478 0.19988756 0.4130651 0.22396258 2.2663546 0.3844665 0.14527148 0.75448614
0.2593468 1.0570579 0.8566963 1.9935151 0.0017997555 1.9340976e-10 0.018140888 0.83798987
1.9670027 0.073798224 0.28327757 0.88082284 0.60363007 0.09573956 1.8016002 0.22397496
0.58281356 2.205522 0.7106943 0.37439027 0.97673917 0.3293747 0.7708588 0.37033215
0.13229251 0.33023572 0.6538379 1.3702037 1.7461853 0.60703075 0.02406499 2.2669628
1.7477503 1.7107418 1.8814459 0.009373761 0.037454978 0.2494461 0.08526341 0.50674665
0.17386879 0.26277906 0.03879338 0.4466806 0.4941905 6e-45 1.3254278 1.0720958
0.82845986 2.1656768 0.3196582 0.6808425 0.75892615 0.18076569 0.9012811 0.94172335
0.104869016 0.16315109 1.110247 0.9077941 0.08709195 0.058533195 0.9157736 1.1736152
0.07442186 0.1575844 2.023979 0.25287738 0.6868941 2.2952027 0.6315116 0.73025733
00000000: 67fe 9d3d dd51 473f cdb0 3f3f 37e8 813d
00000010: b9c7 843f d500 a13c b2fe ba3b bcaa 8a3e
00000020: 2907 0040 ba0a 643f aa58 ac3e eca4 403e
00000030: 294d b43b f383 523e cf9c 553e 7300 b63f
00000040: 9129 f83f 79a0 d93c 8ddb 8a3f eab4 f33e
00000050: af17 473e 0316 b43f a0ee 403d 8880 da3f
00000060: 164d 5c3b c7dd 333f 73ed bc3d e239 823d
00000070: 446b 8c3e 72d6 133e 1e62 453f 790e 183f
00000080: 11fe c03e a01a 023d a6c2 5c3f 62a4 243c
00000090: 381b 623e 20fa 593d 3dca a63f 53e6 763f
000000a0: d56b c63c 8e1a 453f c986 893f 28d9 f93e
000000b0: d313 173e f539 863c cd84 f53d 0bb0 0140
000000c0: 9d50 dc3c 6931 963f e58d 8b3f 9036 0a40
000000d0: 7158 853c 2f2c b33f a8b9 e43c 3044 783f
000000e0: 93e0 a43f e692 8b3f b953 803d 0bac 443f
000000f0: 25ed 8b3e 0591 953c bd5d 053f c3e4 503f
00000100: 1205 203e b769 373f bb4e 513f 3890 0d3f
00000110: 4d7c bd3f aabf 973d eae4 b23d 4210 4d3b
00000120: b5c2 7e3f 1faf 093f f4dc e13c 379c 5c3b
00000130: 3eaf bb3e eb36 c53b 949d 623e b97e be3f
00000140: 21fa 613c 94b2 b33e a74b ca3f a130 293e
00000150: 29b9 4c3f 4f0f 0a3f 3250 1d3f bbd1 513d
00000160: 8f74 333f 01ad 463e 8087 f43d 8436 583d
00000170: ffca 9f3e 2e3f 383f 531c 163f 68c1 a53f
00000180: f1b2 803b a04a 133f 72ea a93e 5819 1f3d
00000190: f02d ee39 cafb ab3d 1e01 fc3e c3e4 983e
000001a0: b820 0a3f 2111 2f3f 61c3 593f dac9 133f
000001b0: 987f 043f 65ad 803e d0da d83c 00fa 683f
000001c0: aa8d 843e 178c 263d 9f41 0a3b 9049 d13d
000001d0: ff04 1340 6d25 323f dc93 5c3e 99bd cc3e
000001e0: c15a 403f 54d6 643f 47ec af3f ee78 403f
000001f0: 2c08 1c3e 5dcf d53e f337 383f 52aa 8e3e
00000200: 22ac 3f3c 1b2e 0f3f 2a98 063e 78eb ca3d
00000210: 0c27 a03d 6d84 d03f fa00 0000 4937 8e3f
00000220: 5e30 2b3e 480d 0c3e e4c6 bf3e 6078 a53e
00000230: 6977 873d 8ee6 bc3c f8fc d83e b217 033e
00000240: 0135 983e 489c 103d 86ac 313f aa45 023f
00000250: f508 8e3e a975 253b 8020 283d f3c1 163e
00000260: 5aa5 af3e 836b 3340 f380 483e b993 523e
00000270: ba29 b43e 464f 313c 46e5 333f a9ff f73f
00000280: d0ed ac3e 7713 d23e ae09 443f 6bc5 fc3e
00000290: 54bd 8a3f 48fe e53e 7802 983e 5e31 4e3d
000002a0: 7c96 793e 81f2 613f e345 b43b f224 f23f
000002b0: 0400 0000 b76c 9e3f 1c6e 6d3f c8e5 2a3f
000002c0: 040f 583e 53af 4c3e 457d d33e 7256 653e
000002d0: f40b 1140 cbd8 c43e 0cc2 143e 0126 413f
000002e0: 1bc9 843e ac4d 873f 7350 5b3f 812b ff3f
000002f0: c6e5 eb3a 02a8 542f 339c 943c 8186 563f
00000300: bfc6 fb3f 8623 973d c209 913e 9b7d 613f
00000310: 8087 1a3f 1a13 c43d d69a e63f b159 653e
00000320: 4533 153f 4627 0d40 10f0 353f 15b0 bf3e
00000330: 940b 7a3f cda3 a83e 0157 453f 2d9c bd3e
00000340: b077 073e a814 a93e ec61 273f d662 af3f
00000350: 0083 df3f 5e66 1b3f f123 c53c eb15 1140
00000360: 48b6 df3f 96f9 da3f 38d3 f03f 6794 193c
00000370: 646a 193d cc6e 7f3e 959e ae3d 26ba 013f
00000380: a90a 323e fa8a 863e cfe5 1e3d 52b3 e43e
00000390: 8a06 fd3e 0400 0000 9ea7 a93f 6f3a 893f
000003a0: f215 543f 739a 0a40 3daa a33e b24b 2e3f
000003b0: fc48 423f a41a 393e 5cba 663f c814 713f
000003c0: 91c5 d63d 1411 273e 931c 8e3f 3265 683f
000003d0: 445d b23d 81c0 6f3d 2370 6a3f 0639 963f
000003e0: 7d6a 983d ce5d 213e df88 0140 2579 813e
000003f0: 4bd8 2f3f 9ae4 1240 bfaa 213f 25f2 3a3f
