checkpoint_actor_local_1_5808.pth (torch, 533842 bytes, 10 tensors)

fc1.weight f4 [400, 24]
0	0xbcccd0c9	-0.0250019
1	0x3d33cc1d	0.04389583
2	0x3a7b1450	0.0009577917
3	0x3d309c6b	0.04311792
4	0x3c70845d	0.014679995
5	0xbd896e91	-0.06710542
6	0xbb9e551b	-0.0048319227
7	0x3d655b8d	0.055995513
8	0xbd07df57	-0.033171978
9	0x3ca3e353	0.020005858
10	0xbbc28882	-0.005936683
11	0xbd171dd3	-0.036893677
12	0x3c6e2f79	0.014537686
13	0xbe0d6a76	-0.13810143
14	0x3b9d3e5d	0.004798694
15	0xbcfac317	-0.030610604
16	0x3cc7f17a	0.024407137
17	0x3d56377c	0.052299008
18	0xbbf31eab	-0.0074194274
19	0xbdb26d3f	-0.08712243
20	0x3d681d73	0.05666871
21	0xbe2cf8a5	-0.16891725
22	0xbc838e3f	-0.01605904
23	0xbd155839	-0.03646109
24	0xbd19457b	-0.037419777
25	0x3dade91a	0.08491726
26	0xbcb7dc9f	-0.022444068
27	0x3b1dec92	0.0024097306
28	0xbd84374c	-0.064558595
29	0xbc08ef95	-0.008357902
30	0x3c3c5807	0.011495597
31	0x3d92bcf9	0.0716495
32	0x3c82088a	0.015873212
33	0x3dd9ca17	0.10634249
34	0x3c159182	0.00912893
35	0x3d33daef	0.043909963
36	0xbcef9462	-0.02924556
37	0xbdb27648	-0.087139666
38	0xbd3891b7	-0.04506084
39	0xbcd05d1e	-0.025435027
40	0x3d498c02	0.049205787
41	0x3daecb91	0.08534921
42	0xbc9e96f4	-0.01935909
43	0x3d3fc2e7	0.046816733
44	0x3cbc7e7d	0.023009533
45	0xbe29e9a5	-0.16593035
46	0x3d5ce896	0.05393275
47	0x3d0421e9	0.0322589
48	0x3c8290e8	0.015938237
49	0xbd589ce4	-0.052883998
50	0xbd4a2d5c	-0.049359664
51	0xbd173b5e	-0.03692185
52	0xbd3fab5c	-0.04679428
53	0x3cfb455e	0.030672725
54	0x3cb970e4	0.022636838
55	0x3a8160cd	0.0009870768
56	0x3d470fd1	0.048599068
57	0xbdd0464f	-0.1016966
58	0xbcac1a6e	-0.021008696
59	0xbd03eab4	-0.032206252
60	0x3d7df757	0.06200346
61	0x3dd6b091	0.10482896
62	0xbca6db68	-0.020368293
63	0xbcb6fb38	-0.022336587
64	0x3d0e413a	0.034730174
65	0xbdc36be8	-0.09542066
66	0x3b74a094	0.0037327157
67	0xbd81e5b7	-0.06342643
68	0x3d9edd90	0.077571034
69	0x3e222ae2	0.15836671
70	0xbc533262	-0.01289043
71	0xbcf0e8ee	-0.029407945
72	0x3cd21636	0.025645357
73	0xbd90740f	-0.070533864
74	0x3c25ca51	0.010119037
75	0x3d40b6f9	0.047049496
76	0xbc2c83b2	-0.0105294455
77	0x3cdc6c87	0.026907219
78	0xbced6365	-0.028978059
79	0xbb35f5a7	-0.0027764828
80	0x3af2bc53	0.001851926
81	0xbc9aa6c3	-0.018878346
82	0xbc74aae7	-0.014933324
83	0x3d68c332	0.056826778
84	0x3bf4a3be	0.0074658087
85	0xbc91599c	-0.017742924
86	0x3c0f8e46	0.008761948
87	0x3d9e83ee	0.07740007
88	0x3d1057ba	0.035239913
89	0xbbc1cc0b	-0.0059142164
90	0x3cd62901	0.026142599
91	0x3dc16245	0.094425716
92	0x3daaefa2	0.083464876
93	0x3d53793c	0.05162929
94	0xbd3f2dc9	-0.046674524
95	0x3dc11fa5	0.09429864
96	0x3a101ebe	0.0005497745
97	0xbd8b69cd	-0.06807289
98	0x3c0023e7	0.00782106
99	0xbcb6a8ea	-0.022297341
100	0xbcc62fb3	-0.024192667
101	0xbbb2eb8b	-0.005460208
102	0xbc1f0ff2	-0.0097083915
103	0xbc32ffcc	-0.010925245
104	0x3d3e01c1	0.04638839
105	0xbd5d177a	-0.053977467
106	0xbceb004f	-0.02868667
107	0x3d1b22a7	0.037874844
108	0xba88d614	-0.0010439777
109	0x3e1ed62c	0.15511388
110	0x3ce72676	0.028216582
111	0xbd1439fe	-0.03618812
112	0x3d8384ff	0.06421851
113	0xbd13b3ba	-0.036060072
114	0x3bc6fb18	0.006072413
115	0x3bb97c37	0.0056605595
116	0xbdb278c0	-0.087144375
117	0x3ea74bdb	0.3267506
118	0xbbc079bd	-0.0058738873
119	0x3bf2104b	0.007387196
120	0x3db74263	0.08948209
121	0xbbb19508	-0.0054193772
122	0xbc127d62	-0.008941026
123	0x3d113499	0.03545055
124	0xbd0b700e	-0.03404241
125	0x3c89ec23	0.016836232
126	0x3c0498ed	0.008093101
127	0x3cea86bd	0.028628701
128	0x3db47a92	0.08812441
129	0xbd426eee	-0.047469072
130	0x3c0f8bac	0.008761328
131	0xbd230f8d	-0.039809752
132	0x3bd10d0b	0.0063797287
133	0x3af1db4d	0.0018452198
134	0x3d2aac42	0.041668184
135	0x3d0fea5b	0.03513561
136	0x3d4fc999	0.050729368
137	0xbd4f1eab	-0.050566357
138	0x3d04957a	0.032369114
139	0x3d85579c	0.06510851
140	0x3d9da5f1	0.076976664
141	0x3d33bcc3	0.04388119
142	0x3c923421	0.017847123
143	0x3bde4350	0.0067829266
144	0xbd0d9e49	-0.03457478
145	0x3d82abf9	0.063804574
146	0xbb6eb126	-0.0036421507
147	0xbcc8bc15	-0.024503747
148	0x3d0d2529	0.034459267
149	0xbd271d94	-0.040799692
150	0xbc8667cf	-0.016406922
151	0xbcbb1b28	-0.022840098
152	0x3ce961d1	0.028489025
153	0x3cc1d2ff	0.023660181
154	0x3c043961	0.008070321
155	0xbc04b7ff	-0.008100509
156	0x3d90caa2	0.07069899
157	0xbe00c9f0	-0.12577033
158	0xbc75a825	-0.014993702
159	0x3d3954d3	0.04524691
160	0x3d8e49ff	0.069477074
161	0x3db68be5	0.089134015
162	0xba8cc487	-0.0010739722
163	0x3d4bdda2	0.049771912
164	0x3d2f3707	0.042777088
165	0xbce3a2ec	-0.027787648
166	0xbc15794b	-0.009123157
167	0x3b6da973	0.003626433
168	0x3b76069d	0.0037540563
169	0xbce28edd	-0.027656013
170	0x3d4f426c	0.050600454
171	0xbc7cf3d7	-0.015438995
172	0x3ce78746	0.028262746
173	0xbda52341	-0.08063365
174	0xbc9757db	-0.01847451
175	0x3c809cbe	0.01569974
176	0x3cc7cd9b	0.024390033
177	0xbb16be4e	-0.0023001614
178	0x3cb09e10	0.021559745
179	0x3cc92251	0.024552496
180	0x3c728ea8	0.01480452
181	0xbd23d4be	-0.03999781
182	0x3d4684c7	0.04846647
183	0x3d120c71	0.035656396
184	0x3d3bf4b8	0.04588768
185	0xbd87269f	-0.06599163
186	0x3c9fb87f	0.019497154
187	0x3dbebfae	0.09313904
188	0x3d6b9944	0.057519212
189	0x3b44f63b	0.0030053991
190	0x3d5fce43	0.054640066
191	0x3dd9076a	0.10597117
192	0xbb3640a4	-0.0027809525
193	0x3dcfe546	0.10151152
194	0xbccb5553	-0.02482096
195	0xbd320851	-0.043464962
196	0x3d41f5d2	0.047353573
197	0xbda4a485	-0.08039192
198	0xbd05ea59	-0.032694194
199	0xbd58d689	-0.05293897
200	0xbc8820e3	-0.016617244
201	0x3d835512	0.0641271
202	0x3d4876ea	0.04894153
203	0x3d739e4f	0.059477147
204	0x3c0654b9	0.00819891
205	0xbc84afc6	-0.016197097
206	0xbcb419c3	-0.02198494
207	0x3db27dd2	0.087154046
208	0xbc4cffda	-0.012512172
209	0x3b4a982f	0.0030913462
210	0x3d1c46f5	0.038153607
211	0x3d16b25d	0.036791194
212	0x3d816f78	0.06320089
213	0x3d901fbe	0.07037304
214	0xbc4f6f0e	-0.012660755
215	0x3da53c86	0.080681846
216	0xbd80e6ec	-0.06294045
217	0xbdcd1dd9	-0.100154586
218	0xbb56380c	-0.0032687215
219	0x3cf9e199	0.030503081
220	0xbd088d29	-0.033337746
221	0x3d88a50d	0.06672106
222	0x3c7333a0	0.014843851
223	0xbd40613c	-0.04696773
224	0xbcabecc3	-0.02098692
225	0xbdce2c05	-0.1006699
226	0x3ca4fa91	0.02013901
227	0xbcda6a1a	-0.026661921
228	0xbbbc4964	-0.0057460535
229	0x3d804704	0.06263545
230	0xbc23a0d0	-0.009987071
231	0x3caf062e	0.021365251
232	0x3c5359a0	0.012899786
233	0xbd29e2d1	-0.041476075
234	0xbbf23b38	-0.0073923133
235	0x3c011dbb	0.007880623
236	0xbd9a31a3	-0.07528999
237	0x3e612ad3	0.21988992
238	0x3c70231b	0.014656807
239	0x3b0576a8	0.0020364914
240	0xbc627757	-0.013822398
241	0xbad918e0	-0.00165632
242	0x3d0acc52	0.03388626
243	0x3da15a4c	0.07878551
244	0x3ca26a7d	0.019826168
245	0xbdd7f90f	-0.10545551
246	0xbd08c8b9	-0.03339455
247	0x3dbf2638	0.093334615
248	0x3d175415	0.03694542
249	0x3ca62376	0.020280581
250	0xbc313cca	-0.010817716
251	0xbb18df0c	-0.0023326306
252	0xbce33a90	-0.027737886
253	0xbdf8d77d	-0.12150476
254	0x3b99cca5	0.004693585
255	0x3d7d3de0	0.061826587

fc1.bias f4 [400]
0	0xbccc6560	-0.024950683
1	0xbd06e010	-0.032928526
2	0x3d3c9234	0.046037868
3	0xbdb21557	-0.086954765
4	0x3c3d69a6	0.011560833
5	0xbe493446	-0.19648847
6	0xbe5d0adb	-0.21586172
7	0x3df88240	0.12134218
8	0x3dbad909	0.091234274
9	0xbc881ddd	-0.016615802
10	0x3e52ceff	0.20586775
11	0x3de4ab14	0.11165443
12	0xbe410ea7	-0.18853246
13	0x3cc0a5a1	0.023516478
14	0xbdd965f1	-0.10615147
15	0xbe8260aa	-0.25464374
16	0xbe8be7a1	-0.27325156
17	0xbcbc35c1	-0.02297485
18	0xbdf201d1	-0.11816753
19	0xbd1c980c	-0.03823094
20	0xbdc5dfde	-0.0966184
21	0xbe99ff85	-0.30077758
22	0xbe3961e9	-0.18103756
23	0x3e366068	0.17810214
24	0xbddb6a2f	-0.10713612
25	0xbd0f6e86	-0.035017513
26	0xbe2878b8	-0.164523
27	0xbe0dbd6a	-0.13841787
28	0xbe359bb3	-0.17735176
29	0xbde7e107	-0.113222174
30	0x3e272eed	0.16326495
31	0xbe81abc1	-0.2532635
32	0x3dd00666	0.101574704
33	0xbd39692c	-0.045266315
34	0xbdab238f	-0.08356392
35	0x3e0a3788	0.13497746
36	0x3cb25c3a	0.021772493
37	0x3e049e9c	0.1295113
38	0x3d51b213	0.051195215
39	0xbcda5e4b	-0.02665629
40	0xbe620eaa	-0.22075906
41	0x3e338786	0.17532167
42	0xbe460cf4	-0.19340879
43	0xbd93aabf	-0.072103016
44	0xbdae4efe	-0.0851116
45	0xbd9ada89	-0.075612135
46	0x3de351ce	0.110995874
47	0xbe1bf327	-0.15229474
48	0x3dd953e8	0.10611707
49	0xbc73aed7	-0.014873228
50	0xbe6abeb1	-0.22924305
51	0x3c30d6d4	0.0107934065
52	0xbc5f8314	-0.013642091
53	0x3d7a4469	0.061100397
54	0xbdc9d759	-0.098555274
55	0xbe1cb23b	-0.15302365
56	0x3dba79e7	0.09105282
57	0xbe3a627d	-0.18201633
58	0xbcb07fac	-0.021545254
59	0xbd542538	-0.051793307
60	0x3d2905bb	0.04126523
61	0x3d892e04	0.0669823
62	0x3df1f116	0.118135616
63	0xbe030e9c	-0.12798542
64	0x3e265527	0.1624342
65	0xbe45f16f	-0.19330381
66	0x3da954ab	0.08268102
67	0x3e60139d	0.21882482
68	0x3da873f6	0.08225243
69	0xbe71d04b	-0.23614614
70	0xbe5a7ca1	-0.21336605
71	0xbd9120b8	-0.07086319
72	0xbe0b8e4a	-0.13628498
73	0x3db066b4	0.08613339
74	0x3b0abfc5	0.0021171432
75	0xbe428b56	-0.18998465
76	0x3e29510e	0.16534826
77	0x3d71e827	0.05905929
78	0x3de19ed3	0.110166214
79	0xbe7fad2d	-0.24968405
80	0x3c85a2c7	0.01631297
81	0xbdf92f8b	-0.12167271
82	0x3e439f65	0.19103773
83	0xbe335d02	-0.17515948
84	0x3e3298e0	0.1744113
85	0x3c7a76dd	0.015287128
86	0x3e24efa0	0.16107035
87	0x3d49e4f3	0.04929061
88	0x3c868567	0.016421033
89	0xbe2efad3	-0.1708787
90	0x3d4b284c	0.049598977
91	0xbdd56855	-0.104202904
92	0x3d7ebd78	0.06219241
93	0xbc5acf48	-0.013355084
94	0xbd5e5150	-0.054276764
95	0x3d1f6d8f	0.038922843
96	0x3e67bdf8	0.22631061
97	0xbe7bf29a	-0.24604264
98	0xbd80ec53	-0.06295075
99	0xbd3004b7	-0.042973246
100	0xbd045561	-0.032307986
101	0x3e249715	0.16073258
102	0xbe3a96d7	-0.18221603
103	0xbd83db47	-0.06438308
104	0xbe956820	-0.29181004
105	0xbe421f17	-0.18957172
106	0x3cbdff72	0.023193095
107	0xbe95b84a	-0.29242164
108	0xbcb1375e	-0.021632846
109	0xbde36b81	-0.11104489
110	0x3dbded64	0.09273794
111	0xbe262c1e	-0.16227767
112	0xbe17cac1	-0.14823438
113	0xbe2a6f7f	-0.16644095
114	0x3de38789	0.11109836
115	0xbd52537b	-0.051349144
116	0x3dd11dba	0.10210748
117	0xbdda49c1	-0.10658599
118	0x3bb154c1	0.005411715
119	0xbe3ff3fa	-0.18745413
120	0xbd7f501b	-0.062332254
121	0xbe6f3cf0	-0.2336309
122	0xbe0f19c3	-0.13974671
123	0x3ce06647	0.02739252
124	0xbe7b2612	-0.24526241
125	0x3ddf3cfb	0.10900303
126	0xbd8648ca	-0.06556852
127	0xbcf55153	-0.029946005
128	0x3dd73819	0.10508747
129	0xbe06f462	-0.13179162
130	0xbe6a7644	-0.22896677
131	0xbe0585f2	-0.13039377
132	0xbe1fe5fb	-0.15615074
133	0x3d7d6cdd	0.0618714
134	0xbe5e81ce	-0.21729204
135	0xbe6246ec	-0.22097367
136	0x3d2b7b41	0.04186559
137	0xbddc411b	-0.107546054
138	0x3c6aca7d	0.0143305035
139	0x3e0fb828	0.14035094
140	0xbae4a5c7	-0.0017444425
141	0xbdb58030	-0.088623405
142	0xbd4018de	-0.046898715
143	0x3e37a92e	0.1793563
144	0xbd91a1ff	-0.071109764
145	0x3cf22e39	0.029563056
146	0x3de5bbc2	0.112174526
147	0x3d9972cf	0.07492601
148	0xbc5bd412	-0.013417261
149	0x3d2be44e	0.041965775
150	0xbdb8beb2	-0.09020747
151	0xbdd2758e	-0.10276328
152	0xbd88b2fe	-0.06674765
153	0x3be007ec	0.006836882
154	0xbe09fa99	-0.13474502
155	0xbdb69ff0	-0.089172244
156	0xbe05fbcf	-0.13084339
157	0xbd540b24	-0.051768437
158	0xba981a7e	-0.0011604575
159	0xbd424d88	-0.04743722
160	0xbd11b555	-0.035573322
161	0xbe22aed0	-0.15886998
162	0xbe6afb57	-0.22947441
163	0xbd97fc54	-0.07421175
164	0x3e134364	0.14381176
165	0x3d93e68c	0.07221708
166	0xbdb371a3	-0.08761909
167	0xbd6a5eb7	-0.057219233
168	0xbd5d5560	-0.054036498
169	0xbe754c70	-0.2395494
170	0x3c0c6acb	0.008570383
171	0x3cea2f37	0.028586967
172	0xbe24e800	-0.16104126
173	0xbbb2f489	-0.00546128
174	0x3d39f768	0.04540196
175	0xbd1f3cb3	-0.038876247
176	0x3e33c70e	0.17556402
177	0xbe3e6a6e	-0.18595287
178	0x3dc18a1d	0.09450171
179	0xbe11fcdd	-0.14256616
180	0x3da548e1	0.08070541
181	0xbe43ee1f	-0.19133805
182	0x3dbd9358	0.09256619
183	0xbddc250d	-0.107492544
184	0xbe2360ad	-0.15954848
185	0x3de55567	0.1119793
186	0x3cfaaa27	0.030598713
187	0x3ddd96fe	0.10819815
188	0xbda2744d	-0.07932339
189	0x3ce1bd4b	0.027556082
190	0xbdf5fad8	-0.12010735
191	0x3dea1b23	0.11430957
192	0x3d80c327	0.06287222
193	0xbe74dde7	-0.23912774
194	0x3d8cd954	0.068773896
195	0x3de2bb6f	0.11070906
196	0x3d9c72f5	0.07639114
197	0xbd13e77f	-0.036109444
198	0xbe3434b6	-0.17598233
199	0x3d9719dd	0.0737798
200	0x3dc2f290	0.095189214
201	0x3d43d56e	0.047810964
202	0xbd90c472	-0.07068719
203	0x3d6a7009	0.05723575
204	0x3d06dd22	0.032925732
205	0xbd2503d8	-0.04028687
206	0xbb013dd8	-0.00197207
207	0x3e1a38d3	0.15060739
208	0x3ddd76ef	0.108137004
209	0x3df13d84	0.11779311
210	0xbe13b105	-0.14422996
211	0xbca9d458	-0.020731136
212	0xbdce2fa6	-0.10067682
213	0xbd9f8bd0	-0.07790339
214	0x3db03cb7	0.086053304
215	0x3d963433	0.07334175
216	0x3da1c768	0.07899362
217	0x3d2b3a2a	0.041803516
218	0xbe74bd16	-0.23900256
219	0xbcdcd8eb	-0.026958903
220	0x3d35c7dd	0.044380058
221	0x3de75757	0.11295956
222	0xbd7ba31e	-0.061434858
223	0xbe2c9e08	-0.16857159
224	0xbc818f3d	-0.015815372
225	0x3d689459	0.0567821
226	0xbe124894	-0.14285499
227	0xbe83981b	-0.25701985
228	0x3d7aab06	0.061198257
229	0xbe8c1249	-0.273577
230	0x3e08d52f	0.13362573
231	0xbe0d0eaf	-0.13775133
232	0x3e0d6da3	0.13811354
233	0xbcd76214	-0.026291884
234	0xbe047bfd	-0.12937923
235	0xbe2512f1	-0.16120507
236	0xbd6a0651	-0.05713493
237	0x3d3b85ec	0.045782015
238	0xbc59b27c	-0.013287183
239	0xbdca5dc3	-0.09881165
240	0xbda8d52d	-0.08243785
241	0x3de06632	0.10956992
242	0x3d8135c1	0.06309081
243	0xbe293c48	-0.16526902
244	0x3de7d8cc	0.113206476
245	0x3ce107c5	0.027469525
246	0xbe0905bd	-0.13381095
247	0x3d465dcd	0.0484293
248	0xbb835df5	-0.0040090033
249	0xbd6879a5	-0.056756634
250	0xbc81b5b7	-0.015833719
251	0xbd8a694d	-0.06758366
252	0x3d5fd6f1	0.054648343
253	0xbe6fbbb4	-0.23411447
254	0xbe16fce0	-0.14744902
255	0xbe7160d8	-0.23572099

fc2.weight f4 [300, 400]
0	0xbe0b43f0	-0.13600135
1	0xbc3f3465	-0.011670207
2	0x3cf5ad95	0.029989997
3	0xbcf819eb	-0.030285796
4	0xbcdf8399	-0.02728443
5	0x3d4a21bb	0.049348574
6	0xbd6cdfa0	-0.057830453
7	0xbd2fecdf	-0.042950507
8	0xbc51d2d7	-0.012806616
9	0xbc5b0d66	-0.013369894
10	0xbddf10d4	-0.108918816
11	0xbcc34d12	-0.02384046
12	0xbd678fb1	-0.05653352
13	0xbc8d966a	-0.017283637
14	0x3d7b8266	0.061403655
15	0xbd9b6f18	-0.07589549
16	0x3db6f411	0.08933271
17	0xbcb04ebd	-0.02152192
18	0xbca64197	-0.020294948
19	0xbcd204a0	-0.025636971
20	0xbb3d82e9	-0.002891714
21	0xbda5d451	-0.08097137
22	0xb99b3e00	-0.00029610097
23	0xbcce4860	-0.025180995
24	0x3c069994	0.008215327
25	0xbd2b5479	-0.041828606
26	0x3cd9d88f	0.026592521
27	0xbd44aebc	-0.048018202
28	0x3c10626e	0.00881253
29	0xbc457b31	-0.012053297
30	0xbdc3dcbf	-0.09563588
31	0xbd77fd9e	-0.060544603
32	0xbd9cf865	-0.07664565
33	0x3c0891b6	0.008335521
34	0x3db59668	0.08866578
35	0xbb549271	-0.0032435919
36	0x3cfbc3ae	0.030732956
37	0xbcc2e2e6	-0.023789834
38	0x3d8925bc	0.066966504
39	0xbce1ab8f	-0.027547626
40	0xbd472fe7	-0.048629668
41	0x3d1283fa	0.035770394
42	0xbdd02d07	-0.10164838
43	0x3d592572	0.053014226
44	0xbd6257d6	-0.055259548
45	0xbc08db6c	-0.0083530955
46	0xbd1e29b4	-0.03861399
47	0xbca9a854	-0.020710148
48	0xbd53b210	-0.051683486
49	0xbd5db57a	-0.054128148
50	0x3d5ebcfe	0.054379456
51	0x3be647a2	0.0070275823
52	0x3bba41c0	0.0056841075
53	0x38b06014	8.41023e-05
54	0xbdae7e32	-0.085201636
55	0x3d1cf83a	0.038322665
56	0xbcbf0444	-0.023317464
57	0xbdaf1e3f	-0.08550691
58	0x3d4e811a	0.05041609
59	0x3cb29e7f	0.021804092
60	0x3d949dcb	0.07256659
61	0xbd9a815c	-0.075442046
62	0xbd36992a	-0.044579662
63	0x3c3571c0	0.011074483
64	0x3cfc5724	0.03080327
65	0xbc6b8cdd	-0.014376846
66	0xbc8b7c65	-0.01702709
67	0x3cde26c3	0.027118092
68	0x3d8d7a3b	0.06908079
69	0xbbaece0a	-0.0053346204
70	0xbda889bb	-0.08229395
71	0x3ab3b736	0.0013711217
72	0xbcb9eedd	-0.022696907
73	0x3d63dc44	0.055629984
74	0xbd56a394	-0.052402094
75	0x3d2fa42e	0.042881183
76	0x3d9728c3	0.073808216
77	0xbd80e183	-0.06293013
78	0xbd7e0330	-0.06201476
79	0x3be310e8	0.0069295056
80	0xbc022644	-0.007943694
81	0xbdb4cdb2	-0.08828296
82	0xbd408025	-0.04699721
83	0xbd4a95ac	-0.049459144
84	0x3d5d5506	0.054036163
85	0x3c0f4f09	0.008746871
86	0x3d68856f	0.056767877
87	0x3c3c77ca	0.011503169
88	0x3d14739e	0.036243074
89	0xbd61c8a2	-0.05512298
90	0x3cce68ca	0.025196452
91	0xbd4e9430	-0.05043429
92	0xbdb64669	-0.089001484
93	0x3cd3bee1	0.025847854
94	0xbcebae16	-0.028769534
95	0xbc31500b	-0.010822306
96	0x3d114377	0.03546473
97	0xbb17f0a2	-0.00231842
98	0xbd0011c3	-0.03126694
99	0xbccc55b4	-0.02494321
100	0x3cae916e	0.02130958
101	0x3d936810	0.07197583
102	0xbe16685a	-0.14688244
103	0xbd6dbb96	-0.058040224
104	0xbddbf323	-0.10739734
105	0xbdc9eb09	-0.098592825
106	0xbcb792f2	-0.022408936
107	0x3c830810	0.015995055
108	0xbc4c911d	-0.01248577
109	0xbc43509e	-0.011921076
110	0x3c5c421b	0.013443495
111	0x3d0ea36d	0.034823824
112	0xbc39a166	-0.011329984
113	0x3d2cc1e1	0.042177085
114	0x3c3bc1e2	0.0114597995
115	0x3baccbd5	0.005273322
116	0xbdb59262	-0.08865811
117	0xbd181a3f	-0.037134405
118	0xbd8144bd	-0.06311939
119	0xbd64d901	-0.055871014
120	0xbd134f3f	-0.035964247
121	0xbbdcfb8b	-0.0067438534
122	0x3d95a6a5	0.073071755
123	0xbd45ecb2	-0.048321433
124	0xbdcaaff6	-0.09896843
125	0x3c5dafd7	0.013530693
126	0xbdb1e64f	-0.08686506
127	0xbd31df47	-0.043425824
128	0xbd0d61f3	-0.03451724
129	0xbd51b056	-0.051193558
130	0xbd0631e2	-0.032762416
131	0xbd9b4b84	-0.07582763
132	0xbdbf40a8	-0.09338504
133	0xbd177ad8	-0.036982387
134	0xbc5403d7	-0.012940369
135	0x3bdc373f	0.006720453
136	0xbc0cfbe7	-0.00860498
137	0xbc42c106	-0.011886841
138	0xbd2ffdde	-0.042966716
139	0xbd311bc7	-0.04323938
140	0xbd1edbdd	-0.038783897
141	0x3c65896a	0.014009813
142	0xbd097d2a	-0.03356663
143	0xbc82d030	-0.015968412
144	0xbb761b7a	-0.0037552998
145	0xbd810800	-0.06300354
146	0x3cf55514	0.029947795
147	0xbd6c4493	-0.057682585
148	0xbd5609d1	-0.052255455
149	0x3be95ad8	0.007121425
150	0x3ce801cf	0.028321175
151	0xbd198cf0	-0.037487924
152	0xbda40a28	-0.0800975
153	0xbc6cb1a0	-0.014446646
154	0xbc15caf6	-0.009142628
155	0x3d6c3486	0.057667278
156	0x3ae54178	0.0017490825
157	0xbcc7d3b4	-0.02439294
158	0xbd7e32fd	-0.062060345
159	0xbdee10cf	-0.116243
160	0xbd03af75	-0.03214975
161	0x3d569130	0.052384555
162	0x3d3f644a	0.046726502
163	0xbcc3bb68	-0.023893073
164	0xba41b187	-0.00073888194
165	0x3d1d8cf7	0.038464513
166	0xbcc291f3	-0.023751235
167	0x3c0ce3a5	0.008599197
168	0xbd8e4ea4	-0.06948593
169	0x3c9cca29	0.019139366
170	0x3c791256	0.015202126
171	0x3d6830fa	0.056687333
172	0x3ca444f3	0.020052409
173	0xbd7f8124	-0.062379017
174	0x3d081a67	0.033228304
175	0x3ce59f0a	0.028029937
176	0xbd8763a8	-0.06610805
177	0xbd9ccd5f	-0.07656359
178	0xbda86569	-0.082224675
179	0x3c92df4f	0.017928747
180	0x3c943bc4	0.018094905
181	0x3d021578	0.031758755
182	0xbd1af16b	-0.03782789
183	0x3cc6d319	0.024270581
184	0xbdaa9d4e	-0.08330785
185	0x3bf8f5fb	0.0075976825
186	0xbd68a6fd	-0.056799877
187	0x3cc225c8	0.023699656
188	0xbc3f2ae8	-0.0116679445
189	0x3c12ae19	0.008952641
190	0x3d04bc91	0.032406393
191	0x3d5665a7	0.052343037
192	0x3cbd8f4b	0.023139616
193	0xbd6a11fc	-0.057146057
194	0x3d4b562e	0.049642734
195	0xbcbca234	-0.023026563
196	0x3cecf805	0.028926859
197	0xbc472cfb	-0.01215672
198	0xbd0de554	-0.034642532
199	0x3c0410e0	0.008060664
200	0x3c439879	0.011938208
201	0x3cbc1669	0.022959905
202	0x3d526a5e	0.05137097
203	0x3d19d5f6	0.037557565
204	0x3d1e015e	0.038575523
205	0xbd7958b8	-0.060875624
206	0xbe053188	-0.13007176
207	0x3cfdef21	0.030997815
208	0x3d86d2e3	0.06583192
209	0x3da6b3a7	0.08139735
210	0xbd3f06c5	-0.046637315
211	0x3cb718cf	0.022350697
212	0x3c3ace34	0.011401702
213	0x3c3cf82c	0.011533778
214	0xbd427f33	-0.047484588
215	0xbd473975	-0.04863878
216	0xbcc83b2f	-0.024442283
217	0x3d4b90c4	0.049698606
218	0xbd6c357c	-0.057668194
219	0x3cd02b80	0.025411367
220	0x3c142691	0.009042398
221	0xbcc55e05	-0.024092684
222	0xbd6fffc2	-0.05859352
223	0xbd9a2cb4	-0.07528058
224	0xbd1d7411	-0.038440768
225	0xbe077cca	-0.13231197
226	0xbd69c0ce	-0.05706864
227	0xbdfc3cd3	-0.12316289
228	0xbdebffa4	-0.11523369
229	0xbc89e021	-0.016830506
230	0xbe1d29b5	-0.15347941
231	0x3dab1b66	0.08354835
232	0xbd9467d8	-0.07246369
233	0xbdac6591	-0.0841781
234	0x3c8a40e6	0.01687665
235	0xbd854cad	-0.06508765
236	0x3d0bf0e5	0.03416528
237	0xbc4116f8	-0.011785261
238	0xbd17fca2	-0.037106164
239	0x3ce6bc78	0.02816604
240	0x3bead919	0.0071669933
241	0x3cb04e87	0.02152182
242	0x3d70a843	0.058754217
243	0xbd528e45	-0.05140521
244	0x3c762a24	0.015024696
245	0xbd022ec5	-0.031782884
246	0xbd5c5cc7	-0.053799417
247	0x3d1de471	0.038547937
248	0x3d8134c6	0.06308894
249	0xbc86ea09	-0.016469019
250	0xbdd10ee0	-0.10207915
251	0xbc50e3e1	-0.012749643
252	0xbdae4930	-0.08510053
253	0xbc88e609	-0.016711252
254	0x3c2c955a	0.010533655
255	0x3cb4f615	0.022089997

fc2.bias f4 [300]
0	0x3ce6ff86	0.028198015
1	0x3d8e2398	0.06940383
2	0xbd1596a7	-0.036520626
3	0xbc771500	-0.01508069
4	0x3d26f6c9	0.040762696
5	0x3d41db3f	0.04732823
6	0x3d9e77c7	0.077376895
7	0xbbf493ef	-0.007463924
8	0xbcd68019	-0.026184129
9	0xbd3918a7	-0.045189526
10	0x3d9436a7	0.072369866
11	0x3d13a2e4	0.036044016
12	0x3c8838ce	0.01662865
13	0xbc2a5ce6	-0.010398125
14	0x3c5a90f5	0.0133402245
15	0x3cf3fc31	0.02978334
16	0xbc1472b6	-0.009060552
17	0x3cf0f96b	0.029415807
18	0x3d5bf9bb	0.05370496
19	0x3d923ab3	0.07140102
20	0x3df11326	0.117712304
21	0x3c637ef4	0.013885248
22	0x3d5e0e41	0.054212812
23	0x3d34c348	0.044131547
24	0x3c93dc8a	0.018049497
25	0x3d2065a3	0.03915943
26	0xbcba0f3c	-0.022712342
27	0xbcffd555	-0.031229654
28	0x3df816a2	0.12113692
29	0xbcadf926	-0.021236967
30	0x3dad25f2	0.08454503
31	0xbd8b9038	-0.06814617
32	0xba11092e	-0.0005532679
33	0x3cd90f2a	0.026496489
34	0x3d6542fc	0.055972084
35	0xbc5af083	-0.0133630065
36	0x3d77ff82	0.060546406
37	0x3da24646	0.0792356
38	0x3c516f72	0.012782918
39	0x3c59a9a2	0.0132850725
40	0xbd2072e5	-0.039172072
41	0xbbb9f488	-0.0056749023
42	0x3d184f95	0.03718527
43	0x3d21ec20	0.039531827
44	0x3ad867c0	0.0016510412
45	0xbc8a1385	-0.01685501
46	0x3b0900fa	0.0020905123
47	0xbcc703ed	-0.024293864
48	0x3ba02adc	0.0048879217
49	0x3d85e34b	0.06537493
50	0xbce8c608	-0.028414741
51	0x3d4e03d1	0.05029661
52	0x3dfbd830	0.12297094
53	0x3cb33b1d	0.021878773
54	0x3d94d25d	0.07266686
55	0x3d93c6a1	0.0721562
56	0xbd8f80ac	-0.07006964
57	0xbb488c6b	-0.0030601274
58	0x3c76f3eb	0.015072803
59	0x3d4d7c2f	0.05016726
60	0x3bf911da	0.007601005
61	0x3e10661d	0.14101453
62	0x3d8f1648	0.06986672
63	0x3b946860	0.004529044
64	0xbb9dd304	-0.004816415
65	0x3cb7a075	0.022415379
66	0xb8e24980	-0.0001079021
67	0xbca685c6	-0.02032746
68	0xbcaf1e2c	-0.021376692
69	0xbbdb7c8a	-0.006698196
70	0xbcdcda5d	-0.026959592
71	0xbc8c143e	-0.017099496
72	0x3d7d968d	0.061911155
73	0x3d83c94b	0.06434878
74	0xbd02a7dc	-0.031898364
75	0xbcbe6ee2	-0.023246232
76	0x3d120981	0.035653595
77	0xbd5d4b95	-0.05402716
78	0x3d4d1909	0.050072704
79	0xbcd42a0c	-0.025898956
80	0xbbb7bc67	-0.005607176
81	0x3d938985	0.07203964
82	0xbb88dae7	-0.004176486
83	0x3bd70e45	0.0065629804
84	0x3cebebb4	0.028798915
85	0x3d774453	0.060367893
86	0x3bf56cd2	0.007489779
87	0x3cce8bf0	0.025213212
88	0x3b506b8a	0.003180238
89	0x3d2846d2	0.041083165
90	0xbd095b32	-0.033534236
91	0x3b9bc015	0.0047531226
92	0x3dc66793	0.09687724
93	0x3da7cab5	0.0819296
94	0xbc7b1359	-0.015324437
95	0x3d9a4980	0.0753355
96	0xbcc37169	-0.02385779
97	0x3c1f9ed0	0.009742454
98	0x3d0c8c05	0.03431322
99	0xbd9f5684	-0.077801734
100	0xbce88e5d	-0.028388197
101	0x3d2cac1b	0.04215632
102	0x3d0efb61	0.034907702
103	0xbcce5a65	-0.025189588
104	0xbd8082f8	-0.0627498
105	0xbce79c95	-0.028272906
106	0xbcb6f276	-0.022332411
107	0x3b61727f	0.003440052
108	0xbc281142	-0.010258021
109	0xbd40e95f	-0.04709756
110	0xbda8bf77	-0.08239644
111	0xbd7bb07b	-0.0614476
112	0x3c4c2cc4	0.012461845
113	0xbd03ccc6	-0.03217771
114	0x3d99d7a1	0.07511831
115	0xbd14dcca	-0.036343373
116	0xbd869be2	-0.06572701
117	0x3d2a3971	0.041558687
118	0x3b92ef33	0.004484081
119	0xbc8441e1	-0.016144695
120	0xbcd4f277	-0.025994522
121	0xbc357be2	-0.011076899
122	0xbd027f28	-0.031859547
123	0x3d090aec	0.03345768
124	0x3d14aa83	0.036295425
125	0x3d621005	0.05519106
126	0x3cf4c54e	0.029879238
127	0x3d15a833	0.03653736
128	0x3dc2e8e5	0.09517077
129	0x3d30c816	0.043159567
130	0xbdd7d47e	-0.105385765
131	0x3da9b507	0.08286481
132	0x3d67df60	0.05660951
133	0xbac14727	-0.0014745936
134	0xbc38aa7f	-0.011271118
135	0xbbcde0d7	-0.0062829065
136	0xbd5dc473	-0.054142427
137	0x3d0781ab	0.033082645
138	0x3cb980c6	0.022644412
139	0xbd86c361	-0.06580234
140	0xbd371ce6	-0.044705294
141	0x3d370780	0.044684887
142	0x3bf5ea52	0.00750474
143	0x3c39358d	0.011304271
144	0x3c55a6ef	0.013040288
145	0x3d8d51a2	0.06900336
146	0x3c8009bd	0.015629644
147	0x3d20a169	0.039216433
148	0xbcd52333	-0.02601776
149	0xbd189229	-0.037248764
150	0xbc7e0361	-0.015503735
151	0x3c5aa7f4	0.013345707
152	0x3dc28fb1	0.09500063
153	0x3acfdb1e	0.0015858149
154	0x3d90e147	0.07074218
155	0xbbc52471	-0.006016307
156	0xbbff73aa	-0.0077957707
157	0xbd085fb3	-0.03329439
158	0xbb3335c4	-0.002734528
159	0xbc65cd59	-0.0140260095
160	0xbd0c8c81	-0.034313682
161	0x3d2251b5	0.039628703
162	0x3d8b79e2	0.06810357
163	0x3c8775e4	0.016535707
164	0xbd1fd231	-0.039018814
165	0x3d0d08d7	0.03443226
166	0x3d0460ca	0.032318868
167	0xbc24b00b	-0.010051738
168	0x3d321b3e	0.04348301
169	0xbdb69e51	-0.08916915
170	0xbd19fb8c	-0.03759341
171	0xbade244a	-0.0016948071
172	0x3d574511	0.0525561
173	0xbd9997b2	-0.07499637
174	0x3ce5bc1a	0.028043795
175	0x3c0a3a87	0.008436806
176	0xbbad03a6	-0.005279976
177	0x3b2eb389	0.0026657304
178	0x3ca7ccfc	0.020483486
179	0xbc8f1c40	-0.017469525
180	0x3b1eb85a	0.0024218769
181	0x3cd714d7	0.026255054
182	0x3d4a8147	0.049439695
183	0x3dc3c080	0.09558201
184	0x3be18d6b	0.0068833134
185	0xbc0205e0	-0.007935971
186	0x3d9150c2	0.070954815
187	0xbc9c708a	-0.019096632
188	0x3d29c6d5	0.041449387
189	0xbd27c33f	-0.040957686
190	0x3dbba324	0.09161976
191	0x3cadb440	0.021204114
192	0xbcfea952	-0.031086598
193	0xbbcc455a	-0.0062338533
194	0x3bf74e12	0.0075471485
195	0x3c8a76db	0.016902378
196	0xbcea7ffd	-0.028625483
197	0x3d0336be	0.032034628
198	0xbc2b799c	-0.010466006
199	0x3d085d19	0.03329191
200	0x3b899267	0.0041983607
201	0xbd15760a	-0.036489524
202	0xbd8177a0	-0.06321645
203	0xbc62a0d3	-0.013832289
204	0x3cff7d84	0.03118778
205	0x3de8f8bc	0.11375567
206	0xbd3efc3f	-0.04662728
207	0xbda2f1cb	-0.079562746
208	0x3bc09537	0.005877163
209	0x3c44681b	0.011987711
210	0x3cc1afd4	0.023643412
211	0xbd2bc1db	-0.04193292
212	0xbcea69ae	-0.028614845
213	0x3d6a4d3b	0.05720256
214	0xbd6777ff	-0.05651092
215	0x3d3a1b16	0.045435987
216	0x3dc9c658	0.09852284
217	0x3d5e408a	0.054260768
218	0x3d2f133f	0.042742964
219	0xbc525761	-0.012838216
220	0x3d625f83	0.05526687
221	0xbd77a679	-0.060461495
222	0xbbbd6de3	-0.005780922
223	0x3d0f6fc5	0.0350187
224	0xbce7e537	-0.02830754
225	0xbb6464e3	-0.0034850172
226	0xbce74f09	-0.02823593
227	0xbbe76ab5	-0.007062281
228	0xbc15b1e7	-0.0091366535
229	0x3b55d444	0.003262774
230	0x3cdabf58	0.026702568
231	0x3ccd9dc1	0.025099637
232	0x3c88da99	0.016705798
233	0x3d16ffd1	0.03686506
234	0xb9ff1361	-0.0004865183
235	0xbb1173e3	-0.0022194318
236	0x3d7fbb57	0.06243452
237	0x3d35dcea	0.044400133
238	0x3d0e8864	0.03479804
239	0x3cda75ab	0.026667437
240	0xbcd0f7ef	-0.025508849
241	0xbd0b9196	-0.03407439
242	0xbd6b3d76	-0.05743166
243	0xbc49aa24	-0.012308631
244	0xbc3e7393	-0.011624235
245	0xbd05b6a7	-0.032644894
246	0x3cb64ed3	0.022254383
247	0xbcb3e260	-0.02195853
248	0x3d20792e	0.039178066
249	0x3d2daf65	0.042403597
250	0x3d6609aa	0.05616156
251	0xbd0736e4	-0.033011332
252	0x3c563206	0.01307345
253	0x3cd4abc4	0.02596081
254	0x3b354d3d	0.0027664446
255	0x3d27d195	0.040971357

fc3.weight f4 [2, 300]
0	0x3d5d57d0	0.054038823
1	0xbd83ffc8	-0.06445271
2	0x3ddf1feb	0.1089476
3	0xbad024bf	-0.0015880092
4	0x3e12d1d4	0.14337856
5	0x3cb89055	0.02252976
6	0xbd0b1a3b	-0.033960562
7	0xbd56fa99	-0.052485082
8	0xbca45424	-0.020059653
9	0xbe34c756	-0.17654166
10	0xbd670838	-0.056404322
11	0xbdde413a	-0.10852285
12	0x3d27c110	0.040955603
13	0xbd3deade	-0.046366565
14	0x3e4b82fe	0.19874188
15	0xbd8c79d4	-0.06859174
16	0xbd33bfde	-0.04388415
17	0xbd3402b2	-0.043947883
18	0x3dcaedd3	0.099086426
19	0xbdcd42ac	-0.10022482
20	0x3da0b897	0.07847708
21	0x3d9318dc	0.07182476
22	0xbd2ef5df	-0.04271495
23	0x3ad361fa	0.0016127222
24	0xbd09ae00	-0.033613205
25	0xbdd37143	-0.10324337
26	0xbdfde578	-0.12397283
27	0x3d7f85e8	0.062383562
28	0xbb3d9dce	-0.002893317
29	0x3d037047	0.032089498
30	0xbdb137c1	-0.08653212
31	0xbe2e0a05	-0.1699601
32	0xbd66d323	-0.0563537
33	0x3dd38feb	0.103301845
34	0xbd6833e3	-0.056690108
35	0x3cd649d5	0.026158253
36	0x3c73835c	0.0148628615
37	0xbd21154b	-0.039326947
38	0xbd70734a	-0.0587037
39	0xbdff5cb8	-0.124688566
40	0xbdabd888	-0.083909094
41	0xbda13018	-0.07870501
42	0x3da444ec	0.08020958
43	0xbb03d96a	-0.0020118603
44	0x3b5456f6	0.0032400466
45	0x3c0bdd5a	0.008536661
46	0x3d064085	0.032776374
47	0x3d299b4b	0.041407865
48	0xbdbe4803	-0.09291079
49	0xbd921166	-0.07132225
50	0x3b8a7d15	0.0042263367
51	0xbdcda176	-0.10040562
52	0xbcbcbb13	-0.023038423
53	0x3ddff4bd	0.10935352
54	0xbda78dfd	-0.08181379
55	0x3d4eca65	0.050485987
56	0x3e51e623	0.20497946
57	0x3d2514bc	0.040302977
58	0x3cd0b9dd	0.025479252
59	0xbdb40bff	-0.087913506
60	0xbd1f477c	-0.038886532
61	0x3b911c3b	0.004428414
62	0xbdcfc393	-0.10144725
63	0x3d631023	0.05543531
64	0xbcb0deb0	-0.02159056
65	0xbdbd1a08	-0.09233481
66	0xbd91732e	-0.07102047
67	0x3c21c944	0.009874646
68	0x3e294463	0.16529994
69	0x3c83150a	0.016001243
70	0x3df19d74	0.1179761
71	0xbd9425bb	-0.07233759
72	0xbc1faa71	-0.009745226
73	0xbd2409a5	-0.04004826
74	0x3e18c70b	0.14919679
75	0xbd6092e5	-0.05482759
76	0x3c14323e	0.009045182
77	0x3d5dcd72	0.054151006
78	0x3d05c7ca	0.032661237
79	0x3dbb76be	0.09153508
80	0xbe04abe6	-0.12956199
81	0xbdffa30b	-0.1248227
82	0x3d5d83d8	0.054080814
83	0xbd579ff3	-0.052642774
84	0xbd2e27c7	-0.042518403
85	0xbc457765	-0.012052392
86	0xbbf3ab28	-0.007436175
87	0xbc9cac28	-0.01912506
88	0x3d944cea	0.07241233
89	0xba57e2aa	-0.00082353747
90	0xbb6c67f0	-0.0036072694
91	0x3d678875	0.05652662
92	0x3ce63b28	0.02810438
93	0x3d9f192e	0.077684745
94	0x3d803f5a	0.06262083
95	0x3e4cdc75	0.20005973
96	0xbd403dc2	-0.046933897
97	0xbdbeef09	-0.09322936
98	0x3bbac70a	0.005699997
99	0x3cc6521a	0.024209071
100	0x3d8af1ed	0.06784425
101	0xbdcd3224	-0.10019329
102	0xbca5984e	-0.020214226
103	0x3e5cbfa6	0.21557483
104	0x3cd11a79	0.025525318
105	0xbcddeb07	-0.027089609
106	0x3cddaf50	0.027061135
107	0xbcee6189	-0.029099243
108	0x3e75c08b	0.2399923
109	0x3d8894d2	0.0666901
110	0x3db26f13	0.08712592
111	0x3e91b7c7	0.28460523
112	0xbd2daf6e	-0.04240363
113	0x3c5943ae	0.013260765
114	0x3dc828e7	0.097734265
115	0x3d3362af	0.043795284
116	0x3c02dddb	0.007987465
117	0x3cdb5194	0.026772298
118	0x3d947e71	0.07250679
119	0x3c8cc7bd	0.017185086
120	0xbd949964	-0.072558194
121	0xbdd8b3be	-0.10581158
122	0xbd0fb489	-0.03508428
123	0x3de57874	0.11204615
124	0x3d7f3292	0.062304087
125	0x3c203331	0.00977783
126	0xbd47c59f	-0.04877245
127	0xbcfa0d07	-0.03052379
128	0xbbd5bf90	-0.00652308
129	0xbc7c6ab8	-0.015406303
130	0x3d4b96f0	0.049704492
131	0x3a91c2d7	0.0011120689
132	0xbd0e76b2	-0.034781165
133	0xbd2791b2	-0.04091043
134	0xb95a6ae2	-0.00020829917
135	0x3d9415e7	0.0723074
136	0x3df85a5c	0.1212661
137	0xbc0453dc	-0.008076634
138	0x3c7c9134	0.0154154785
139	0xbdc432f1	-0.09580029
140	0x3ddab63c	0.1067929
141	0xbda0f80f	-0.078598134
142	0x3dbeeab2	0.09322108
143	0xbbddcceb	-0.006768813
144	0x3d79f5e6	0.061025523
145	0xbde0e155	-0.10980479
146	0xbc1bb438	-0.009503417
147	0xbd927410	-0.071510434
148	0x3e74dfdc	0.2391352
149	0xbe02d173	-0.12775211
150	0xbd9dc765	-0.07704047
151	0xbdc733d7	-0.097266845
152	0xbcc88cea	-0.024481256
153	0xbd80d27e	-0.06290148
154	0xbc8e10d5	-0.01734201
155	0xbda2508f	-0.079255216
156	0xbb8fd38b	-0.0043892316
157	0x3d847f6a	0.06469615
158	0x3d87ad0d	0.06624804
159	0x3e212381	0.157362
160	0xbc8629cb	-0.01637735
161	0xbd81f0f4	-0.06344786
162	0xbc9059ba	-0.01762091
163	0xbc298b67	-0.0103481775
164	0x3cdb72c8	0.02678813
165	0x3e0295c7	0.12752448
166	0x3b847220	0.004041925
167	0x3d7fea2a	0.062479176
168	0x3c1ca11b	0.009559895
169	0x3e1d633b	0.15369885
170	0x3d4f01fd	0.050539006
171	0x3daf7d56	0.08568828
172	0x3c631a65	0.013861273
173	0x3dc3faf5	0.09569351
174	0xbd1ebbf9	-0.038753483
175	0x3e4636f5	0.19356902
176	0x3e3ccaf9	0.18436803
177	0xbe0cf53d	-0.13765426
178	0xbcdc62c8	-0.026902571
179	0xbd10c3de	-0.035343044
180	0x3cac1eb4	0.021010734
181	0x3dcaa178	0.09894079
182	0xbdb6ef0c	-0.08932313
183	0x3e1e66f3	0.1546896
184	0xbce04fab	-0.027381739
185	0x3e10474f	0.14089702
186	0xbc951b72	-0.018201564
187	0xbd54b51d	-0.051930536
188	0xbe2f1879	-0.1709918
189	0x3d8a6288	0.067570746
190	0xbcfdbfa6	-0.030975174
191	0x3c328483	0.010895851
192	0x3d0970e1	0.033554915
193	0xbb5a56ad	-0.0033315823
194	0x3e1bf8b9	0.15231599
195	0x3c13095c	0.008974399
196	0x39a6ead7	0.00031836957
197	0xba3384bc	-0.0006848087
198	0x3e00b75d	0.12569948
199	0xbe1fe8bf	-0.1561613
200	0xbc54faec	-0.012999278
201	0x3d1843a3	0.03717388
202	0x3e0ef7a1	0.1396165
203	0x3db8d288	0.09024531
204	0x3d92cc14	0.07167831
205	0xbd36973d	-0.044577826
206	0xbd8fad2e	-0.07015453
207	0xbe296c5d	-0.16545244
208	0xbd9d65ca	-0.0768543
209	0x3d16e52e	0.036839657
210	0xbdd15491	-0.10221208
211	0x3af3d069	0.001860154
212	0x3e867f30	0.2626891
213	0x3d2b4af9	0.041819546
214	0xbdbc2d53	-0.091883324
215	0x3cf31fe0	0.029678285
216	0xbdf03354	-0.1172854
217	0x3c19c059	0.009384238
218	0xbc8a4901	-0.016880514
219	0x3b1d9da1	0.0024050253
220	0xbda52aaa	-0.08064778
221	0x3e6bd820	0.23031664
222	0x3d73d37a	0.05952785
223	0xbdaf280b	-0.085525595
224	0x3d367b2f	0.04455107
225	0xbe07c6fb	-0.13259499
226	0xbdd39a10	-0.103321195
227	0x3c6cbab5	0.014448811
228	0xbcdc3587	-0.026880993
229	0xbcdb3cdb	-0.026762417
230	0x3cfc8514	0.030825175
231	0xbc89e291	-0.016831668
232	0x3b54b1b2	0.0032454547
233	0xbdce2b0d	-0.10066805
234	0xbcf7271b	-0.030170014
235	0xbd8239e1	-0.06358696
236	0xbca63848	-0.020290509
237	0x3d21fe83	0.039549362
238	0xbd64f9c5	-0.05590226
239	0x3da9e982	0.08296491
240	0x3e2ca52c	0.16859883
241	0x3d7be995	0.061502058
242	0x3d6a53f4	0.05720897
243	0xbd09c476	-0.033634625
244	0xbcf38d5f	-0.029730497
245	0x3d363caa	0.044491448
246	0xbe066553	-0.1312459
247	0xbdec01a6	-0.11523752
248	0xbd54f08f	-0.051987227
249	0x3e720028	0.23632872
250	0xbb5bd135	-0.0033541445
251	0xbe180286	-0.14844713
252	0x3cd46b5b	0.025930097
253	0x3a9c1e2b	0.0011910846
254	0xbc109344	-0.008824173
255	0x3dc797c2	0.097457424

fc3.bias f4 [2]
0	0x3b9aca1b	0.0047238
1	0xbd3c0d8f	-0.045911368

bn1.weight f4 [400]
0	0x3f93d1c7	1.1548394
1	0x3f858b70	1.0433178
2	0x3f8bbc4b	1.0916837
3	0x3f8a2269	1.0791751
4	0x3f8fefe8	1.1245089
5	0x3f929fa7	1.1454972
6	0x3f86346a	1.0484746
7	0x3f7efca9	0.9960428
8	0x3f8354e0	1.0260277
9	0x3f867591	1.0504628
10	0x3f89c69e	1.0763738
11	0x3f89ad99	1.0756103
12	0x3f8e9420	1.1138954
13	0x3f887ab4	1.0662446
14	0x3f839998	1.0281248
15	0x3f886c10	1.0657978
16	0x3f8a6118	1.0810881
17	0x3f89eaae	1.0774744
18	0x3f83a7c3	1.0285572
19	0x3f73e486	0.95270574
20	0x3f8d62c1	1.1045762
21	0x3fa1afc3	1.2631763
22	0x3f848339	1.0352546
23	0x3f811fde	1.008785
24	0x3f8eb6e0	1.1149559
25	0x3f978a6b	1.1839117
26	0x3f7d1b3e	0.98869693
27	0x3f8e085c	1.1096301
28	0x3f8a4004	1.0800786
29	0x3f8e216b	1.1103948
30	0x3f93acf2	1.1537154
31	0x3f8893fa	1.0670159
32	0x3f89b25a	1.0757554
33	0x3f8b7b53	1.089701
34	0x3f8bb487	1.0914468
35	0x3f950bcf	1.1644229
36	0x3f81d620	1.0143471
37	0x3f7e3a94	0.99308133
38	0x3f817cf2	1.0116255
39	0x3f830be8	1.0238008
40	0x3f95828b	1.1680464
41	0x3f83b93b	1.0290903
42	0x3fa00101	1.2500306
43	0x3f7c9f9a	0.9868103
44	0x3f8c335b	1.0953172
45	0x3f80e6f1	1.0070478
46	0x3f83c86c	1.0295539
47	0x3f865bb3	1.0496734
48	0x3f8a3822	1.079838
49	0x3f96be7f	1.1776885
50	0x3f893510	1.0719318
51	0x3f8b66d7	1.0890759
52	0x3f98d8f6	1.1941211
53	0x3f808f9e	1.0043828
54	0x3f870449	1.0548183
55	0x3f8e997b	1.1140589
56	0x3f81dd3a	1.0145638
57	0x3f83c415	1.0294214
58	0x3f84049d	1.0313908
59	0x3f91d435	1.1392885
60	0x3f8b6c11	1.0892354
61	0x3f8e8a34	1.1135926
62	0x3f82648e	1.0186937
63	0x3f814599	1.0099365
64	0x3f7871c1	0.97048575
65	0x3f840123	1.0312847
66	0x3f8c570c	1.0964065
67	0x3f85d2e1	1.045498
68	0x3f86ce0d	1.0531632
69	0x3f8d0e08	1.1019907
70	0x3f945b3d	1.1590344
71	0x3f8aacb7	1.0833958
72	0x3f85f029	1.0463916
73	0x3f857c11	1.0428487
74	0x3f88bb18	1.0682096
75	0x3f860355	1.0469767
76	0x3f89ede6	1.0775726
77	0x3f8e44ec	1.1114783
78	0x3f89f7fb	1.0778803
79	0x3f87cdc4	1.060967
80	0x3f80a35d	1.0049855
81	0x3f854c2c	1.0413871
82	0x3f8114e0	1.0084496
83	0x3f887831	1.066168
84	0x3f82c944	1.0217671
85	0x3f8c9b7a	1.0984948
86	0x3f88f0ad	1.0698448
87	0x3f8380b3	1.0273651
88	0x3f82878a	1.0197613
89	0x3f86cb92	1.0530875
90	0x3f7d03d0	0.9883394
91	0x3f8bf35a	1.093364
92	0x3f8e846a	1.113416
93	0x3f85f6af	1.0465907
94	0x3f8871a7	1.0659684
95	0x3f8d985d	1.1062123
96	0x3f913bd0	1.1346378
97	0x3f90ce0c	1.131288
98	0x3f85b8bd	1.0447003
99	0x3f89aa5f	1.0755118
100	0x3f898efa	1.0746758
101	0x3f88c2c3	1.0684437
102	0x3f95e442	1.1710284
103	0x3f753333	0.9578125
104	0x3f9952b7	1.1978368
105	0x3f934efa	1.1508477
106	0x3f80c068	1.0058718
107	0x3f8c4d61	1.0961114
108	0x3f8cd758	1.1003218
109	0x3f86107b	1.047378
110	0x3f81c61f	1.0138587
111	0x3f81f28f	1.0152148
112	0x3f888fc8	1.0668879
113	0x3f8fbf1c	1.1230197
114	0x3f820566	1.0157897
115	0x3f8efb58	1.1170454
116	0x3f74ef30	0.9567747
117	0x3f82ac48	1.0208826
118	0x3f7d1d1c	0.9887254
119	0x3f8d88bc	1.1057353
120	0x3f86163f	1.0475539
121	0x3f8994ff	1.0748595
122	0x3f950ed6	1.1645153
123	0x3f943c4a	1.1580899
124	0x3f9a8373	1.2071365
125	0x3f8635f7	1.0485219
126	0x3f8942e1	1.0723535
127	0x3f81c973	1.0139602
128	0x3f84b9b1	1.0369169
129	0x3f91d813	1.1394066
130	0x3f7da081	0.99073035
131	0x3f825677	1.0182637
132	0x3f8c604b	1.0966886
133	0x3f825d1b	1.0184664
134	0x3f93fb77	1.1561116
135	0x3f8858bf	1.0652083
136	0x3f8a3c1e	1.0799596
137	0x3f865fa9	1.0497943
138	0x3f85402a	1.0410206
139	0x3f858b66	1.0433166
140	0x3f82c817	1.0217313
141	0x3f8765c5	1.0577933
142	0x3f9bdb18	1.2176237
143	0x3f8bacbf	1.0912093
144	0x3f985476	1.1900775
145	0x3f8b355d	1.087566
146	0x3f7b6c26	0.98211896
147	0x3f859304	1.0435491
148	0x3f904dd4	1.1273751
149	0x3f8081de	1.0039632
150	0x3f8f540f	1.1197528
151	0x3f77f3b6	0.9685625
152	0x3f82b105	1.0210272
153	0x3f8b86d3	1.090052
154	0x3f835734	1.0260987
155	0x3f821970	1.0164013
156	0x3f9361e0	1.1514244
157	0x3f8d5dd5	1.104426
158	0x3f81c932	1.0139525
159	0x3f90d9cd	1.1316468
160	0x3f849fad	1.0361229
161	0x3f8de1d3	1.1084541
162	0x3f8685fb	1.0509638
163	0x3f73ceb9	0.9523731
164	0x3f8428b1	1.0324918
165	0x3f7eb3d0	0.9949312
166	0x3f918ff2	1.1372054
167	0x3f8b6bb3	1.0892242
168	0x3f852499	1.0401794
169	0x3f91c00b	1.1386732
170	0x3f84ba01	1.0369264
171	0x3f8222e8	1.0166903
172	0x3f818fcd	1.012201
173	0x3f85800b	1.0429701
174	0x3f90f544	1.1324849
175	0x3f866e8c	1.0502486
176	0x3f978105	1.1836249
177	0x3f914771	1.1349927
178	0x3f87ba52	1.0603735
179	0x3f84822d	1.0352226
180	0x3f85f30f	1.0464801
181	0x3f8c0861	1.0940057
182	0x3f7e1c4f	0.99261945
183	0x3f8477f0	1.0349102
184	0x3f8b98a9	1.0905963
185	0x3f8a8611	1.0822164
186	0x3f8164e1	1.0108911
187	0x3f7fcb0f	0.9991922
188	0x3f880aa2	1.0628245
189	0x3f8f3cc5	1.119042
190	0x3f810ac1	1.0081407
191	0x3f84843d	1.0352856
192	0x3f8e45ae	1.1115015
193	0x3f89f867	1.0778931
194	0x3f843673	1.0329117
195	0x3f77a314	0.9673321
196	0x3f7b5074	0.98169637
197	0x3f8033f7	1.0015858
198	0x3f77c95c	0.96791625
199	0x3f8a55e9	1.0807468
200	0x3f82ece3	1.0228542
201	0x3f862939	1.048133
202	0x3f76c6df	0.96397203
203	0x3f8aa83e	1.0832593
204	0x3f8359b6	1.0261753
205	0x3f8af72a	1.0856678
206	0x3f8b613b	1.0889047
207	0x3f8b9e5b	1.0907701
208	0x3f90e5a4	1.1320081
209	0x3f94a744	1.1613545
210	0x3f8aa078	1.0830221
211	0x3f90757e	1.1285856
212	0x3f83d8d1	1.0300542
213	0x3f88cd9e	1.0687749
214	0x3f86c0dc	1.0527606
215	0x3f8e9152	1.1138098
216	0x3f87cbcb	1.0609068
217	0x3f808f22	1.0043681
218	0x3f85a268	1.0440187
219	0x3f8e9b2e	1.1141107
220	0x3f886331	1.0655271
221	0x3f86ed61	1.0541192
222	0x3f868c57	1.0511578
223	0x3f841e7f	1.0321807
224	0x3f8654ca	1.0494626
225	0x3f87ec8f	1.0619067
226	0x3f8efd34	1.1171021
227	0x3f8532d4	1.0406137
228	0x3f9edfd0	1.2412052
229	0x3f88125c	1.0630603
230	0x3fa7fdb0	1.3124294
231	0x3f8a46e3	1.0802883
232	0x3f869b44	1.0516133
233	0x3f8b3a1f	1.0877112
234	0x3f8d4cca	1.1039059
235	0x3f811750	1.008524
236	0x3f865a5b	1.0496324
237	0x3f811dd5	1.0087229
238	0x3f8187df	1.011959
239	0x3f84fe52	1.0390112
240	0x3f8bd383	1.0923923
241	0x3f8a417a	1.0801232
242	0x3f7d7feb	0.9902331
243	0x3f85584d	1.0417572
244	0x3f843283	1.0327915
245	0x3f8b3ada	1.0877335
246	0x3f7b52b5	0.98173076
247	0x3f887728	1.0661364
248	0x3f911811	1.133547
249	0x3f8c5388	1.0962992
250	0x3f8c6363	1.096783
251	0x3f873afc	1.0564876
252	0x3f7f30ad	0.9968365
253	0x3f807608	1.003602
254	0x3f84ba2c	1.0369315
255	0x3f8d4884	1.1037755

bn1.bias f4 [400]
0	0xbc30469a	-0.01075902
1	0x3be00dbb	0.0068375743
2	0xbd3f0184	-0.046632305
3	0xbd824ee7	-0.06362706
4	0x3c98f84d	0.018673087
5	0xbca3c8b2	-0.01999316
6	0x3c953aa2	0.018216435
7	0xbb3e64a3	-0.0029051683
8	0xbb76fc50	-0.003768701
9	0x3acee3e3	0.0015784468
10	0x3c8c597b	0.017132511
11	0x3ce2f0af	0.027702658
12	0xbcee9938	-0.029125795
13	0xbbbffe39	-0.005859163
14	0x3ceafcca	0.028684992
15	0x3d226f7d	0.039657105
16	0xbd0fc5d4	-0.035100773
17	0x3c3b3803	0.011426928
18	0xbca17d8b	-0.019713184
19	0x3d3dcf51	0.04634029
20	0x3cb661b9	0.022263395
21	0xbc8b6334	-0.017015077
22	0xbcd9767f	-0.026545761
23	0xbba9f825	-0.005187052
24	0xbcbb910a	-0.022896308
25	0xbd48f5bf	-0.049062487
26	0x3ce554eb	0.027994594
27	0x3c785889	0.015157827
28	0xbd098436	-0.03357335
29	0xbc63e2e7	-0.013909078
30	0x3d269a36	0.04067441
31	0x3b29ee07	0.002592923
32	0x3b508741	0.00318189
33	0xbc631e8c	-0.013862263
34	0x3cba268c	0.022723459
35	0xbbd59c30	-0.006518863
36	0xbc23b087	-0.009990818
37	0x3c8baf5a	0.017051388
38	0x3c5a0e92	0.013309138
39	0xbca8359b	-0.020533374
40	0xbb450d9f	-0.0030067933
41	0xbba7213a	-0.0051003965
42	0xbcbeee00	-0.023306847
43	0x3d160015	0.036621172
44	0x3bd3f67b	0.0064685917
45	0x3d2c07d6	0.04199966
46	0xbc5e0786	-0.013551598
47	0xbb826fb0	-0.0039805993
48	0xbcc7d617	-0.024394078
49	0x3c4846ba	0.012223894
50	0x3ce2a5a8	0.027666882
51	0x3d8285bb	0.06373163
52	0x3c83d6c0	0.016093612
53	0x3d445357	0.04793104
54	0xbbcf7f34	-0.0063323025
55	0x3c9e488b	0.0193217
56	0x3d14e433	0.03635044
57	0xbcb27f2b	-0.021789154
58	0x3d07bc8a	0.03313879
59	0x3c9f7d06	0.019468796
60	0xbc6def10	-0.014522329
61	0xbc887edb	-0.016662052
62	0x3c73a991	0.014871971
63	0x3d5ed201	0.054399494
64	0x3ca21b41	0.019788386
65	0x3d042609	0.032262836
66	0x3c114a5f	0.008867829
67	0xbcd54ed6	-0.026038568
68	0xbd082b99	-0.033244703
69	0x3c9f5ff6	0.019454937
70	0xbbfe6758	-0.0077637844
71	0x3d36bf92	0.04461629
72	0xbaca2963	-0.0015423711
73	0x3c3feadd	0.011713711
74	0x3d172230	0.036897838
75	0xbd315966	-0.043298148
76	0xbc611d5f	-0.013739913
77	0x3cb960f9	0.022629248
78	0x3c8a7700	0.016902447
79	0xbbddcdf3	-0.006768936
80	0xbc308b77	-0.0107754385
81	0x3cfdaabf	0.030965207
82	0x3d84c4b2	0.06482829
83	0xbd6c4494	-0.05768259
84	0xbb1f710c	-0.0024328856
85	0xbd2b6de2	-0.04185284
86	0x3c3e1e92	0.011603968
87	0x39a58aed	0.0003157476
88	0x3c25d4df	0.010121553
89	0x3c9c2f68	0.019065574
90	0xbc253973	-0.010084498
91	0xbb81ae5a	-0.003957552
92	0x3b9cd13d	0.0047856853
93	0xbc67d729	-0.014150419
94	0xbd18ea77	-0.037332978
95	0x3ba8e40e	0.0051541394
96	0x3cb0a673	0.021563744
97	0x3af2f683	0.0018536601
98	0xbd74fdab	-0.05981223
99	0x3d39e6a5	0.045385975
100	0xbc1f4044	-0.009719912
101	0x3d2723fc	0.0408058
102	0xbc20f0b6	-0.009823015
103	0x3d9a3738	0.075300634
104	0xbbc1ad69	-0.0059105647
105	0xbbf2afc5	-0.0074062073
106	0xbb4f43d7	-0.003162613
107	0xbd46df3f	-0.048552748
108	0xbd086cdf	-0.033306953
109	0x3da15cab	0.07879003
110	0x3d001f2c	0.031279728
111	0xba1ff674	-0.0006102093
112	0xbc91344e	-0.017725136
113	0x3c15257c	0.009103175
114	0xbccf123b	-0.025277248
115	0x3c18b715	0.009320994
116	0xbc5686df	-0.013093679
117	0xbd45f2b8	-0.048327178
118	0x3b5c749c	0.003363884
119	0x3bbb413d	0.005714564
120	0xbc582492	-0.013192313
121	0x3d650610	0.055913985
122	0xbcdeb508	-0.027185932
123	0xbcb4137b	-0.021981945
124	0x3ce4438e	0.027864244
125	0x3a94a439	0.0011340446
126	0xbca14236	-0.019684892
127	0xbb9bbdce	-0.004752851
128	0x3ca45c47	0.020063533
129	0xbced5126	-0.028969359
130	0x3cefd529	0.029276447
131	0xbacff291	-0.0015865137
132	0x3c7abbd2	0.015303569
133	0xbc9f8fad	-0.01947769
134	0xba6a3c34	-0.00089353626
135	0xbd260af3	-0.040537786
136	0xb9ef810b	-0.00045681777
137	0xbca581e4	-0.020203538
138	0x3c527ca4	0.012847099
139	0x3c872a1f	0.016499577
140	0x3a752655	0.000935172
141	0x3cae4c4c	0.021276616
142	0x3cf6a186	0.030106317
143	0xbb76eb7b	-0.0037676978
144	0xbd03534d	-0.032061864
145	0xbd836a21	-0.06416727
146	0x3d4ac52c	0.049504444
147	0x3d2196a0	0.039450288
148	0x3c2d9320	0.010594159
149	0x3aff9f6f	0.0019502471
150	0x3bcff9cb	0.0063469163
151	0x3d2921ef	0.041292127
152	0xbcab5ad6	-0.020917337
153	0x3ca7c33b	0.020478835
154	0x3e17e8cd	0.148349
155	0xbca96774	-0.020679213
156	0xbd2ed832	-0.04268665
157	0xbcd6773a	-0.026179899
158	0xbb013ca3	-0.001971998
159	0x3d2ab3d0	0.04167539
160	0x3d14f4bb	0.036366206
161	0x3a9e2436	0.0012065235
162	0xbb689958	-0.003549179
163	0xbb3ee3bf	-0.0029127446
164	0x3bab0035	0.0052185305
165	0x3c84ea11	0.016224893
166	0xbd78282d	-0.06058519
167	0x3d6f04f4	0.058354333
168	0x3bcc6191	0.0062372168
169	0xbcd7b27d	-0.026330227
170	0x3d42aca8	0.04752794
171	0xbc5826a4	-0.013192806
172	0x3cf10e65	0.02942581
173	0x3d012738	0.031531543
174	0xbced8d9b	-0.028998187
175	0x3ccb7f05	0.024840841
176	0xbc96f338	-0.018426523
177	0x3d3cbd75	0.046079118
178	0x3c94391a	0.018093634
179	0x3d32c35f	0.04364335
180	0x3c392c81	0.011302114
181	0x3c8a44df	0.016878543
182	0x3d48763e	0.04894089
183	0x3cb4ebe6	0.022085141
184	0x39ed177e	0.00045221666
185	0xbcbdc24d	-0.023163939
186	0x3dcef746	0.101057574
187	0x3d9d4536	0.076792166
188	0x3d2aaf09	0.041670833
189	0xbcf37f71	-0.029723855
190	0x3d088af4	0.03333564
191	0xbc5a3925	-0.013319288
192	0x3d62ac0a	0.05533985
193	0x3c528585	0.012849216
194	0x3c5b9e93	0.013404506
195	0x3d035c49	0.03207043
196	0x3cd951e5	0.026528308
197	0xbd39b901	-0.04534245
198	0x3d348361	0.044070605
199	0xbd0a195d	-0.033715595
200	0x3b73470f	0.0037121212
201	0x3d1d7534	0.03844185
202	0x3d2252ce	0.03962975
203	0x3d0ecfb4	0.03486605
204	0x3c65fada	0.014036858
205	0xbc95d8ef	-0.018291919
206	0x3cf6f30b	0.030145189
207	0x3d231144	0.039811388
208	0xbacec3a8	-0.0015774863
209	0x3d03bcf1	0.03216261
210	0x3c875780	0.016521215
211	0x3c8944af	0.016756384
212	0x3cf318d7	0.02967493
213	0xbcc7fd13	-0.024412667
214	0x3d094abb	0.033518534
215	0xba09c8c6	-0.0005256053
216	0x3cc050bc	0.023475997
217	0x3c9705fe	0.018435474
218	0x3c3fe289	0.011711725
219	0x3ccf79d2	0.025326643
220	0xbd532c5f	-0.051555987
221	0xbc9c885d	-0.019107992
222	0x3cc40d7f	0.023932217
223	0x3d0c558b	0.034261268
224	0x3ba55e7b	0.0050466633
225	0x3ca6e10e	0.020370986
226	0xbb166440	-0.0022947937
227	0xbcd28a1a	-0.025700618
228	0xbcf03da9	-0.029326277
229	0xbc4cfe25	-0.012511765
230	0x3d26e544	0.04074599
231	0xbd21d4f7	-0.03950974
232	0x3b7cdcb2	0.0038583693
233	0x3c1b3049	0.009471961
234	0xbd90ee9b	-0.070767604
235	0x3d4d7353	0.05015881
236	0xbc52c4e8	-0.012864329
237	0xbc92c395	-0.017915526
238	0x3d94ee24	0.07271984
239	0x3c43871f	0.011934071
240	0xbc27fc81	-0.010253073
241	0xbc8e43e0	-0.01736635
242	0x3c50b3f3	0.012738216
243	0x3c93562b	0.017985424
244	0x3ce73a21	0.02822596
245	0xbd05c9ae	-0.03266304
246	0x3d037993	0.032098364
247	0xbb54a9dc	-0.0032449877
248	0x3af4d0db	0.0018677966
249	0xbd705d2e	-0.058682613
250	0x3cb23c04	0.021757133
251	0xbcd9c79c	-0.026584439
252	0x3d7bfb09	0.061518703
253	0xbc766bb0	-0.015040323
254	0xbbfa3cf4	-0.0076366607
255	0xbbb65647	-0.0055644843
