checkpoint_actor_target_0.pth (torch, 533842 bytes, 10 tensors)

fc1.weight f4 [400, 24]
0.08203518 0.11716629 -0.042595867 0.0837041 0.11144329 -0.068519264 -0.04838579 0.09658159
0.05103552 0.095146224 -0.009224629 0.013316281 0.090453506 -0.18733752 0.0015109153 0.019599564
0.085970044 0.1482299 0.0043491176 -0.0064549386 0.12539713 -0.19926897 -0.0042905123 0.044207092
-0.006149858 0.2252422 -0.015661709 -0.0061190133 -0.14761226 -0.11388241 0.018278522 0.06312259
0.044085912 0.25358126 0.020899937 0.09421919 -0.072789475 -0.09359651 -0.033290323 0.024873622
0.09634519 0.22791544 -0.024641711 -0.056801498 0.037259955 -0.054729193 0.048651114 -0.07135969
-0.008994071 -0.038265966 -0.043469023 -0.019377476 -0.21809955 -0.102610484 0.028528478 0.018531904
0.08186465 -0.070379324 -0.006427579 -0.0032681657 -0.21222726 -0.05288627 -0.005787141 0.0066019464
0.07060042 -0.08094521 0.008846965 -0.03334556 -0.28120628 0.025102733 -0.007776452 0.000675179
0.04894991 -0.11977212 0.0407841 0.015416033 -0.1444711 -0.13123421 0.0016868493 -0.03441219
0.08244768 -0.08726707 -0.0012908676 -0.0054322244 -0.13084254 -0.107255474 0.022405386 0.015142048
0.1262486 -0.120222345 0.04301654 -0.037635952 -0.03891199 0.09446449 -0.029802172 -0.03776301
0.0047526113 0.027998228 -0.060956273 -0.123006135 -0.09057773 -0.13206407 -0.078485884 -0.11163584
0.03403419 0.029477838 0.0032132054 0.010854648 -0.07286928 -0.017640082 0.060116474 -0.063208975
0.0149547495 0.06888049 -0.003271362 -0.040097225 -0.15938628 0.046781868 -0.015217695 -0.03837038
0.01678529 0.004127038 -0.068144545 -0.0040075136 0.0057615377 0.025810214 -0.05110924 -0.010829068
-0.0018661497 -0.033474777 -0.026543157 -0.033119522 0.019747205 -0.12917478 0.0063637807 0.041826397
-0.024030777 -0.032085747 -0.044315 0.039107706 0.05871153 -0.33634603 -0.05883661 -0.019217666
-0.0126702655 0.23060523 0.012273469 0.009906742 -0.078974545 -0.04981682 -0.00049145264 0.011570211
0.04901305 0.16668358 0.013876559 -0.10494624 -0.07479403 -0.14634718 -0.009187976 -0.05159924
0.15212144 0.17419109 0.0015229791 -0.016230388 -0.09922842 -0.072467014 -0.006526263 -0.06237717
-0.007781678 0.03546713 0.04032865 -0.06805047 0.09918615 -0.26435298 -0.028746204 -0.03691138
-0.007877995 0.02207712 -0.011058123 -0.058836263 0.08144466 -0.3982454 0.015849669 -0.047732674
0.007443543 -0.07825016 -0.020854918 -0.0018742941 0.08193594 -0.15414812 0.014288143 0.01095747
-0.007955886 0.051513672 0.005638785 -0.010225719 0.015225476 -0.36163133 -0.002234788 -0.019701285
-0.0074373404 0.08038803 0.036392327 -0.007146495 -0.035421226 0.037989587 -0.03453578 0.020529386
-0.019956812 0.039781187 0.023434458 0.00093263254 0.021493455 0.4585299 -0.027380949 0.044823576
-0.010864538 -0.101751156 -0.008758485 0.02442108 -0.06602843 -0.16658092 0.009354901 -0.05305122
0.02702797 -0.10082655 0.013413559 -0.018430822 -0.10372314 -0.15990362 -0.016712693 0.02959668
0.08618272 -0.05231421 -0.01042011 -0.04177212 -0.22956273 -0.017929023 0.0116296355 -0.04761653
-0.12713124 0.15649496 0.038307905 0.058841918 0.019495856 -0.07182434 -0.028973276 0.073391035
-0.06319344 0.15406166 -0.0020999159 -0.041001268 0.022480289 -0.063819885 0.013411577 0.023158666
00000000: 0f02 a83d e1f4 ef3d 0179 2ebd 0e6d ab3d
00000010: 613c e43d d453 8cbd 2e30 46bd 92cc c53d
00000020: 9f0a 513d 06dc c23d e622 17bc 882c 5a3c
00000030: b03f b93d 68d5 3fbe e809 c63a 448f a03c
00000040: 1011 b03d 94c9 173e 0b83 8e3b f383 d3bb
00000050: 1b68 003e 2a0d 4cbe 6d97 8cbb 7f12 353d
00000060: bf84 c9bb e4a5 663e fc4c 80bc 0182 c8bb
00000070: ab27 17be 2e3b e9bd d7bc 953c 6b46 813d
00000080: 6e93 343d 67d5 813e 5836 ab3c fef5 c03d
00000090: a612 95bd 87af bfbd 6f5b 08bd c4c3 cb3c
000000a0: a150 c53d aa62 693e 6add c9bc b0a8 68bd
000000b0: e59d 183d b82b 60bd 6446 473d 0725 92bd
000000c0: de5b 13bc c6bc 1cbd 930c 32bd 83bd 9ebc
000000d0: 7d55 5fbe 7225 d2bd 8eb4 e93c 38d0 973c
000000e0: a7a8 a73d 0923 90bd 719e d2bb b92e 56bb
000000f0: 1a52 59be 469f 58bd 0fa2 bdbb 2455 d83b
00000100: f496 903d 9ac6 a5bd dcf2 103c 5b95 08bd
00000110: 45fa 8fbe 3fa4 cd3c 9cd1 febb 7ffe 303a
00000120: b37f 483d 164b f5bd 3a0d 273d 8793 7c3c
00000130: 3bf0 13be 4362 06be 4519 dd3a ccf3 0cbd
00000140: 54da a83d 14b9 b2bd 5432 a9ba cd00 b2bb
00000150: 96fb 05be c2a8 dbbd 808b b73c 5a16 783c
00000160: 5047 013e 2237 f6bd 1d32 303d 2828 1abd
00000170: 2e62 1fbd 9976 c13d af23 f4bc 63ad 1abd
00000180: cbbb 9b3b 8a5c e53c 49ad 79bd a4ea fbbd
00000190: d180 b9bd ce3b 07be 35bd a0bd 55a1 e4bd
000001a0: 6f67 0b3d 827b f13c a494 523b b2d7 313c
000001b0: 7d3c 95bd ef81 90bc b13c 763d b573 81bd
000001c0: c404 753c 3711 8d3d 5964 56bb fd3c 24bd
000001d0: 2836 23be 589e 3f3d a453 79bc 422a 1dbd
000001e0: 4e81 893c 1b3c 873b 5e8f 8bbd 7651 83bb
000001f0: 48cb bc3b f16f d33c ec57 51bd 676c 31bc
00000200: 9899 f4ba d91c 09bd 0971 d9bc 56a8 07bd
00000210: e4c4 a13c 6546 04be 4387 d03b 2852 2b3d
00000220: 31dc c4bc 586c 03bd a583 35bd 672f 203d
00000230: 807b 703d 8c35 acbe a8fe 70bd 5e6e 9dbc
00000240: f296 4fbc c723 6c3e a916 493c e34f 223c
00000250: 68bd a1bd b90c 4cbd d4d4 00ba fb90 3d3c
00000260: e8c1 483d 1aaf 2a3e 825a 633c 0eee d6bd
00000270: 9d2d 99bd 09dc 15be 2a89 16bc ba59 53bd
00000280: b9c5 1b3e 265f 323e b39e c73a 97f5 84bc
00000290: 4538 cbbd 9669 94bd 43da d5bb 347f 7fbd
000002a0: 72fd febb fb45 113d a82f 253d 0b5e 8bbd
000002b0: 1c22 cb3d 4659 87be 297d ebbc 6330 17bd
000002c0: b512 01bc 14db b43c 212d 35bc 4bfe 70bd
000002d0: 75cc a63d d2e6 cbbe 2ad7 813c 5683 43bd
000002e0: f7e8 f33b 9f41 a0bd efd7 aabc e0aa f5ba
000002f0: 08ce a73d 01d9 1dbe d118 6a3c f686 333c
00000300: 6859 02bc 0000 533d 8fc5 b83b c689 27bc
00000310: 4674 793c be27 b9be 8575 12bb 9764 a1bc
00000320: efb4 f3bb 7ba2 a43d 1f10 153d 252d eabb
00000330: d915 11bd f89a 1b3d 6475 0dbd 3e2d a83c
00000340: 787c a3bc 99f1 223d 9ff9 bf3c e97b 743a
00000350: 0b13 b03c 6ec4 ea3e 034e e0bc ed98 373d
00000360: 2d01 32bc e962 d0bd c07f 0fbc b70e c83c
00000370: ea39 87bd 3094 2abe 4c45 193c 3c4c 59bd
00000380: c369 dd3c 267e cebd 8bc4 5b3c 3cfc 96bc
00000390: cc6c d4bd c6bd 23be 0fe9 88bc bd74 f23c
000003a0: 9180 b03d 6d47 56bd 1cb9 2abc 3e19 2bbd
000003b0: 7e12 6bbe e3df 92bc 3a8a 3e3c 8d09 43bd
000003c0: b12e 02be 3740 203e c0e8 1c3d 3904 713d
000003d0: c6b5 9f3c a418 93bd 5d59 edbc 0a4e 963d
000003e0: 906b 81bd 57c2 1d3e be9e 09bb f2f0 27bd
000003f0: 9528 b83c 00b4 82bd 3bbc 5b3c 3eb7 bd3c

fc1.bias f4 [400]
-0.13195448 -0.091414995 -0.21702752 -0.20287089 0.05984085 -0.1753511 -0.29276586 0.12877733
0.07558938 -0.1237031 0.06627619 -0.0737467 -0.21495658 0.019099986 -0.17187396 -0.05777866
-0.20184863 -0.059433162 -0.23360704 -0.44888538 -0.17152998 -0.18677448 -0.25795448 0.02984772
-0.2983009 -0.2750528 -0.33052257 -0.21148908 -0.20771684 -0.16766307 0.018796463 -0.2691048
-0.039699018 -0.07565167 -0.16290401 -0.023522492 -0.001273893 0.008964786 -0.19798833 -0.074167736
-0.23631574 0.00738969 -0.17758271 -0.24577492 -0.32265088 -0.21055903 0.007726279 -0.150204
0.027932191 0.0010337038 -0.15263382 -0.13712361 -0.03260233 0.04247667 -0.07399612 -0.13349581
-0.003706237 -0.37311745 0.023491135 -0.21011908 -0.13518733 0.0023290885 0.099487126 -0.112830766
0.11586451 -0.1727338 0.0148326745 0.20644793 0.081427105 -0.2184179 -0.25362727 -0.12589408
-0.51016486 0.019228574 -0.05701237 -0.27830982 0.10068558 0.025184354 0.10526111 -0.039351683
-0.16116415 -0.21999204 0.1603188 -0.22428378 0.042620614 -0.11912148 0.002381538 0.0388559
-0.29995725 -0.19156682 -0.04328701 -0.16282582 0.1231513 -0.22736505 -0.18524018 0.01434572
0.09668864 -0.34914434 -0.15845811 -0.15109247 -0.1016353 0.050066162 -0.3807968 -0.19871137
-0.18698657 -0.1705937 -0.013162794 -0.14877385 -0.1399605 -0.26796424 -0.0017449022 -0.11265368
-0.2038096 -0.17146146 -0.018700268 0.033704177 0.029505154 -0.27791393 -0.042082068 -0.27319548
-0.06549741 -0.16517366 -0.08110654 0.05874705 -0.36890003 -0.012669507 -0.1713982 -0.1353998
0.14125213 -0.1494311 -0.48826724 -0.19889888 -0.3024144 0.023619104 -0.20154826 -0.1911076
0.045305677 -0.23930132 -0.16189373 0.11669885 -0.094375744 -0.07321481 -0.1455452 0.059017424
-0.14788027 -0.017066155 0.05404318 0.11512203 -0.082513705 -0.069430366 -0.098019935 -0.18680546
-0.07613109 -0.082742885 -0.10652831 -0.022476403 -0.010864062 -0.06901008 -0.015261064 0.14649491
-0.064451456 -0.30273035 -0.20655772 -0.28880817 0.114317216 0.011405214 -0.18454851 -0.15109529
-0.13848503 -0.3191894 -0.102086395 0.014112851 -0.18274274 -0.098451875 0.1086045 -0.15257719
-0.023869684 -0.16640535 0.10964683 -0.1621972 0.03458716 -0.12789913 -0.12334694 -0.15716723
-0.17391159 0.02407265 -0.18030053 0.048068862 -0.2467773 -0.016424932 -0.20062976 -0.07895215
0.1015212 -0.27079254 -0.051937636 -0.03671353 -0.06310144 -0.08646844 -0.077229634 0.07782952
0.19183242 0.2113171 -0.15526935 -0.012983315 -0.06041155 0.038436342 -0.054584455 0.0018879554
0.09195479 0.113654554 -0.21653107 -0.008333355 -0.14071746 -0.13732642 -0.011331127 0.03301233
0.10722175 0.0519636 -0.2446625 -0.117234975 -0.0721232 0.08138494 -0.23932186 -0.09235114
-0.02936831 0.08634237 -0.28442216 -0.32465294 0.04363308 -0.32853013 0.033879925 -0.062446635
0.10602167 0.17037185 -0.15447488 -0.36724716 -0.19845788 0.015144339 -0.07287578 -0.066440314
-0.08766934 -0.04438722 0.052279256 -0.25233325 0.1985807 0.04672729 -0.16878086 0.013680148
-0.052364912 -0.07030002 0.033816494 -0.09603154 0.1282363 -0.28880686 -0.10427067 -0.28887266
00000000: 131f 07be c937 bbbd 763c 5ebe 63bd 4fbe
00000010: ae1b 753d 3d8f 33be 68e5 95be 34de 033e
00000020: 9bce 9a3d 0d58 fdbd d0bb 873d 8308 97bd
00000030: 941d 5cbe 9377 9c3c baff 2fbe 51a9 6cbd
00000040: 68b1 4ebe 3070 73bd af36 6fbe 4ed4 e5be
00000050: 8ea5 2fbe cf41 3fbe 9c12 84be 3583 f43c
00000060: e5ba 98be b8d3 8cbe 413a a9be 9890 58be
00000070: b9b3 54be deaf 2bbe 0afb 993c 1bc8 89be
00000080: 709b 22bd 43ef 9abd 4fd0 26be 3eb2 c0bc
00000090: c2f8 a6ba 0ae1 123c 74bd 4abe 41e5 97bd
000000a0: c1fc 71be 3625 f23b 3ed8 35be 6cac 7bbe
000000b0: 7f32 a5be c99c 57be ba2c fd3b 14cf 19be
000000c0: 0dd2 e43c 587d 873a 0a4c 1cbe 226a 0cbe
000000d0: 058a 05bd 04fc 2d3d 478b 97bd 20b3 08be
000000e0: 57e4 72bb 4009 bfbe 7b70 c03c 7529 57be
000000f0: 8c6e 0abe 9fa3 183b e8bf cb3d d113 e7bd
00000100: 5f4a ed3d 21e1 30be bf04 733c 1667 533e
00000110: 41c3 a63d f1a8 5fbe 6fdb 81be 61ea 00be
00000120: 2a9a 02bf 3e85 9d3c ce85 69bd a07e 8ebe
00000130: 3e34 ce3d 6b4f ce3c 2393 d73d 3b2f 21bd
00000140: 3708 25be 9845 61be 9d2a 243e a6aa 65be
00000150: f492 2e3d f6f5 f3bd 9413 1c3b 5d27 1f3d
00000160: ff93 99be 182a 44be b84d 31bd d0bb 26be
00000170: c036 fc3d 62d2 68be 9aaf 3dbe 500a 6b3c
00000180: b204 c63d 0cc3 b2be d842 22be fcb7 1abe
00000190: 2b26 d0bd 2d12 4d3d ccf7 c2be fe7a 4bbe
000001a0: 6879 3fbe 1db0 2ebe c2a8 57bc 2c58 18be
000001b0: ce51 0fbe 9c32 89be 34b5 e4ba f9b6 e6bd
000001c0: 77b3 50be 9893 2fbe 4e31 99bc 640d 0a3d
000001d0: cbb4 f13c bc4a 8ebe 3f5e 2cbd 47e0 8bbe
000001e0: 8223 86bd 4923 29be 301b a6bd bfa0 703d
000001f0: 77e0 bcbe c493 4fbc 0283 2fbe 3fa6 0abe
00000200: 66a4 103e 7704 19be 2afe f9be 26ac 4bbe
00000210: 0fd6 9abe da7c c13c ab62 4ebe b6b1 43be
00000220: 7292 393d 680b 75be 78c7 25be cfff ee3d
00000230: 1248 c1bd a5f1 95bd cd09 15be 41bc 713d
00000240: ed6d 17be 52ce 8bbc 625c 5d3d 19c5 eb3d
00000250: f2fc a8bd 8231 8ebd adbe c8bd ee49 3fbe
00000260: 9eea 9bbd 1a75 a9bd 842b dabd 6f20 b8bc
00000270: 2eff 31bc 2855 8dbd 8b09 7abc c302 163e
00000280: 20ff 83bd 79ff 9abe de83 53be aade 93be
00000290: 251f ea3d efdc 3a3c 49fa 3cbe b9b8 1abe
000002a0: 05cf 0dbe cb6c a3be ac12 d1bd 9639 673c
000002b0: ea20 3bbe 23a1 c9bd 096c de3d 323d 1cbe
000002c0: 5b8a c3bc 2a66 2abe 848e e03d 0617 26be
000002d0: 44ab 0d3d fdf7 02be 529d fcbd 72f0 20be
000002e0: e115 32be 0234 c53c b4a0 38be dbe3 443d
000002f0: 30b3 7cbe 948d 86bc e371 4dbe aab1 a1bd
00000300: 59ea cf3d 52a5 8abe 8fbc 54bd ed60 16bd
00000310: 543b 81bd 5e16 b1bd 922a 9ebd 1565 9f3d
00000320: b86f 443e 8363 583e eefe 1ebe f8b7 54bc
00000330: 1a72 77bd 6d6f 1d3d f393 5fbd 4575 f73a
00000340: cb52 bc3d b8c3 e83d 52ba 5dbe a088 08bc
00000350: 3d18 10be 4c9f 0cbe 31a6 39bc f037 073d
00000360: 1497 db3d c9d7 543d ce88 7abe e418 f0bd
00000370: 54b5 93bd 26ad a63d ca10 75be 9822 bdbd
00000380: cf95 f0bc 45d4 b03d c89f 91be e938 a6be
00000390: 9ab8 323d 1a35 a8be adc5 0a3d 0bc8 7fbd
000003a0: e421 d93d f575 2e3e aa2e 1ebe d207 bcbe
000003b0: 8b38 4bbe f61f 783c e63f 95bd dc11 88bd
000003c0: fc8b b3bd 60cf 35bd c622 563d d331 81be
000003d0: bd58 4b3e 1d65 3f3d e4d4 2cbe b322 603c
000003e0: 977c 56bd 75f9 8fbd 2a83 0a3d 2fac c4bd
000003f0: 6050 033e 7ede 93be dc8b d5bd 1ee7 93be

fc2.weight f4 [300, 400]
0.0011424739 0.13553141 0.04787662 -0.05272367 0.07941203 0.02262772 0.014742992 -0.007081486
0.045445707 0.0013993218 -0.16670117 -0.0072042514 0.04411158 -0.018879663 0.017936755 0.021624625
0.039231524 0.020375766 -0.04214759 -0.0732397 0.061185714 0.1617141 0.069177024 -0.02449507
0.021083906 -0.027012574 0.122005105 -0.041010104 -0.056013178 0.115558974 -0.083002724 -0.0057756184
-0.12561847 0.108008996 0.08485034 -0.0749245 0.08017035 -0.12083156 -0.04591464 0.1044811
-0.1768366 0.07188551 -0.20206517 0.0620544 -0.052110802 0.10906019 -0.09477688 -0.14427482
-0.063222446 -0.04536176 0.025415616 -0.0038564 -0.09065528 -0.052426368 0.08748335 0.1538297
-0.09423542 -0.10893645 0.07268919 0.12980597 -0.0642898 0.13055186 -0.022749864 -0.11731289
0.0063892086 -0.011375941 -0.034043927 0.10141372 0.029641913 0.03474141 -0.03419239 0.10687976
-0.05845242 0.13958602 -0.03762713 0.14679025 0.07328931 0.11041655 -0.13276894 0.26312605
0.033027783 0.02021343 -0.047623187 -0.14653803 -0.08378582 0.14725284 -0.22040455 0.032321133
0.16371205 -0.042654548 -0.02267026 -0.12979215 -0.0720083 0.07656116 -0.042433657 0.009340071
0.16220501 0.015109787 0.026664712 -0.12298041 0.057749506 0.10568512 -0.08359072 -0.10921298
-0.19412053 -0.105952635 -0.052381534 -0.018419487 -0.124327056 0.0053979536 0.10293551 0.15683822
-0.050998434 0.08460351 0.20817032 -0.014897431 -0.11723345 0.045216534 -0.24555714 -0.605415
-0.03755403 0.026870519 0.06377577 -0.072644934 0.0900081 -0.042520072 0.081244245 -0.2958283
-0.060505155 0.06131553 -0.088341825 0.09325932 0.032254074 0.06052061 0.18598366 -0.030380245
0.10315759 0.03669377 0.0071368804 -0.19085823 0.10495864 -0.07126925 -0.06011315 -0.030927222
-0.06432365 0.08345028 -0.0026838812 -0.10507007 -0.086464964 -0.025521042 -3.9216844e-05 -0.036204956
-0.062203214 0.014796248 -0.07855284 0.12137688 0.305335 0.099220656 0.09511433 0.05759684
0.09608399 -0.05868084 -0.036406036 -0.05787114 -0.015933 -0.047564875 -0.10537773 0.017400337
-0.042022336 0.024595203 -0.027431417 0.09311256 0.2268103 -0.009439239 -0.014299979 0.06490759
0.07553943 0.0027327866 -0.10271467 -0.048512366 -0.06578578 0.08379104 -0.072788686 -0.17965844
-0.03948403 -0.026595723 -0.097736515 0.0036435502 0.1160075 0.17693608 -0.111648925 0.06760352
0.14123517 -0.08428382 0.052096594 0.029202478 0.024124835 0.010382067 -0.123004094 -0.10834558
0.018150881 0.03007779 0.046988238 -0.1181337 -0.028900685 -0.080521286 -0.1283621 0.05722995
-0.038059764 0.053937607 0.0964555 -0.021954073 0.002965206 -0.15554993 0.19195308 -0.026412204
0.11279474 0.067555875 -0.13324112 -0.004567049 0.19489299 0.051940154 0.03799892 -0.0050394456
-0.16561143 0.074077286 -0.12176637 -0.035498552 0.03607662 0.15710698 0.08723785 -0.03358077
-0.02724363 -0.15464024 -0.033519723 -0.120089665 0.020170117 -0.12084604 -0.07185718 0.21970168
-0.026908133 -0.022337992 -0.12701195 -0.045882866 -0.08091584 0.003426867 -0.1879449 -0.076762214
0.12238804 0.062011782 0.08534173 0.15733424 0.022551026 -0.06608819 0.12754335 -0.20407757
00000000: 10bf 953a bfc8 0a3e 461a 443d c6f4 57bd
00000010: c6a2 a23d c55d b93c 978c 713c cf0b e8bb
00000020: 4725 3a3d 7369 b73a b6b3 2abe a411 ecbb
00000030: 58ae 343d 86a9 9abc 1af0 923c 2026 b13c
00000040: 3cb1 203d 14eb a63c f4a2 2cbd b2fe 95bd
00000050: df9d 7a3d 6298 253e afac 8d3d e3a9 c8bc
00000060: 28b8 ac3c 7949 ddbc d0dd f93d 36fa 27bd
00000070: 136e 65bd 2faa ec3d 55fd a9bd 6641 bdbb
00000080: 21a2 00be d233 dd3d 04c6 ad3d 0472 99bd
00000090: 5a30 a43d 8976 f7bd fd10 3cbd 30fa d53d
000000a0: a714 35be b638 933d 2cea 4ebe c12c 7e3d
000000b0: 2372 55bd f35a df3d 621a c2bd c7bc 13be
000000c0: c57a 81bd 41cd 39bd 6934 d03c a8bb 7cbb
000000d0: 7aa9 b9bd 08bd 56bd 782a b33d 8885 1d3e
000000e0: 80fe c0bd 131a dfbd 12de 943d dbeb 043e
000000f0: 5faa 83bd 63af 053e ec5d babc be41 f0bd
00000100: 915c d13b 2862 3abc a571 0bbd ffb1 cf3d
00000110: 99d3 f23c 024d 0e3d 520d 0cbd c7e3 da3d
00000120: ce6b 6fbd a3ef 0e3e e81e 1abd 2f50 163e
00000130: b518 963d 1222 e23d 95f4 07be 75b8 863e
00000140: 2448 073d a396 a53c 8810 43bd 110e 16be
00000150: e697 abbd 73c9 163e bbb1 61be 2a63 043d
00000160: 22a4 273e 89b6 2ebd fbb6 b9bc 3ce8 04be
00000170: 1679 93bd 19cc 9c3d eace 2dbd 1907 193c
00000180: 1219 263e 0a8f 773c f46f da3c 27dd fbbd
00000190: bf8a 6c3d 7171 d83d 9d31 abbd 0eab dfbd
000001a0: 88c7 46be b2fd d8bd 058e 56bd 77e4 96bc
000001b0: 2f9f febd 51e1 b03b dacf d23d 339a 203e
000001c0: bce3 50bd 9b44 ad3d 9a2a 553e 5b14 74bc
000001d0: 1718 f0bd f934 393d 5573 7bbe 7afc 1abf
000001e0: 41d2 19bd 901f dc3c df9c 823d dec6 94bd
000001f0: 2b56 b83d 8729 2ebd 6263 a63d cf76 97be
00000200: 41d4 77bd fe25 7b3d 8fec b4bd befe be3d
00000210: d91c 043d 76e4 773d 8072 3e3e fedf f8bc
00000220: 4944 d33d 354c 163d 7edc e93b 5770 43be
00000230: 8ef4 d63d 9df5 91bd 3539 76bd 165b fdbc
00000240: 1ebc 83bd fbe7 aa3d 0ee4 2fbb fa2e d7bd
00000250: 8b14 b1bd 8111 d1bc c47c 24b8 a64b 14bd
00000260: ccc8 7ebd f66b 723c 50e0 a0bd 7194 f83d
00000270: de54 9c3e 3334 cb3d 4dcb c23d aaea 6b3d
00000280: afc7 c43d 525b 70bd 7f1e 15bd 4a0a 6dbd
00000290: ec85 82bc 63d3 42bd 48d0 d7bd 278b 8e3c
000002a0: 9d1f 2cbd e17b c93c dab7 e0bc ccb1 be3d
000002b0: f640 683e 0aa7 1abc 764a 6abc 45ee 843d
000002c0: 6bb4 9a3d 8d18 333b 125c d2bd e7b4 46bd
000002d0: b2ba 86bd a39a ab3d 3c12 95bd 62f8 37be
000002e0: 02ba 21bd 46df d9bc 152a c8bd a1c8 6e3b
000002f0: 5795 ed3d bb2e 353e 31a8 e4bd b773 8a3d
00000300: f49f 103e ff9c acbd 3d63 553d 093a ef3c
00000310: 72a1 c53c 8c19 2a3c 92e9 fbbd 4ae4 ddbd
00000320: 28b1 943c b365 f63c bd76 403d 15f0 f1bd
00000330: 21c1 ecbc 58e8 a4bd 5b71 03be f469 6a3d
00000340: 8ee4 1bbd aeed 5c3d 768a c53d 07d9 b3bc
00000350: e753 423b 7b48 1fbe 598f 443e 685e d8bc
00000360: ee00 e73d bc5a 8a3d 5c70 08be 2fa7 95bb
00000370: 0792 473e 33bf 543d c1a4 1b3d ef21 a5bb
00000380: 0b96 29be d5b5 973d a660 f9bd ee66 11bd
00000390: 14c5 133d a7e0 203e c2a9 b23d fd8b 09bd
000003a0: 082e dfbc 035a 1ebe fa4b 09bd 92f1 f5bd
000003b0: cd3b a53c 217e f7bd db29 93bd 7af9 603e
000003c0: 726e dcbc 2afe b6bc 6c0f 02be acef 3bbd
000003d0: 34b7 a5bd 4a95 603b a174 40be 8235 9dbd
000003e0: 95a6 fa3d 1100 7e3d a5c7 ae3d 3a1c 213e
000003f0: eebc b83c 3f59 87bd b99a 023e b6f9 50be

fc2.bias f4 [300]
-0.1806229 0.11349611 -0.015505984 -0.03078128 -0.1122848 -0.0013622604 -0.035350733 -0.03719498
-0.044280734 -0.038496144 0.073307745 -0.12373942 0.093569286 -0.03135642 -0.015500926 -0.06414962
-0.048986822 0.042922676 0.09964115 0.07037191 -0.014893166 -0.114333816 -0.13138717 0.08748869
-0.01537497 -0.037355635 -0.062651694 0.046388447 0.028434929 -0.0037536102 0.10843453 -0.064850606
0.04203731 -0.033527907 -0.036422323 -0.13554896 0.111750856 0.032200065 0.037233338 0.020162664
-0.04611558 0.07547052 -0.0020090116 -0.02804385 -0.06655809 -0.04014597 -0.026209084 -0.10018864
-0.12146264 0.109398544 -0.07752008 0.03215907 -0.024648434 -0.15798837 0.009800257 -0.05647969
0.053173363 0.010224096 -0.013737407 0.027266756 0.16128731 0.00036787256 -0.0821618 -0.033944793
-0.079945 -0.027286166 -0.025647689 -0.08961847 -0.08297018 -0.06718838 -0.091016814 -0.036683183
-0.048431512 0.11818437 -0.107812546 -0.07717651 -0.07887653 0.15214638 -0.07999069 -0.052145224
-0.06008514 0.0898682 -0.123418204 0.10334894 -0.051780622 0.061282218 -0.12814951 -0.17091069
-0.0028151684 -0.067996874 -0.023440981 -0.06304431 0.115816854 -0.024182856 0.17260975 -0.20154294
-0.14489901 -0.043342557 0.0805053 -0.04669156 0.022683717 0.081867345 -0.12233653 -0.06924037
-0.07516915 -0.13858967 -0.16734843 -0.030476002 -0.03016613 0.0016080121 -0.04088179 -0.046649516
-0.011480737 -0.06536507 0.052831832 -0.07757778 0.015606882 -0.14463243 -0.13553241 -0.032885157
-0.12695576 -0.114719436 -0.13186489 0.059037786 0.026045032 0.079427496 0.009022208 0.033621073
0.10082386 -0.15033908 -0.074234955 -0.06555092 -0.0518658 -0.088053584 -0.015313905 0.008846047
-0.041151404 0.00095047156 0.0110112 -0.082394645 0.013178759 0.11701745 0.089848675 -0.06603444
0.036850568 0.01698992 0.052227832 0.006777342 0.09260811 0.07155442 -0.105974995 0.03630235
0.12273785 -0.13948834 0.009041088 -0.06594099 0.08838475 -0.04110604 -0.09826148 0.061470196
-0.1839127 -0.06217745 0.07857827 0.065934844 -0.11559914 0.054449394 0.0027992262 -0.00874356
0.18244497 -0.06209066 0.065005295 -0.13835597 0.018237824 -0.13082321 0.062360365 -0.036070935
0.053033687 -0.038765535 -0.08441365 -0.12237564 -0.048966374 -0.07373023 -0.044703376 0.041394707
0.00055332866 -0.0750024 0.07232071 -0.04507246 -0.002848729 -0.082266405 0.013468409 -0.0678238
-0.1150589 -0.024160592 0.049324784 0.019610392 0.08514007 0.01802618 -0.15861842 0.070313245
-0.0050807735 -0.20429766 -0.0043964786 -0.16300139 -0.08780708 0.07441108 -0.043922845 -0.021413172
-0.027090218 -0.041137155 -0.13096495 -0.000941822 0.03383272 -0.04072394 -0.07614535 -0.027539056
-0.12757511 -0.1128658 0.07535466 -0.07121548 -0.032576196 0.020244697 -0.00019334703 -0.089301266
-0.02489923 -0.026359979 0.07010367 -0.054572593 -0.12700875 0.051117573 -0.14921243 -0.01873872
-0.041711204 -0.13717715 -0.029061878 -0.009987644 0.0038787923 -0.14522834 -0.049216002 0.000923923
-0.15241551 -0.15473372 -0.06019317 -0.05074125 -0.17063208 -0.022061955 -0.15557882 -0.06504412
-0.0014782794 0.12447958 -0.041565474 -0.048305396 -0.008993188 -0.006273298 -0.034072086 -0.030797219
00000000: 36f5 38be a670 e83d d00c 7ebc 0629 fcbc
00000010: 93f5 e5bd e08d b2ba eecb 10bd c359 18bd
00000020: b75f 35bd 22ae 1dbd 5f22 963d 186b fdbd
00000030: 41a1 bf3d 976f 00bd 99f7 7dbc e060 83bd
00000040: 68a6 48bd b0cf 2f3d a910 cc3d 261f 903d
00000050: 7702 74bc d927 eabd 5c8a 06be 452d b33d
00000060: 4ce7 7bbc 3902 19bd 884f 80bd d001 3e3d
00000070: 5ef0 e83c 21ff 75bb ec12 de3d 65d0 84bd
00000080: 502f 2c3d 8f54 09bd 932f 15bd 59cd 0abe
00000090: a2dd e43d 37e4 033d fc81 183d 2c2c a53c
000000a0: b1e3 3cbd 4a90 9a3d 9fa9 03bb 37bc e5bc
000000b0: 9c4f 88bd 1a70 24bd 6fb4 d6bc b42f cdbd
000000c0: 68c1 f8bd 580c e03d d9c2 9ebd 3bb9 033d
000000d0: 83eb c9bc b4c7 21be 4291 203c 3f57 67bd
000000e0: 50cc 593d f782 273c dc12 61bc 885e df3c
000000f0: 8028 253e 05df c039 7244 a8bd b209 0bbd
00000100: 34ba a3bd 3d87 dfbc 1a1b d2bc e389 b7bd
00000110: 45ec a9bd 109a 89bd 0667 babd 1b41 16bd
00000120: 1f60 46bd a60a f23d d3cc dcbd b80e 9ebd
00000130: 058a a1bd 43cc 1b3e 29d2 a3bd 3b96 55bd
00000140: d61b 76bd d20c b83d afc2 fcbd 9ca8 d33d
00000150: eb17 54bd 1003 7b3d a039 03be 3603 2fbe
00000160: b07e 38bb f241 8bbd 4d07 c0bc 601d 81bd
00000170: 6331 ed3d 201b c6bc 9cc0 303e 4661 4ebe
00000180: 6860 14be f787 31bd f6df a43d a63f 3fbd
00000190: 34d3 b93c 11aa a73d 938b fabd e5cd 8dbd
000001a0: 49f2 99bd 73ea 0dbe 635d 2bbe cfa8 f9bc
000001b0: f61e f7bc efc3 d23a aa73 27bd 9013 3fbd
000001c0: b319 3cbc 1fde 85bd 3166 583d 19e1 9ebd
000001d0: 02b4 7f3c 861a 14be 02c9 0abe 96b2 06bd
000001e0: b100 02be 06f2 eabd 9707 07be 9bd1 713d
000001f0: 645c d53c e2aa a23d e2d1 133c 40b6 093d
00000200: bd7c ce3d 7df2 19be 7f08 98bd 903f 86bd
00000210: 3c71 54bd 7055 b4bd 2ce7 7abc 03ef 103c
00000220: 608e 28bd 1129 793a 5268 343c 86be a8bd
00000230: b9eb 573c d8a6 ef3d 9502 b83d 113d 87bd
00000240: 9ff0 163d 722e 8b3c daec 553d 7714 de3b
00000250: 52a9 bd3d 208b 923d 6b09 d9bd c6b1 143d
00000260: fb5d fb3d 08d6 0ebe 1221 143c 120c 87bd
00000270: 1003 b53d cf5e 28bd 513d c9bd 2cc8 7b3d
00000280: 9c53 3cbe c8ad 7ebd a5ed a03d d908 873d
00000290: 3ebf ecbd 5406 5f3d 3973 373b 2641 0fbc
000002a0: dbd2 3a3e c752 7ebd 7f21 853d 30ad 0dbe
000002b0: 7d67 953c 85f6 05be 956d 7f3d 1ebf 13bd
000002c0: da39 593d 9cc8 1ebd 10e1 acbd 14a0 fabd
000002d0: f790 48bd e0ff 96bd e31a 37bd 7f8d 293d
000002e0: 420d 113a dc9a 99bd e11c 943d e69d 38bd
000002f0: beb1 3abb 4a7b a8bd 9aaa 5c3c 34e7 8abd
00000300: 00a4 ebbd 6fec c5bc c908 4a3d f9a5 a03c
00000310: eb5d ae3d a4ab 933c de6c 22be 6400 903d
00000320: 9e7c a6bb 6833 51be 5610 90bb d6e9 26be
00000330: 33d4 b3bd d664 983d 71e8 33bd ad6a afbc
00000340: 4eec ddbc 6f7f 28bd ad1b 06be 9be4 76ba
00000350: 2e94 0a3d 25ce 26bd 18f2 9bbd 9699 e1bc
00000360: 0da3 02be 2f26 e7bd 8b53 9a3d 6cd9 91bd
00000370: 9e6e 05bd 35d8 a53c 33bd 4ab9 95e3 b6bd
00000380: 78f9 cbbc e2f0 d7bc 8392 8f3d 8387 5fbd
00000390: 950e 02be a960 513d 25cb 18be f281 99bc
000003a0: 5ed9 2abd 2b78 0cbe 2d13 eebc 37a3 23bc
000003b0: 5633 7e3b bdb6 14be b896 49bd 6c33 723a
000003c0: d012 1cbe 8472 1ebe 1d8d 76bd 0fd6 4fbd
000003d0: 2dba 2ebe 46bb b4bc 0e50 1fbe da35 85bd
000003e0: d3c2 c1ba 26ef fe3d 8f40 2abd e1db 45bd
000003f0: 2a58 13bc 3d90 cdbb 2c8f 0bbd 734a fcbc

fc3.weight f4 [2, 300]
0.5950192 0.10723466 0.05158628 -0.17657895 0.22611357 -0.25149232 -0.39715606 0.008904638
-0.15020066 -0.09123968 -0.111502916 -0.25038993 -0.033573184 -0.14936928 0.102799416 -0.066068344
-0.14777543 0.00014407156 -0.2462979 0.1617388 -0.2101832 0.11632702 -0.28211427 -0.07216703
0.096673355 0.23355472 -0.31359416 -0.028202808 -0.019194085 -0.17536879 -0.001955083 -0.22906011
-0.1123462 0.27770036 0.29737437 -0.023418924 -0.07503721 -0.12248977 -0.076829195 -0.05118188
0.108705476 -0.0015429838 -0.24990776 0.004908446 0.1193268 0.3623538 0.11670749 -0.12409107
0.41482618 0.11528666 0.16796698 -0.12656505 0.0034872897 -0.18342121 -0.18038316 -0.09190765
-0.106544085 -0.058229942 -0.07236489 -0.037929133 -0.14357612 -0.019709181 0.06741473 0.030363364
0.043142185 -0.1709075 -0.0077800797 0.1729602 -0.10123402 0.074524224 -0.071545 0.09178761
0.06302901 -0.021823572 0.5115462 -0.3020561 0.47475982 -0.015277729 0.017748589 -0.021722788
0.024193106 -0.19016258 0.026922539 -0.046160404 -0.053799145 -0.0038454358 0.11250953 0.0053603556
-0.067896776 0.13181497 0.027229756 -0.012889333 -0.10342619 0.5214223 -0.06648713 0.0004295269
0.050238676 -0.010739283 0.11378057 -0.00893689 0.3203676 0.16445859 0.007077803 0.2211183
-0.053864263 0.29483137 0.00874202 -0.0075006434 -0.23412487 -0.16387506 0.26100436 0.059518702
-0.075376995 0.13921572 0.019706562 -0.33927432 0.03158844 0.1758846 0.08127842 -0.22568272
-0.017614765 -0.15512873 0.0007242384 -0.1658609 0.2988125 0.14300264 0.05719315 0.05372392
0.0012249659 0.05436451 -0.047790397 -0.002220977 0.23925096 0.40019137 0.322799 -0.28322056
-0.08488412 -0.16285022 -0.15237333 -0.13039012 -0.27866578 -0.002054484 -0.022000793 -0.03881339
-0.032769464 0.037279543 -0.020636832 -0.019228123 -0.41107625 -0.03713856 -0.013309297 -0.14524682
-0.125208 0.029741837 0.07640872 0.008252732 0.35335633 -0.16711149 0.30138022 -0.03058216
0.056479707 0.17661677 -0.11860829 0.2505129 0.2114158 -0.15022784 -0.056111515 0.095825136
-0.077773094 -0.25088486 -0.03816777 0.026083264 -0.31799582 0.09938473 -0.03765669 -0.12351643
-0.2615243 -0.47109368 0.010736249 0.008439672 0.008739594 0.0029021935 0.05609825 -0.20437902
-0.24515922 -0.26399773 -0.11871859 0.03572873 -0.17404453 0.16475886 0.1030721 0.19245613
0.19203982 0.3191267 0.45755315 0.14244287 -0.1709287 -0.2957132 0.4293522 -0.25827473
-0.11974 0.43828535 0.09623337 0.09765739 0.23809691 0.030971536 -0.23180959 -0.14150952
-0.2802884 -0.10296192 0.18499802 -0.2758907 -0.067676775 0.21034423 -0.072973475 0.014375572
0.15146564 -0.001431459 0.07927673 0.49443892 -0.2923003 -0.12845917 -0.22910473 0.34109855
-0.0064213807 0.3121033 -0.13397954 0.05205487 -0.00016603248 0.000325407 0.120675065 0.1883827
0.029804777 0.10439935 0.007204686 -0.05013874 -0.25085065 0.377511 -0.021297919 0.18134354
0.2326449 0.27623558 -0.017850265 0.008311549 0.040675443 0.12958549 -0.51967055 -0.122133985
-0.04091231 0.06306345 -0.009690589 -0.25402796 -0.04541003 0.061705194 -0.14163886 -0.036135722
00000000: 2e53 183f d89d db3d 234c 533d 1dd1 34be
00000010: 518a 673e 9ac3 80be 0a58 cbbe c2e4 113c
00000020: 34ce 19be dfdb babd a45b e4bd 1c33 80be
00000030: 0984 09bd 43f4 18be 8088 d23d d74e 87bd
00000040: 7152 17be ea11 1739 8435 7cbe db9e 253e
00000050: 443a 57be dc3c ee3d 4871 90be 4fcc 93bd
00000060: aefc c53d f828 6f3e 6a8f a0be 9309 e7bc
00000070: ea3c 9dbc e093 33be da20 00bb bc8e 6abe
00000080: c415 e6bd be2e 8e3e 7441 983e 0bd9 bfbc
00000090: 1cad 99bd ebdb fabd a058 9dbd 17a4 51bd
000000a0: faa0 de3d f23d caba d2e7 7fbe 08d7 a03b
000000b0: 9c61 f43d 7086 b93e 5604 ef3d 7523 febd
000000c0: 1964 d43e 6a1b ec3d 89ff 2b3e 459a 01be
000000d0: 038b 643b c5d2 3bbe 5db6 38be 143a bcbd
000000e0: c933 dabd 8582 6ebd 0b34 94bd 945b 1bbd
000000f0: 9e05 13be 2675 a1bc bc10 8a3d 97bc f83c
00000100: dcb5 303d 6002 2fbe 0af0 febb 7b1c 313e
00000110: c853 cfbd 28a0 983d 2f86 92bd 24fb bb3d
00000120: 5b15 813d 59c7 b2bc b1f4 023f 19a7 9abe
00000130: b813 f33e 714f 7abc 7d65 913c fdf3 b1bc
00000140: 9f30 c63c fbb9 42be a88c dc3c b112 3dbd
00000150: 7e5c 5cbd b503 7cbb 656b e63d eca5 af3b
00000160: 770d 8bbd 81fa 063e f010 df3c c82d 53bc
00000170: 1cd1 d3bd ef7b 053f 682a 88bd 2032 e139
00000180: 12c7 4d3d d1f3 2fbc ca05 e93d 096c 12bc
00000190: 3907 a43e d567 283e eaec e73b d66c 623e
000001a0: c6a0 5cbd 23f4 963e b13a 0f3c f5c7 f5bb
000001b0: 6ebe 6fbe ddce 27be 5da2 853e e2c9 733d
000001c0: 415f 9abd 918e 0e3e a86f a13c 5db5 adbe
000001d0: e162 013d 181b 343e 4d75 a63d 5f19 67be
000001e0: d74c 90bc 11da 1ebe d1da 3d3a 71d7 29be
000001f0: f4fd 983e 496f 123e 5d43 6a3d 9d0d 5c3d
00000200: 098f a03a 52ad 5e3d ddbf 43bd d08d 11bb
00000210: 34fe 743e e2e5 cc3e e945 a53e 4902 91be
00000220: bad7 adbd 35c2 26be c107 1cbe fd84 05be
00000230: 48ad 8ebe 86a4 06bb 023b b4bc cafa 1ebd
00000240: 4639 06bd 6fb2 183d 930e a9bc 4c84 9dbc
00000250: 9678 d2be 9a1e 18bd 3d0f 5abc 95bb 14be
00000260: 8736 00be 27a5 f33c 2d7c 9c3d 7836 073c
00000270: 1feb b43e 461f 2bbe 824e 9a3e 7087 fabc
00000280: 4457 673d 07db 343e e7e8 f2bd 3a43 803e
00000290: 627d 583e 54d5 19be 30d5 65bd f83f c43d
000002a0: 8047 9fbd fb73 80be cf55 1cbd 92ac d53c
000002b0: 59d0 a2be 398a cb3d e73d 1abd 2ff6 fcbd
000002c0: 83e6 85be 3133 f1be 18e7 2f3c 8d46 0a3c
000002d0: 8430 0f3c ba32 3e3b 47c7 653d bc48 51be
000002e0: 050b 7bbe b62a 87be bb22 f3bd 4a58 123d
000002f0: bb38 32be 8cb6 283e 7717 d33d 3813 453e
00000300: 16a6 443e 9364 a33e 6844 ea3e 8bdc 113e
00000310: ef07 2fbe b867 97be 0dd4 db3e 963c 84be
00000320: 3f3a f5bd f066 e03e 0016 c53d 9900 c83d
00000330: adcf 733e 05b8 fd3c 7e5f 6dbe dfe7 10be
00000340: f681 8fbe b3dd d2bd 1f70 3d3e 8c41 8dbe
00000350: 1f9a 8abd 7a64 573e 1e73 95bd 8587 6b3c
00000360: cf19 1b3e cb9f bbba d75b a23d 1927 fd3e
00000370: 63a8 95be cd8a 03be 6e9a 6abe 78a4 ae3e
00000380: 726a d2bb 01cc 9f3e ef31 09be 7d37 553d
00000390: 0119 2eb9 639b aa39 7d24 f73d 65e7 403e
000003a0: 2629 f43c 54cf d53d 4915 ec3b 485e 4dbd
000003b0: 7f6f 80be 1f49 c13e f978 aebc 1fb2 393e
000003c0: 773a 6e3e c06e 8d3e b83a 92bc 2a2d 083c
000003d0: 4b9b 263d 0fb2 043e 2109 05bf 6221 fabd
000003e0: ab93 27bd 6927 813d 47c5 1ebc f40f 82be
000003f0: deff 39bd 96be 7c3d c709 11be 0d03 14bd

fc3.bias f4 [2]
-0.05685102 -0.010222086
00000000: 9ddc 68bd 897a 27bc

bn1.weight f4 [400]
1.0846499 1.0769503 1.1877422 1.1216856 0.95868033 1.0808021 0.9415317 1.1120625
1.5076058 1.1250892 1.1259972 1.0417062 1.1196042 1.1243286 1.0623469 1.3387308
1.0128304 1.0604323 1.0240453 1.2486266 1.1428664 1.6066542 1.169469 1.1259246
1.1373676 1.0037292 1.0280849 0.9972038 0.9773195 1.0842128 1.0891279 1.0086728
1.066394 1.0715923 1.1434344 1.0702269 0.93977875 0.89680576 1.1208563 1.1941936
1.0442007 1.1440539 1.1274735 1.1174812 1.2026234 1.3315455 0.9598891 0.9703611
1.1198308 0.8260937 1.019251 0.87909573 1.0799336 1.1191475 1.3145595 1.3098375
1.039611 1.0406157 1.0915072 1.3805517 1.1489353 1.1653131 0.9123124 0.93812907
1.1847914 1.0219691 0.9726165 1.0667576 0.87140495 1.0075496 1.1030519 0.9971091
1.2551981 1.1169671 1.0610875 1.0541444 0.9375765 0.9791675 0.98332834 1.4330225
1.076104 1.0742282 0.799399 1.1165181 1.1464442 1.2849904 1.1039114 1.052389
1.1315056 1.1112148 0.96176654 1.2920086 1.0724126 1.1480138 1.1197048 0.87382865
1.0689707 0.9589957 0.99577206 1.0833405 0.96430886 1.0043406 1.1617007 1.0392128
1.3679041 1.0661775 1.1235571 1.0316178 1.0275837 1.1017023 1.0966266 1.3060014
1.0291295 1.1181229 1.0538832 1.0374424 1.1338414 1.0805978 1.2139285 1.2844576
0.944155 0.93342227 0.8219491 0.98505795 1.1112978 1.0339826 1.3455973 1.4228829
1.0523561 1.1202469 1.2062156 1.004783 1.0154815 1.1881207 1.0911962 0.8587831
1.1504445 1.2293078 1.0912254 1.2173226 1.1468391 1.0474389 0.9386141 1.0480707
1.0761962 1.1120545 0.9175232 1.031956 1.1358529 1.0795591 1.0104716 1.2834288
1.0214295 0.8259718 1.000235 0.99066776 1.5048548 1.1135312 1.2928514 1.454096
1.0793158 1.0225356 1.0597749 0.9871888 1.061528 1.0548962 1.0321354 0.95646006
1.0379398 1.1345862 0.97764975 1.4342374 1.1097931 0.9827737 0.9257796 1.008967
1.1788893 0.95188963 1.111926 1.045646 0.9896626 1.0384433 1.1595824 1.2744253
1.0595186 0.98036146 1.1017677 1.1134506 1.0871137 1.0304854 1.1812515 1.1179448
1.1800057 1.1291152 1.0173035 0.9918216 0.93616045 1.1133429 0.9995916 1.074373
1.006417 1.413153 1.0459567 1.2521544 1.2243097 1.0140535 1.131506 1.1377641
1.1359812 1.0733173 1.0565237 0.9384239 0.9009234 1.5227561 1.2320011 1.0508673
0.97267854 0.9179377 1.0151392 1.048299 1.2765222 1.0495254 1.0426484 0.9556554
0.93104523 1.4419687 1.1443642 0.97137195 1.0522454 1.0851165 0.7108611 0.9754825
1.0774889 0.9121958 1.0133516 1.1418976 1.0945487 1.0390348 1.0074548 1.7262664
1.132595 1.3164778 1.141446 1.1346904 1.1520368 1.0619035 1.111889 1.0089915
1.2004796 0.9693451 0.75524646 1.1131022 1.0643706 1.0847031 1.0758896 1.1949859
00000000: cfd5 8a3f 82d9 893f f007 983f 6593 8f3f
00000010: 136c 753f b957 8a3f 3908 713f 1058 8e3f
00000020: 3af9 c03f ec02 903f ad20 903f a156 853f
00000030: 314f 8f3f 00ea 8f3f fcfa 873f 885b ab3f
00000040: 6da4 813f 3fbc 873f eb13 833f ffd2 9f3f
00000050: 7249 923f d8a6 cd3f 29b1 953f 4c1e 903f
00000060: 4395 913f 337a 803f 4998 833f c048 7f3f
00000070: 9c31 7a3f 7cc7 8a3f 8b68 8b3f 311c 813f
00000080: 997f 883f f029 893f 0f5c 923f 32fd 883f
00000090: 5795 703f 1095 653f 3878 8f3f 56db 983f
000000a0: 5ea8 853f 5c70 923f 0d51 903f a009 8f3f
000000b0: 90ef 993f 1570 aa3f 4bbb 753f 9669 783f
000000c0: 9e56 8f3f e07a 533f d176 823f 6b0c 613f
000000d0: 443b 8a3f 3a40 8f3f 7c43 a83f c1a8 a73f
000000e0: f911 853f e532 853f 82b6 8b3f ebb5 b03f
000000f0: 5010 933f fb28 953f 4e8d 693f 3a29 703f
00000100: 3fa7 973f e2cf 823f 65fd 783f 838b 883f
00000110: 6514 5f3f 63f7 803f ce30 8d3f 8b42 7f3f
00000120: 55aa a03f c7f8 8e3f b7d1 873f 34ee 863f
00000130: 0305 703f b9aa 7a3f 68bb 7b3f 486d b73f
00000140: c7bd 893f 4f80 893f 6aa5 4c3f 11ea 8e3f
00000150: afbe 923f 917a a43f f84c 8d3f afb4 863f
00000160: 2dd5 903f 493c 8e3f 5536 763f 8a60 a53f
00000170: d144 893f 1ef2 923f 7d52 8f3f 3cb3 5f3f
00000180: 08d4 883f be80 753f ebea 7e3f e7aa 8a3f
00000190: f2dc 763f 3c8e 803f 9cb2 943f ed04 853f
000001a0: 7b17 af3f 8178 883f b8d0 8f3f 0d0c 843f
000001b0: dd87 833f 9504 8d3f 435e 8c3f 0e2b a73f
000001c0: 84ba 833f a71e 8f3f a5e5 863f eaca 843f
000001d0: b721 913f 0751 8a3f 0262 9b3f 1b69 a43f
000001e0: 24b4 713f c3f4 6e3f 426b 523f c22c 7c3f
000001f0: 023f 8e3f 8b59 843f 883c ac3f 0721 b63f
00000200: 9bb3 863f 4064 8f3f 4665 9a3f bb9c 803f
00000210: 4cfb 813f 5714 983f 51ac 8b3f 36d9 5b3f
00000220: c441 933f f559 9d3f 46ad 8b3f 3ad1 9b3f
00000230: a0cb 923f 7a12 863f 0349 703f 2e27 863f
00000240: ccc0 893f cd57 8e3f cde2 6a3f 2217 843f
00000250: a163 913f fe2e 8a3f 2257 813f 6547 a43f
00000260: 34be 823f e372 533f b307 803f 679c 7d3f
00000270: 159f c03f 3188 8e3f 287c a53f d11f ba3f
00000280: 0527 8a3f 72e2 823f b4a6 873f 68b8 7c3f
00000290: 26e0 873f d706 873f 031d 843f 91da 743f
000002a0: 36db 843f 1f3a 913f 4147 7a3f 1795 b73f
000002b0: b30d 8e3f 0f97 7b3f e4ff 6c3f d525 813f
000002c0: d8e5 963f 0aaf 733f 9753 8e3f bad7 853f
000002d0: 875a 7d3f b6eb 843f 326d 943f 5e20 a33f
000002e0: 4e9e 873f f8f8 7a3f b906 8d3f 8d85 8e3f
000002f0: 8b26 8b3f f2e6 833f 4033 973f d118 8f3f
00000300: 6d0a 973f d986 903f 0037 823f 05e8 7d3f
00000310: 36a8 6f3f 0582 8e3f 3ce5 7f3f 0e85 893f
00000320: 46d2 803f 33e2 b43f e9e1 853f 9846 a03f
00000330: 2eb6 9c3f 81cc 813f 30d5 903f 41a2 913f
00000340: d567 913f 7662 893f 2b3c 873f 8c3c 703f
00000350: eaa2 663f ace9 c23f 36b2 9d3f d282 863f
00000360: 7601 793f f7fd 6a3f 15f0 813f a92e 863f
00000370: 1465 a33f d956 863f 8175 853f d5a5 743f
00000380: fb58 6e3f 6e92 b83f 877a 923f d5ab 783f
00000390: faaf 863f 19e5 8a3f fefa 353f 39b9 793f
000003a0: 28eb 893f aa85 693f 81b5 813f b329 923f
000003b0: 2c1a 8c3f 18ff 843f 47f4 803f 4cf6 dc3f
000003c0: dff8 903f 5882 a83f e71a 923f 893d 913f
000003d0: f175 933f 74ec 873f 6152 8e3f a226 813f
000003e0: 51a9 993f 0027 783f d557 413f 227a 8e3f
000003f0: 4c3d 883f 8dd7 8a3f c0b6 893f 4cf5 983f

bn1.bias f4 [400]
0.09353603 -0.17657031 -0.04045454 0.13643165 0.015987677 0.09888535 -0.15880379 -0.04338618
0.1533738 0.116441645 -0.08586903 -0.00069931394 -0.11738993 -0.025383398 0.119947985 0.05895015
0.06890854 -0.15918146 0.055302538 -0.031303227 -0.09834889 -0.0014812478 -0.0082661165 0.14032654
0.091706745 -0.10296344 -0.04800134 -0.056454875 0.07641879 -0.03282012 -0.031924546 -0.10225835
0.015458175 -0.07219959 -0.08079802 -0.047607306 0.07415739 0.05655613 0.06774385 0.012616133
0.2580524 -0.027177865 0.16542882 -0.08982179 0.046474725 -0.011806001 -0.03702849 0.27748692
-0.013964877 0.11423612 0.02755215 0.20953715 -0.00081001903 -0.07465328 -0.25160527 0.022933172
0.16074218 0.033704203 -0.111015595 -0.12691547 -0.020358048 -0.07493912 -0.011997159 0.2026625
-0.26608703 -0.08164921 0.09634159 0.003949264 0.1024624 -0.10222009 -0.11476927 -0.40002552
0.017244404 0.03372595 -0.047304917 -0.13708614 -0.13955632 -0.1415889 0.07354533 -0.050288506
-0.17547606 -0.112932965 0.024963781 0.20526463 0.006242205 -0.15705614 0.05079135 -0.015214935
-0.0862623 0.1533624 -0.09041053 0.09341524 0.14020751 -0.06520645 -0.0807886 0.10057206
-0.18223044 -0.11302573 0.015278779 0.16883786 0.03224588 -0.1841705 0.05188061 0.123704605
0.031347096 0.028459294 0.06409659 0.04568104 0.08425627 0.021425167 -0.04839953 0.04539211
-0.06964501 -0.09883478 -0.25814328 -0.0356022 0.32103723 -0.16825463 -0.080170386 0.1207926
-0.010860865 -0.10058877 0.015215162 -0.091507964 -0.052701626 0.020901592 0.08214217 0.06653334
0.16987085 0.015706383 -0.028546026 -0.14301832 -0.0056300005 0.096956454 -0.21388362 0.08936291
-0.15860067 0.024855366 -0.07795503 -0.07072121 0.010195175 0.2898995 0.02735566 -0.09084343
0.10753224 -0.06160499 0.114719726 0.030608473 0.12273838 0.10193071 -0.11141026 0.12018301
0.101155825 0.24982409 0.26934338 0.028120264 -0.080682606 0.057429016 0.05859135 -0.059319608
0.032570023 -0.071732156 0.11603247 0.1443935 0.12742655 -0.05561727 -0.013554988 0.009751668
0.02818603 0.058388658 -0.00825066 0.03251115 -0.19383982 -0.18930829 0.12821072 -0.08975932
-0.018733649 -0.048302293 -0.14311406 0.1384832 0.20545849 -0.1496246 -0.046644818 -0.0074255094
0.14038627 0.013860711 -0.0002098147 0.20150541 -0.23988017 -0.44904965 0.025865607 -0.11963309
0.09154046 0.035022713 -0.06201229 -0.055319596 -0.06161459 0.23472577 0.16265783 0.03639494
0.035217762 0.10458307 -0.09414535 0.04916919 0.042318664 0.056112584 0.06765483 -0.11385864
0.1866203 0.03650735 -0.19445592 0.07513564 -0.10075666 0.0836318 -0.055902638 0.12684506
0.014082399 0.047800303 0.19471084 -0.08031233 -0.13886158 0.10774942 -0.08701298 -0.0048589413
0.13059443 0.021423394 0.03484788 0.09830808 0.034004334 -0.28446838 -0.10611634 0.047110733
0.058693256 0.17789645 0.3345766 0.05155921 -0.0675912 0.06518482 -0.23094286 0.02064963
-0.0058623212 -0.07926841 -0.020151759 -0.032183643 -0.0834257 0.13621426 0.016620534 0.08859436
-0.03733298 0.10771619 0.0057947473 -0.087343626 -0.024935588 0.27201408 -0.16877241 -0.0046332837
00000000: d18f bf3d d9ce 34be a9b3 25bd bdb4 0b3e
00000010: 97f8 823c 6784 ca3d 769d 22be b5b5 31bd
00000020: 050e 1d3e f578 ee3d 1adc afbd 2a52 37ba
00000030: 226a f0bd d8f0 cfbc 4aa7 f53d b675 713d
00000040: ec1f 8d3d 7700 23be ea84 623d d037 00bd
00000050: 256b c9bd 6e26 c2ba 9b6e 07bc c3b1 0f3e
00000060: bfd0 bb3d 7fde d2bd 0e9d 44bd 3a3d 67bd
00000070: 7481 9c3d 646e 06bd 50c3 02bd d36c d1bd
00000080: 4944 7d3c 61dd 93bd 6f79 a5bd e1ff 42bd
00000090: d4df 973d 67a7 673d 4abd 8a3d e6b3 4e3c
000000a0: 721f 843e 1da4 debc 2c66 293e 7df4 b7bd
000000b0: 485c 3e3d f56d 41bc 30ab 17bd c412 8e3e
000000c0: f1cc 64bc a0f4 e93d 0cb5 e13c e890 563e
000000d0: 7557 54ba d2e3 98bd 68d2 80be 59de bb3c
000000e0: 9999 243e 6b0d 0a3d 255c e3bd 21f6 01be
000000f0: ecc5 a6bc ae79 99bd bb8f 44bc c286 4f3e
00000100: 8f3c 88be b337 a7bd bd4e c53d d468 813b
00000110: cfd7 d13d c458 d1bd 270c ebbd 25d0 ccbe
00000120: 2344 8d3c 3924 0a3d cdc2 41bd 4f60 0cbe
00000130: dae7 0ebe aefc 10be ef9e 963d 52fb 4dbd
00000140: ffaf 33be 6649 e7bd d880 cc3c e430 523e
00000150: 698b cc3b 53d3 20be 970a 503d 1048 79bc
00000160: 4aaa b0bd 080b 1d3e 2829 b9bd 7d50 bf3d
00000170: 8f92 0f3e f68a 85bd 7e74 a5bd b9f8 cd3d
00000180: 9e9a 3abe 097a e7bd d853 7a3c d5e3 2c3e
00000190: 4214 043d 3197 3cbe c380 543d d758 fd3d
000001a0: d065 003d 7723 e93c 1345 833d 0b1c 3b3d
000001b0: 8d8e ac3d d583 af3c 963e 46bd 14ed 393d
000001c0: 0ba2 8ebd e469 cabd 5b2b 84be 9dd3 11bd
000001d0: fe5e a43e f14a 2cbe 5f30 a4bd 1c62 f73d
000001e0: c5f1 31bc 7c01 cebd 0449 793c 8768 bbbd
000001f0: a9dd 57bd d139 ab3c 273a a83d a242 883d
00000200: a0f2 2d3e acaa 803c 5bd9 e9bc 6573 12be
00000210: de7b b8bb 1b91 c63d 4f04 5bbe e703 b73d
00000220: 3768 22be 7b9d cb3c e3a6 9fbd 48d6 90bd
00000230: aa09 273c b56d 943e fa18 e03c 1f0c babd
00000240: dd39 dc3d 8455 7cbd 2df2 ea3d 9fbe fa3c
00000250: 435e fb3d 0cc1 d03d 102b e4bd 8322 f63d
00000260: c92a cf3d e3d1 7f3e 60e7 893e 785c e63c
00000270: ec3c a5bd b03a 6b3d 7cfd 6f3d 1ef9 72bd
00000280: 2568 053d 4fe8 92bd 6ea2 ed3d e4db 133e
00000290: 1b7c 023e efce 63bd be15 5ebc 76c5 1f3c
000002a0: 64e6 e63c f228 6f3d c72d 07bc 692a 053d
000002b0: f27d 46be 08da 41be ac49 033e bcd3 b7bd
000002c0: 4f77 99bc a0d8 45bd 7e8c 12be 8ace 0d3e
000002d0: b663 523e 3137 19be a30e 3fbd b051 f3bb
000002e0: 6bc1 0f3e 0918 633c b401 5cb9 6f57 4e3e
000002f0: 26a3 75be d6e9 e5be 1ce4 d33c 3202 f5bd
00000300: 9179 bb3d fa73 0f3d 9900 7ebd cd96 62bd
00000310: 955f 7cbd f45b 703e c68f 263e dc12 153d
00000320: 8040 103d a62f d63d 47cf c0bd a265 493d
00000330: 5656 2d3d 4fd6 653d 9e8e 8a3d b82e e9bd
00000340: 6419 3f3e bb88 153d 741f 47be b7e0 993d
00000350: 8259 cebd 2647 ab3d 2afa 64bd ace3 013e
00000360: ddb9 663c 40ca 433d 4762 473e ca7a a4bd
00000370: bb31 0ebe baab dc3d dc33 b2bd c137 9fbb
00000380: 8cba 053e 1d80 af3c a7bc 0e3d bf55 c93d
00000390: 2148 0b3d d7a5 91be 8653 d9bd 2ff7 403d
000003a0: 5768 703d 7d2a 363e a04d ab3e c02f 533d
000003b0: 416d 8abd 9e7f 853d 497c 6cbe 6a29 a93c
000003c0: b718 c0bb 7a57 a2bd 4d15 a5bc ffd2 03bd
000003d0: 18db aabd c07b 0b3e c927 883c f670 b53d
000003e0: 78ea 18bd 4e9a dc3d dde1 bd3b 37e1 b2bd
000003f0: b845 ccbc 6e45 8b3e add2 2cbe cdd2 97bb

bn1.running_mean f4 [400]
0.16547823 0.06073272 0.8834398 0.30189064 0.7050387 0.45726496 0.085799135 0.106862344
0.7856356 0.2616146 0.97598284 0.0016248288 0.67286575 0.03680672 0.0734808 0.30914414
2.996667 0.17621492 0.8822838 0.4112268 0.18874072 0.3066942 0.0012556711 2.692377
0.001885635 0.20038456 1.7510854 5.484548e-05 1.0331784 0.20421454 0.16404209 1.9035492
1.2200257 0.06398844 1.5204644 0.01807641 0.0061858916 0.008205628 1.0289203 1.0341128
0.087957636 2.022605 0.35149047 0.35008022 0.25803477 0.06708218 0.12814258 3.5970643
0.05331055 0.82498604 0.59847665 1.9445628 0.0064826556 2.785698 0.04555957 0.97629327
0.86766213 0.19256209 1.2381777 0.31679863 8.475095e-05 0.016282076 1.0736898 1.437863
0.049244694 1.3814464 0.10187765 1.675431 1.1312475 0.11055993 0.058508057 2.3565799e-07
0.33729416 1.1124842 0.0008812538 6.5484106e-05 0.23931852 0.54685485 1.0178305 0.257011
0.073756486 0.1254627 2.5574002 0.9192314 1.0950694 0.30501005 1.1703566 0.9343523
0.17009626 0.18343435 1.980331 0.2385476 1.4373617 1.0700732 1.7371504 0.16200657
0.00026211294 0.7507404 0.062542394 0.33949125 0.04199982 0.0071796733 0.5725849 0.0011436224
0.41608334 0.038514167 2.761759 0.98137474 0.03554135 0.7988037 0.0043565086 0.50300294
0.97155845 0.061035167 6e-45 0.0028705248 3.7744403 0.69843847 0.15401775 0.18129529
2.1887171 1.3990036 1.1351465 0.80216247 0.38077447 0.5726481 0.024051568 0.3227076
0.0894734 0.61851645 0.75394696 0.117088236 0.15118133 0.23491575 6e-45 1.5900447
0.26153505 0.0006086594 0.12999709 0.05424986 0.11814819 0.0052761994 0.47716963 0.043978702
2.2860875 0.044670366 1.423986 1.4409469 0.09167917 0.030626832 0.5651205 0.066433914
0.23462781 2.925081 0.39640123 0.4594622 0.11866087 0.22354808 0.8137942 0.7030643
0.1337059 0.031054273 1.3647215 0.49646086 0.9157926 0.4968278 0.27710596 0.0006098313
0.5446462 0.26550943 0.23982108 0.7620757 6e-45 1.295722 1.0043222 0.036435552
0.06257531 0.9365685 0.14663424 0.6712238 3.7079718 1.3472925 0.2356028 0.40252188
0.0077263303 0.40843695 0.74610865 1.7032577 0.00063260965 0.0001066425 0.00019126825 1.1243439
0.6229107 0.3997243 0.3404403 0.27031144 0.3217469 0.594684 3.9878936 0.42279056
1.7219714 0.55262595 0.8947613 0.11895357 0.09928772 1.0600889 2.2949467 0.07468024
0.9035025 0.15705489 0.26562116 0.11862898 2.9379034 0.09520514 0.082358204 2.6018922
0.57857317 2.1041212 4.265257 0.10748889 0.74924105 1.0391333 0.050186552 0.0038354537
0.6830714 0.068392426 6e-45 0.10747987 0.29892474 6e-45 1.1308085 2.2676666
1.4195563 3.817634 1.7997968e-08 0.18385717 1.2189877 1.055311 0.36548954 0.21166882
0.72477335 0.2821684 2.0243583 0.68522465 0.10004295 0.07601016 1.3552027 0.6280704
0.046690233 0.13788334 2.9717152 0.20987168 2.9363198 2.2573287 1.0959578 1.4468724
00000000: 2073 293e dfc2 783d 1c29 623f 6991 9a3e
00000010: 6b7d 343f a21e ea3e 75b7 af3d a5da da3d
00000020: 6a1f 493f 59f2 853e 03da 793f 35f8 d43a
00000030: ee40 2c3f a5c2 163d 1a7d 963d 2448 9e3e
00000040: 64c9 3f40 af71 343e 5add 613f 528c d23e
00000050: 3f45 413e 0607 9d3e 5595 a43a e84f 2c40
00000060: 6927 f73a 9c31 4d3e 9123 e03f e309 6638
00000070: 313f 843f 9e1d 513e a6fa 273e 80a7 f33f
00000080: cd29 9c3f 5f0c 833d 949e c23f fb14 943c
00000090: 05b3 ca3b e670 063c a9b3 833f cf5d 843f
000000a0: 2223 b43d 5c72 0140 8ff6 b33e b73d b33e
000000b0: 221d 843e 6262 893d cf37 033e 4d36 6640
000000c0: 2a5c 5a3d 4932 533f c435 193f 6fe7 f83f
000000d0: 756c d43b e048 3240 ac9c 3a3d 5bee 793f
000000e0: 1b1f 5e3f ff2e 453e 9b7c 9e3f 6e33 a23e
000000f0: 52bc b138 fd61 853c ab6e 893f e50b b83f
00000100: ceb4 493d 3cd3 b03f 3ba5 d03d 8674 d63f
00000110: b8cc 903f 3f6d e23d 25a6 6f3d 2d09 7d34
00000120: d2b1 ac3e e265 8e3f f103 673a 8354 8938
00000130: ea0f 753e aefe 0b3f 4548 823f f296 833e
00000140: a40d 973d 4b79 003e 72ac 2340 c052 6b3f
00000150: 3c2b 8c3f 472a 9c3e 3fce 953f b631 6f3f
00000160: b72d 2e3e 37d6 3b3e 7c7b fd3f d245 743e
00000170: 78fb b73f 29f8 883f f25a de3f 0de5 253e
00000180: 346c 8939 8630 403f 3a16 803d ccd1 ad3e
00000190: 0108 2c3d 7743 eb3b ed94 123f 9ae5 953a
000001a0: e008 d53e 08c1 1d3d a9c0 3040 603b 7b3f
000001b0: ce93 113d 667e 4c3f 0bc1 8e3b cdc4 003f
000001c0: 0eb8 783f 0300 7a3d 0400 0000 6a1f 3c3b
000001d0: 6e90 7140 ddcc 323f d4b6 1d3e 79a5 393e
000001e0: f113 0c40 8d12 b33f 7b4c 913f 855a 4d3f
000001f0: dff4 c23e 1199 123f cb07 c53c ee39 a53e
00000200: d43d b73d 1857 1e3f ab02 413f f5cb ef3d
00000210: 47cf 1a3e c18d 703e 0400 0000 9686 cb3f
00000220: ece7 853e 718e 1f3a f51d 053e 1a35 5e3d
00000230: aef7 f13d f8e3 ac3b 944f f43e 0323 343d
00000240: 424f 1240 46f8 363d 2c45 b63f f370 b83f
00000250: 4ac2 bb3d 1fe5 fa3c bdab 103f 810e 883d
00000260: 4642 703e 8734 3b40 1af5 ca3e a13e eb3e
00000270: 7804 f33d cae9 643e d154 503f 06fc 333f
00000280: 33ea 083e 8865 fe3c 32af ae3f 1e30 fe3e
00000290: 6271 6a3f 3760 fe3e d5e0 8d3e 16dd 1f3a
000002a0: ef6d 0b3f daf0 873e a893 753e 6517 433f
000002b0: 0400 0000 38da a53f a18d 803f 723d 153d
000002c0: 7c27 803d f4c2 6f3f 4927 163e 53d5 2b3f
000002d0: 694f 6d40 1574 ac3f dc41 713e 5917 ce3e
000002e0: 282d fd3b a61e d13e fa00 3f3f 5904 da3f
000002f0: b7d5 253a 42a5 df38 2e8f 4839 80ea 8f3f
00000300: 1377 1f3f aaa8 cc3e 314e ae3e 4366 8a3e
00000310: 02bc a43e 363d 183f a639 7f40 0178 d83e
00000320: 8f69 dc3f e578 0d3f 140f 653f ee9d f33d
00000330: 5c57 cb3d feb0 873f 68e0 1240 f4f1 983d
00000340: f14b 673f ffd2 203e 7fff 873e c0f3 f23d
00000350: 9c06 3c40 eafa c23d 6bab a83d 6785 2640
00000360: 5f1d 143f eca9 0640 fc7c 8840 2323 dc3d
00000370: 43ce 3f3f 5202 853f 6a90 4d3d 3c5c 7b3b
00000380: c4dd 2e3f 5411 8c3d 0400 0000 681e dc3d
00000390: aa0c 993e 0400 0000 55be 903f 7321 1140
000003a0: 05b4 b53f 1e54 7440 f399 9a32 0e45 3c3e
000003b0: ca07 9c3f 6e14 873f 7221 bb3e b6bf 583e
000003c0: bf8a 393f 6078 903e 168f 0140 e26a 2f3f
000003d0: 51e3 cc3d 37ab 9b3d 4877 ad3f 39c9 203f
000003e0: 423e 3f3d 4a31 0d3e 9530 3e40 9ae8 563e
000003f0: aaec 3b40 1378 1040 5848 8c3f 1d33 b93f
