checkpoint_actor_local_0.pth (torch, 533842 bytes, 10 tensors)

fc1.weight f4 [400, 24]
0	0x3db0e794	0.0863792
1	0x3ded8f89	0.11599643
2	0xbd394174	-0.045228437
3	0x3da23da5	0.07921914
4	0x3de28a0f	0.11061489
5	0xbd8b1748	-0.0679155
6	0xbd50f894	-0.051018313
7	0x3dbc9d03	0.09209635
8	0x3d5de46b	0.054172914
9	0x3dbf8dde	0.09353231
10	0xbc2fb1fe	-0.010723589
11	0x3c3d6343	0.01155931
12	0x3db8310b	0.08993729
13	0xbe3fd2df	-0.18732785
14	0x37466289	1.1824662e-05
15	0x3c922a82	0.017842535
16	0x3db0fd65	0.08642081
17	0x3e15a458	0.14613473
18	0x3ad410e0	0.0016179346
19	0xbc039367	-0.008030749
20	0x3dff8553	0.124766015
21	0xbe4bdeb3	-0.19909172
22	0xbbe61552	-0.0070215845
23	0x3d2e9d84	0.042630687
24	0xbba45fff	-0.0050163264
25	0x3e652c10	0.2238009
26	0xbc992597	-0.018694682
27	0xbbbdabb1	-0.0057882895
28	0xbe160d87	-0.14653598
29	0xbdee0de4	-0.11623743
30	0x3c79c6aa	0.015245119
31	0x3d81f34b	0.063452326
32	0x3d39e93a	0.045388438
33	0x3e810f14	0.25206816
34	0x3cb1452d	0.02163943
35	0x3dc2c83a	0.095108464
36	0xbd92a48b	-0.0716029
37	0xbdc55770	-0.09635818
38	0xbd055345	-0.032550115
39	0x3cd30e8a	0.025763769
40	0x3dc849e0	0.097797155
41	0x3e681acd	0.22666474
42	0xbcccd564	-0.025004096
43	0xbd6a3b38	-0.05718538
44	0x3d1e10c6	0.038590215
45	0xbd6da08e	-0.058014445
46	0x3d45c97e	0.04828786
47	0xbd92ee4a	-0.07174356
48	0xbc108f41	-0.008823217
49	0xbd1f2957	-0.038857784
50	0xbd342e45	-0.04398944
51	0xbc94b52e	-0.0181528
52	0xbe5e2141	-0.21692373
53	0xbdd10a71	-0.1020707
54	0x3ce56f30	0.02800712
55	0x3ca1d771	0.01975605
56	0x3da6e0bc	0.081483334
57	0xbd914e8a	-0.07095058
58	0xbc343bb1	-0.01100056
59	0xbb1f135c	-0.0024273014
60	0xbe5948b8	-0.21219146
61	0xbd5672a7	-0.052355435
62	0xbc29bd84	-0.010360125
63	0x3bf3e1b3	0.007442677
64	0x3d8f6c6d	0.070031025
65	0xbda76901	-0.08174325
66	0x3c03a738	0.0080354735
67	0xbd041498	-0.032246202
68	0xbe90a53a	-0.28251058
69	0x3cd1d3ad	0.02561363
70	0xbc0cb392	-0.008587735
71	0x3ae8882e	0.001774078
72	0x3d49d67e	0.04927682
73	0xbdf96c28	-0.12178832
74	0x3d25c48a	0.040470637
75	0x3c7f87c2	0.015596332
76	0xbe14ca68	-0.14530337
77	0xbe063126	-0.13104686
78	0x3ab41577	0.0013739307
79	0xbd0c3603	-0.034231197
80	0x3da86640	0.08222628
81	0xbdb91399	-0.09036941
82	0xbb5e0d2e	-0.0033882367
83	0xbbeca291	-0.007221528
84	0xbe06b644	-0.13155466
85	0xbdda24f7	-0.10651582
86	0x3ca65c62	0.020307723
87	0x3c5ac46f	0.0133524975
88	0x3e00b5f7	0.12569414
89	0xbdfdd55a	-0.12394209
90	0x3d2e7bcf	0.04259854
91	0xbd19dcad	-0.03756397
92	0xbd23067a	-0.0398011
93	0x3dc2dbdb	0.0951459
94	0xbcf78e59	-0.030219244
95	0xbd1a61e6	-0.03769102
96	0x3bf3981e	0.0074339053
97	0x3cda55ce	0.026652243
98	0xbd73a368	-0.05948201
99	0xbe014aec	-0.12626237
100	0xbdb9e7d0	-0.09077418
101	0xbe09697b	-0.13419144
102	0xbd9db82e	-0.07701145
103	0xbdeb4c96	-0.11489217
104	0x3d162fbf	0.036666628
105	0x3cde2ef2	0.027121995
106	0x3b026390	0.001989577
107	0x3c096c44	0.008387629
108	0xbd94edaf	-0.07271897
109	0xbc887e7f	-0.01666188
110	0x3d7138d7	0.058892097
111	0xbd8680a9	-0.06567509
112	0x3c8eea40	0.017445683
113	0x3d897239	0.06711239
114	0xbbafdb8b	-0.0053667477
115	0xbd26f708	-0.04076293
116	0xbe229172	-0.15875795
117	0x3d495c8b	0.04916052
118	0xbc8dd3d4	-0.017312922
119	0xbd1fe451	-0.0390361
120	0x3c8a26d3	0.016864216
121	0x3b79a153	0.0038090541
122	0xbd8b4f6e	-0.068022594
123	0xbb9ba5d1	-0.0047499915
124	0x3bf9d17a	0.0076238485
125	0x3cd5c4a9	0.026094751
126	0xbd50d884	-0.050987735
127	0xbc3d9641	-0.011571468
128	0xbabc6822	-0.0014374296
129	0xbd0a6379	-0.03378627
130	0xbcdbb923	-0.026821679
131	0xbd082459	-0.03323779
132	0x3cae2190	0.021256238
133	0xbe036c1e	-0.12834212
134	0x3bc76303	0.006084801
135	0x3d2ad527	0.041707184
136	0xbcc030bf	-0.023460744
137	0xbd04ff78	-0.032470196
138	0xbd37238b	-0.04471163
139	0x3d20f373	0.03929467
140	0x3d75ffc8	0.060058385
141	0xbeabfc39	-0.33590868
142	0xbd729e61	-0.059233073
143	0xbc9be49a	-0.019029904
144	0xbc4f0f7d	-0.01263797
145	0x3e69cd26	0.22832164
146	0x3c5441bf	0.012955128
147	0x3bf22355	0.007389466
148	0xbda0d24e	-0.078526124
149	0xbd5191a7	-0.051164296
150	0x3947a288	0.00019038667
151	0x3c1452b2	0.009052919
152	0x3d495608	0.04915431
153	0x3e28011e	0.16406676
154	0x3c6b57e6	0.014364218
155	0xbdd97495	-0.106179394
156	0xbd987502	-0.074441925
157	0xbe189b14	-0.14902908
158	0xbc0e8a85	-0.008700018
159	0xbd58673b	-0.052832823
160	0x3e1c94f2	0.15291193
161	0x3e2ffbba	0.1718587
162	0x3b46b901	0.0030322673
163	0xbc8a5ad7	-0.016889019
164	0xbdca0270	-0.09863746
165	0xbd98e2d7	-0.07465141
166	0xbba4647e	-0.0050168624
167	0xbd8118a1	-0.06303526
168	0xbbe60529	-0.007019658
169	0x3d184ac3	0.037180673
170	0x3d2d8eb5	0.042372424
171	0xbd90e716	-0.07075326
172	0x3dc6ebfd	0.0971298
173	0xbe87bf7b	-0.26513276
174	0xbcdabd31	-0.026701542
175	0xbd2242e0	-0.03961456
176	0xbbdaf756	-0.006682317
177	0x3cb4a99a	0.022053529
178	0xbbf34c3c	-0.0074248593
179	0xbd7e45e7	-0.062078383
180	0x3da29c66	0.07939987
181	0xbecb8a82	-0.3975411
182	0x3c9f99e3	0.019482559
183	0xbd50cb1a	-0.050974943
184	0x3c0a8c3a	0.008456284
185	0xbda33668	-0.079693615
186	0xbcbc2a76	-0.022969466
187	0xbbc65ed0	-0.006053783
188	0x3da36f94	0.07980266
189	0xbe1b93d2	-0.15193108
190	0x3c4771dc	0.012173142
191	0x3bde1853	0.006777802
192	0xbc204862	-0.009782882
193	0x3d5095b7	0.05092403
194	0x3ba8b40a	0.0051484155
195	0xbc20d313	-0.009815949
196	0x3c629605	0.013829713
197	0xbeb812f4	-0.3595196
198	0xbb3296e0	-0.0027250573
199	0xbc9e091b	-0.019291451
200	0xbc1c2099	-0.009529256
201	0x3da3b159	0.07992811
202	0x3d161dea	0.036649622
203	0xbbdcb8a9	-0.0067358804
204	0xbd15a067	-0.036529925
205	0x3d24cac1	0.040232424
206	0xbd0c66aa	-0.034277596
207	0x3cab899b	0.020939639
208	0xbcb5d039	-0.022194015
209	0x3d230a64	0.03980483
210	0x3cc05fd3	0.023483193
211	0x39841a48	0.00025196583
212	0x3ca84613	0.020541226
213	0x3eec1fc0	0.46117973
214	0xbcdfe668	-0.027331546
215	0x3d34cea3	0.044142377
216	0xbc2c9da8	-0.010535635
217	0xbdd4b188	-0.10385424
218	0xbc1d03d4	-0.009583432
219	0x3cbc9249	0.023018973
220	0xbd87e6f9	-0.066358514
221	0xbe2b6357	-0.16737114
222	0x3c0bc04c	0.008529734
223	0xbd5f095f	-0.054452296
224	0x3ce081a7	0.027405573
225	0xbdd29202	-0.10281755
226	0x3c4e26e5	0.012582515
227	0xbc918d4b	-0.017767569
228	0xbdd43eaa	-0.10363515
229	0xbe245353	-0.1604741
230	0xbc8fb726	-0.017543387
231	0x3cf7e25f	0.03025931
232	0x3db2a2f0	0.08722484
233	0xbd5a405f	-0.053284045
234	0xbc21441a	-0.009842897
235	0xbd1db621	-0.03850377
236	0xbe6acca6	-0.2292963
237	0xbc97ee9f	-0.0185464
238	0x3c47fdfc	0.012206551
239	0xbd35a643	-0.044348013
240	0xbe03cbed	-0.1287076
241	0x3e212a46	0.15738782
242	0x3d21c945	0.039498586
243	0x3d69895d	0.057015765
244	0x3ca1eadd	0.019765312
245	0xbd8fb1ef	-0.0701636
246	0xbce3967e	-0.027781721
247	0x3d929084	0.071564704
248	0xbd83ccfc	-0.06435582
249	0x3e1dd8e5	0.1541477
250	0xba9448df	-0.0011313221
251	0xbd2f0cdb	-0.04273687
252	0x3cbbbc0f	0.022916822
253	0xbd8020a4	-0.06256226
254	0x3c6b99e9	0.014379957
255	0x3caf7dcc	0.02142229

fc1.bias f4 [400]
0	0xbe0853de	-0.13313243
1	0xbdbf0915	-0.09327904
2	0xbe5ed0b5	-0.21759303
3	0xbe4fcb25	-0.20292337
4	0x3d699e0d	0.057035495
5	0xbe344d20	-0.17607546
6	0xbe95d4bf	-0.29263875
7	0x3e02e4a0	0.12782526
8	0x3da05e10	0.07830441
9	0xbdffdce0	-0.124933004
10	0x3d8a8740	0.06764078
11	0xbd981d07	-0.074274115
12	0xbe58bece	-0.21166536
13	0x3c6e6c4d	0.014552188
14	0xbe308f86	-0.1724225
15	0xbd66da04	-0.05636026
16	0xbe51390f	-0.20431922
17	0xbd730189	-0.059327636
18	0xbe7036c9	-0.23458399
19	0xbee692ed	-0.4503397
20	0xbe31cc24	-0.1736303
21	0xbe3d13ab	-0.18464534
22	0xbe84bac2	-0.25923735
23	0x3cfaa212	0.03059486
24	0xbe99793a	-0.299753
25	0xbe8cfd3e	-0.27536958
26	0xbea9e653	-0.33183536
27	0xbe589031	-0.21148755
28	0xbe52f8cb	-0.2060272
29	0xbe2dbf9b	-0.16967623
30	0x3ca8190c	0.020519756
31	0xbe8a13ed	-0.26968327
32	0xbd278428	-0.04089752
33	0xbd95a5b1	-0.07306994
34	0xbe24385f	-0.16037129
35	0xbcbbaf93	-0.022910869
36	0xbb704ada	-0.0036665709
37	0x3c28e26b	0.0103078885
38	0xbe4919cf	-0.19638751
39	0xbd8cab9e	-0.06868671
40	0xbe71ebe7	-0.23625146
41	0x3c10bf40	0.00883466
42	0xbe3619c6	-0.1778327
43	0xbe790731	-0.2431915
44	0xbea60cbb	-0.32431588
45	0xbe5722a9	-0.21009316
46	0x3c0632d2	0.008190827
47	0xbe177ac7	-0.1479293
48	0x3ce281e8	0.027649835
49	0x3a82836e	0.0009957382
50	0xbe1ccabe	-0.15311715
51	0xbe0a7c98	-0.13524091
52	0xbd0836b9	-0.033255313
53	0x3d23f495	0.040028173
54	0xbd93741e	-0.07199882
55	0xbe091fd7	-0.13391052
56	0xbb021ffa	-0.0019855485
57	0xbebe9143	-0.372202
58	0x3ccc6393	0.024949824
59	0xbe55d9b6	-0.20883831
60	0xbe0b1a67	-0.1358429
61	0x3b8a2d3d	0.0042168186
62	0x3dc69d60	0.09697986
63	0xbde789a2	-0.11305548
64	0x3deac096	0.11462514
65	0xbe309a60	-0.1724639
66	0x3c6a4825	0.014299427
67	0x3e50fe15	0.20409425
68	0x3d9dc963	0.07704427
69	0xbe5db09d	-0.21649404
70	0xbe803fa9	-0.2504857
71	0xbe00ea44	-0.12589365
72	0xbf02bc77	-0.51068825
73	0x3ca333b0	0.019922107
74	0xbd66d50c	-0.05635552
75	0xbe8e9e48	-0.27855134
76	0x3dc5aba1	0.09651876
77	0x3cb2024d	0.021729613
78	0x3dd56987	0.10420518
79	0xbd23c5fd	-0.03998374
80	0xbe277ff5	-0.16357405
81	0xbe62882b	-0.22122256
82	0x3e1e4c8e	0.15458891
83	0xbe6728be	-0.22574136
84	0x3d37e4f2	0.044896074
85	0xbdf32727	-0.11872702
86	0xba342223	-0.0006871542
87	0x3d0d52e6	0.034502886
88	0xbe98a916	-0.29816502
89	0xbe46119a	-0.19342652
90	0xbd28f881	-0.041252617
91	0xbe28be3b	-0.16478817
92	0x3dfcc573	0.12342348
93	0xbe68a392	-0.22718647
94	0xbe3f1b8b	-0.1866285
95	0x3c519049	0.012790748
96	0x3dc457ad	0.09587035
97	0xbeb3aa82	-0.35091025
98	0xbe28d122	-0.16486028
99	0xbe1bf085	-0.1522847
100	0xbdd304f0	-0.10303676
101	0x3d53e3b6	0.051730834
102	0xbec2ec90	-0.38071108
103	0xbe499d85	-0.19688995
104	0xbe4088e3	-0.18802218
105	0xbe2f4d1e	-0.17119262
106	0xbc723009	-0.01478196
107	0xbe177969	-0.14792408
108	0xbe0d6326	-0.13807353
109	0xbe8a5032	-0.2701431
110	0xbb334600	-0.0027354956
111	0xbde724ac	-0.112862915
112	0xbe4fd6cb	-0.20296781
113	0xbe32363c	-0.17403501
114	0xbc9932e6	-0.018701028
115	0x3cfda0e4	0.030960508
116	0x3ce5b8ac	0.02804216
117	0xbe8e5286	-0.27797335
118	0xbd2856ba	-0.041098334
119	0xbe8d00f9	-0.27539805
120	0xbd881340	-0.06644297
121	0xbe2941ee	-0.16529056
122	0xbdac72f1	-0.08420361
123	0x3d690368	0.056888014
124	0xbebd2811	-0.3694463
125	0xbc50803b	-0.012725885
126	0xbe2e84cb	-0.17042844
127	0xbe088de0	-0.13335371
128	0x3e0cf06f	0.13763593
129	0xbe18d4c7	-0.14924918
130	0xbef85356	-0.4850108
131	0xbe4d7011	-0.20062281
132	0xbe9b17ae	-0.30291504
133	0x3cce992b	0.02521952
134	0xbe4e6587	-0.20155917
135	0xbe42e39a	-0.19032136
136	0x3d2f214b	0.04275636
137	0xbe7311d1	-0.23737265
138	0xbe231429	-0.15925659
139	0x3de3435c	0.11096832
140	0xbdc16110	-0.09442341
141	0xbd938476	-0.07202999
142	0xbe15d2c2	-0.14631179
143	0x3d63a23d	0.055574644
144	0xbe159f90	-0.1461165
145	0xbc90f13a	-0.01769315
146	0x3d5f7487	0.05455449
147	0x3debeb8e	0.11519538
148	0xbdab8cad	-0.08376441
149	0xbd913352	-0.07089867
150	0xbdcd50a3	-0.10025146
151	0xbe3d845f	-0.18507527
152	0xbd9c4192	-0.07629694
153	0xbdb154ee	-0.08658777
154	0xbddaee21	-0.10689951
155	0xbcbef020	-0.02330786
156	0xbc26000e	-0.010131849
157	0xbd8ced6e	-0.068812236
158	0xbc6a511e	-0.014301566
159	0x3e1609fe	0.14652249
160	0xbd865ba9	-0.065604515
161	0xbe9cf8b7	-0.30658504
162	0xbe5209ac	-0.20511502
163	0xbe9577df	-0.29193017
164	0x3deee5cb	0.11664923
165	0x3c410f93	0.011783498
166	0xbe3cca05	-0.1843644
167	0xbe1b216c	-0.15149468
168	0xbe10aaee	-0.14127705
169	0xbea3ead7	-0.32015106
170	0xbdc3c067	-0.09558182
171	0x3c64cbb6	0.013964584
172	0xbe3b23f7	-0.18275438
173	0xbdcde8f2	-0.100541964
174	0x3de43477	0.111428194
175	0xbe1d73b1	-0.15376164
176	0xbccecea5	-0.02524502
177	0xbe2b9948	-0.16757691
178	0x3de16d69	0.110071965
179	0xbe239d0a	-0.15977874
180	0x3d196aee	0.03745549
181	0xbe05ca2a	-0.130654
182	0xbdfbc080	-0.12292576
183	0xbe20b335	-0.15693362
184	0xbe335782	-0.1751385
185	0x3cdc574a	0.026897091
186	0xbe3b0a59	-0.18265666
187	0x3d4d6a3a	0.050150134
188	0xbe7ccaff	-0.24686812
189	0xbc8bd090	-0.017067224
190	0xbe4d47c2	-0.20046905
191	0xbd9f4d46	-0.077784106
192	0x3dd2af98	0.10287398
193	0xbe8ae167	-0.27125093
194	0xbd4c026b	-0.049806993
195	0xbd14be9d	-0.036314595
196	0xbd82d867	-0.06388932
197	0xbdb1521f	-0.086582415
198	0xbd9dc0f8	-0.077028215
199	0x3da12e63	0.07870176
200	0x3e4414a4	0.19148499
201	0x3e5b732b	0.21430652
202	0xbe1d09a9	-0.15335716
203	0xbc5a9c21	-0.013342888
204	0xbd73dcdd	-0.059536804
205	0x3d25beae	0.04046505
206	0xbd5f13c3	-0.054462206
207	0x3a05e5e5	0.00051078043
208	0x3dbc5176	0.09195225
209	0x3de93b74	0.11388293
210	0xbe5bb208	-0.21454632
211	0xbc27bc83	-0.010237816
212	0xbe103fa6	-0.1408678
213	0xbe0e7510	-0.13911843
214	0xbc53a1b7	-0.012916974
215	0x3d0820d6	0.03323444
216	0x3dd4d853	0.10392823
217	0x3d49c257	0.049257603
218	0xbe76e706	-0.24111566
219	0xbdf797c6	-0.12089495
220	0xbd901894	-0.07035938
221	0x3da0c1bc	0.07849452
222	0xbe7145aa	-0.23561731
223	0xbdbc4847	-0.09193473
224	0xbd001692	-0.031271525
225	0x3dafd6df	0.08585905
226	0xbe91a334	-0.28444827
227	0xbea632ba	-0.32460576
228	0x3d384227	0.044984963
229	0xbea83584	-0.3285333
230	0x3ce9e151	0.028549822
231	0xbd830da8	-0.06399089
232	0x3ddcc9f8	0.1078071
233	0x3e30082a	0.17190614
234	0xbe1e2e59	-0.15447368
235	0xbebaf1f0	-0.3651271
236	0xbe483160	-0.19550085
237	0x3c7a4452	0.015275078
238	0xbd93edca	-0.07223089
239	0xbd871550	-0.06595862
240	0xbdb3c232	-0.08777274
241	0xbd3ca509	-0.046055827
242	0x3d5b1f89	0.05349687
243	0xbe8284ee	-0.25492042
244	0x3e4c34cc	0.19942015
245	0x3d3cb162	0.046067603
246	0xbe2b224f	-0.16712306
247	0x3c225048	0.009906836
248	0xbd646100	-0.05575657
249	0xbd950fb9	-0.072783895
250	0x3cfdf1d6	0.030999105
251	0xbdc5ba1e	-0.0965464
252	0x3e059555	0.13045247
253	0xbe947614	-0.28996336
254	0xbdda2c20	-0.106529474
255	0xbe9427df	-0.2893667

fc2.weight f4 [300, 400]
0	0x3b20b4c6	0.0024521812
1	0x3e0b8e10	0.13628411
2	0x3d4c8902	0.04993535
3	0xbd4c862a	-0.049932636
4	0x3da2a51f	0.079416506
5	0x3cafc8e3	0.021458095
6	0x3c721029	0.014774361
7	0xbc2dc75c	-0.010606613
8	0x3d3635c1	0.044484857
9	0x3b9e4270	0.0048296973
10	0xbe2d0a58	-0.16898477
11	0xbbff3554	-0.0077883396
12	0x3d483de5	0.048887152
13	0xbc9e32a6	-0.01931126
14	0x3cacfa4d	0.021115446
15	0x3ca328a9	0.01991685
16	0x3d2a78c7	0.04161909
17	0x3c8a23e8	0.016862825
18	0xbd332a29	-0.04374138
19	0xbd965cd9	-0.07341928
20	0x3d6e0a82	0.05811549
21	0x3e2359a0	0.15952158
22	0x3d8dc703	0.06922724
23	0xbcbf1191	-0.023323806
24	0x3cb46dae	0.022024956
25	0xbce5ff99	-0.02807598
26	0x3dfc38e4	0.123155385
27	0xbd296a77	-0.0413613
28	0xbd6f9cd1	-0.05849916
29	0x3deaefa9	0.11471493
30	0xbdad33fa	-0.08457179
31	0xbbe544c5	-0.0069967234
32	0xbe0350c4	-0.12823778
33	0x3dd5f16c	0.10446438
34	0x3da8b83f	0.08238267
35	0xbd9391c3	-0.07205536
36	0x3da4256d	0.08014951
37	0xbdf5d16a	-0.12002833
38	0xbd3dc8de	-0.04633414
39	0x3dd3a332	0.103338614
40	0xbe35f117	-0.1776775
41	0x3d982485	0.074288405
42	0xbe5127ab	-0.20425288
43	0x3d77d28d	0.06050353
44	0xbd56633f	-0.052340742
45	0x3de73720	0.11289811
46	0xbdc6ce48	-0.09707314
47	0xbe15ead2	-0.14640358
48	0xbd798e39	-0.06092665
49	0xbd466a7e	-0.048441403
50	0x3cc9e478	0.024645075
51	0xbb89d343	-0.0042060926
52	0xbdabbe01	-0.0838585
53	0xbd59ebb3	-0.053203296
54	0x3db8cbe1	0.09023262
55	0x3e1d34f3	0.1535223
56	0xbdc31e4f	-0.09527265
57	0xbde5e654	-0.11225572
58	0x3d9192d2	0.07108082
59	0x3e025135	0.1272629
60	0xbd82ff05	-0.06396297
61	0x3e0569fa	0.13028708
62	0xbcb64213	-0.022248304
63	0xbdf62e5e	-0.120205626
64	0x3c0f698d	0.008753193
65	0xbc47d6e3	-0.012197229
66	0xbd0aacda	-0.03385625
67	0x3dd1e85c	0.10249397
68	0x3ce9ef6d	0.02855655
69	0x3d069676	0.032858334
70	0xbd067b08	-0.032832175
71	0x3dd9ed8d	0.10641012
72	0xbd65ac6e	-0.056072645
73	0x3e101ef1	0.14074303
74	0xbd19475c	-0.03742157
75	0x3e1645d0	0.14675069
76	0x3d91ec3f	0.071251385
77	0x3de77b6d	0.113028385
78	0xbe0a250b	-0.13490693
79	0x3e84c0e4	0.25928414
80	0x3cfcef08	0.030875698
81	0x3c9644e9	0.018343406
82	0xbd38c501	-0.045109753
83	0xbe14cd14	-0.14531356
84	0xbda98e09	-0.08279044
85	0x3e16b073	0.14715748
86	0xbe5fc579	-0.21852674
87	0x3d063d4b	0.032773297
88	0x3e28db42	0.1648989
89	0xbd301a6f	-0.04299396
90	0xbca7b017	-0.020469708
91	0xbe055fd3	-0.13024835
92	0xbd964d7b	-0.07338997
93	0x3d9da3dd	0.0769727
94	0xbd318fc1	-0.043349985
95	0x3c2f0bb7	0.010683945
96	0x3e26a68f	0.16274475
97	0x3c7a9068	0.015293218
98	0x3ce038dd	0.027370865
99	0xbdfe6d3b	-0.12423178
100	0x3d7668e8	0.06015864
101	0x3dd75c14	0.105156094
102	0xbdad5019	-0.08462543
103	0xbde1f07b	-0.11032196
104	0xbe4480c5	-0.19189747
105	0xbddcb94f	-0.10777532
106	0xbd4f5f43	-0.050627958
107	0xbc957d97	-0.018248362
108	0xbe018dbe	-0.12651727
109	0x3b6bf031	0.003600132
110	0x3dcf09d1	0.10109294
111	0x3e217d47	0.15770446
112	0xbd56d618	-0.05245027
113	0x3db4a22d	0.08819995
114	0x3e54ae8e	0.20769712
115	0xbc87e92b	-0.016590675
116	0xbdf2ed7e	-0.11861704
117	0x3d3ae792	0.045631
118	0xbe7c17c2	-0.24618438
119	0xbf1aa993	-0.60415
120	0xbd21eeb6	-0.039534293
121	0x3ccc5f02	0.024947647
122	0x3d87c153	0.066286705
123	0xbd96375f	-0.0733478
124	0x3db5b864	0.0887306
125	0xbd3273f3	-0.04356761
126	0x3da6907c	0.08133027
127	0xbe9a6834	-0.30157626
128	0xbd7977b0	-0.06090516
129	0x3d7441cc	0.05963306
130	0xbdb391bd	-0.08768032
131	0x3dc1a07f	0.0945444
132	0x3d0180a8	0.031616837
133	0x3d790c7b	0.060802918
134	0x3e3df845	0.18551739
135	0xbcefb39c	-0.02926045
136	0x3dd584d9	0.10425729
137	0x3d12abc0	0.035808325
138	0x3be87250	0.0070937052
139	0xbe44fd31	-0.1923721
140	0x3dd84fb0	0.10562074
141	0xbd8d6d4c	-0.06905612
142	0xbd812853	-0.06306519
143	0xbd07cb50	-0.03315288
144	0xbd7cf392	-0.061755724
145	0x3dadcb56	0.08486049
146	0xbb8eca0b	-0.0043575815
147	0xbddcab54	-0.10774866
148	0xbdb24bf6	-0.08705895
149	0xbcd5ea70	-0.026112765
150	0x3b485dfb	0.0030573595
151	0xbd0b9631	-0.03407878
152	0xbd842dda	-0.06454058
153	0x3c80c510	0.015718967
154	0xbda57be6	-0.080802724
155	0x3df6a658	0.12043446
156	0x3e9bf2ac	0.3045858
157	0x3dc73f90	0.097289205
158	0x3dc456e7	0.09586888
159	0x3d71c888	0.059029132
160	0x3dc4c181	0.096072204
161	0xbd7191fa	-0.058977105
162	0xbd1abc48	-0.037777215
163	0xbd72d868	-0.059288412
164	0xbc8a7c7e	-0.016905066
165	0xbd47b98c	-0.048760936
166	0xbdda9ad3	-0.106740616
167	0x3c985050	0.018592983
168	0xbd30387e	-0.043022625
169	0x3cd1b301	0.025598051
170	0xbce2fa4d	-0.027707243
171	0x3dc0b235	0.0940899
172	0x3e67c48c	0.2263357
173	0xbbce9d39	-0.0063053635
174	0xbc7cea85	-0.015436773
175	0x3d8d9e55	0.06914965
176	0x3d99096d	0.07472501
177	0x3bbc1b52	0.0057405615
178	0xbdd230ea	-0.10263236
179	0xbd52f76a	-0.051505484
180	0xbd8a819e	-0.06763004
181	0x3da6f49e	0.08152126
182	0xbd9b2065	-0.07574538
183	0xbe3894d6	-0.18025526
184	0xbd1093b0	-0.035297096
185	0xbcc80c84	-0.02442003
186	0xbdc8417b	-0.097781144
187	0x3aa8564f	0.0012843105
188	0x3dece9e6	0.1156805
189	0x3e34b617	0.17647587
190	0xbde43d72	-0.11144532
191	0x3d88b021	0.06674219
192	0x3e10b63d	0.14132018
193	0xbda9b692	-0.08286776
194	0x3d5d0f97	0.053969946
195	0x3d0410c4	0.03224255
196	0x3cc81552	0.024424229
197	0x3bf47248	0.0074599124
198	0xbdf8f7e9	-0.1215666
199	0xbde058e8	-0.109544575
200	0x3cb53f35	0.022124866
201	0x3ce74cba	0.028234828
202	0x3d3036e5	0.0430211
203	0xbdf15f4c	-0.117857546
204	0xbced6194	-0.028977193
205	0xbda56dcd	-0.080775835
206	0xbe05a2fe	-0.13050458
207	0x3d63cf16	0.055617414
208	0xbd1c5c36	-0.038173877
209	0x3d594b0d	0.05305009
210	0x3dcd58b9	0.10026688
211	0xbcc4f76f	-0.024043767
212	0x3aef878e	0.0018274651
213	0xbe21ab54	-0.15788013
214	0x3e40d3b6	0.18830761
215	0xbceba440	-0.028764844
216	0x3de72788	0.11286837
217	0x3d8b63de	0.068061575
218	0xbe09a523	-0.13441901
219	0xbc020929	-0.007936754
220	0x3e43cfee	0.19122288
221	0x3d4e6cb7	0.050396647
222	0x3d2ac4b0	0.041691482
223	0xbbb669b9	-0.0055668023
224	0xbe2bb84e	-0.16769525
225	0x3d994c7a	0.0748529
226	0xbdf8712f	-0.12130963
227	0xbd0f9b04	-0.035059944
228	0x3d11b385	0.035571594
229	0x3e2063e5	0.15663107
230	0x3db6239a	0.08893509
231	0xbd07d497	-0.033161726
232	0xbcd6609e	-0.026169118
233	0xbe1ef938	-0.15524757
234	0xbd075cf3	-0.033047628
235	0xbdf1708d	-0.117890455
236	0x3c99e0c1	0.018783929
237	0xbdf2e364	-0.118597776
238	0xbd8e1e3e	-0.06939362
239	0x3e623eeb	0.22094314
240	0xbce9735e	-0.028497394
241	0xbca5c1b4	-0.020233966
242	0xbe0558b8	-0.13022125
243	0xbd4148b9	-0.047188494
244	0xbdac1b83	-0.08403685
245	0x3b9a86b7	0.0047157663
246	0xbe43102d	-0.1904914
247	0xbda130b0	-0.078706145
248	0x3e005ca5	0.12535341
249	0x3d807734	0.06272736
250	0x3dac4b67	0.08412819
251	0x3e224f47	0.15850554
252	0x3cc9fa6a	0.02465554
253	0xbd8f675a	-0.070021346
254	0x3e052cfd	0.13005443
255	0xbe52a21a	-0.2056965

fc2.bias f4 [300]
0	0xbe387a36	-0.1801537
1	0x3debdab9	0.115163274
2	0xbc838e82	-0.016059164
3	0xbcf308be	-0.029667255
4	0xbde44dde	-0.111476645
5	0x39a0b973	0.0003065575
6	0xbd1a2fab	-0.037643116
7	0xbd14ede6	-0.03635969
8	0xbd3ab408	-0.045581847
9	0xbd0c8ae5	-0.034312148
10	0x3d931871	0.07182396
11	0xbdf7b2c4	-0.12094644
12	0x3dbcb955	0.09215037
13	0xbd046556	-0.032323204
14	0xbc8539e7	-0.016262962
15	0xbd84e669	-0.0648926
16	0xbd4fd9cd	-0.05074482
17	0x3d289f62	0.041167624
18	0x3dca2fef	0.09872424
19	0x3d958b05	0.073019065
20	0xbc6f6cae	-0.014613314
21	0xbdeb4c2a	-0.114891365
22	0xbe06d8ff	-0.13168715
23	0x3db490fc	0.08816716
24	0xbc8be0c9	-0.01707496
25	0xbd14a5a9	-0.0362908
26	0xbd7b8d54	-0.061414078
27	0x3d3be9aa	0.045877136
28	0x3cdf9688	0.027293459
29	0xbba4325f	-0.0050108875
30	0x3de209b4	0.11037007
31	0xbd87e858	-0.06636113
32	0x3d2c7fc7	0.042114045
33	0xbd0d1118	-0.03444013
34	0xbd121c6c	-0.035671636
35	0xbe0cd63c	-0.13753599
36	0x3dea6d7d	0.114466645
37	0x3cffe123	0.031235283
38	0x3d184b65	0.037181277
39	0x3c93ed24	0.018057413
40	0xbd3f3717	-0.046683397
41	0x3d9c1c42	0.07622577
42	0xba4fa5da	-0.0007921137
43	0xbce15665	-0.027507016
44	0xbd88b116	-0.066744015
45	0xbd240cc7	-0.040051248
46	0xbcd88b44	-0.026433595
47	0xbdccdfc8	-0.100036204
48	0xbdf1f6c1	-0.11814643
49	0x3dddec1c	0.1083605
50	0xbd9ef0d9	-0.07760782
51	0x3d0beeb5	0.034163196
52	0xbcd6212e	-0.026138868
53	0xbe216d1b	-0.15764277
54	0x3c40377c	0.0117319785
55	0xbd6b7598	-0.057485193
56	0x3d5af3d5	0.053455193
57	0x3c1135ef	0.008862956
58	0xbc7cffec	-0.015441876
59	0x3ce647e7	0.028110458
60	0x3e257068	0.16156161
61	0x3a5f9eaf	0.00085304206
62	0xbdac9fc7	-0.084289126
63	0xbd0e4039	-0.034729216
64	0xbd9ff92e	-0.07811199
65	0xbcd769d0	-0.026295573
66	0xbcd8d573	-0.026468968
67	0xbdb5e3d3	-0.08881345
68	0xbda86961	-0.082232244
69	0xbd8914bd	-0.06693409
70	0xbdc12064	-0.09430006
71	0xbd1d9eac	-0.0384814
72	0xbd404e8c	-0.046949908
73	0x3df3142b	0.11869081
74	0xbdd84ba5	-0.10561303
75	0xbd9e77f0	-0.0773772
76	0xbda0a1e4	-0.07843378
77	0x3e1d1047	0.1533824
78	0xbda2f576	-0.07956974
79	0xbd549537	-0.051900115
80	0xbd7b62a9	-0.061373387
81	0x3db882a2	0.09009291
82	0xbdfaf90f	-0.122545354
83	0x3dd1f292	0.10251345
84	0xbd559848	-0.05214718
85	0x3d72e877	0.059303727
86	0xbe03ffa5	-0.1289049
87	0xbe30d86b	-0.17270057
88	0xbb094b69	-0.002094949
89	0xbd895a6e	-0.06706701
90	0xbcb8d63a	-0.022563089
91	0xbd809742	-0.0627885
92	0x3de766cf	0.11298906
93	0xbcb1fe47	-0.021727694
94	0x3e2df0ac	0.1698634
95	0xbe4db1d2	-0.20087364
96	0xbe174993	-0.1477416
97	0xbd319281	-0.043352608
98	0x3da7ecf9	0.08199496
99	0xbd3339b8	-0.043756217
100	0x3cc2c4d4	0.023775496
101	0x3daa193b	0.083055936
102	0xbdfd309b	-0.123627864
103	0xbd899ee7	-0.06719761
104	0xbd964364	-0.073370725
105	0xbe0d129b	-0.13776629
106	0xbe292e70	-0.16521621
107	0xbcf15f81	-0.029464485
108	0xbd0135ca	-0.031545438
109	0x3b7821d2	0.0037861955
110	0xbd20ee68	-0.039289862
111	0xbd3f96f9	-0.046774838
112	0xbc3011a6	-0.010746395
113	0xbd8760e0	-0.06610274
114	0x3d591759	0.05300078
115	0xbda1cb61	-0.079001196
116	0x3c690733	0.014222908
117	0xbe154a75	-0.14579184
118	0xbe0b9108	-0.13629544
119	0xbcfddb59	-0.030988382
120	0xbe01711c	-0.12640804
121	0xbdec3f6e	-0.11535536
122	0xbe06f27d	-0.1317844
123	0x3d776451	0.060398404
124	0x3cd4bd66	0.025969218
125	0x3da78843	0.08180287
126	0x3c0885c2	0.008332672
127	0x3d04f6aa	0.0324618
128	0x3dcbb692	0.09946932
129	0xbe1b0110	-0.15137124
130	0xbd9aa6ac	-0.075513214
131	0xbd89e2f3	-0.0673274
132	0xbd5594e9	-0.052143965
133	0xbdb6982d	-0.08915744
134	0xbc82ad40	-0.015951753
135	0x3bdd6f57	0.0067576575
136	0xbd354d4f	-0.04426318
137	0x3a29686e	0.00064623996
138	0x3c0e3220	0.008678943
139	0xbda82e15	-0.082119144
140	0x3c6b3c53	0.014357644
141	0x3dec97da	0.11552401
142	0x3db77e3f	0.089596264
143	0xbd872c44	-0.0660024
144	0x3d239ab6	0.039942466
145	0x3c843f0a	0.01614334
146	0x3d56bc26	0.052425526
147	0x3bc1ae9e	0.0059107086
148	0x3dbae27a	0.09125228
149	0x3d92eaef	0.07173716
150	0xbdd9a296	-0.10626714
151	0x3d196466	0.037449263
152	0x3dfb2aae	0.12264
153	0xbe113e17	-0.14183842
154	0x3c10076a	0.00879083
155	0xbd895d66	-0.067072675
156	0x3db4b1e5	0.08822993
157	0xbd29b6d5	-0.041434128
158	0xbdce53a6	-0.100745484
159	0x3d7cb289	0.061693702
160	0xbe3af367	-0.18256913
161	0xbd7d22f1	-0.0618009
162	0x3da09e74	0.078427225
163	0x3d8a710e	0.06759845
164	0xbdee222c	-0.116276115
165	0x3d614246	0.054994844
166	0x3ab02c19	0.0013440877
167	0xbbe6d416	-0.0070443256
168	0x3e3b18c6	0.18271169
169	0xbd77206c	-0.060333654
170	0x3d85f0f0	0.06540096
171	0xbe0fb5a9	-0.14034142
172	0x3c9a2f1f	0.018821297
173	0xbe065db7	-0.13121687
174	0x3d763a76	0.060114346
175	0xbd121d34	-0.03567238
176	0x3d54fced	0.05199902
177	0xbd2158d5	-0.039391357
178	0xbdb18943	-0.08668759
179	0xbdfc4479	-0.123177476
180	0xbd438b92	-0.047740526
181	0xbd97baf8	-0.07408708
182	0xbd3b1ad4	-0.045679882
183	0x3d279c11	0.04092032
184	0x3a9286b8	0.0011179065
185	0xbd97978d	-0.07401953
186	0x3d93b51e	0.0721228
187	0xbd3ce6c7	-0.046118524
188	0xbb1cf59f	-0.0023950113
189	0xbda5f4d3	-0.08103337
190	0x3c60c42b	0.013718645
191	0xbd8c1286	-0.068394706
192	0xbdec95b3	-0.1155199
193	0xbcbd5444	-0.02311147
194	0x3d5ad5c2	0.05342651
195	0x3cad1d3d	0.021132106
196	0x3da974f7	0.082742624
197	0x3c8234c7	0.015894307
198	0xbe238501	-0.15968706
199	0x3d8c7d76	0.06859867
200	0xbbc928b9	-0.0061388877
201	0xbe5085bf	-0.2036352
202	0xbbbeb588	-0.00581998
203	0xbe276aac	-0.16349286
204	0xbdb4a09e	-0.08819698
205	0x3d9a4480	0.075325966
206	0xbd33cc02	-0.04389573
207	0xbcaf81fc	-0.021424286
208	0xbce19887	-0.027538551
209	0xbd25f5da	-0.040517665
210	0xbe052edc	-0.13006157
211	0xb99c7d09	-0.00029847797
212	0x3d05e9bc	0.03269361
213	0xbd14d6fa	-0.03633783
214	0xbd9723b0	-0.07379854
215	0xbce81688	-0.028331056
216	0xbe016399	-0.1263565
217	0xbde7e241	-0.113224514
218	0x3d9ae72f	0.07563626
219	0xbd90cf16	-0.070707485
220	0xbd085902	-0.03328801
221	0x3ca954ae	0.020670261
222	0xbb5a8886	-0.0033345534
223	0xbdb886f7	-0.090101175
224	0xbcd5aa26	-0.02608211
225	0xbce1f1cf	-0.027581124
226	0x3d8a78ec	0.06761345
227	0xbd625ea8	-0.055266052
228	0xbe042f97	-0.12908779
229	0x3d529ba8	0.051417977
230	0xbe1b58bd	-0.1517057
231	0xbca94720	-0.020663798
232	0xbd2c46d2	-0.042059727
233	0xbe0c6c5f	-0.13713215
234	0xbce520a8	-0.027969673
235	0xbc2d160b	-0.0105643375
236	0x3bb06a51	0.0053837677
237	0xbe1670d0	-0.14691472
238	0xbd4e5b16	-0.050379835
239	0xba5a3581	-0.0008324013
240	0xbe1bc75f	-0.15212773
241	0xbe1e3f38	-0.15453804
242	0xbd72003e	-0.059082262
243	0xbd546a3f	-0.051859137
244	0xbe300317	-0.17188679
245	0xbcb22379	-0.02174543
246	0xbe2123b5	-0.15736277
247	0xbd85a7e8	-0.06526166
248	0xba985cad	-0.0011624299
249	0x3dfdcd9d	0.12392733
250	0xbd30256e	-0.043004446
251	0xbd390d6d	-0.04517882
252	0xbc238576	-0.00998055
253	0xbbeee09e	-0.00728996
254	0xbd10df9a	-0.035369493
255	0xbcf2d890	-0.02964428

fc3.weight f4 [2, 300]
0	0x3f189175	0.5959695
1	0x3ddc12f6	0.10745804
2	0x3d59a5e0	0.053136706
3	0xbe3693a0	-0.17829752
4	0x3e690048	0.22754014
5	0xbe814bd5	-0.25253168
6	0xbecbcba1	-0.39803794
7	0x3c0230fb	0.007946248
8	0xbe18bcd0	-0.14915776
9	0xbdb98541	-0.09058619
10	0xbde1eb8a	-0.11031254
11	0xbe81310f	-0.2523274
12	0xbd02e30c	-0.03195481
13	0xbe19adb6	-0.15007672
14	0x3dd5b3b6	0.10434668
15	0xbd8ca42f	-0.06867253
16	0xbe170b52	-0.14750412
17	0xba1200a2	-0.00055695523
18	0xbe7dc3d7	-0.24781738
19	0x3e274244	0.16333872
20	0xbe571e8e	-0.2100775
21	0x3deccade	0.11562131
22	0xbe91df12	-0.28490502
23	0xbd9353db	-0.071937285
24	0x3dc60752	0.09669365
25	0x3e6db332	0.23212889
26	0xbea14cc6	-0.31503886
27	0xbce5f822	-0.02807242
28	0xbca5657b	-0.020189991
29	0xbe3495ad	-0.17635222
30	0xbad781ca	-0.0016441878
31	0xbe69c57f	-0.22829245
32	0xbde5f7a0	-0.11228871
33	0x3e8de885	0.2771646
34	0x3e983961	0.29731277
35	0xbcc66cbc	-0.02422177
36	0xbd98f92d	-0.074694015
37	0xbdf77911	-0.120836385
38	0xbda0a26d	-0.0784348
39	0xbd4ba647	-0.04971912
40	0x3dde1585	0.10843948
41	0xbb131b47	-0.0022446678
42	0xbe808b86	-0.25106448
43	0x3b89b207	0.0042021307
44	0x3df635ee	0.12022005
45	0x3ebaba58	0.36470294
46	0x3def1d9e	0.11675571
47	0xbe006949	-0.12540163
48	0x3ed626fe	0.41826624
49	0x3deba218	0.11505526
50	0x3e2ae0af	0.16687272
51	0xbe04ee81	-0.12981607
52	0x3b9339eb	0.0044929883
53	0xbe3d9215	-0.18512757
54	0xbe375b65	-0.17905958
55	0xbdbaf823	-0.091293596
56	0xbdda6517	-0.106638126
57	0xbd6c2331	-0.05765075
58	0xbd92cc16	-0.071678326
59	0xbd1b0ed6	-0.037855946
60	0xbe134f0e	-0.14385626
61	0xbca67a17	-0.020321889
62	0x3d885474	0.06656733
63	0x3ced7545	0.028986583
64	0x3d3c6a14	0.0459996
65	0xbe30515a	-0.17218533
66	0xbc0c1ac6	-0.008551305
67	0x3e307215	0.17231019
68	0xbdcd479e	-0.100234255
69	0x3d9a6571	0.0753888
70	0xbd90acfa	-0.07064243
71	0x3dbc43c6	0.09192614
72	0x3d8207b0	0.063491225
73	0xbcb09edb	-0.021560123
74	0x3f0313e8	0.5120225
75	0xbe9c07f2	-0.30474812
76	0x3ef34a30	0.47517538
77	0xbc82a58e	-0.015948083
78	0x3c8cd400	0.017190933
79	0xbcb76f3e	-0.022391912
80	0x3cc018b7	0.023449285
81	0xbe45778b	-0.19283883
82	0x3cdbe403	0.026842123
83	0xbd3f92d9	-0.046770904
84	0xbd5bbc2a	-0.053646244
85	0xbb8c0667	-0.004273224
86	0x3de3ac27	0.1111682
87	0x3b8b13ba	0.004244295
88	0xbd8ece58	-0.06972951
89	0x3e091b2a	0.13389269
90	0x3cddf2dd	0.027093345
91	0xbc4577d1	-0.012052492
92	0xbdd29b65	-0.102835454
93	0x3f058746	0.52159536
94	0xbd855cbe	-0.0651183
95	0xbaa842dc	-0.0012837308
96	0x3d44b3f3	0.048023175
97	0xbc3c22c9	-0.011482903
98	0x3de9dd0c	0.114191145
99	0xbc00f764	-0.0078714825
100	0x3ea3e6b1	0.3201194
101	0x3e27e9df	0.16397808
102	0x3ba27995	0.0049583414
103	0x3e6333ad	0.22187681
104	0xbd5e2039	-0.05422995
105	0x3e96d2bf	0.29457662
106	0x3c1e067c	0.009645101
107	0xbc060fdb	-0.008182491
108	0xbe6f1fe4	-0.23352009
109	0xbe2b07bc	-0.16702169
110	0x3e85981a	0.26092607
111	0x3d7b3a52	0.061334915
112	0xbd9a9985	-0.07548813
113	0x3e0e4b37	0.1389588
114	0x3ca77031	0.02043924
115	0xbeadc2ca	-0.33937675
116	0x3d012f6f	0.031539377
117	0x3e33468c	0.1750738
118	0x3da0eaa4	0.07857254
119	0xbe681ab2	-0.22666433
120	0xbca89719	-0.020579861
121	0xbe206753	-0.15664415
122	0xb91ce672	-0.00014963167
123	0xbe2cc78e	-0.16872999
124	0x3e9936e3	0.29924688
125	0x3e12a0eb	0.14319198
126	0x3d6dc1fb	0.058046322
127	0x3d5b7e50	0.053587258
128	0x3a104f0c	0.0005504943
129	0x3d5b6bc0	0.053569555
130	0xbd3e1126	-0.046403073
131	0xbb39c4c9	-0.0028346053
132	0x3e72643a	0.23671046
133	0x3ecc48e4	0.3989936
134	0x3ea57ba9	0.32320908
135	0xbe911770	-0.28338194
136	0xbdab369c	-0.08360025
137	0xbe275826	-0.1634222
138	0xbe1b0459	-0.15138377
139	0xbe06a91d	-0.13150449
140	0xbe8f1256	-0.27943677
141	0xbb3208cb	-0.0027165886
142	0xbcaff919	-0.021481084
143	0xbd2527e8	-0.04032126
144	0xbd0951b8	-0.0335252
145	0x3d1a2a1b	0.03763781
146	0xbca9844c	-0.020692967
147	0xbc9b5b5e	-0.018964466
148	0xbed2f0e1	-0.411994
149	0xbd1c24fc	-0.03812121
150	0xbc7f3174	-0.015575755
151	0xbe17c6ca	-0.14821926
152	0xbdfe80be	-0.124268994
153	0x3ce3b790	0.02779749
154	0x3d99998a	0.074999884
155	0x3bef0d3c	0.007295279
156	0x3eb57b2f	0.35445544
157	0xbe2d0f61	-0.16900398
158	0x3e9a15a3	0.30094633
159	0xbcf28427	-0.02960403
160	0x3d6688b5	0.056282718
161	0x3e336924	0.17520577
162	0xbdefdba1	-0.11711813
163	0x3e8080e5	0.2509834
164	0x3e572dcd	0.21013565
165	0xbe191a84	-0.14951521
166	0xbd702749	-0.058631215
167	0x3dc4c85f	0.0960853
168	0xbd9f5b6d	-0.0778111
169	0xbe8173ec	-0.25283754
170	0xbd2944e2	-0.041325457
171	0x3ce0e9e3	0.027455276
172	0xbea35a86	-0.31905
173	0x3dce66c7	0.10078197
174	0xbd175351	-0.03694469
175	0xbdfc7fcd	-0.123290636
176	0xbe864228	-0.26222348
177	0xbef2689e	-0.47345442
178	0x3c2df950	0.010618523
179	0x3c2f1ca8	0.0106879845
180	0x3c2cfcaf	0.010558291
181	0x3b067f66	0.0020522713
182	0x3d66a4e3	0.056309592
183	0xbe50e20a	-0.20398727
184	0xbe7ae4e4	-0.24501377
185	0xbe87c216	-0.26515263
186	0xbdf19023	-0.1179507
187	0x3d127176	0.035752736
188	0xbe322900	-0.17398453
189	0x3e291e64	0.165155
190	0x3dd29f3e	0.10284279
191	0x3e458f0d	0.19292851
192	0x3e456131	0.19275357
193	0x3ea38e03	0.31944284
194	0x3eeb3bb2	0.4594398
195	0x3e12ca2d	0.14334936
196	0xbe2f6cdf	-0.17131375
197	0xbe96eb5a	-0.29476434
198	0x3edc3670	0.43010283
199	0xbe836764	-0.25664818
200	0xbdf5b176	-0.119967386
201	0x3ee080a8	0.43848157
202	0x3dc38e66	0.09548645
203	0x3dc5abef	0.09651934
204	0x3e730a8a	0.23734489
205	0x3cfd26dd	0.03090232
206	0xbe6d4d7d	-0.2317409
207	0xbe112020	-0.14172411
208	0xbe8fa60d	-0.28056374
209	0xbdcfdadf	-0.10149168
210	0x3e3a9af6	0.18223175
211	0xbe8d90d5	-0.2764956
212	0xbd898ca1	-0.06716276
213	0x3e57dfa6	0.21081409
214	0xbd9a7197	-0.07541197
215	0x3c6933d2	0.014233546
216	0x3e1a02f0	0.15040183
217	0xbae0f579	-0.0017163
218	0x3da06755	0.07832209
219	0x3efde833	0.49591216
220	0xbe959c88	-0.29220986
221	0xbe045ed7	-0.12926804
222	0xbe69b5ae	-0.22823212
223	0x3eaec49d	0.3413438
224	0xbbe63622	-0.007025496
225	0x3e9f1bc2	0.31075865
226	0xbe08083e	-0.13284394
227	0x3d55ae57	0.052168217
228	0x392462ce	0.00015677066
229	0xb914fd40	-0.00014208723
230	0x3df7b5b9	0.12095208
231	0x3e3fccf2	0.18730524
232	0x3ce871a5	0.028374502
233	0x3dd721c4	0.10504487
234	0x3be3922b	0.006944915
235	0xbd4a56be	-0.04939913
236	0xbe8121cc	-0.25221097
237	0x3ec2d98d	0.38056603
238	0xbcb5a781	-0.022174599
239	0x3e39ef52	0.181577
240	0x3e6b70ba	0.2299222
241	0x3e8bb6b4	0.2728783
242	0xbc96296c	-0.018330298
243	0x3be411f0	0.006960146
244	0x3d1d91d2	0.038469143
245	0x3e0639ba	0.13107958
246	0xbf04d1d5	-0.5188268
247	0xbdfabfa1	-0.122435816
248	0xbd24ebd1	-0.040263955
249	0x3d7e5590	0.062093318
250	0xbc2eb2cb	-0.010662745
251	0xbe822906	-0.25421923
252	0xbd35f707	-0.044425037
253	0x3d7a1950	0.061059296
254	0xbe12280b	-0.14273088
255	0xbd1a5196	-0.037675463

fc3.bias f4 [2]
0	0xbd6bdb30	-0.05758208
1	0xbc304c14	-0.010760326

bn1.weight f4 [400]
0	0x3f8aa296	1.0830867
1	0x3f89b6fa	1.0758965
2	0x3f98417a	1.1894982
3	0x3f8f7b80	1.1209564
4	0x3f74dcf2	0.95649636
5	0x3f8a384a	1.0798428
6	0x3f71a7d0	0.94396687
7	0x3f8e9a48	1.1140833
8	0x3fc16433	1.5108703
9	0x3f9067d6	1.1281688
10	0x3f8ffc79	1.1248924
11	0x3f851b91	1.0399038
12	0x3f8f42bf	1.1192244
13	0x3f8fa1af	1.1221217
14	0x3f883ef9	1.0644218
15	0x3fabcff3	1.3422836
16	0x3f81d093	1.0141777
17	0x3f880283	1.0625767
18	0x3f8375d8	1.0270338
19	0x3fa051e5	1.2524992
20	0x3f92479e	1.1428106
21	0x3fcde9cf	1.6086978
22	0x3f95ae51	1.1693822
23	0x3f905b16	1.1277797
24	0x3f914e3b	1.1351999
25	0x3f808110	1.0039387
26	0x3f838f69	1.027814
27	0x3f7f69b0	0.9977064
28	0x3f7a515e	0.97780406
29	0x3f8b0244	1.0860066
30	0x3f8b59b0	1.0886745
31	0x3f811e2f	1.0087336
32	0x3f88adae	1.0678003
33	0x3f88bec8	1.0683222
34	0x3f922202	1.1416628
35	0x3f88ed80	1.0697479
36	0x3f708988	0.93959856
37	0x3f652ec8	0.8952451
38	0x3f8f75a1	1.1207772
39	0x3f991646	1.1959922
40	0x3f85b3b6	1.0445468
41	0x3f928771	1.1447583
42	0x3f905f0a	1.1279004
43	0x3f8f5ca8	1.1200151
44	0x3f99fb52	1.2029822
45	0x3faa70e8	1.3315706
46	0x3f75afbf	0.9597129
47	0x3f78cc74	0.9718697
48	0x3f8f3812	1.1188986
49	0x3f540003	0.8281252
50	0x3f82ea24	1.0227704
51	0x3f622276	0.88333833
52	0x3f8a46a8	1.0802813
53	0x3f8f3b4c	1.1189971
54	0x3fa894d0	1.3170414
55	0x3fa7cd7b	1.3109583
56	0x3f84e2ec	1.0381751
57	0x3f854e94	1.0414605
58	0x3f8b9f12	1.090792
59	0x3fb08b34	1.3792481
60	0x3f930363	1.1485409
61	0x3f94ebba	1.1634438
62	0x3f698757	0.9122214
63	0x3f70400d	0.93847734
64	0x3f97cf33	1.1860107
65	0x3f82989e	1.0202825
66	0x3f796c5c	0.9743097
67	0x3f88621d	1.0654942
68	0x3f5ef63b	0.8709447
69	0x3f80c670	1.0060558
70	0x3f8cfbe4	1.1014371
71	0x3f7f4104	0.9970858
72	0x3fa0ed63	1.2572445
73	0x3f8f24ef	1.1183146
74	0x3f87c75f	1.0607718
75	0x3f86f31c	1.0542941
76	0x3f6f6475	0.9351266
77	0x3f7a90ea	0.9787737
78	0x3f7b446b	0.9815127
79	0x3fb7a197	1.4346188
80	0x3f89e8fa	1.0774224
81	0x3f89461c	1.0724521
82	0x3f4c620a	0.79837096
83	0x3f8ef2b8	1.1167822
84	0x3f92cddb	1.1469072
85	0x3fa470d3	1.2846931
86	0x3f8d8535	1.1056277
87	0x3f86f0c2	1.0542223
88	0x3f91062f	1.1330012
89	0x3f8eb6c6	1.1149528
90	0x3f75c370	0.9600134
91	0x3fa53ae9	1.2908603
92	0x3f8953e6	1.0728729
93	0x3f932006	1.1494148
94	0x3f8f4bc5	1.1194998
95	0x3f615585	0.8802112
96	0x3f8895c9	1.0670711
97	0x3f75e95d	0.9605921
98	0x3f7eea0e	0.9957589
99	0x3f8a8ed4	1.0824838
100	0x3f76ee89	0.96457726
101	0x3f804533	1.0021118
102	0x3f950ecf	1.1645144
103	0x3f8482c9	1.0352412
104	0x3faf15aa	1.3678486
105	0x3f88af8d	1.0678574
106	0x3f8fb332	1.1226561
107	0x3f842466	1.0323608
108	0x3f834835	1.0256411
109	0x3f8cdefc	1.100555
110	0x3f8c3882	1.0954745
111	0x3fa75137	1.307166
112	0x3f83a297	1.0283993
113	0x3f8f03a9	1.1172992
114	0x3f86e308	1.0538034
115	0x3f849db4	1.0360627
116	0x3f916e8f	1.1361865
117	0x3f8a7668	1.0817385
118	0x3f9b2757	1.212138
119	0x3fa4baba	1.2869484
120	0x3f719379	0.9436565
121	0x3f6eb56e	0.9324559
122	0x3f525d9d	0.8217409
123	0x3f7c0f77	0.984611
124	0x3f8e2e2b	1.1107839
125	0x3f8446b1	1.0334073
126	0x3fac2bc3	1.3450855
127	0x3fb67d44	1.4256978
128	0x3f87413c	1.0566783
129	0x3f8eedb3	1.116629
130	0x3f9a9670	1.207716
131	0x3f8062f0	1.0030193
132	0x3f81c4c7	1.0138177
133	0x3f9838d2	1.189234
134	0x3f8ba9ff	1.0911254
135	0x3f5b9eda	0.85789263
136	0x3f935e2c	1.1513114
137	0x3f9c8684	1.2228551
138	0x3f8b9a0c	1.0906386
139	0x3f9beeee	1.218229
140	0x3f92e8a4	1.1477246
141	0x3f85d030	1.0454159
142	0x3f700d6f	0.937705
143	0x3f8647b7	1.0490636
144	0x3f89cc2b	1.0765432
145	0x3f8ea837	1.1145085
146	0x3f6b23ff	0.918518
147	0x3f842946	1.0325096
148	0x3f915551	1.1354162
149	0x3f8a5db9	1.0809852
150	0x3f8169cb	1.011041
151	0x3fa46ef7	1.2846364
152	0x3f831292	1.0240042
153	0x3f53b36f	0.8269567
154	0x3f7fb1c4	0.99880624
155	0x3f7d4b5c	0.98943114
156	0x3fc07181	1.5034639
157	0x3f8e6b4e	1.1126497
158	0x3fa5ac16	1.2943141
159	0x3fba53dc	1.4556842
160	0x3f89e8fd	1.0774227
161	0x3f826cf3	1.0189499
162	0x3f879531	1.0592405
163	0x3f7d0a70	0.9884405
164	0x3f883df6	1.0643909
165	0x3f86b247	1.0523156
166	0x3f844952	1.0334876
167	0x3f74e406	0.95660436
168	0x3f851276	1.0396259
169	0x3f9165cc	1.1359191
170	0x3f7a7ae0	0.9784374
171	0x3fb7df6a	1.4365056
172	0x3f8e09d9	1.1096755
173	0x3f7af0e4	0.9802382
174	0x3f6d75c3	0.92757815
175	0x3f8116d3	1.008509
176	0x3f968d9b	1.1761965
177	0x3f7390a1	0.9514256
178	0x3f8e5130	1.1118526
179	0x3f85f062	1.0463984
180	0x3f7d7023	0.9899923
181	0x3f84c3b5	1.0372225
182	0x3f946183	1.1592258
183	0x3fa31ade	1.2742574
184	0x3f881393	1.0630974
185	0x3f7a8466	0.97858274
186	0x3f8d1c88	1.1024332
187	0x3f8eaaf1	1.1145917
188	0x3f8b2185	1.0869604
189	0x3f83e398	1.0303831
190	0x3f979386	1.1841896
191	0x3f8f2b13	1.118502
192	0x3f96e61e	1.1788976
193	0x3f909b71	1.1297437
194	0x3f81e28e	1.0147264
195	0x3f7e0b1f	0.9923572
196	0x3f6fda12	0.93692124
197	0x3f8e70ab	1.1128134
198	0x3f7fe95f	0.9996547
199	0x3f896d3b	1.073646
200	0x3f80ae95	1.0053278
201	0x3fb520eb	1.4150671
202	0x3f85bf93	1.0449089
203	0x3fa05eb2	1.2528899
204	0x3f9c8c52	1.2230322
205	0x3f81d6a2	1.0143626
206	0x3f90de13	1.1317772
207	0x3f91c60e	1.1388566
208	0x3f9178e3	1.1365017
209	0x3f895e93	1.0731987
210	0x3f875d24	1.0575299
211	0x3f710476	0.9414743
212	0x3f673093	0.90308493
213	0x3fc302da	1.5235245
214	0x3f9dbb90	1.2322865
215	0x3f86b7dc	1.052486
216	0x3f79022f	0.97268957
217	0x3f6b69c8	0.91958284
218	0x3f8255e0	1.0182457
219	0x3f85f2a4	1.0464673
220	0x3fa356a0	1.2760811
221	0x3f862145	1.0478903
222	0x3f859611	1.0436422
223	0x3f741d3b	0.953571
224	0x3f6e3a20	0.9305744
225	0x3fb85a8d	1.4402634
226	0x3f927995	1.1443354
227	0x3f78df93	0.9721615
228	0x3f86ca16	1.0530422
229	0x3f8ae39a	1.0850708
230	0x3f36671e	0.71251094
231	0x3f79f093	0.9763271
232	0x3f8a11f3	1.0786728
233	0x3f69c637	0.91318077
234	0x3f81b20a	1.0132458
235	0x3f9229a2	1.1418955
236	0x3f8c1d0e	1.0946367
237	0x3f84f16b	1.0386175
238	0x3f8128cb	1.0090574
239	0x3fdd4b82	1.7288668
240	0x3f90d20b	1.13141
241	0x3fa891a9	1.3169452
242	0x3f921acf	1.1414431
243	0x3f913d68	1.1346865
244	0x3f93b47c	1.1539454
245	0x3f87ad03	1.0599674
246	0x3f8e4345	1.1114279
247	0x3f80f6f8	1.0075369
248	0x3f999c94	1.2000909
249	0x3f788c27	0.97088856
250	0x3f41d10c	0.75709605
251	0x3f8e9b00	1.1141052
252	0x3f886e85	1.0658728
253	0x3f8b16b7	1.0866307
254	0x3f89f7cc	1.0778747
255	0x3f98e0ab	1.1943563

bn1.bias f4 [400]
0	0x3dbda848	0.09260613
1	0xbe3695b3	-0.17830543
2	0xbd283724	-0.04106821
3	0x3e0bfc3f	0.13670443
4	0x3c77a8a4	0.015115891
5	0x3dca36da	0.09873743
6	0xbe238b3e	-0.15971085
7	0xbd35597e	-0.0442748
8	0x3e1bdee9	0.15221752
9	0x3dee3eae	0.11633049
10	0xbdaf8766	-0.08570747
11	0xb9b3168d	-0.00034158342
12	0xbdf1574f	-0.11784231
13	0xbcd1be5b	-0.025603464
14	0x3df3a7a9	0.11897213
15	0x3d6d76d4	0.05797465
16	0x3d8c0214	0.06836334
17	0xbe21884d	-0.15774651
18	0x3d571ae3	0.052515876
19	0xbd017f63	-0.031615626
20	0xbdc8f25e	-0.09811853
21	0xbb46e84f	-0.003035087
22	0xbc104bbc	-0.008807119
23	0x3e0dda56	0.1385282
24	0x3dba1523	0.09086063
25	0xbdd33451	-0.10312713
26	0xbd404e76	-0.046949826
27	0xbd655a5a	-0.05599437
28	0x3d9e5d7b	0.07732674
29	0xbd09b78a	-0.033622302
30	0xbd048966	-0.032357596
31	0xbdd023e7	-0.10163098
32	0x3c832978	0.016010985
33	0xbd925aaf	-0.07146203
34	0xbda536f8	-0.08067125
35	0xbd449f2d	-0.048003364
36	0x3d9d9292	0.07693972
37	0x3d67e63b	0.05661605
38	0x3d8fa22c	0.07013354
39	0x3c42c7d0	0.011888459
40	0x3e84f8b4	0.25970995
41	0xbcde5940	-0.027142167
42	0x3e2ae317	0.1668819
43	0xbdba0601	-0.090831764
44	0x3d3ded2c	0.046368763
45	0xbc51c9d2	-0.012804465
46	0xbd1e6873	-0.03867383
47	0x3e8e7c7b	0.27829346
48	0xbc6f6d4c	-0.014613461
49	0x3de6c32a	0.11267693
50	0x3ce29407	0.027658476
51	0x3e54ef7b	0.2079448
52	0x3a0826f0	0.00051937904
53	0xbd980eab	-0.07424673
54	0xbe818836	-0.25299233
55	0x3cb946ba	0.022616733
56	0x3e243ef9	0.16039647
57	0x3d118a8b	0.035532515
58	0xbde11c5a	-0.10991736
59	0xbe00cfad	-0.12579222
60	0xbca51cb1	-0.020155283
61	0xbd9b8c72	-0.07595147
62	0xbc1c9f86	-0.009559518
63	0x3e4ed669	0.20198978
64	0xbe88e885	-0.26739898
65	0xbda56d17	-0.08077448
66	0x3dc84375	0.097784914
67	0x3b97a7c9	0.004628156
68	0x3dcffac5	0.10155252
69	0xbdd0c43d	-0.101936795
70	0xbdee1e61	-0.11626888
71	0xbecd72a6	-0.40126532
72	0x3c9aeead	0.018912638
73	0x3d08f915	0.033440668
74	0xbd3f5150	-0.046708405
75	0xbe0d6cf4	-0.13811094
76	0xbe0a47d4	-0.13503963
77	0xbe12a695	-0.14321359
78	0x3d956ab4	0.07295743
79	0xbd51d708	-0.05123046
80	0xbe337dc9	-0.17528452
81	0xbde62449	-0.112373896
82	0x3cc5b930	0.024136156
83	0x3e52ae17	0.20574223
84	0x3bd4155e	0.0064722737
85	0xbe20427d	-0.15650363
86	0x3d4e9c37	0.050441947
87	0xbc65fc05	-0.014037137
88	0xbdae2932	-0.08503951
89	0x3e1b483f	0.15164278
90	0xbdb6929d	-0.08914683
91	0x3dbe53c4	0.09293321
92	0x3e0f0831	0.13967969
93	0xbd82e537	-0.063913755
94	0xbda58dbb	-0.080836736
95	0x3dccef3e	0.10006569
96	0xbe3a973c	-0.18221754
97	0xbde838bd	-0.11338947
98	0x3c85069a	0.0162385
99	0x3e2f658f	0.17128585
100	0x3cfafb7a	0.030637491
101	0xbe3cbf04	-0.18432242
102	0x3d54cb0a	0.051951446
103	0x3df6e524	0.12055424
104	0x3d027224	0.031847134
105	0x3cee26df	0.02907127
106	0x3d84ac42	0.06478168
107	0x3d38a655	0.0450805
108	0x3daa876d	0.08326612
109	0x3cc2d2f1	0.023782225
110	0xbd46110d	-0.048356105
111	0x3d355bd1	0.044277016
112	0xbd8de694	-0.06928745
113	0xbdcb54a0	-0.0992825
114	0xbe84917a	-0.2589224
115	0xbd0d5885	-0.034508247
116	0x3ea50837	0.3223283
117	0xbe2aeb17	-0.16691242
118	0xbda43c6a	-0.080193356
119	0x3df62c6d	0.12020192
120	0xbc34db52	-0.011038618
121	0xbdcdf624	-0.10056713
122	0x3c4c76c3	0.012479487
123	0xbdb9c829	-0.09071381
124	0xbd55cef5	-0.052199323
125	0x3ca52222	0.020157877
126	0x3da6e440	0.08149004
127	0x3d89195a	0.066942886
128	0x3e2d6bbe	0.16935632
129	0x3c96247f	0.01832795
130	0xbcedf621	-0.029048027
131	0xbe13ebb0	-0.14445376
132	0xbbca5d0c	-0.006175643
133	0x3dc5ff77	0.09667867
134	0xbe5c18a3	-0.21493773
135	0x3db38e25	0.08767346
136	0xbe223982	-0.1584225
137	0x3cd870f4	0.026421048
138	0xbd9cc977	-0.07655614
139	0xbd937462	-0.07199933
140	0x3c2c525f	0.010517686
141	0x3e94753f	0.28995702
142	0x3cc55c5b	0.02409189
143	0xbdb981a9	-0.09057934
144	0x3ddc648a	0.10761364
145	0xbd788a9a	-0.060679056
146	0x3de3b889	0.11119182
147	0x3cfcec1a	0.0308743
148	0x3dfcd21c	0.12344763
149	0x3dd1e308	0.10248381
150	0xbde5c9e6	-0.1122015
151	0x3dfa9fd3	0.12237515
152	0x3dd00e5b	0.10158988
153	0x3e7fa635	0.24965747
154	0x3e8a7e2a	0.2704938
155	0x3ce2ad7c	0.027670614
156	0xbda3033e	-0.07959603
157	0x3d6ecd28	0.05830112
158	0x3d6cd98d	0.05782466
159	0xbd77fc77	-0.060543504
160	0x3d065687	0.032797363
161	0xbd915fbc	-0.07098338
162	0x3dee73cb	0.116431795
163	0x3e1441d3	0.14478235
164	0x3e0205bd	0.12697501
165	0xbd65f1c1	-0.056138758
166	0xbc2beb5f	-0.010493129
167	0x3c30b6e8	0.010785796
168	0x3ce50fba	0.0279616
169	0x3d709011	0.058731142
170	0xbbdc7aa7	-0.0067284885
171	0x3cf8db44	0.030377991
172	0xbe470854	-0.1943677
173	0xbe422f72	-0.18963411
174	0x3e00b5ae	0.12569305
175	0xbdb7eed5	-0.089811005
176	0xbc9a8019	-0.01885991
177	0xbd45338d	-0.048144866
178	0xbe129275	-0.14313681
179	0x3e0d58b1	0.13803364
180	0x3e5172c2	0.20453933
181	0xbe185c8e	-0.14879057
182	0xbd3cd5a6	-0.04610219
183	0xbbdd6eb6	-0.0067575825
184	0x3e113309	0.14179625
185	0x3c54e20a	0.012993345
186	0xba100cb9	-0.000549506
187	0x3e4dccab	0.20097606
188	0xbe7896af	-0.24276231
189	0xbee6db18	-0.4508903
190	0x3ce3ed4b	0.027823111
191	0xbdf39343	-0.11893322
192	0x3db967f9	0.09053034
193	0x3d0d7fbe	0.034545653
194	0xbd7e43d3	-0.0620764
195	0xbd6116d5	-0.054953415
196	0xbd823a1a	-0.06358738
197	0x3e711fce	0.23547289
198	0x3e253e48	0.1613704
199	0x3d108c8d	0.03529029
200	0x3d160de8	0.036634356
201	0x3dd5a205	0.104312934
202	0xbdbf0670	-0.093274
203	0x3d4acd94	0.04951246
204	0x3d2bc61a	0.04193697
205	0x3d637e06	0.055540107
206	0x3d8bdf85	0.06829742
207	0xbde72b9d	-0.112876154
208	0x3e3e798c	0.18601054
209	0x3d15462e	0.03644388
210	0xbe481984	-0.19540983
211	0x3d975039	0.07388348
212	0xbdce533b	-0.10074469
213	0x3daa5a31	0.08317984
214	0xbd6a73f0	-0.057239473
215	0x3e018c86	0.12651262
216	0x3c6451ac	0.013935488
217	0x3d431f2c	0.04763715
218	0x3e462329	0.1934935
219	0xbdaa68d9	-0.08320779
220	0xbe0ba8f0	-0.13638663
221	0x3ddeaa40	0.10872316
222	0xbdb2b026	-0.08725004
223	0xbb488b4a	-0.00306006
224	0x3e04d328	0.12971175
225	0x3ca24465	0.019808004
226	0x3d0d1b45	0.034449834
227	0x3dc9312d	0.09823833
228	0x3d0731e1	0.033006553
229	0xbe91d015	-0.28479066
230	0xbddd2378	-0.10797781
231	0x3d3fb410	0.04680258
232	0x3d71b657	0.059011783
233	0x3e35a509	0.17738737
234	0x3eab9594	0.33512557
235	0x3d531d6a	0.051541723
236	0xbd87f209	-0.066379614
237	0x3d840121	0.06445528
238	0xbe6d099a	-0.23148194
239	0x3ca46a54	0.020070232
240	0xbba840d7	-0.0051346826
241	0xbda2615b	-0.07928725
242	0xbc9fa110	-0.01948598
243	0xbd0629a0	-0.03275454
244	0xbdabe2d8	-0.083928764
245	0x3e0d76f9	0.13814916
246	0x3c95789d	0.01824599
247	0x3db40d8a	0.08791645
248	0xbd16ad82	-0.036786564
249	0x3dded7db	0.10881015
250	0x3bc0e928	0.0058871694
251	0xbdb396a5	-0.087689675
252	0xbcd003f3	-0.025392508
253	0x3e8ad99b	0.27119145
254	0xbe2cd44d	-0.16877861
255	0xbb908672	-0.0044105584
