checkpoint_critic_target_0_5808.pth (torch, 577426 bytes, 9 tensors)

fcs1.weight f4 [400, 52]
00000000: 8809 bf3d 6c8e 523f ca0d df3d bf2a 823e
00000010: 3d8f c3bd d96e afbd 45bc b03d db36 953e
00000020: da02 483e 2046 2a3f d673 0c3e 28b1 0ebe
00000030: 0c2c bdbd ef47 0fbe b7e6 b73d ab5d b6bd
00000040: 379d 0e3f 2d3b bf3e bac3 edbc a288 9abe
00000050: 70d9 67bd 5bc8 da3d b6a9 5bb9 787f 98be
00000060: 640a 233f f4d4 e6be 3087 cabd a4e6 1b3c
00000070: 196b d63d 9f86 18bd 9216 f3bd 022d 653d
00000080: e1f3 473f 3919 cebe ec38 b63d 1b04 ba3e
00000090: 063a 903c 323c 0bbe 1ecf 273d af5e c83e
000000a0: d636 053f d0ec 9bbe e29d 34be 581f d43d
000000b0: a889 793d 39e7 9c3d 8ae8 32be 35ea 5d3d
000000c0: b103 533f f0a7 2bbf 6e3d f43e 0aec 1ebe
000000d0: 2c0e 5abd 95a7 883e 02e6 4ebc a3e8 ee3c
000000e0: 50e8 42bb ec4c 09bd 2af5 b43c 7518 a63d
000000f0: 7774 e5bd b690 933e 7d08 0c3c b3a5 99bd
00000100: a9e1 483e 1dd2 a4be 656f e33c 0c9f b9bd
00000110: 089d bcbc a06d af3e 480b 183d b5b0 3ebd
00000120: 8aae b83e 8900 55bf ac66 803c 591b 11bd
00000130: 4643 05be a09a cabf d87d 08bc 7d7d acbb
00000140: 2d0f 05bd 8111 82bc a9ab fd3c 84d8 82bb
00000150: 94eb 90bd c0d6 cdbf f24b 4bbc 3809 563c
00000160: 3376 0cbe 36d4 9abe b998 e23b c55c e4bc
00000170: c9e0 05be 04f0 d2bf b147 bebc dd2e f7bc
00000180: 3639 debe 11e1 63bf f06a 80bc 84b2 983c
00000190: f7b6 98be cf22 aebe 9caa aebf de51 d03e
000001a0: 8c6e 523d 8291 6e3e b9b8 9abc c7d2 a13d
000001b0: 98ee 643c 05f2 82be ec80 1b3c 4202 a53d
000001c0: 576d 5a3e 075f 543e db3e 323c 20fe 31bd
000001d0: 9b7d b63e fd8e fc3d fa73 42bd 478e eebb
000001e0: 8b23 ce3e 6a50 203e 57c3 293d b55c 0b3e
000001f0: ddb4 043f 5d94 e43e 92a6 0f3d ea60 863d
00000200: b9fa 9c3e 442f 09bf 2c45 0dbd fb42 19be
00000210: bdd4 4d3c a80d 84be ad41 75bb 8594 fabd
00000220: fafb bb3e 2af7 2bbf cc0e 3ebd 13cd 61bd
00000230: 8ead abbe 00c2 483e cd26 51bc e006 e9bd
00000240: 0fa1 e33e 42e9 4cbf 49fd 4bbd b017 ed3d
00000250: e051 06bf 1b6e ec3e 5b05 91bd a560 153e
00000260: 066b a73e dd90 ed3e f037 1b40 4513 7fbd
00000270: ac03 943e 6c46 933f d4f7 2f3d fc9f 4ebe
00000280: aa4c 37be 933a 82be 91b3 6d3d 9570 13be
00000290: e437 c63e 822e 903f 62ff 413d 894d dbbd
000002a0: ee1a 91be e0ed 29be 3872 453d 3580 d2bd
000002b0: 133b 963e a0a0 883f fd46 06be 8e4b d33d
000002c0: 87c4 05bf 4c2f c6be 314d 94bd dc02 f03c
000002d0: 15b9 683e 97d3 a93d 7ae5 bfba b6f5 b23d
000002e0: 489b 2b3e b50e a2be 47e2 5d3d 03ef 083c
000002f0: feaa 2c3e 8390 f93d 63be 96bc 0ce1 b23c
00000300: b0cf 753e 078e 3fbe d253 65bd d914 963d
00000310: eca2 df3d e19d 053d 4f8c 473b 889a c53c
00000320: f982 083f 3839 b7be 1c3b 1c3c b69c a3ba
00000330: b2bf 39bf e071 13bd 8b7b 11be 83d7 073f
00000340: 2524 003f 44b4 36be f1a1 fa3d 1006 06be
00000350: 5994 9abd 918d debe 2020 a53d 7f4e 3cbe
00000360: 151a 3d3e 530d 9abe 0f94 cdbd 0dac f33e
00000370: b1df 0ebe 90e6 b9be f53a d8bd 83b7 f53e
00000380: 8a43 c43d 058c 3dbe ce70 103e 273b e43e
00000390: 3f1d e0bd a236 efbe 1d4b 483d aa10 d33e
000003a0: 87f9 473e 5301 f23e 5b60 6b3c 13f9 c73e
000003b0: d323 f63d 48c6 d5be bf8e bc3c 259d be3e
000003c0: 7b52 f43d d81a c43e 21fd 5cbe 08ee d03e
000003d0: 0d19 473e 61ad d2be cc02 57be f33d cf3e
000003e0: 9450 c23d 8fc6 803e ec1f 0a3e 0747 8ebe
000003f0: aa7f bb3d 0011 d0be 0b23 a43d cd7f 5dbe
0.0932799 0.8224857 0.10891302 0.25423238 -0.09548805 -0.085660644 0.086296596 0.29143414
0.19532338 0.6651325 0.13716063 -0.13934767 -0.09236917 -0.13992284 0.08979552 -0.089045845
0.5570864 0.37349835 -0.029023994 -0.30182368 -0.05660385 0.10682746 -0.0002094869 -0.2978475
0.6368773 -0.45084345 -0.09889066 0.009515438 0.10469646 -0.03723776 -0.11869539 0.055951126
0.78106505 -0.40253618 0.08897576 0.36331257 0.017605793 -0.13597181 0.040969007 0.39134738
0.520368 -0.3045411 -0.17638353 0.10357541 0.060922295 0.0766129 -0.17471519 0.054178435
0.8242751 -0.6705313 0.47703117 -0.1551973 -0.05323617 0.26690355 -0.01262808 0.029163664
-0.002974052 -0.033520624 0.02208956 0.081101336 -0.112038545 0.28821343 0.008546946 -0.07502308
0.19617333 -0.32191554 0.027763078 -0.09063539 -0.023024097 0.34263325 0.037120134 -0.04655524
0.36070663 -0.8320394 0.015673958 -0.03542647 -0.13013944 -1.5828438 -0.008330785 -0.005263983
-0.032485176 -0.015877487 0.030965643 -0.003993096 -0.07076183 -1.6081161 -0.0124082435 0.013063721
-0.13716964 -0.3024003 0.0069151786 -0.027876267 -0.1307403 -1.6479497 -0.023227545 -0.030173713
-0.43403023 -0.890153 -0.015675992 0.01863981 -0.2982709 -0.34010932 -1.3645816 0.4068746
0.051374957 0.23297694 -0.01888691 0.07901531 0.013972901 -0.2557527 0.009491187 0.08057071
0.21330772 0.20739375 0.010879244 -0.043455243 0.35642704 0.1233196 -0.047473885 -0.0072801444
0.40261492 0.15655676 0.041446056 0.13609584 0.51838475 0.44644442 0.035070963 0.06561454
0.30660036 -0.53587747 -0.034489796 -0.14966957 0.012562928 -0.2579167 -0.003742318 -0.12235359
0.3671568 -0.6717402 -0.04640083 -0.055127215 -0.3353085 0.19605255 -0.0127655985 -0.113782644
0.44458815 -0.80043423 -0.0498021 0.11576784 -0.5246868 0.46177754 -0.070810996 0.14587648
0.3269884 0.46399584 2.4252892 -0.062274236 0.2890905 1.1505866 0.042960957 -0.20178217
-0.17900339 -0.25435314 0.058032576 -0.14398415 0.38714516 1.1264193 0.047362693 -0.10708148
-0.28340858 -0.16594648 0.04820463 -0.1027836 0.29341945 1.0674019 -0.13113017 0.10317145
-0.52253 -0.3870796 -0.072412856 0.029298238 0.22726853 0.08292311 -0.0014640533 0.08738272
0.16758454 -0.31651846 0.054170873 0.008357766 0.16862103 0.121857665 -0.01840133 0.021835826
0.24005008 -0.18706523 -0.05598814 0.07328195 0.10919747 0.03262127 0.003044862 0.024121538
0.5332485 -0.35785842 0.009535577 -0.0012482617 -0.7255813 -0.03599727 -0.14207284 0.5306322
0.5005515 -0.17842203 0.12237919 -0.1308825 -0.07547826 -0.43467382 0.08062768 -0.18389319
0.18466981 -0.3008829 -0.100380056 0.47592202 -0.13952519 -0.36308718 -0.1055812 0.4799157
0.095831946 -0.18510444 0.14105532 0.4457638 -0.10943078 -0.4672137 0.04889976 0.4122365
0.19528781 0.47266635 0.014366235 0.39057216 0.12018552 -0.4175284 0.023017285 0.37229267
0.119297944 0.3830173 -0.21580936 0.40806603 0.1944315 -0.41147903 -0.2099716 0.4047695
0.09488025 0.25151488 0.1348874 -0.27788565 0.09155209 -0.4063797 0.080144964 -0.21630783

fcs1.bias f4 [400]
00000000: 1842 54be f6fa ae3e 077e 3abf e4f6 1dbf
00000010: acb8 7fbe c4de e3be b7e2 aabe dd13 5cbf
00000020: 0b82 403e 5e65 22be c099 823d b4c7 31be
00000030: 8e32 93be e1e9 40be 30bf 04be 167c 9c3e
00000040: 37c2 033e 7a97 2dba e961 2c3b d4f1 99bd
00000050: 1148 dbbe a72a 0dbf a52a 963e f983 a2be
00000060: 41ae dfbe 633f cabe 6c56 093e 370e b0be
00000070: cb5f cdbe 69f0 9dbe 5123 81be f258 2abe
00000080: 3f25 80be 4f52 77be 1938 dabe f896 53be
00000090: 80d6 a1bd 5cc6 b7be ed75 a4be b784 babf
000000a0: 4765 5abe a310 79be efb7 6ebe a9a7 dfbe
000000b0: 79f2 94bf 3c13 fe3e 3dc3 35be 081e c8bc
000000c0: ff28 a03d fef1 02bf 849f a43e 1c05 4abc
000000d0: f443 053e 4568 f6bc 630c 0ebd a1ac 7b3d
000000e0: 59e4 fa3d 74a8 e7be 7a90 f23d 2bc8 4fbe
000000f0: 34bb e5be a773 8abe 8384 533d dfec b13e
00000100: 1e92 49bf f4d1 1ebe 00be 8ebe eece 9abe
00000110: f829 9fbd b007 a83d 32c5 86bf 255c 34bf
00000120: 4f5c 28bf 8ff0 30be cd5b 27be 7ebf 6a3c
00000130: e9d7 2abe 33a4 5cbc 2112 77be 0d4a 3abf
00000140: 8713 983d edcd 323b 30de 47bf b2bc 18bf
00000150: 3fca 983e 41e6 3dbf 1e3a 4abe 11ce 73bd
00000160: 0427 9dbe 9c8d a9bd 19fb 9cbe e09e 0abe
00000170: b97a bebe ae93 31be ab56 57be dece 9cbd
00000180: 93d3 b5be 1ae9 253e 02bd bdbe 62fb 63be
00000190: 6d7a 243d 0811 653b 3ad4 a7be 0223 56be
000001a0: 21b5 20be 77ee e0be d11e 00bf 5852 53be
000001b0: f627 e2be e21e 10be 5227 1ebe 8fa4 c5bd
000001c0: 7bfc 813d 3903 69bf 0435 96be 7769 d2bd
000001d0: 46a5 983e 323c 02be a633 f1bd e843 ca3d
000001e0: 03cc adbe 6ad1 8abe f8bf b7be 6a84 7fbb
000001f0: 2c0b 38be 0592 ccbe f0ce 88be 93f7 be3d
00000200: 566c 14bf d07a 3dbc 2143 dabe e653 363d
00000210: c6f6 9abe 6dad e93d 93e5 8abc 083e 97bd
00000220: 142c ffbd 976e 09be 92a9 84be 25d6 d9be
00000230: 368f 30bf a4c9 0cbf 171d b2be 3ea7 ca39
00000240: ef53 3bbe 694e 83bc 25c7 943d 6bc4 a7be
00000250: a0bc acbe 4c05 acbc e5aa 09be 865d 28be
00000260: bafc 3bbe 5625 65bf b559 2abe 93f6 f23e
00000270: f4e3 c8bd 9f15 213d 9eb5 91be 2efe 70be
00000280: aa97 4fbe 3e8d 2dbd b323 c9be 55f1 043e
00000290: f0cd 1e3d 8153 c3be 1ccd a6be 164e babe
000002a0: c771 77be 1a2f eabe c232 aabe aae6 9dba
000002b0: 62cf c7be 23f1 d4bc 879d 083d 0b5d debd
000002c0: 0263 f4be daf7 40bd b4fa 95be ebda b03d
000002d0: 9137 9fbc f1e2 67be a445 55bf 988e b0be
000002e0: 173b 49be 1af7 68bd ca11 9fbd 010c 3ebe
000002f0: 97f7 9dbe 3b5c 0b3e a269 28bf 62f0 52be
00000300: a7fe 46bd 888b 1fbe 4ee2 8abe c517 213e
00000310: d611 2ebe d995 89be 233f cebe 846b 79be
00000320: e3d0 22bf 1fae 1ebf 855c 71bd 4ac3 41be
00000330: ec8c 32bd bf52 c8be 7517 a3be 8ff8 c9bd
00000340: 23f5 aabd 0e4b e03e d26e 703e 0d90 00bf
00000350: 6a4f 51bf 4d10 46be b678 32bd 4752 bebb
00000360: 504d 22be a279 43bf a537 71be 1da7 533d
00000370: 8f72 0bbf be3b 17bd f7f4 80bf d0fc 5dbf
00000380: 5020 7cbe c483 27bf 40dd 2cbe 6325 3fbe
00000390: 4eaf a3be ee15 d9be a203 8dbe 660a 90be
000003a0: 366f dcbe 036a 9dbd 45fb 97bd d8d1 e13c
000003b0: a46c e3bd 3e2f 093d 747a 08bf 1a69 07bf
000003c0: 92fa afbd 88f3 7ebe 3ae8 0f3d d952 30bf
000003d0: 30dd b6be 04c6 803d d87d bebe 8cfc 753e
000003e0: 5ef6 bbbc b79d e7bd 9ef6 7bbe cccb aabd
000003f0: bc48 243e 5d9e a8be dfb6 6cbe 3a68 eebc
-0.20728338 0.34175843 -0.7284855 -0.6170485 -0.2497279 -0.44505894 -0.33376095 -0.8596781
0.18799607 -0.15858981 0.06376982 -0.17361337 -0.28749508 -0.18839218 -0.12963557 0.3056342
0.12867056 -0.0006621998 0.0026303476 -0.07516828 -0.4282842 -0.5514321 0.2932941 -0.31741312
-0.43687633 -0.39501485 0.13411874 -0.34385845 -0.40112147 -0.3084748 -0.25222257 -0.16635492
-0.25028417 -0.24152492 -0.42620924 -0.20663059 -0.07902241 -0.35893524 -0.3212122 -1.4571751
-0.21327697 -0.24322753 -0.23312353 -0.43682602 -1.1636497 0.4962405 -0.17750259 -0.024428383
0.078203194 -0.511505 0.3215295 -0.01233032 0.13014203 -0.030079016 -0.03467978 0.06144393
0.12250585 -0.45245707 0.11843963 -0.20291202 -0.44869387 -0.2704136 0.051640045 0.3475103
-0.7873858 -0.15509778 -0.27879333 -0.30236 -0.07771677 0.08204591 -1.0528929 -0.704531
-0.6576585 -0.17279266 -0.16343613 0.014327882 -0.16683926 -0.0134668825 -0.2412801 -0.7276924
0.074255995 0.0027283386 -0.78073406 -0.59662926 0.29841802 -0.74179465 -0.19748732 -0.059522692
-0.3069383 -0.08278963 -0.30660322 -0.13537169 -0.37203005 -0.17341492 -0.21029155 -0.07656644
-0.3551298 0.16202202 -0.37058264 -0.22263864 0.040155817 0.0034952778 -0.32779104 -0.20911792
-0.15694095 -0.43931934 -0.5004702 -0.2063688 -0.44171113 -0.14074281 -0.15444687 -0.09650528
0.06346985 -0.9102054 -0.29337323 -0.10274022 0.29813594 -0.12718275 -0.11777429 0.09876233
-0.3394471 -0.27112895 -0.35888648 -0.0038988837 -0.17973012 -0.39955154 -0.2672038 0.09324565
-0.5797781 -0.011564925 -0.4262934 0.044513606 -0.30266398 0.114100315 -0.016955173 -0.073848784
-0.12459579 -0.13421093 -0.25910622 -0.42546192 -0.6896852 -0.5499518 -0.3478782 0.00038653048
-0.18293737 -0.0160286 0.07264546 -0.32767043 -0.3373766 -0.02099862 -0.13444097 -0.16441926
-0.18358126 -0.89510095 -0.16635783 0.47453746 -0.098091036 0.03932726 -0.28458875 -0.23534462
-0.20272699 -0.042371027 -0.3928505 0.12982686 0.038770616 -0.38149646 -0.3257836 -0.363877
-0.24164496 -0.4573906 -0.3324185 -0.0012046893 -0.39025408 -0.02599389 0.033353355 -0.1085759
-0.47731787 -0.04711137 -0.29292834 0.08635505 -0.019435676 -0.22645165 -0.8330939 -0.3448379
-0.19651447 -0.05687628 -0.07767065 -0.18559267 -0.3085296 0.13609402 -0.6578618 -0.20599511
-0.0485827 -0.1558057 -0.27125782 0.15731724 -0.16998991 -0.26872137 -0.40282544 -0.2435742
-0.63599986 -0.6198444 -0.058926124 -0.18922153 -0.043591425 -0.3912563 -0.31853834 -0.09861862
-0.08347537 0.43807262 0.23479775 -0.50219804 -0.817618 -0.19342156 -0.04357215 -0.005808148
-0.15849805 -0.7635747 -0.23556383 0.051673044 -0.5447168 -0.03692221 -1.0074757 -0.86713886
-0.24621701 -0.65435433 -0.16881275 -0.18666606 -0.31969684 -0.42399544 -0.27541834 -0.28132933
-0.43053597 -0.07686236 -0.07420973 0.027565882 -0.11104706 0.03349232 -0.5331185 -0.5289475
-0.08592714 -0.24897587 0.035133578 -0.68876415 -0.35715628 0.062877685 -0.37205386 0.2402212
-0.022944625 -0.113093786 -0.24605796 -0.083396524 0.16043371 -0.32933322 -0.23116635 -0.029102433

fc2.weight f4 [300, 400]
00000000: 14b5 bd3c 3734 12bd a3a9 bbbc b67e 103d
00000010: 5962 fbbc 8ed8 903c 32a3 b1bb 817f fc3c
00000020: 7941 15bd da26 1e3d 8ef6 d23c 9991 ea3c
00000030: 75ce 763b c52a 65bc 54be 4fbd 73ee 8d3c
00000040: 9653 cabc 13fb eabc 5ee0 103d 853e c73b
00000050: 8229 60bd 52b7 823d c1d1 5ebd 06af 223d
00000060: 9221 28bc 04d7 8d3d 7339 b33c 092c ea3c
00000070: 8869 1cbd 6d13 0f3d 1957 94bc 04c6 17bd
00000080: 1bdf 0bbd 9cf5 20bd a01c 4cbb a54c 993c
00000090: 72d3 273d 6b5f 3bbb 2b34 3dbb a640 1b3c
000000a0: ab35 eb3c e25c b1bc 6817 723d e3e9 20bd
000000b0: 1a96 3bbd 4e09 2e3d 5158 c4bc d694 b63b
000000c0: 67e9 403c 8697 063a 3a44 813d a6a2 35bb
000000d0: cb92 0c3d a1fe 093d 50be 88bd 7261 1ebb
000000e0: 6062 09bc ada6 edbc 7094 803c 391f 723d
000000f0: 7118 cebc 0814 a7bb ef18 aebc 76cb 1abd
00000100: 825b bbbd b103 1e3c b44c b53c 37be 5ebc
00000110: 16e3 6e3c c5b1 8ebd b2a9 d73c b430 c8bb
00000120: 7483 d1bc adc6 84bc 5096 1d3c eab5 fe3c
00000130: c2ae 6b3d c025 26bc b370 f6bc cda9 c83c
00000140: 45d6 763d 1975 d6bd c32b ecbb c331 6b3d
00000150: 66b1 e6bc 5590 e53b 3363 033d 29be 42bd
00000160: 3651 06bd 1e8f b5bc 4110 5f3b 3182 4cbd
00000170: 8d0d 483c 9d8a e43c a127 c33d 01f4 01bd
00000180: 3430 213b a420 bdbb 4e04 b6bc ec3b a13d
00000190: 0246 f43b fb9b 82bb e0ad 55bd 49b6 26bc
000001a0: d0ed 673b 3b16 173d 886f 9b3b 444e ff3c
000001b0: 842d d1bb 514d 4d3d 521e 15bd 1f18 fbbc
000001c0: 08fe b8bc a5da 0fbd 92b5 1dbd ead5 153c
000001d0: f6b0 dbbc 79c4 14bd 82a0 61bd 4ee8 48bd
000001e0: a43e ffbc 48e3 09bd 2f27 b83c c2ca 583c
000001f0: d87d 413d 97b2 083c 4f43 5d3d 04fa 473b
00000200: 53da 3c3d b872 92bd 13e4 f5bc c27a bbbb
00000210: 3bb5 83bc f482 aabb 74fb 593d 8d1e bebc
00000220: 6a75 a9bc 84aa 513c 89ed 693c 60ad 2ebd
00000230: 2376 32bd 11fa 1cbd 77dc 90bc e58d 053d
00000240: 2702 1bbd 3059 13bd 52f7 b0bd b982 01bd
00000250: 9e8f 5cbd 392a 69bd a0d7 25bd 189d 413d
00000260: 36e1 51bd d10e 4d3c e544 35bc 7200 8bbd
00000270: 86b5 c83c 462f b63b c1e7 4cbd fde6 6ebc
00000280: 5169 babb 9ae5 31bd 7e73 b7bc 68f4 b73c
00000290: 2403 223c b982 813c f824 01bc 0738 68bd
000002a0: 0a64 443d 9748 53bd 9975 7d3c 4ad9 603c
000002b0: 7dc8 053d 279b 083d 9a3b cebb b1f2 273b
000002c0: 8129 e0bc 8a1f c5bb 6f6d 9c3c fd8b dabc
000002d0: 8dc4 f73c 4a8e bbbc 5eb3 2dbc a0cc 2eba
000002e0: 2349 cf3c 909f 2fbc 6e7b 6f3c 92de 563d
000002f0: dc41 04bd 2204 29bc c8f4 a6bb c82c 01bd
00000300: 7a09 3b3d 9259 82bd 2309 21bd 026d d8bc
00000310: 19a2 b9bc 7e25 6fbd 13fe 0d3c db11 fe3c
00000320: 7ea2 efbc d274 583c 5f6e 07bd 2220 16bd
00000330: 1742 adbc d1c5 fcbc ecf8 4fbd 2eee 8f3d
00000340: 1631 37bd 4379 0d3d 6894 f2ba 6202 44bc
00000350: 67c7 d43c 8172 303c 01c2 263d 8aa2 44bd
00000360: cfb9 373d 99b1 01bd b8ac 41bc fb6e 1fbd
00000370: 37e6 493d 7d1e a2bc 1a57 143d 20ac 703c
00000380: 9753 4a3d 5c6b e43c 16c5 acbc 5fb3 2d3d
00000390: 94dd cf3c 57fa 1abc e1a5 01bc f3a4 96bc
000003a0: c1cb 5f3d 6e52 b63c a5c6 f6bc c003 babc
000003b0: 893c b9bb 9e4a b63c c589 233d 6f97 dc3a
000003c0: 9bbd 46bb fa20 57bd 5e25 37bb 30d3 70bd
000003d0: 7401 59bd d401 483d e699 4abd f99c 89bd
000003e0: 5a6c ebbc 7272 143d 146a 98bc 70fd e7bc
000003f0: 997f 26bd f388 a9bc e106 15bd b6f0 19bd
0.023157634 -0.035694327 -0.022908038 0.03527709 -0.030686544 0.017681386 -0.0054210657 0.030822517
-0.036439393 0.03861127 0.025752332 0.02863388 0.003765968 -0.013987248 -0.05071862 0.017325616
-0.02469806 -0.028684175 0.035370223 0.006080451 -0.054727085 0.06382622 -0.054399256 0.039717697
-0.01026191 0.069257766 0.02187798 0.02858545 -0.03818658 0.034930635 -0.018107938 -0.037054077
-0.034148317 -0.03929673 -0.0031144992 0.018713305 0.040973134 -0.002859081 -0.0028870206 0.009475863
0.028712114 -0.021650735 0.059104353 -0.03928555 -0.045797445 0.042489342 -0.023967894 0.005571942
0.011774397 0.0005134273 0.06311841 -0.0027715354 0.03431968 0.0336901 -0.06676924 -0.0024166969
-0.008385271 -0.029010141 0.01569578 0.059111807 -0.025158139 -0.0050988235 -0.021252124 -0.03779169
-0.09148313 0.009644435 0.022131301 -0.013595155 0.014580509 -0.069675006 0.026326034 -0.0061093215
-0.025575377 -0.016208017 0.009618357 0.031092603 0.05753971 -0.010140836 -0.030083036 0.02449503
0.060262937 -0.10471553 -0.0072073652 0.057420503 -0.028160762 0.007005731 0.032077026 -0.047544632
-0.032792293 -0.02216297 0.0034036788 -0.049928848 0.012210262 0.027898127 0.09529043 -0.03172684
0.0024595382 -0.0057717133 -0.02221885 0.07872757 0.0074546346 -0.0039858795 -0.052167773 -0.010175296
0.003538955 0.036886435 0.00474352 0.03116525 -0.0063835997 0.050122563 -0.03640587 -0.03065115
-0.022582069 -0.035120625 -0.038503237 0.009145239 -0.02681778 -0.036320183 -0.055084713 -0.049049668
-0.031157799 -0.033664018 0.022479622 0.013231935 0.047239155 0.00834336 0.05401927 0.003051401
0.046106648 -0.07150787 -0.03001598 -0.005721421 -0.016077628 -0.005203599 0.05321832 -0.023207927
-0.02068587 0.012797002 0.014277824 -0.042645812 -0.043569695 -0.03832442 -0.01768325 0.032606024
-0.03784385 -0.035973728 -0.086409226 -0.031618807 -0.0538479 -0.056925032 -0.04048884 0.047268957
-0.05124017 0.01251574 -0.011063789 -0.06787194 0.02450062 0.0055598347 -0.050025705 -0.014581439
-0.005688824 -0.043431856 -0.022393938 0.02245541 0.009888444 0.015809404 -0.007882349 -0.056694057
0.047946967 -0.0515829 0.015469932 0.013723681 0.032661904 0.03335109 -0.006293726 0.0025626833
-0.02736354 -0.0060157226 0.01909515 -0.02667808 0.03024509 -0.022894997 -0.0106018465 -0.0006668065
0.025303429 -0.010719195 0.01461683 0.052458353 -0.03228937 -0.010315927 -0.005095098 -0.031536847
0.045663334 -0.063647404 -0.039315354 -0.026419166 -0.022660302 -0.058385365 0.008666533 0.031014374
-0.029252287 0.013211446 -0.033064242 -0.036651738 -0.021149678 -0.030856045 -0.0507745 0.07027851
-0.044724546 0.034539472 -0.0018507363 -0.011963459 0.025973989 0.010769487 0.04071236 -0.04800657
0.044854935 -0.03166351 -0.0118209645 -0.0389242 0.049291816 -0.019789929 0.03621588 0.014689475
0.049396124 0.027883224 -0.021090072 0.04240739 0.025374211 -0.0094591 -0.007913084 -0.0183892
0.054637674 0.022256102 -0.030124018 -0.022706866 -0.0056529683 0.022252377 0.03992631 0.0016829799
-0.0030325416 -0.052521683 -0.0027945857 -0.058795154 -0.0529799 0.04882987 -0.049463175 -0.06719393
-0.02873819 0.036241956 -0.01860527 -0.02831909 -0.04064903 -0.020695185 -0.036383513 -0.037583075

fc2.bias f4 [300]
00000000: 75b0 34bd 8831 42bd 44d4 8abd 39a0 1cbe
00000010: a2f3 16be 6330 75bd 58f4 1bbe 40f2 d0bd
00000020: 3bef 32be 7ed5 d1bd e329 4fbe ff79 5dbe
00000030: 497e 4cbe 603d fabd f529 b2bd 70e1 fabd
00000040: 418a 69bd 5eca 22be ac49 04be 89d6 d8bd
00000050: a358 40be aa21 06be 06ab f8bd 0d41 51be
00000060: 2f9b 7ebe d7b3 57be 510c 983c 3a04 82bd
00000070: b210 6abd 08b9 92bd 7491 68be b9fa 09be
00000080: 4b7a 43be ee58 dcbd ccfa ecbd 6395 b2bd
00000090: 7673 06be ef02 00be 5a9f 4dbe 06e9 d1bd
000000a0: 7ea8 6ebd 7ad5 8abd 868c 0fbe 9fee 9abd
000000b0: 3aa1 14be d374 58be 2769 2dbe 36b5 0dbd
000000c0: db84 5fbe ab28 1fbe 7b8e 18be 2d82 05be
000000d0: 5ff8 d3bd fe83 06be 6917 72bd e9c5 e6bd
000000e0: 2bac 18be f604 a3bd da60 cdbd ef90 b6bd
000000f0: 8e8c 92bd 2d05 05be 27f7 23be ef6e cabd
00000100: 2eb6 b5bd a686 c8bd f92a 80bd 36b2 19be
00000110: 3606 e0bd 9d61 2bbe 06e8 37be 857a 24be
00000120: 7261 9ebd 00bc 89bd b264 b1bd 7043 e9bd
00000130: f25c cdbd e2ce 3abe 5dd2 f6bd fea1 48be
00000140: a668 86bd eb6e 83bd 4e4d 06be 5287 fabd
00000150: 9820 cbbd c175 c3bd f919 32bd 615e cfbd
00000160: d6d2 0fbe 832c 03be f7d1 40be 0b42 d8bd
00000170: 2490 bbbd aa9d afbd 77d8 bebd 7380 9bbd
00000180: ec42 0bbe 3358 8cbd 6d31 62be 43e6 1ebe
00000190: d6f7 efbd 9b8b 6bbd df20 cbbd 8e07 c9bd
000001a0: cceb 04be b8ef 12be d8b7 f0bd 344e e3bd
000001b0: 6e6e a3bd 383f 89bd 5108 27be 17b4 36be
000001c0: d8a1 9fbe 110b 93be 7638 2cbd 64f0 c6bd
000001d0: 16a9 bfbd 2242 02be 7a9f dfbd 4d6b 64bd
000001e0: 0cdd e2bd 9e79 debd acaa 17be 3936 13be
000001f0: 8ec4 77bd e007 1cbe 215b 4cbe c7d9 40bd
00000200: 539b 15be 3678 87bd 700c 09be 76b5 acbd
00000210: e180 f2bd be9f a0be 72c2 31be 78d0 92bd
00000220: 559a 8ebd 6600 36bc 31d8 e8bd 5987 0abe
00000230: 3e78 f8bd dd2a 8fbd cee1 a2bd 4899 babd
00000240: 67cc b5bd be53 10be b9eb e8bc 7b57 03be
00000250: 430d 83bd d3e2 10bd 7ef1 3ebd 2818 09be
00000260: 4f0a 25be 09fe 38bd f9b4 4cbe 7ab3 9ebd
00000270: f97a 1dbe cef2 6dbe 0f28 07be 697c afbd
00000280: 858e e4bd 1d4a 8fbd a23c 07be 1653 23be
00000290: 3a77 45be e740 07be 89d7 7bbd 4b3a 74bd
000002a0: f2a5 9dbd a64b bcbd 6c91 16be 5884 e7bd
000002b0: 28ae 27be 886f 1bbe 7e6e 3fbe 6350 8cbd
000002c0: 7106 8abd 1b67 03be 9490 a2bd 95ca 04be
000002d0: 2ef3 fabd 2182 b0bd a5fe 50be 0a2c eabd
000002e0: df04 f9bc 6e1a 70be 48e8 22be 4cb1 75bd
000002f0: 04b0 a9bd 3a54 54be a1fa dfbd b988 00be
00000300: 0b19 1fbe 8498 0dbe 70ac 48bd 8028 92bd
00000310: 4cbc ecbd 92b1 73be bd1a 45be a482 93bd
00000320: dbae 95bd dac1 60bd ecaf 85bd 1c5a 00be
00000330: 36f7 bfbd a37a 03be 7169 f2bd 594f b0bd
00000340: 90ce 67bd 6c37 50be 53b2 33be 3ffe 1abd
00000350: c717 9abd 5915 01be b1fe 25be f725 08be
00000360: 47a2 f6bd 81d1 89bd 175e 9abd 288a 12be
00000370: acc1 aebd 60b1 e2bd 870e 08bd af44 d3bd
00000380: 61fd cbbd bbd2 1ebe 6906 fcbd 9b7e 1fbe
00000390: 5e74 06be a033 c1bd 444e ffbd eddf 05be
000003a0: 20b5 12be bb4f 1fbe c628 10be ad45 dabd
000003b0: 3c50 c6bd 0422 b3bd 2afb 14be 794d 13be
000003c0: 52a3 e9bd 1b69 d8bd 3baa 0cbe 60be a4bd
000003d0: 75a5 3dbe a45d 8fbd e893 3bbe d8ca f1bd
000003e0: c13d 69be aa55 02be b17b 26be 6f12 08be
000003f0: c92c 81bd c8de 38be a740 1bbd fe78 8fbe
-0.044113595 -0.047410518 -0.06778768 -0.15295495 -0.14741376 -0.0598606 -0.15229928 -0.102024555
-0.17474072 -0.102457985 -0.20230822 -0.21628569 -0.19970049 -0.122187376 -0.08699409 -0.1225003
-0.057016615 -0.1589751 -0.12918729 -0.10587794 -0.18783812 -0.1309878 -0.12141995 -0.20434971
-0.24863885 -0.21064697 0.01856056 -0.063484624 -0.05714483 -0.07164198 -0.22711736 -0.1347455
-0.1908962 -0.107591495 -0.11571273 -0.087198995 -0.13129982 -0.12501119 -0.20080319 -0.10249524
-0.058266155 -0.06778999 -0.14018449 -0.075650446 -0.14514628 -0.21138315 -0.16934644 -0.034596644
-0.21828024 -0.15542857 -0.14898102 -0.1303794 -0.103501074 -0.13136289 -0.059104357 -0.11268217
-0.14909427 -0.079599306 -0.100282386 -0.08914363 -0.07155715 -0.12990256 -0.1601225 -0.0988444
-0.08872639 -0.09791307 -0.062581964 -0.15009388 -0.10938685 -0.16736455 -0.17959604 -0.16062362
-0.0773343 -0.06725311 -0.08661784 -0.11389816 -0.100274935 -0.18242982 -0.12051842 -0.19593045
-0.06562929 -0.0641764 -0.13115427 -0.122328416 -0.09918326 -0.09543944 -0.0434818 -0.10125423
-0.14045271 -0.12809949 -0.18830095 -0.10559472 -0.09158352 -0.08574994 -0.09318631 -0.07592859
-0.13599747 -0.0685276 -0.22089167 -0.15517525 -0.11717193 -0.057506185 -0.09918379 -0.09815894
-0.12980574 -0.14349258 -0.117538154 -0.110989004 -0.07980047 -0.06701511 -0.16311766 -0.17842136
-0.31178164 -0.2871938 -0.042046033 -0.097138196 -0.093584225 -0.1272054 -0.109190896 -0.055766392
-0.110773176 -0.108630404 -0.148112 -0.14376153 -0.060490184 -0.15237379 -0.19956638 -0.04708269
-0.14610033 -0.06614725 -0.13383651 -0.084330484 -0.11840988 -0.31371874 -0.17359331 -0.071686685
-0.0696303 -0.011108493 -0.1136936 -0.13528194 -0.121323094 -0.069905974 -0.07953225 -0.09111267
-0.08876877 -0.14094445 -0.028432714 -0.1282634 -0.06399014 -0.035372566 -0.046617024 -0.13388121
-0.16117214 -0.04516414 -0.1999091 -0.07749076 -0.15378942 -0.23237154 -0.13198875 -0.08568651
-0.11159996 -0.06996558 -0.13206723 -0.15949664 -0.19283763 -0.13208352 -0.061484847 -0.059625905
-0.07697667 -0.09194116 -0.14703912 -0.113045394 -0.16375029 -0.15179265 -0.18694493 -0.0685127
-0.0673951 -0.128323 -0.07937732 -0.12967904 -0.12253414 -0.0861857 -0.20409639 -0.11434181
-0.03039783 -0.23447582 -0.15908921 -0.059983537 -0.082855254 -0.20735255 -0.109364755 -0.12552156
-0.15536897 -0.13827711 -0.048992574 -0.07136631 -0.11559352 -0.23798206 -0.19248481 -0.07202652
-0.07308742 -0.05487237 -0.06527695 -0.12534374 -0.093733236 -0.12839751 -0.118365176 -0.08608884
-0.056593478 -0.20333642 -0.17548494 -0.037840124 -0.075240664 -0.126058 -0.16210438 -0.13295732
-0.12042671 -0.06729413 -0.075374775 -0.14310515 -0.08533034 -0.11068988 -0.03321698 -0.10315835
-0.099604376 -0.15510075 -0.1230591 -0.1557564 -0.13130328 -0.09433675 -0.124661 -0.13073702
-0.14326906 -0.15557759 -0.14078054 -0.10657821 -0.09683272 -0.08746722 -0.14548936 -0.14385022
-0.11408104 -0.10566922 -0.13736813 -0.08044124 -0.18520148 -0.070002824 -0.1831814 -0.118062675
-0.22777463 -0.12727991 -0.16258122 -0.13288282 -0.0630737 -0.18053734 -0.037903454 -0.28021997

fc3.weight f4 [1, 300]
00000000: 5b32 3cbb b402 173c 330f 7c3c 8e6e 5b3c
00000010: 0319 00bc e162 b0b8 44f6 8dba aedb ad3b
00000020: fdcc 07bc 7df5 e13c 45f7 db3b 6d13 8fbc
00000030: 3e86 4e3c 9db7 c7bc dd30 95bb cbb0 cebc
00000040: 5df5 bfbb a96e 4c3c 6274 cdbc dd4f 893c
00000050: 1030 fcbb 4be9 06bb f1fb b93c ef18 2ebc
00000060: 7e57 28bc a67e d0ba 5f99 813c 8c5f be3b
00000070: 8c78 84bc 90fb ca39 7ea1 c3bc 3a06 28bc
00000080: fb08 b0bc 57fe 80ba 7ae0 813b 03f0 573c
00000090: 06ce fe3c af60 c03b 8ae0 9d3b 8f0c c1bc
000000a0: 2a3a 3cbc cac7 c33c 4414 50bc d7e4 533c
000000b0: d726 e0bc c1b3 1c3c 2298 1ebc d21f 9d3b
000000c0: 4682 bd3c f51b 98bb 524e 82bb f4a4 16ba
000000d0: 812f 5fbb aa9a 1eba 2a62 27ba ca07 32bc
000000e0: 9280 623c c9db d3bc bff9 c93b af3e 54ba
000000f0: a358 633c 86b5 c8bc 60e7 5dbb 847c a03c
00000100: d63e 9a3b 89f1 13bd 706d 903c de81 f9b9
00000110: 2258 b5bb fff4 883c e5fa 3fbc 4af1 67bc
00000120: c15d 80bc 9c5b 783a 2056 d4bc c6ee 65bc
00000130: be60 5cbc 8764 a4bc 05d3 e338 9ea0 d23c
00000140: bbfb d7bb 8ff0 d33b 4946 e2bc 0220 a3bc
00000150: 2c5b e5bc eb47 9fbc 21f6 203c bca3 49bb
00000160: 1a35 a8bb eceb 833c 59f9 933c 1bec 57bc
00000170: ce94 1f3c 1bfb 0fbc 54f0 cf3c 642b 5b3c
00000180: 755a eebb 19a2 39bb 9929 0dbc 1682 dbbb
00000190: 8920 953c b2fd 9eba 1561 d53b f2a5 fabb
000001a0: 67f6 fe3b e4e0 7ebb 951a 223c 1367 f5ba
000001b0: 4add 8abb b54c b53c c4c4 d9bc edb8 a1ba
000001c0: c76b 1cbc 7376 8fbc c036 9cb9 2923 80bc
000001d0: 16e7 98bc 3099 c13c 1ec6 a2bc 9fbd ea3a
000001e0: 9145 00bc f70e 32ba 3f8c 913b 3ab5 d2bb
000001f0: b1ad 81bc 3c6c 333b 8ac4 b03c 04d9 62bb
00000200: 55f0 aa3b 8c59 45bb 2da0 c73c 2394 f43c
00000210: e587 86bb ac25 dabb c79b 673b 3807 2f3c
00000220: a221 c4bc 90c3 f0bc adc0 85bc d204 adbc
00000230: 846d 7fbc 1516 d1bc c036 9c3b 6dac 9bbc
00000240: c2fc 52b9 238c 203c b8e4 9bbb 504e d4bb
00000250: b84b 2ebb 6b62 2a3a d9d6 003c b700 893b
00000260: 4911 953a ea6b e03c bc32 2b3b a8a1 ae3c
00000270: 2884 13ba 1cd7 883c d1d6 f2bb 0b19 1fb9
00000280: c43a 8d3c 1bdf 0b3b 469e 44ba 3baa 8c3c
00000290: cc7f 7ebc ef45 ddbb d628 ac3c 8420 053b
000002a0: 1903 cd3c 512a 36bb 9d7d 183c 0d07 22bc
000002b0: 4911 9abc cc09 8ebb ccc6 bcbb c103 babc
000002c0: 4b3a 74bb 01b1 30bc 726f cabc 9a86 733c
000002d0: 4215 9abc 0eb8 d23b 7bda 82bc 2ae1 7cbb
000002e0: dd93 f63a 9ab0 a13c 4598 cf3b 6718 f9bb
000002f0: 841b 8dbc 0090 083d d91b a7bc b2ff 733c
00000300: 2b00 8dbc 2bea 9e3b 49aa bd3c 0184 cd3a
00000310: 45c3 abbb 8f73 f23a c1ee 703c dc5f f6bb
00000320: 5cd0 a1ba e2ce 3abc a157 53bc cb5e 98bc
00000330: 53cf 453a c1a9 f3bb dc30 763a b10b 72bb
00000340: 850f 8f3c f9e8 fc3c 7d86 4b3b 3a38 03ba
00000350: 5ef3 dbbb f620 90bc c657 c8bc a659 e53c
00000360: 3a73 343c b1bc 81b9 02e9 0a3d 56bd 483b
00000370: 548f 1bbc 498d c23b 47aa 023b 755c 6d3b
00000380: d34d f4bc 856a 233a abea 45bc 044e 0fbc
00000390: 5fe0 903c 13e8 1fb9 2a8b e0ba ad3f db3c
000003a0: c932 80bc 6506 353c 8261 3a3c 0472 d03c
000003b0: 6b93 6b3b a702 42bb 2e9a 48bc 46ca f83c
000003c0: dc0b ffbc 23dd c43c cc1a 043c 2b3c aebc
000003d0: de3c 533c 9f3d f13c 5b82 043b 1d00 a9bc
000003e0: 910b 6f3c 6a81 27bc b8aa a73b 2e28 bc3c
000003f0: 18f1 35bc dd2c 64bc db2b 963a f474 31bb
-0.0028716538 0.009216953 0.015384483 0.0133930575 -0.007818463 -8.4107516e-05 -0.0010830839 0.005305729
-0.008288619 0.027582878 0.0067128264 -0.017465318 0.012605248 -0.024379546 -0.004552944 -0.025230786
-0.005858107 0.012477555 -0.02507991 0.016761715 -0.007696159 -0.002058583 0.022703143 -0.010626062
-0.010274766 -0.0015906885 0.015820203 0.00580973 -0.016170762 0.0003871587 -0.023880716 -0.010255391
-0.021488657 -0.0009841424 0.0039635273 0.013179782 0.031104099 0.0058709006 0.004818027 -0.023565559
-0.011488477 0.023898978 -0.012700144 0.012932978 -0.02736227 0.009564341 -0.009679826 0.004795053
0.023133408 -0.0046420046 -0.0039766217 -0.0005746626 -0.0034055414 -0.00060502684 -0.0006385172 -0.010866115
0.013824599 -0.025861638 0.0061638053 -0.0008096499 0.013876113 -0.02450062 -0.0033859834 0.019590624
0.0047071977 -0.036119018 0.017630309 -0.0004758974 -0.005534188 0.016718386 -0.011717533 -0.014156649
-0.015669705 0.00094741 -0.025919974 -0.014033979 -0.0134507995 -0.020067466 0.00010863509 0.025711354
-0.006591288 0.006467886 -0.027621405 -0.019912723 -0.027997576 -0.019443473 0.009824307 -0.003076776
-0.0051332833 0.016103707 0.018063234 -0.0131788505 0.009740068 -0.008787896 0.025383152 0.013377044
-0.007273967 -0.0028325377 -0.008615875 -0.006698857 0.01820399 -0.001213005 0.006511817 -0.0076491768
0.0077808383 -0.003889137 0.009894033 -0.0018722735 -0.0042378055 0.022131303 -0.026583083 -0.0012338437
-0.0095471805 -0.017512536 -0.0002979543 -0.015641766 -0.018664878 0.023632616 -0.01986986 0.0017909295
-0.007829086 -0.0006792391 0.0044417675 -0.0064302953 -0.015829893 0.0027377745 0.021578092 -0.0034614215
0.005216638 -0.0030113189 0.02436837 0.029855793 -0.0041055554 -0.006657323 0.0035340653 0.010682873
-0.023941819 -0.029390126 -0.016327227 -0.021120463 -0.015590075 -0.025523225 0.004767269 -0.019003117
-0.0002012132 0.009799036 -0.00475749 -0.006479062 -0.0026595425 0.0006499651 0.007863724 0.0041809934
0.0011372949 0.027395207 0.002612277 0.021317318 -0.0005627298 0.016704135 -0.007410862 -0.00015172751
0.017239936 0.0021342698 -0.0007500391 0.017171016 -0.015533399 -0.0067527215 0.021015566 0.002031357
0.025025891 -0.0027796219 0.009307292 -0.009889376 -0.01880707 -0.004334664 -0.005761003 -0.022706868
-0.003726619 -0.0107843885 -0.024711344 0.0148636345 -0.018808965 0.0064306324 -0.01597332 -0.0038586357
0.0018812377 0.01973753 0.0063352906 -0.007601786 -0.017225035 0.033340454 -0.020399021 0.0148925055
-0.017211994 0.0048496923 0.023152487 0.0015679599 -0.005241784 0.0018497574 0.014705361 -0.0075187515
-0.0012345421 -0.011401864 -0.01289931 -0.018599888 0.00075458473 -0.0074360077 0.0009391436 -0.0036933238
0.017463455 0.030872809 0.0031055503 -0.0005005632 -0.0067123612 -0.017593842 -0.024455916 0.02799685
0.0110138 -0.00024745383 0.03391362 0.003063043 -0.009494621 0.0059372527 0.001993792 0.0036218439
-0.029822266 0.0006233829 -0.012079875 -0.008746628 0.017685113 -0.00015249876 -0.0017131318 0.026763761
-0.015649216 0.011048888 0.011375787 0.025444992 0.0035946022 -0.0029603632 -0.012243791 0.030369889
-0.031133585 0.024031227 0.0080630295 -0.021268925 0.01289293 0.029448329 0.00202193 -0.020629937
0.01459016 -0.010223726 0.005116787 0.022968378 -0.0111048445 -0.013926712 0.0011457162 -0.0027077766

bn1.weight f4 [400]
00000000: eba2 763e 1d0a 2b3f 609e 093f 9e7c e43e
00000010: 5582 233e f3eb 483e e083 4b3e 7e6e 833e
00000020: 43ba 233f b11e 513e 87d9 353f 40f0 c23e
00000030: da24 a83e 82af 123e d144 393e b05d a63e
00000040: d30b 5c3e b92e 173e 6c49 c43e a053 8d3e
00000050: d6d1 ee3e 362a d13e 0a9f c73e b184 0b3e
00000060: aa00 4d3f 3c00 313e 3692 8539 9377 203e
00000070: 82b8 913e b95d 063e 6bdf 143e 1661 5b3e
00000080: 05f1 853e 0bc5 193e c69d ab3f b752 143f
00000090: b738 9b3e 8d45 843e 18af 663e fafd 393f
000000a0: 78ea 6f3e b550 e23e 1cf3 973e a97b 6d3e
000000b0: 9892 4a3f 0c05 d43e 2822 453e adc4 ec3c
000000c0: fe33 803e ab61 693f bc3d 353e b8ee a33e
000000d0: ac3b 2ab9 dd44 703d b743 0a3e c1a5 c23f
000000e0: 4ec1 913f 1dc5 5a3e c92b 6b3f fc67 603f
000000f0: 565d 153e 0239 5f3e 5c57 893e f0c1 0e3e
00000100: 20e0 d73e d4ac 483e 4df8 913e b293 653e
00000110: 1b17 a23e b2bf 2a3f e932 193f 9909 413f
00000120: 8052 093f e78a 0e3e 7e22 473e 5f59 c83e
00000130: 3ed2 2a3f 60ee 623e 1be9 d03d f7fe 283f
00000140: 0e24 1d3e 6080 cc3e a16d 8c3e 4fa8 883e
00000150: 139c 1a3e 10cb 853f 0f7d 303d 712f 343f
00000160: b8a1 243e f253 b73d f283 2d3e bdb9 873e
00000170: 42e2 123f 12cc 8e3e 80f5 c13d a676 253e
00000180: 3dae 7c3e acb8 f63e 7547 873f 0499 a43f
00000190: 1882 f33e 225a b23e 5f57 443f 90dd 993e
000001a0: c44b 273e 599d cf3e c504 c83e b63d ba3e
000001b0: 40bc b23e 6000 883e 9df5 9f3e 6650 0a3e
000001c0: 3c51 2a3e 9018 a43e f39b 893e f203 293f
000001d0: 2e55 a03e c5b5 403e 4cf9 193e 6f61 533e
000001e0: 0368 3e3e 2965 5f3e dbe1 973e 68b5 e33e
000001f0: 9bf9 9c3e e643 173e 293c 3e3e e15c cf3e
00000200: 6679 943f 2d8a 8e3e 32e7 153f b93a 823e
00000210: 4937 ee3e df7b 3b3f 067a 1b3e faee 523e
00000220: c485 e23d 0a1a 993e b00f da3d 507c 423e
00000230: bf7c cc3e 1dc7 fe3e d749 f33e 257f a33e
00000240: d48a af3e 8593 1f3e cba4 8a3e e158 7f3e
00000250: d716 5e3f df7f 653e 1943 5a3e 58bc 8d3f
00000260: 460b 5f3e 6375 733f c332 243e 5866 ba3e
00000270: a228 6b3e b8f4 903e 599c b23e b186 973e
00000280: dab5 003a 0ce9 213e 989a a53e b333 273e
00000290: eef5 733e 2066 733e 6042 023f f54e 943e
000002a0: 1c31 163e 4f79 793e 2424 2f3e 6d70 983e
000002b0: 918f 9e3e e878 8d3d a2c0 903e e76c a33e
000002c0: f806 8c3e ead7 4e3e b090 ad3e 665e fa3e
000002d0: d191 443e 159b 983e 85e4 a73f 8e09 ae3e
000002e0: 64a5 173e 286b 683e 73e3 343e bc65 8d3e
000002f0: 1271 d93e c962 813e 2992 a43f df44 9a3e
00000300: 9673 253e 98ee c33e 4c85 ec3e f93e 833e
00000310: e570 403e c1e1 b03e 93ec 893e cddb 1a3e
00000320: f4b6 c73e 3483 6e3f 0b00 983e 14af 473e
00000330: 58e4 303f 3e9a 9d3e f044 423f 751e 0f3f
00000340: 325d 0e3e cccc 0e3f b993 6b3e c5c8 543e
00000350: f473 043f c5db 3c3e 167b b03e 1a3d fe3e
00000360: 3403 a23e dd0c 173f 1c95 323e f99c c83d
00000370: 5f0e d13e 21c7 bd39 009e f13e 67d4 bf3e
00000380: d0b9 ca3d 7948 c83e 5053 8b3e 4ea7 6d3e
00000390: e26f 1e3f 4ffd a83e fc1f 113e e994 323e
000003a0: 5883 0d3f c14e 5d3e 23a2 213f dffe 8739
000003b0: 9ac9 873e bad3 e23e 5a86 173f dd53 633e
000003c0: 06b2 523d 182c 553d 4325 643f 2c19 433f
000003d0: ec0a 713e f1f5 6b3e a065 233f e7ff 473f
000003e0: de7d 3a3e d1d2 ea3d 4f20 eb3d 0866 d13e
000003f0: 84a6 aa3d 5b63 603e 6d00 6f3e bc83 513e
0.24085586 0.66812307 0.53757286 0.44626325 0.15967686 0.19621257 0.19874525 0.25670236
0.6395609 0.20421864 0.71035045 0.3807392 0.32840616 0.14324763 0.18092658 0.32493353
0.21488886 0.14763917 0.38337266 0.27602863 0.46644467 0.40852517 0.38988525 0.13624837
0.8007914 0.17285246 0.00025476672 0.15670614 0.2846108 0.1312169 0.14538352 0.21423754
0.26160446 0.15016572 1.3407524 0.5793871 0.30316707 0.25834313 0.2252773 0.7265316
0.23429286 0.442022 0.29677665 0.23191704 0.79129934 0.414101 0.19251311 0.028902376
0.25039667 0.91164654 0.17699331 0.32018065 -0.00016234693 0.058659423 0.13502394 1.5206834
1.1387117 0.21364255 0.91863686 0.8765867 0.14586386 0.2179909 0.26824462 0.13941169
0.4216318 0.19597179 0.2850975 0.22419623 0.31658253 0.66698754 0.5984331 0.7540527
0.5364151 0.13920175 0.19446751 0.39130685 0.66727054 0.22161245 0.10200711 0.66014045
0.15345785 0.39941692 0.2742739 0.2669091 0.150986 1.0452595 0.043088015 0.7038489
0.16077316 0.08951558 0.16944864 0.26508895 0.5737649 0.27890068 0.094706535 0.16158542
0.24675842 0.48187768 1.0568682 1.2859197 0.4756019 0.3483439 0.7669582 0.3005185
0.16337496 0.40549734 0.3906614 0.36375207 0.34909248 0.26562786 0.31242076 0.13507232
0.16632551 0.3204999 0.26876792 0.66021645 0.31314987 0.1881934 0.15036505 0.20642637
0.18594365 0.21815933 0.29664502 0.4447434 0.30659184 0.14771995 0.18577637 0.40500548
1.1599548 0.27839795 0.585559 0.25435427 0.46526554 0.7323589 0.15183267 0.20598975
0.1106067 0.2990268 0.106475234 0.18992734 0.39938924 0.49761286 0.47517273 0.3193294
0.34285605 0.15583618 0.27078852 0.24936248 0.867536 0.2241206 0.21314658 1.1073103
0.21781644 0.9510099 0.16034989 0.36406207 0.22964719 0.28311706 0.3488491 0.2959495
0.00049099105 0.15811557 0.32344508 0.16328315 0.23824283 0.23769426 0.5088253 0.2896649
0.14667171 0.24362682 0.1710363 0.29773274 0.30968907 0.06907827 0.28271967 0.31919023
0.27349067 0.20199552 0.3389945 0.48900145 0.1919625 0.29805818 1.3116614 0.33991665
0.14809185 0.22697127 0.1766489 0.2761668 0.42469078 0.2527068 1.2857105 0.3013067
0.16157374 0.3826797 0.46195447 0.25633982 0.18793066 0.34547237 0.26938304 0.1512291
0.3900677 0.9316895 0.29687533 0.19500381 0.69098425 0.3078174 0.7588644 0.5590585
0.13902739 0.55781245 0.2300557 0.20779712 0.5173943 0.1844321 0.34468907 0.49655992
0.3164307 0.59004 0.17439693 0.09795565 0.40831277 0.00036197252 0.47190857 0.37466738
0.09898722 0.39117792 0.27212 0.23208353 0.6188947 0.3300576 0.14172357 0.17439617
0.5527854 0.21612073 0.63138026 0.000259391 0.26520997 0.4430216 0.5918938 0.2219996
0.051439308 0.052044004 0.89119357 0.76210284 0.23539323 0.23043038 0.6382694 0.7812485
0.18212077 0.11465991 0.11480772 0.40898156 0.083325416 0.21912901 0.23340006 0.20460409

bn1.bias f4 [400]
00000000: 3e8d 193d 631e e43d 7ea9 dd3e a02d 0d3e
00000010: be05 f03c 4166 de3c d148 983d cfa9 713b
00000020: dbe0 2c3d 6c33 803d f22b fb3e a287 1a3e
00000030: fc12 ba3d d992 0e3d dd4a 893c a5bf dc3d
00000040: 696d 8fbd 9567 ae3c f948 a73d add1 ab3c
00000050: b84e 603e 1a05 9f3d 0a95 413e 893c 003d
00000060: 7eef 4d3e 3e37 0d3d 10e5 7cb6 314b 273d
00000070: b6e8 e93d c2b2 d13c 81c7 5b3c c1f5 9dbc
00000080: 8a08 3b3e d2ad 483d 740b bc3e b484 1b3e
00000090: 3d9c 8fbb 35f9 3b3d 0594 9f3d 3869 4b3e
000000a0: 9d2f 1e3d 76b7 e93d a9ca f0bb ddbb 853d
000000b0: 269e f83e c68a 0c3e 9678 0a3d 355c 1d3b
000000c0: 7462 fa3d 0bc8 1e3f 7393 13be 3e2e 963d
000000d0: 9a0c 0ab7 e6ef dcbb c9cf 6a3d f404 0f3e
000000e0: 99b0 243e f313 693d f411 913e 5f12 263e
000000f0: 5efc 043c 764e 1a3d 375f dcbd 650e d53c
00000100: 0ad7 4c3e 18fe 4a3d c2ce 003e d0c3 ac3d
00000110: 1c74 a33d a9ac ba3e 148a 28be 160f dcbd
00000120: 2cbd 163e 36f3 88ba f7a5 3b3d 2c40 0f3e
00000130: 7515 f7bc b70d e83c f781 e03c 513e 453e
00000140: 4a0b 16bd 88d2 5a3e ac8b 3b3d d380 b43c
00000150: 1493 55bd 6c77 db3c bfab 9bbc bb63 2c3e
00000160: 9bf5 1e3d 8055 ea39 2e2a 26bb 5085 2b3e
00000170: af45 453e f9cd 433d 67e6 8b3b 432a fd3b
00000180: 313b b43d 16c1 043e 8d4f 533e 1b08 1c3c
00000190: 5912 2f3e c25b 753e c970 c73e 4293 8a3c
000001a0: d49a d13c 445d 27be 0a61 233e c36c a23d
000001b0: 88b3 173e d77b 333d 31ef 2f3e d1d3 113d
000001c0: e557 cb3c 59e2 d33d 9198 8e3d eb6e 513d
000001d0: 9f34 013e b7cc 733d 892b 423c 0243 bb3d
000001e0: 90ce b13c 2b2b 643d d926 623d aaa4 893d
000001f0: 3271 373e b506 273d 998c afbb d4f0 ce3d
00000200: fdc1 e73d 67a0 e83d 3fc9 943e a932 9d3d
00000210: 52d3 013e 6e97 103f 1a2a 07bd 869e 463d
00000220: 6ef0 1a3d 791d 493e e587 a23b a358 083d
00000230: d60b 0d3e af7b 8b3e 5893 033e 15e0 3c3e
00000240: 1fd7 303e 899d 9d3c 52a6 913e c3e1 873d
00000250: 75f1 d43c 4518 e93d 70b0 af3d 08e2 f9bd
00000260: 7aa1 813d 336c 953e ac8b 193d f494 2e3e
00000270: 32c8 213d 5664 4e3d 1be0 093c 33f2 c83d
00000280: db61 9539 b739 133e 32d8 cb3d f8a9 b63d
00000290: fd3d 8fbc af21 e53c e888 0b3e 1e69 5a3e
000002a0: e493 6c3d 6fef 7a3d 85c6 8b3d 1cd7 2bbf
000002b0: dc35 893d 6f10 4ebc 14dd bd3d e550 003e
000002c0: d907 eb3d 49ad cfbd 5450 1e3e f67b 0c3e
000002d0: d1ed afbd 3e7a 4a3e 68f1 ae3e f29f ed3d
000002e0: e2aa c13c 4cc9 2a3d ed2f 6e3d 330a 11be
000002f0: 6793 653e 5e3c 7b3d 3063 803e 85fc d63d
00000300: 63dc 143d ca48 793e fcc2 983e c414 223e
00000310: b697 593d a8f3 f63d 0ac4 d3bc ed3b 313d
00000320: 8e8c e63d 1dec 9c3e e556 033d 2194 fa3b
00000330: 6550 cf3d a692 1e3d c915 913d 5b0b 443e
00000340: b2d6 203d f4e7 573e 9cee 8f3d 51af f43c
00000350: b1ec 473e c510 533d 9335 2f3e 47ae 9c3e
00000360: 602a 16be aa09 b73e 68f8 903d 2180 05bc
00000370: 5204 d73d 119e b436 e609 f73c 8d5f d33d
00000380: 4d92 543c bb0c b03d 2939 f83d f4dd bd3d
00000390: b9ba d43d 5744 143e dd68 833c 755e 613d
000003a0: be7d c43d 0116 0ebd 36f2 6b3e 8435 9038
000003b0: 4a5f 273e 84a8 1e3e 6103 003e 971b 2cb9
000003c0: 74d5 b7bc 4821 d339 9d16 ce3e 04de a83e
000003d0: 85dd 0a3d 80ea 113e aa30 2c3e 8a32 303e
000003e0: a344 233d 01b1 41bc aa1c b03c d6ee d83c
000003f0: e5a8 1ebd 25a8 1f3d 1fb2 503c 1951 033e
0.037488215 0.11138608 0.43293375 0.13786936 0.029299613 0.027148368 0.074357636 0.0036874895
0.042206626 0.06259808 0.49056965 0.15090802 0.09085652 0.034808014 0.01675933 0.10778741
-0.0700329 0.021289626 0.08168215 0.020974005 0.21905029 0.07764645 0.1890451 0.03130773
0.2011089 0.03447651 -3.7684258e-06 0.040843192 0.11421339 0.025597934 0.013414265 -0.019282224
0.18264976 0.048993893 0.36727488 0.15187341 -0.0043826387 0.04589196 0.07791904 0.19864357
0.038619626 0.114119455 -0.0073483777 0.06529973 0.48558158 0.13724813 0.033806406 0.0024011259
0.1222581 0.6202399 -0.14411716 0.07333039 -8.228375e-06 -0.0067424653 0.057327066 0.13966733
0.16082992 0.05690379 0.2833401 0.16217946 0.00811681 0.037672482 -0.10760348 0.02600784
0.20003906 0.04955873 0.12578872 0.08435786 0.079811305 0.36459854 -0.16458923 -0.10745065
0.14720601 -0.0010448459 0.045812573 0.13989323 -0.030161599 0.028326852 0.027405722 0.19262053
-0.03663186 0.21369374 0.0457875 0.022034084 -0.052142218 0.026790343 -0.019002793 0.16834919
0.038808446 0.0004469566 -0.002535473 0.16750073 0.19264863 0.047803853 0.0042694095 0.0077259853
0.08800352 0.12964281 0.20635815 0.009523417 0.17096843 0.23960784 0.38953236 0.016915921
0.025586523 -0.16344172 0.15954986 0.07930901 0.1481458 0.043819275 0.17181088 0.035602394
0.024822185 0.10345907 0.069626935 0.05113117 0.1261773 0.059521403 0.0118512 0.0914364
0.021704942 0.05570523 0.05521283 0.0672086 0.17914274 0.04077788 -0.0053573367 0.10104528
0.11316297 0.11358719 0.2905979 0.07675678 0.12678269 0.56481063 -0.032999136 0.048491023
0.037826948 0.19640149 0.0049600475 0.033287656 0.13774046 0.272428 0.12849176 0.18444856
0.17269562 0.019240158 0.28447205 0.066348575 0.025994042 0.11381582 0.08578575 -0.12201315
0.06329627 0.29184112 0.037486717 0.17049009 0.03949756 0.050388657 0.008415247 0.09811821
0.00028492403 0.14377485 0.09953345 0.08919138 -0.017485613 0.027970163 0.13626444 0.21329162
0.057758227 0.061263498 0.06824974 -0.67125106 0.06699726 -0.01257716 0.09270683 0.12530859
0.11476106 -0.101404734 0.1546033 0.13719162 -0.08590282 0.19773194 0.34168553 0.11602773
0.023641054 0.041695878 0.058151174 -0.14164047 0.22419511 0.061336868 0.25075674 0.10497383
0.03634299 0.24344173 0.2983626 0.15828234 0.0531232 0.120581925 -0.025850315 0.04327004
0.112572774 0.3064889 0.03206529 0.007647053 0.10122756 0.038714074 0.07084233 0.19144957
0.03926725 0.21084577 0.07027933 0.029868754 0.19523884 0.051529665 0.1711028 0.30601713
-0.14664602 0.3574956 0.0707863 -0.008148224 0.10498871 5.3828194e-06 0.030156087 0.10320959
0.012974334 0.08596178 0.121202774 0.0927085 0.10387177 0.14479195 0.016041214 0.055021722
0.09594296 -0.034688953 0.23041615 6.876423e-05 0.16344944 0.15493971 0.12501289 -0.00016413476
-0.02244065 0.00040269853 0.40251628 0.32981884 0.033902664 0.14249611 0.16815439 0.17206779
0.03986038 -0.011821986 0.021498043 0.026481073 -0.03873529 0.038978714 0.01273778 0.12823905

bn1.running_mean f4 [400]
00000000: ab8a 3e3f 0b67 3840 93f9 c63f 5265 813f
00000010: 7fd8 333f b626 883e 4070 da40 4bb8 8f3f
00000020: 7e86 4641 7616 5a40 baaa 4040 734e 8e3f
00000030: 26fb d93f 8561 4c40 8744 a03f 2597 c03f
00000040: b487 4340 3d55 c33f 5741 0640 2c78 2140
00000050: 2490 6d3f aa69 213f f0fa dc3f 45da 1140
00000060: 4cf0 e23e c6a1 2b3f 4c60 b240 fb56 0e3f
00000070: 1b81 943f 30f5 c33f d20d 783f 2a64 7f3f
00000080: e411 e13f 40fa d53e bab8 2042 d575 1840
00000090: 18b5 1540 d966 2340 b891 953f 073d d63e
000000a0: 76c9 2540 01ed 643f 8dee cc3f fdca ec3f
000000b0: d4be 4140 54a7 033e 3c10 a640 6047 a940
000000c0: 3099 9140 4c2c 4c41 2d8a fe40 4e3f 9f3e
000000d0: b180 0141 1726 4740 5a4f 5c41 1025 0642
000000e0: 8196 903e bf3c 0d40 74c2 a93f 28c9 d141
000000f0: e333 1140 d5a0 c73e 0caa 0841 735e 753e
00000100: 1b89 c53f 94d0 9b3f d317 e93f 7473 b13f
00000110: b7d8 1a41 7ba8 f83f a2b9 b340 205d de40
00000120: 531e ab3f c9aa ef3e 8242 373f 2cef 713f
00000130: a17e fa3f ec93 1340 1f1b a940 f22c 453f
00000140: 780d 0641 0da3 4941 b967 3740 f2d6 ac40
00000150: 3864 9040 7a5c 743f 5879 1441 083d 993f
00000160: 297b 1b40 b55a b83f 4d0a 1a40 258a da40
00000170: 0213 0b40 7950 3a40 13a3 bc40 f3d9 8440
00000180: 6959 8540 b9bd 783e 7ef7 f23e 57da 8c41
00000190: 125e 863e 244a f93f 9606 9a40 bd3f ca40
000001a0: fba7 0941 be92 e740 c64c 2240 3e26 ca3f
000001b0: c102 9f40 56c7 a63f ecd2 e33f 52b3 5040
000001c0: dacc cd3f 694f a73f fc8e 0c40 3ba7 303f
000001d0: f9e5 4240 c9f7 983f f6b8 193f 9a4a 1440
000001e0: 705f 3d3f 20d0 4b40 4061 083f 8e0f fa3e
000001f0: 52be 3140 8722 b83f 988d 5b3f 4ef0 973e
00000200: 40a0 b93e 7cb3 9840 0070 f740 3a63 0a40
00000210: d565 3240 c181 8441 a5f2 0f41 3f64 433f
00000220: b5df 8140 02ca 3a40 f9e1 f43f 71a0 6e40
00000230: 757d ab3f 1495 0b40 50c1 813f 85ae a440
00000240: 6d73 0f40 114f f63f ddf8 ed40 6e01 6f3f
00000250: 517a ce3e 66e7 ea40 1460 1e40 327c dd41
00000260: 55a5 bc3e 6908 ba3f 36da 953f 35eb 5d3f
00000270: 4f7d a140 90e6 e940 aaee 3140 066e 3640
00000280: c33d 0c41 d897 bf40 83ff 9440 a4a3 2941
00000290: 6145 4a3f 004d 5c40 fe2d 3d3f abc2 3940
000002a0: a2de 6840 875b dd3f 0564 e83f 24e5 0a41
000002b0: 2839 a13e 313b ed40 0317 3c40 815c 433f
000002c0: 52e6 4540 51c1 f940 763e 2f40 6095 3f3f
000002d0: 8adc 0640 dc15 0d41 5d65 cf40 42a8 ce3f
000002e0: c951 2841 599a 8f3f 9ee5 c63f a283 f940
000002f0: 3e4a 9440 0726 4e40 faba 0d42 3142 993f
00000300: a59c b740 f28c fe40 a385 4540 e0c6 2b41
00000310: cb7e 5540 9be6 a13e 44c2 1740 d63b 1b40
00000320: af2f 8338 ae85 923f 2148 dc3f 97c6 b43f
00000330: 6329 4b41 71e8 e83e c6e2 2440 f7f0 3a40
00000340: 8778 1d40 3aea d13f a559 6940 3822 e43e
00000350: fef0 a53f 440a 0041 5e3d 0640 690f 6740
00000360: 4c45 0140 48b7 a841 786b 3041 6d78 7740
00000370: 8ec1 773f 5bc2 9140 e408 3141 a162 c13f
00000380: 1360 b83e bf51 233f fdba 3340 0bcc b340
00000390: d4ba 0c3f 9365 0b40 1f0f f540 87f0 0c40
000003a0: d5af 1841 7376 2541 d690 3640 1385 6b3e
000003b0: 431d cd40 0bf2 5540 8836 eb3e 2679 4038
000003c0: 7178 9541 3ca8 a740 51f9 c541 d15d 5040
000003d0: 4e35 1a41 385b eb40 dfa2 113f 7993 283e
000003e0: 7bdf 763f 1b12 8e40 d4f6 d03f ec13 583e
000003f0: d956 1841 0555 4c3f 3f3b a440 03ac 1d41
0.7443034 2.8812892 1.5544914 1.0109046 0.7025222 0.26592034 6.8262024 1.1228117
12.407835 3.407621 3.0104203 1.1117691 1.702977 3.1934521 1.2520913 1.5046126
3.0551577 1.5260388 2.097738 2.5229597 0.92798066 0.63051856 1.726408 2.278947
0.44323957 0.6704372 5.574255 0.5560147 1.16019 1.53092 0.9689609 0.99762213
1.7583585 0.41792488 40.180397 2.382192 2.339178 2.5531523 1.1685095 0.41843435
2.5904212 0.8942414 1.60103 1.8499447 3.0272722 0.128568 5.1894817 5.289963
4.5499496 12.760815 7.954367 0.31102985 8.093919 3.1116998 13.769373 33.536194
0.28239825 2.2068326 1.3262467 26.22322 2.268792 0.38989893 8.541515 0.23961811
1.5432466 1.2173028 1.8210396 1.3863358 9.677909 1.9426416 5.6164103 6.948868
1.3368629 0.46809986 0.7158586 0.9450557 1.9569894 2.3059034 5.2845607 0.77021706
8.378288 12.602307 2.8657057 5.4012384 4.5122337 0.9545361 9.279625 1.197175
2.429392 1.4402682 2.4068787 6.8293633 2.1730351 2.9111617 5.8949065 4.151605
4.1671643 0.24291123 0.47454447 17.606611 0.26243645 1.9475751 4.813304 6.3202806
8.603511 7.236663 2.5359359 1.579292 4.969086 1.3029583 1.7798743 3.2609448
1.6078141 1.3071109 2.196227 0.69005173 3.0452864 1.1950618 0.60047853 2.3170533
0.7397375 3.184578 0.5327339 0.48839992 2.7772412 1.4385537 0.8576293 0.29675525
0.36255074 4.7719097 7.732422 2.1623063 2.7874653 16.563356 8.996739 0.7632484
4.058558 2.9185796 1.9131461 3.7285426 1.3397661 2.180974 1.0137119 5.1463037
2.24142 1.9242879 7.436629 0.93361557 0.40327695 7.340747 2.4746141 27.685642
0.36844888 1.4533817 1.1707218 0.8668702 5.0465465 7.309395 2.780192 2.8504653
8.765079 5.9872856 4.6561904 10.602451 0.79012114 3.4421997 0.73898304 2.9025066
3.6385884 1.7293557 1.8155524 8.680943 0.3148892 7.4134755 2.9389045 0.76313025
3.0921826 7.804848 2.7381873 0.74837303 2.1072106 8.817837 6.4811234 1.6145098
10.519967 1.1218978 1.5538824 7.7973185 4.634063 3.221071 35.432594 1.1973325
5.7378716 7.954705 3.0862815 10.736053 3.3358638 0.3162125 2.371232 2.425527
6.2554485e-05 1.1447046 1.7209512 1.4123105 12.697604 0.4548984 2.5763412 2.9209573
2.4604814 1.6399605 3.6460965 0.44557357 1.296417 8.002506 2.0974956 3.6103156
2.0198545 21.089493 11.0262375 3.8667252 0.96779716 4.554975 11.064671 1.5108224
0.360108 0.6379661 2.8082879 5.6186576 0.5497258 2.1780746 7.658096 2.2021806
9.542928 10.341418 2.85259 0.22999983 6.409822 3.3428981 0.45940042 4.5889195e-05
18.68381 5.2392864 24.746737 3.255726 9.638014 7.354885 0.56889147 0.16462506
0.96434754 4.43971 1.6325326 0.2110135 9.521203 0.7981723 5.132232 9.854495
