checkpoint_critic_local_0_5808.pth (torch, 577426 bytes, 9 tensors)

fcs1.weight f4 [400, 52]
0	0x3dbc9f5d	0.09210084
1	0x3f4920d6	0.7856573
2	0x3e095337	0.1341065
3	0x3e88d60d	0.26725808
4	0xbdc71570	-0.09720886
5	0xbdc93d57	-0.09826153
6	0x3de4551f	0.11149048
7	0x3e9be21d	0.30445948
8	0x3e44c55d	0.19215913
9	0x3f235dd8	0.6381507
10	0x3e0426b1	0.12905385
11	0xbdd0aa72	-0.1018876
12	0xbdb1ba9a	-0.086781695
13	0xbe192c18	-0.14958227
14	0x3da74c9b	0.08168908
15	0xbd534c0e	-0.051586203
16	0x3f0d2ff0	0.5515127
17	0x3eb43bcc	0.3520187
18	0xbd019077	-0.031631913
19	0xbe85ab8b	-0.2610744
20	0xbd391b77	-0.04519221
21	0x3dd65c70	0.1046685
22	0xbb38a9dc	-0.0028177416
23	0xbe83a266	-0.25709838
24	0x3f236e14	0.6383984
25	0xbef15b1b	-0.4713982
26	0xbdd6b64e	-0.104839906
27	0xbcadb3d3	-0.021203911
28	0x3dd9f145	0.10641722
29	0xbd4c246e	-0.04983943
30	0xbdff4588	-0.12464434
31	0x3cceb1ae	0.025231209
32	0x3f4876fd	0.7830656
33	0xbed8b071	-0.42322114
34	0x3d9e7caf	0.07738625
35	0x3eb7a9f0	0.3587184
36	0x3c44ecbc	0.0120193325
37	0xbe152071	-0.14563157
38	0x3cf0ae75	0.029380063
39	0x3ec60478	0.38675284
40	0x3f01bb7a	0.5067669
41	0xbea72856	-0.3264796
42	0xbe5c061c	-0.21486706
43	0x3dc0c0db	0.09411784
44	0x3d4acbb4	0.049510673
45	0x3d987b6e	0.07445417
46	0xbe5a50cb	-0.21319883
47	0x3d372dcf	0.04472142
48	0x3f55412a	0.8330256
49	0xbf3035bf	-0.6883201
50	0x3eeed9c9	0.46650532
51	0xbdeaf59a	-0.11472626
52	0xbd72b1ce	-0.0592516
53	0x3e88a186	0.26685733
54	0xbc52235c	-0.012825813
55	0x3c6fc987	0.01463545
56	0x3c001644	0.007817809
57	0xbcc4a744	-0.02400554
58	0x3cb35581	0.021891357
59	0x3d885722	0.06657244
60	0xbdeedccc	-0.116632074
61	0x3e94f040	0.29089546
62	0x3c6b7f5c	0.014373627
63	0xbdaa3736	-0.08311312
64	0x3e56e5a8	0.20986044
65	0xbea17184	-0.31531918
66	0x3d099520	0.033589482
67	0xbdca3072	-0.098725215
68	0xbd1abcc1	-0.037777666
69	0x3eb31b98	0.3498199
70	0x3d1805fd	0.037115086
71	0xbd656dbd	-0.056012858
72	0x3ebfd4cd	0.37467042
73	0xbf54bc12	-0.8309947
74	0x3c805ca6	0.015669178
75	0xbd37d885	-0.044884223
76	0xbe07d543	-0.13264947
77	0xbfcdd7dd	-1.6081501
78	0xbc5056cd	-0.012716007
79	0xbc3786cc	-0.011201572
80	0xbd3142b9	-0.043276522
81	0xbbd07e13	-0.0063626855
82	0x3cd9be32	0.02657995
83	0xbc22b459	-0.009930694
84	0xbd9795ef	-0.074016444
85	0xbfd09edf	-1.6298484
86	0xbc5f0697	-0.013612411
87	0x3bd1332a	0.006384273
88	0xbe1a7a68	-0.15085757
89	0xbe977397	-0.29580376
90	0x3bbb2132	0.0057107443
91	0xbd0d89b8	-0.034555167
92	0xbe04ff34	-0.12987977
93	0xbfd4a24c	-1.6612029
94	0xbce3c430	-0.02780351
95	0xbcbcc229	-0.023041802
96	0xbee55f75	-0.4479939
97	0xbf639c7e	-0.88910663
98	0xbca5e7ab	-0.02025207
99	0x3cd31df8	0.025771126
100	0xbe521c8c	-0.20518702
101	0xbe9a21d2	-0.30103928
102	0xbfaee41f	-1.3663367
103	0x3ee0202c	0.43774545
104	0x3d5008ee	0.050789766
105	0x3e59099f	0.21195076
106	0xbc72dd1f	-0.014823227
107	0x3da5c0d2	0.08093418
108	0x3ca566f4	0.020190693
109	0xbe8c0b13	-0.273522
110	0x3c5e13ad	0.013554496
111	0x3da8f04f	0.0824896
112	0x3e5c6664	0.21523434
113	0x3e4018f4	0.18759519
114	0x3ca67237	0.020318134
115	0xbcfff31d	-0.031243855
116	0x3eba0058	0.36328387
117	0x3de0a568	0.10969049
118	0xbd1bc9cb	-0.03803424
119	0x3ba191d2	0.004930713
120	0x3ece5ae4	0.4030372
121	0x3e07009c	0.13183826
122	0x3d75a5be	0.059972517
123	0x3e194ea2	0.14971402
124	0x3f078da9	0.5295053
125	0x3ee2ab31	0.44271234
126	0x3d5b88ff	0.053597447
127	0x3da2454b	0.07923373
128	0x3e9ecc74	0.3101536
129	0xbf066088	-0.52491045
130	0xbd3ea362	-0.046542533
131	0xbe139176	-0.14410958
132	0x3bcfe7d9	0.006344777
133	0xbe8d26bd	-0.27568617
134	0xbc8165a5	-0.015795538
135	0xbdef31a6	-0.116793916
136	0x3ebd3d80	0.36960983
137	0xbf295afc	-0.66154456
138	0xbd482569	-0.048863802
139	0xbd59fb96	-0.053218447
140	0xbeaf3055	-0.34216562
141	0x3e3acd08	0.18242276
142	0xbc7982e9	-0.015228965
143	0xbde51dbb	-0.11187311
144	0x3ee1c8ce	0.44098514
145	0xbf4b5aff	-0.79435724
146	0xbd6d21a3	-0.057893407
147	0x3e00627b	0.12537567
148	0xbf092ab5	-0.5358079
149	0x3eea84e6	0.45804518
150	0xbda19765	-0.07890204
151	0x3e1f3729	0.15548386
152	0x3ec8c181	0.39210132
153	0x3ef1dfbf	0.47241017
154	0x401be75b	2.4359958
155	0xbcff2256	-0.031144302
156	0x3e99c563	0.30033407
157	0x3f923e68	1.1425295
158	0x3d3bd748	0.045859605
159	0xbe4a0605	-0.19728859
160	0xbe3d1485	-0.18464859
161	0xbe878433	-0.26468047
162	0x3d7992d1	0.06093103
163	0xbe0ed6c0	-0.13949108
164	0x3ecd1cd1	0.40061048
165	0x3f8f0da3	1.1176037
166	0x3d686a94	0.056742266
167	0xbdd8485b	-0.10560676
168	0xbe93b7b5	-0.28851095
169	0xbe36ddf1	-0.17858101
170	0x3d6bdd66	0.05758419
171	0xbdcf7b0e	-0.10130893
172	0x3e9c9c3c	0.30587947
173	0x3f87e758	1.0617476
174	0xbe0cb9ea	-0.13742796
175	0x3dfcc7e0	0.12342811
176	0xbf086a04	-0.53286767
177	0xbecbf133	-0.39832458
178	0xbda13390	-0.07871163
179	0x3d4afb22	0.049555905
180	0x3e58eb80	0.21183586
181	0x3db49f65	0.088194646
182	0xbbcabd26	-0.006187099
183	0x3d7a9370	0.061175764
184	0x3e31632f	0.17322992
185	0xbea75844	-0.3268453
186	0x3d4a8914	0.049447134
187	0xbc92363b	-0.017848125
188	0x3e22ea51	0.15909697
189	0x3dfec29c	0.124394625
190	0xb9eacf6f	-0.00044786508
191	0x3c8424ba	0.016130794
192	0x3e7b0982	0.24515346
193	0xbe4c7e0d	-0.1996996
194	0xbd1bc9c3	-0.03803421
195	0x3d8a6575	0.06757633
196	0x3dcf8b7d	0.10134027
197	0x3cf4fcb7	0.02990566
198	0x3add4184	0.0016880487
199	0xbad849b0	-0.0016501453
200	0x3f0b2875	0.5435861
201	0xbebcfb3e	-0.36910433
202	0x3c05ffe0	0.008178681
203	0xbcdd586b	-0.0270197
204	0xbf3bc500	-0.73347473
205	0xbcb40eb7	-0.021979673
206	0xbe1f4cfc	-0.15556711
207	0x3efe98ca	0.49725944
208	0x3efefe78	0.4980352
209	0xbe52d69a	-0.20589676
210	0x3deabcb3	0.11461773
211	0xbdd02e56	-0.10165088
212	0xbd8e16e9	-0.069379635
213	0xbee4058a	-0.44535476
214	0x3d953b38	0.07286686
215	0xbe1e5f67	-0.1546608
216	0x3e2c074f	0.16799663
217	0xbea57242	-0.32313734
218	0xbdf0e389	-0.11762149
219	0x3f03e357	0.5151877
220	0xbe0e2a1e	-0.13883254
221	0xbebace7c	-0.3648566
222	0xbdfb8a6c	-0.12282261
223	0x3f04e914	0.5191815
224	0x3da8d505	0.08243755
225	0xbe4e1597	-0.20125423
226	0x3e1141f4	0.14185315
227	0x3ee74a5e	0.45173925
228	0xbde31d3b	-0.1108956
229	0xbef10ac0	-0.47078514
230	0x3d4b90f5	0.04969879
231	0x3ed61ff3	0.4182125
232	0x3e47a7c2	0.19497588
233	0x3ef257f0	0.47332716
234	0x3c10acd3	0.008830267
235	0x3ed21414	0.41030943
236	0x3de9a627	0.11408644
237	0xbedb3e58	-0.42821002
238	0x3c8f34a2	0.017481152
239	0x3ec8b841	0.39203075
240	0x3df43f2c	0.119261116
241	0x3ec48b8c	0.38387716
242	0xbe4ea120	-0.20178652
243	0x3ed52066	0.4162628
244	0x3e46634b	0.19373815
245	0xbed39529	-0.41324738
246	0xbe48a6dd	-0.19594903
247	0x3ed37038	0.41296554
248	0x3dc99914	0.098436505
249	0x3e81ab7e	0.2532615
250	0x3e09ca84	0.1345616
251	0xbe8af32d	-0.27138653
252	0x3dbe7fcd	0.0930172
253	0xbed1e52f	-0.40995166
254	0x3da3789b	0.07981988
255	0xbe56d82a	-0.20980898

fcs1.bias f4 [400]
0	0xbe3f18d1	-0.1866181
1	0x3eb363d5	0.35037103
2	0xbf3d4145	-0.7392772
3	0xbf211eca	-0.62937605
4	0xbe6f9dbd	-0.23400016
5	0xbedff268	-0.4373963
6	0xbeb53140	-0.35389137
7	0xbf60b8a6	-0.8778175
8	0x3e456234	0.19275743
9	0xbe283271	-0.16425492
10	0x3d859e4b	0.065243326
11	0xbe20caa0	-0.15702295
12	0xbe96ffc7	-0.29492018
13	0xbe2f52b5	-0.17121394
14	0xbdfadf92	-0.12249674
15	0x3e9f1dd7	0.31077453
16	0x3e0286a4	0.12746674
17	0x3be58582	0.0070044408
18	0x3bf827b7	0.0075730938
19	0xbd9a4e97	-0.07534521
20	0xbedde595	-0.4333922
21	0xbf0dd3c8	-0.5540128
22	0x3e96164e	0.29313892
23	0xbe9d426e	-0.30714744
24	0xbedf59f9	-0.4362333
25	0xbed01219	-0.40638807
26	0x3e095254	0.13410312
27	0xbeba04d2	-0.36331803
28	0xbec94dea	-0.39317256
29	0xbeb1519b	-0.34632573
30	0xbe78a624	-0.24282128
31	0xbe1ac49d	-0.15114065
32	0xbe82807c	-0.2548865
33	0xbe79ce3a	-0.24395075
34	0xbee3ec2b	-0.4451612
35	0xbe5283b3	-0.20558052
36	0xbde0a9cf	-0.109698884
37	0xbec20004	-0.37890637
38	0xbea4811c	-0.32129753
39	0xbfbbe629	-1.4679614
40	0xbe64fbc2	-0.22361663
41	0xbe81c927	-0.2534878
42	0xbe72fa8e	-0.23728392
43	0xbee6df8d	-0.4509243
44	0xbf962da3	-1.1732677
45	0x3f0379bc	0.51357627
46	0xbe3fb533	-0.18721466
47	0xbcda1868	-0.026622966
48	0x3d9f12c5	0.07767252
49	0xbf03fc39	-0.51556736
50	0x3ea99fc0	0.33129692
51	0xbd19755e	-0.037465446
52	0x3e053ed0	0.13012242
53	0xbce30649	-0.027712958
54	0xbd0ca448	-0.03433636
55	0x3da589c2	0.08082916
56	0x3e00b166	0.12567672
57	0xbee4f52b	-0.44718298
58	0x3dda978f	0.10673439
59	0xbe52e5ce	-0.20595476
60	0xbeea04ef	-0.4570689
61	0xbe8eb908	-0.27875543
62	0x3d475d85	0.04867317
63	0x3eb2832a	0.34865695
64	0xbf4b8b01	-0.7950898
65	0xbe25184c	-0.1612255
66	0xbe9f4eec	-0.311149
67	0xbe9e8c13	-0.30966243
68	0xbd98ed7d	-0.07467172
69	0x3d9536bf	0.072858326
70	0xbf8753e3	-1.0572475
71	0xbf2fbda9	-0.68648773
72	0xbf28c97b	-0.65932435
73	0xbe3b22ec	-0.1827504
74	0xbe2352f0	-0.15949607
75	0x3ca00c14	0.01953701
76	0xbe291a6a	-0.16513982
77	0x3b0e1ef0	0.002168592
78	0xbe7472f4	-0.23871976
79	0xbf3ea373	-0.74468154
80	0x3d8ad4dc	0.06778881
81	0xbb89a50f	-0.0042005847
82	0xbf44d39f	-0.7688541
83	0xbf1abb62	-0.60442173
84	0x3ea0aa47	0.3137991
85	0xbf3d3d3c	-0.7392156
86	0xbe494e16	-0.19658694
87	0xbd394af8	-0.04523751
88	0xbe9cd0b3	-0.30627975
89	0xbd9f2821	-0.07771326
90	0xbe9da1f4	-0.30787623
91	0xbe10f18b	-0.14154641
92	0xbec472fc	-0.38368976
93	0xbe2a4847	-0.16629134
94	0xbe6012f1	-0.21882226
95	0xbdcb5236	-0.0992779
96	0xbeb39a57	-0.3507869
97	0x3e26f347	0.1630374
98	0xbec05c7e	-0.37570566
99	0xbe665905	-0.22494896
100	0x3d0589e5	0.03260221
101	0x3b97b1c3	0.004629345
102	0xbeae9246	-0.34095973
103	0xbe614f35	-0.22002871
104	0xbe26c5c5	-0.1628638
105	0xbeebcae4	-0.4605323
106	0xbf01775d	-0.5057276
107	0xbe558c2c	-0.20854253
108	0xbee0139e	-0.43764967
109	0xbe1c7042	-0.15277198
110	0xbe1c97dd	-0.15292306
111	0xbddf7f5a	-0.10912962
112	0x3d753ad9	0.059870575
113	0xbf7081a2	-0.93947804
114	0xbe95ea4d	-0.2928032
115	0xbdd0249d	-0.101632334
116	0x3e91c4d5	0.28470483
117	0xbe1196ca	-0.14217678
118	0xbe00109c	-0.12506336
119	0x3db1e863	0.086869024
120	0xbeadd8d1	-0.3395448
121	0xbe89a19c	-0.2688111
122	0xbebadd38	-0.36496902
123	0x393dae66	0.00018089413
124	0xbe3a4c0c	-0.18193072
125	0xbed3ec50	-0.4139123
126	0xbe8a2764	-0.26983178
127	0x3de758a5	0.112962045
128	0xbf188d3d	-0.5959051
129	0xbc5752bc	-0.013142284
130	0xbedef50e	-0.43546337
131	0x3d47c288	0.048769504
132	0xbe960259	-0.29298666
133	0x3dd9c62d	0.10633502
134	0xbc9d1c1f	-0.019178448
135	0xbdc6be07	-0.097042136
136	0xbe046c20	-0.12931871
137	0xbe10049f	-0.14064263
138	0xbe858ccf	-0.2608399
139	0xbedd7e99	-0.4326065
140	0xbf3444c0	-0.70417404
141	0xbf0ed774	-0.55797505
142	0xbeb3cc0e	-0.3511662
143	0x3bb8c4f6	0.005638714
144	0xbe4dcd31	-0.20097806
145	0xbca620f5	-0.020279387
146	0x3daaa7a6	0.08332758
147	0xbea9a752	-0.33135468
148	0xbeb7c87b	-0.35895142
149	0x3b498907	0.003075184
150	0xbe10ba14	-0.14133483
151	0xbe2bf3c1	-0.16792203
152	0xbe3eb34d	-0.18623085
153	0xbf689534	-0.90852666
154	0xbe2412bd	-0.16022773
155	0x3ef4f16e	0.47840446
156	0xbdec2a93	-0.11531558
157	0x3d288e67	0.04115143
158	0xbe9a3e1a	-0.30125505
159	0xbe816856	-0.25274915
160	0xbe4fa8cf	-0.20279239
161	0xbd25eb27	-0.040507462
162	0xbecef1f1	-0.40418962
163	0x3e115ece	0.14196321
164	0x3d3c5b82	0.045985706
165	0xbec4a93d	-0.3841037
166	0xbeae6721	-0.34063056
167	0xbeb715d1	-0.35758832
168	0xbe747655	-0.23873265
169	0xbefecf61	-0.49767593
170	0xbeadd87f	-0.33954236
171	0xba8f1706	-0.0010916896
172	0xbecd720a	-0.40126067
173	0xbd034503	-0.032048237
174	0x3cfadf0b	0.030623933
175	0xbde10ee0	-0.10989165
176	0xbefa5eed	-0.48900548
177	0xbd3d6a64	-0.04624404
178	0xbea012e1	-0.31264403
179	0x3dcf4cf7	0.10122102
180	0xbb87202f	-0.0041237096
181	0xbe742e54	-0.23845798
182	0xbf5afb60	-0.8553982
183	0xbeb6434f	-0.35598227
184	0xbe56ecae	-0.20988724
185	0xbd597f26	-0.053099774
186	0xbda01ed6	-0.078183815
187	0xbe3a7203	-0.18207555
188	0xbea90c65	-0.3301727
189	0x3dedd409	0.11612708
190	0xbf2e84f2	-0.6817161
191	0xbe4e609d	-0.20154043
192	0xbd5ff229	-0.0546743
193	0xbe20804e	-0.15673944
194	0xbe8bbd38	-0.272928
195	0x3e2491e0	0.16071272
196	0xbe3ad92c	-0.18246907
197	0xbe9169da	-0.2840107
198	0xbedf9603	-0.43669137
199	0xbe75e34b	-0.24012487
200	0xbf27ea97	-0.6559233
201	0xbf1a9cba	-0.60395396
202	0xbd83bdbe	-0.06432675
203	0xbe5a3abc	-0.21311468
204	0xbd1bcbdf	-0.038036224
205	0xbecbb892	-0.39789253
206	0xbeab44c8	-0.33450913
207	0xbdbb172c	-0.09135279
208	0xbda9e236	-0.082950994
209	0x3ef1b215	0.47206178
210	0x3e7de547	0.24794494
211	0xbf0356ae	-0.5130414
212	0xbf556b9c	-0.83367324
213	0xbe4923df	-0.1964259
214	0xbd521162	-0.05128611
215	0xbc64f33b	-0.013974006
216	0xbe313149	-0.17303957
217	0xbf4083ff	-0.7520141
218	0xbe6de9b3	-0.2323368
219	0x3d5a8fa9	0.05335966
220	0xbf0ee1e6	-0.55813444
221	0xbd179a6d	-0.037012506
222	0xbf83d285	-1.029862
223	0xbf5af91d	-0.85536367
224	0xbe7f6e7a	-0.24944487
225	0xbf2914be	-0.66047275
226	0xbe2f7d9b	-0.17137758
227	0xbe39dca2	-0.18150571
228	0xbea81cb3	-0.32834396
229	0xbedce42b	-0.43142828
230	0xbe8e4225	-0.2778484
231	0xbe928b65	-0.28621975
232	0xbedc359b	-0.43009648
233	0xbdb242f2	-0.08704175
234	0xbdc60ff4	-0.096710116
235	0x3ce0e3fa	0.027452458
236	0xbdc3ac2d	-0.09554324
237	0x3d5183e1	0.05115116
238	0xbf09d634	-0.53842473
239	0xbf0767dd	-0.5289286
240	0xbdb029c6	-0.08601718
241	0xbe7b8051	-0.24560668
242	0x3d003280	0.03129816
243	0xbf33e336	-0.7026857
244	0xbebe684b	-0.37188944
245	0x3d5a7032	0.053329654
246	0xbebde025	-0.3708507
247	0x3e7b6734	0.24551088
248	0xbd001392	-0.031268664
249	0xbdf95636	-0.121746466
250	0xbe6b6d9d	-0.22991033
251	0xbdbb8399	-0.0915596
252	0x3e177bd4	0.1479333
253	0xbea9d337	-0.33168957
254	0xbe6abba9	-0.22923149
255	0xbd16e364	-0.03683795

fc2.weight f4 [300, 400]
0	0x3cbdb3d5	0.02315704
1	0xbd1230e8	-0.035691172
2	0xbcbbab0e	-0.022908714
3	0x3d107eef	0.035277303
4	0xbcfb642f	-0.03068742
5	0x3c90d584	0.017679937
6	0xbbb1a65d	-0.0054214434
7	0x3cfc7b5b	0.03082054
8	0xbd154086	-0.036438487
9	0x3d1e296e	0.03861373
10	0x3cd2f477	0.025751336
11	0x3cea90c7	0.028633488
12	0x3b76d025	0.0037660685
13	0xbc6527e5	-0.013986562
14	0xbd4fbee0	-0.050719142
15	0x3c8dec2d	0.017324531
16	0xbcca50dd	-0.024696762
17	0xbceafdcf	-0.028685478
18	0x3d10df24	0.035369053
19	0x3bc7402e	0.006080649
20	0xbd602926	-0.054726742
21	0x3d82b409	0.06381995
22	0xbd5ed4c6	-0.054402135
23	0x3d22b187	0.039720085
24	0xbc282321	-0.010262282
25	0x3d8dd880	0.0692606
26	0x3cb337b1	0.021877142
27	0x3cea2989	0.028584259
28	0xbd1c6aa4	-0.038187638
29	0x3d0f14f3	0.034932088
30	0xbc9455bc	-0.018107288
31	0xbd17c213	-0.037050318
32	0xbd0bdf64	-0.03414859
33	0xbd20f89d	-0.039299596
34	0xbb4c1873	-0.0031142503
35	0x3c9948af	0.018711416
36	0x3d27d30d	0.040972758
37	0xbb3b61f4	-0.002859232
38	0xbb3d31eb	-0.0028868865
39	0x3c1b3f4c	0.00947554
40	0x3ceb35ee	0.02871224
41	0xbcb15d61	-0.021650972
42	0x3d7215d4	0.05910285
43	0xbd20e783	-0.039283287
44	0xbd3b949f	-0.045796033
45	0x3d2e0548	0.042485505
46	0xbcc45652	-0.023966942
47	0x3bb69173	0.005571538
48	0x3c40ec7c	0.011775132
49	0x3a069864	0.00051344023
50	0x3d8144d3	0.06311955
51	0xbb35a2bf	-0.0027715412
52	0x3d0c9331	0.03432006
53	0x3d09ff1d	0.03369056
54	0xbd88bf49	-0.0667711
55	0xbb1e62d6	-0.0024167798
56	0xbc09620e	-0.008385194
57	0xbceda80b	-0.029010793
58	0x3c809373	0.01569531
59	0x3d721f97	0.059112158
60	0xbcce164f	-0.025157122
61	0xbba7100c	-0.0050983485
62	0xbcae1c36	-0.021253686
63	0xbd1ac80a	-0.03778843
64	0xbdbb589b	-0.091477595
65	0x3c1e00d6	0.009643754
66	0x3cb549d1	0.022129925
67	0xbc5eb9db	-0.013594116
68	0x3c6ee626	0.014581239
69	0xbd8eb4fb	-0.06968113
70	0x3cd7ab17	0.0263267
71	0xbbc82ce1	-0.0061088656
72	0xbcd181ba	-0.025574554
73	0xbc84c9b9	-0.01620947
74	0x3c1d955a	0.009618128
75	0x3cfeb21e	0.031090792
76	0x3d6baaab	0.05753581
77	0xbc2622a5	-0.010140096
78	0xbcf66e26	-0.03008182
79	0x3cc8a789	0.02449395
80	0x3d76d6a9	0.06026331
81	0xbdd6753e	-0.10471581
82	0xbbec28d9	-0.007207018
83	0x3d6b3108	0.057419807
84	0xbce6b097	-0.028160376
85	0x3be58dea	0.007005443
86	0x3d036352	0.03207714
87	0xbd42be98	-0.047545046
88	0xbd06514f	-0.032792386
89	0xbcb59059	-0.022163557
90	0x3b5f1184	0.003403754
91	0xbd4c8557	-0.04993185
92	0x3c48101f	0.012210875
93	0x3ce48a20	0.027897894
94	0x3dc32a44	0.09529546
95	0xbd01f240	-0.03172517
96	0x3b212f68	0.0024594907
97	0xbbbd2106	-0.005771759
98	0xbcb6051a	-0.02221923
99	0x3da137ee	0.07871996
100	0x3bf44332	0.0074542994
101	0xbb829e7b	-0.0039861775
102	0xbd55aa8e	-0.052164607
103	0xbc26b5d8	-0.010175191
104	0x3b67f0d7	0.0035391354
105	0x3d1711ef	0.036882337
106	0x3b9b7274	0.0047438685
107	0x3cff5100	0.031166553
108	0xbbd12b16	-0.00638331
109	0x3d4d4be6	0.05012121
110	0xbd151f2f	-0.036406692
111	0xbcfb14bc	-0.030649535
112	0xbcb8faba	-0.022580493
113	0xbd0fd653	-0.035116505
114	0xbd1db7c1	-0.03850532
115	0x3c15d43a	0.009144837
116	0xbcdbb0a9	-0.026817637
117	0xbd14c07c	-0.03631638
118	0xbd619f56	-0.055083595
119	0xbd48e889	-0.049049888
120	0xbcff40fd	-0.031158919
121	0xbd09df99	-0.033660505
122	0x3cb82631	0.022479149
123	0x3c58c8c1	0.013231457
124	0x3d4180aa	0.047241844
125	0x3c08ae7b	0.008342381
126	0x3d5d4314	0.05401905
127	0x3b47f6ed	0.003051217
128	0x3d3cd728	0.046103626
129	0xbd9272d8	-0.07150811
130	0xbcf5e085	-0.030014286
131	0xbbbb774b	-0.005721008
132	0xbc83b3db	-0.016076973
133	0xbbaa8469	-0.005203773
134	0x3d59fe34	0.053220943
135	0xbcbe2033	-0.023208713
136	0xbca97351	-0.02068487
137	0x3c51a8b4	0.01279657
138	0x3c69ecb6	0.014277628
139	0xbd2eb0a5	-0.04264893
140	0xbd3277be	-0.043571226
141	0xbd1cfcf8	-0.038327187
142	0xbc90de93	-0.017684257
143	0x3d058dba	0.032605864
144	0xbd1b0456	-0.037845932
145	0xbd13550c	-0.03596978
146	0xbdb0f8ab	-0.0864118
147	0xbd0181b7	-0.031617846
148	0xbd5c8ba7	-0.05384412
149	0xbd692ad4	-0.05692561
150	0xbd25d76a	-0.040488638
151	0x3d419df3	0.047269773
152	0xbd51e37b	-0.051242333
153	0x3c4d0ce7	0.012515283
154	0xbc354621	-0.011064083
155	0xbd8b01fc	-0.06787488
156	0x3cc8b66b	0.024501046
157	0x3bb62f43	0.0055598333
158	0xbd4cea82	-0.05002833
159	0xbc6ee617	-0.014581225
160	0xbbba66b3	-0.005688512
161	0xbd31e45e	-0.04343068
162	0xbcb7725c	-0.022393398
163	0x3cb7f44c	0.022455357
164	0x3c220225	0.009888207
165	0x3c817fb8	0.015807971
166	0xbc0121b7	-0.007881573
167	0xbd6836f5	-0.056693036
168	0x3d446370	0.047946393
169	0xbd534a80	-0.05158472
170	0x3c7d73f6	0.015469542
171	0x3c60dc4d	0.013724399
172	0x3d05c9e0	0.032663226
173	0x3d0899e0	0.03334987
174	0xbbce3720	-0.0062931925
175	0x3b27ef8e	0.0025624963
176	0xbce025c8	-0.027361766
177	0xbbc51d51	-0.0060154577
178	0x3c9c6b6a	0.019094188
179	0xbcda8b6d	-0.026677812
180	0x3cf7c2fd	0.030244345
181	0xbcbb8a7a	-0.02289318
182	0xbc2db0fd	-0.010601279
183	0xba2ecf94	-0.0006668505
184	0x3ccf4889	0.025303142
185	0xbc2f9e24	-0.010718856
186	0x3c6f7a58	0.014616571
187	0x3d56e140	0.05246091
188	0xbd0443e4	-0.032291308
189	0xbc29002c	-0.010314982
190	0xbba6f39f	-0.00509496
191	0xbd012b94	-0.0315357
192	0x3d3b0a1c	0.045663938
193	0xbd825955	-0.06364695
194	0xbd2105f2	-0.03931231
195	0xbcd868e5	-0.026417205
196	0xbcb9a1e2	-0.0226602
197	0xbd6f2656	-0.05838617
198	0x3c0dfb04	0.008665804
199	0x3cfe11ea	0.031014401
200	0xbcefa0a2	-0.0292514
201	0x3c58738d	0.013211143
202	0xbd076ea8	-0.033064514
203	0xbd161ce2	-0.03664864
204	0xbcad43eb	-0.02115055
205	0xbcfcc131	-0.03085384
206	0xbd4ffab7	-0.05077621
207	0x3d8fee53	0.070278786
208	0xbd372f50	-0.044722855
209	0x3d0d7698	0.034536928
210	0xbaf29183	-0.0018506501
211	0xbc440306	-0.0119636115
212	0x3cd4c52d	0.025972927
213	0x3c3074cd	0.010770035
214	0x3d26c530	0.040715396
215	0xbd44a42c	-0.04800813
216	0x3d37b899	0.04485378
217	0xbd01ae87	-0.031660583
218	0xbc41ac35	-0.0118208425
219	0xbd1f70fb	-0.038926106
220	0x3d49e7b1	0.049293224
221	0xbca22194	-0.019791402
222	0x3d145730	0.03621596
223	0x3c70ad54	0.014689762
224	0x3d4a535e	0.04939591
225	0x3ce46a1d	0.02788263
226	0xbcacc63e	-0.021090623
227	0x3d2db6a2	0.0424105
228	0x3ccfe030	0.025375456
229	0xbc1afd5b	-0.009459819
230	0xbc01a236	-0.007912209
231	0xbc96a127	-0.01838739
232	0x3d5fcb96	0.054637514
233	0x3cb654b9	0.022257196
234	0xbcf6c7f3	-0.03012464
235	0xbcba0238	-0.022706136
236	0xbbb93cdb	-0.0056530065
237	0x3cb64ba3	0.022252863
238	0x3d2387a4	0.03992428
239	0x3adc9975	0.0016830402
240	0xbb46ba8f	-0.00303236
241	0xbd572385	-0.05252411
242	0xbb3721d5	-0.002794375
243	0xbd70d444	-0.058796182
244	0xbd5901b7	-0.05298015
245	0x3d47fdf4	0.048826173
246	0xbd4a9680	-0.049459934
247	0xbd899ed9	-0.06719751
248	0xbceb68a2	-0.028736416
249	0x3d1474af	0.03624409
250	0xbc986880	-0.018604517
251	0xbce7fce9	-0.02831884
252	0xbd2682a5	-0.040651936
253	0xbca987b4	-0.020694591
254	0xbd1502e5	-0.036379714
255	0xbd19f3dc	-0.037586078

fc2.bias f4 [300]
0	0xbd34b1e5	-0.044114966
1	0xbd42318b	-0.04741053
2	0xbd8adf03	-0.06780817
3	0xbe1ca178	-0.1529597
4	0xbe19ccd0	-0.15019536
5	0xbd753294	-0.05986269
6	0xbe1bf600	-0.1523056
7	0xbdfa837c	-0.1223211
8	0xbe32efac	-0.1747424
9	0xbdd1d4e5	-0.102456845
10	0xbe4f2b76	-0.20231423
11	0xbe5d7c8e	-0.21629545
12	0xbe4c80ec	-0.19971055
13	0xbdfa3d6d	-0.12218747
14	0xbdb4868e	-0.08814727
15	0xbdfae27c	-0.1225023
16	0xbd6b7e13	-0.05749328
17	0xbe22ccf7	-0.158985
18	0xbe044ac5	-0.12919147
19	0xbdde2ec0	-0.108487606
20	0xbe4532cd	-0.1925766
21	0xbe0773c0	-0.13227749
22	0xbdf8abcb	-0.12142142
23	0xbe5141bc	-0.20435232
24	0xbe7ea217	-0.2486652
25	0xbe57b7b0	-0.21066165
26	0x3caa3be6	0.020780515
27	0xbd8bd9a2	-0.068286195
28	0xbd6a1250	-0.05714637
29	0xbd92bac2	-0.071645275
30	0xbe68b1ea	-0.22724119
31	0xbe09fb09	-0.13474669
32	0xbe524f31	-0.20538022
33	0xbddc5893	-0.10759082
34	0xbdecfd69	-0.11571772
35	0xbdb295d2	-0.08719982
36	0xbe06c73c	-0.1316194
37	0xbe0003ed	-0.12501498
38	0xbe4da180	-0.20081139
39	0xbdd1e959	-0.10249586
40	0xbd6ea87a	-0.05826614
41	0xbd8ad83e	-0.06779526
42	0xbe0f8da0	-0.1401887
43	0xbd9af07f	-0.07565402
44	0xbe14a357	-0.14515434
45	0xbe5875b5	-0.21138652
46	0xbe2d6ae0	-0.16935301
47	0xbd0fa1d9	-0.03506646
48	0xbe6614c4	-0.22468859
49	0xbe1f2a32	-0.1554344
50	0xbe1be3df	-0.15223645
51	0xbe058213	-0.130379
52	0xbdd3fb3c	-0.103506535
53	0xbe06873e	-0.13137528
54	0xbd72194d	-0.05910616
55	0xbe0b9db6	-0.1363438
56	0xbe191467	-0.14949189
57	0xbda305cb	-0.07960089
58	0xbdcd6236	-0.10028498
59	0xbdb69144	-0.08914426
60	0xbd92f5bd	-0.07175777
61	0xbe0504c7	-0.12990104
62	0xbe23f6b5	-0.1601208
63	0xbdca7198	-0.098849475
64	0xbdb5b7c2	-0.0887294
65	0xbdc88932	-0.09791793
66	0xbd802b77	-0.0625829
67	0xbe19b1b6	-0.15009198
68	0xbde8524f	-0.11343824
69	0xbe2b63be	-0.16737267
70	0xbe35007e	-0.17675969
71	0xbe24952c	-0.1607253
72	0xbd9e6134	-0.07733384
73	0xbd89bf69	-0.06725962
74	0xbdb1655a	-0.086619094
75	0xbde30943	-0.11085751
76	0xbdcd5f90	-0.10027993
77	0xbe3ad1d8	-0.18244112
78	0xbdf6d1f6	-0.120517656
79	0xbe48a2e9	-0.19593395
80	0xbd866b82	-0.06563474
81	0xbd83713f	-0.06418084
82	0xbe064f74	-0.13116246
83	0xbdfa8c79	-0.12233824
84	0xbdcbdd66	-0.09954338
85	0xbdc376d4	-0.09544149
86	0xbd321f2d	-0.043486763
87	0xbdcf6222	-0.10126139
88	0xbe0fd48e	-0.14045927
89	0xbe032fc5	-0.12811191
90	0xbe40d519	-0.1883129
91	0xbdd841e6	-0.10559444
92	0xbdbd6d9c	-0.09249422
93	0xbdafa20c	-0.0857583
94	0xbdc0dfed	-0.094177105
95	0xbd9c88a0	-0.07643247
96	0xbe0a9cb3	-0.13536339
97	0xbd8c5a1b	-0.06853124
98	0xbe624eec	-0.22100419
99	0xbe1ee946	-0.15518674
100	0xbdf00c7e	-0.11721133
101	0xbd6b8c06	-0.057506584
102	0xbdcc136c	-0.09964642
103	0xbdc90918	-0.098161876
104	0xbe075b37	-0.1321839
105	0xbe12f207	-0.14350139
106	0xbdf0b968	-0.117541134
107	0xbde34fdb	-0.110992156
108	0xbda3701b	-0.07980367
109	0xbd8941a8	-0.06701976
110	0xbe27086d	-0.16311808
111	0xbe36b39b	-0.17841952
112	0xbea1909f	-0.3155565
113	0xbe930b40	-0.2871952
114	0xbd2c3a8f	-0.042048033
115	0xbdc6f0f5	-0.09713928
116	0xbdbfac40	-0.09359026
117	0xbe024536	-0.12721714
118	0xbde498a3	-0.11161926
119	0xbd75362a	-0.059866108
120	0xbde39a47	-0.111134104
121	0xbde3d43e	-0.11124466
122	0xbe17accd	-0.14812012
123	0xbe135260	-0.14386892
124	0xbd77c406	-0.060489677
125	0xbe1c0991	-0.15238024
126	0xbe4c5e55	-0.1995786
127	0xbd40d95a	-0.047082283
128	0xbe159c50	-0.1461041
129	0xbd87dbd9	-0.066337295
130	0xbe090d7a	-0.13384047
131	0xbdacb5e8	-0.08433133
132	0xbdf282ef	-0.1184138
133	0xbea0aaad	-0.31380215
134	0xbe31c568	-0.17360461
135	0xbd92d177	-0.071688585
136	0xbd8e9bae	-0.06963287
137	0xbc360181	-0.011108757
138	0xbde8d8d6	-0.11369483
139	0xbe0a896d	-0.13528986
140	0xbdf877e5	-0.12132243
141	0xbd8f2c14	-0.06990829
142	0xbda2e505	-0.07953838
143	0xbdbaa204	-0.09112933
144	0xbdb94b2f	-0.09047543
145	0xbe105479	-0.14094724
146	0xbce8ec01	-0.028432848
147	0xbe035929	-0.1282698
148	0xbd830d30	-0.06399
149	0xbd11200c	-0.035430953
150	0xbd3ef48a	-0.04661993
151	0xbe091a07	-0.13388835
152	0xbe250fcf	-0.16119312
153	0xbd3900c9	-0.045166764
154	0xbe4cb5b0	-0.19991183
155	0xbd9eb62d	-0.07749591
156	0xbe1d7d6f	-0.1537988
157	0xbe6fcc4a	-0.23417774
158	0xbe072b18	-0.13200033
159	0xbdaf7d5e	-0.08568834
160	0xbde48deb	-0.11159881
161	0xbd8f4aad	-0.06996665
162	0xbe1114f4	-0.14168149
163	0xbe2355dd	-0.15950723
164	0xbe488a55	-0.1958402
165	0xbe079d22	-0.13243535
166	0xbd7bda7f	-0.06148767
167	0xbd743985	-0.059625167
168	0xbd9da5fe	-0.07697676
169	0xbdc3659b	-0.09540864
170	0xbe169456	-0.14705023
171	0xbde78617	-0.113048725
172	0xbe27bde0	-0.16381025
173	0xbe1b6f9e	-0.15179297
174	0xbe3f7006	-0.18695077
175	0xbd8c533c	-0.06851813
176	0xbd8a08bb	-0.067399465
177	0xbe03685f	-0.12832783
178	0xbda6b48e	-0.08139907
179	0xbe04cb80	-0.12968254
180	0xbdfdd80e	-0.12394725
181	0xbdb0845d	-0.08618996
182	0xbe510000	-0.20410156
183	0xbdea2e52	-0.11434616
184	0xbcf90721	-0.030398907
185	0xbe730807	-0.23733531
186	0xbe2303cf	-0.15919422
187	0xbd75b226	-0.05998435
188	0xbda9b294	-0.08286014
189	0xbe57a8c1	-0.21060468
190	0xbddffb09	-0.10936553
191	0xbe008bc0	-0.1255331
192	0xbe1f1a46	-0.15537366
193	0xbe0d9b07	-0.1382867
194	0xbd48adc4	-0.04899384
195	0xbd9229ac	-0.071368545
196	0xbdecbdc8	-0.115596354
197	0xbe73b31d	-0.23798795
198	0xbe453277	-0.19257532
199	0xbdacce5f	-0.084378
200	0xbd95b197	-0.07309263
201	0xbd60c208	-0.054872543
202	0xbd86974e	-0.06571828
203	0xbe01ae99	-0.1266426
204	0xbdbffa3f	-0.093739025
205	0xbe037c3e	-0.12840363
206	0xbdf26c2d	-0.11837039
207	0xbdb04f9e	-0.08608936
208	0xbd67ce73	-0.05659337
209	0xbe5037aa	-0.20333734
210	0xbe34ef78	-0.17669475
211	0xbd1aff51	-0.037841145
212	0xbd9a1903	-0.07524302
213	0xbe01186c	-0.12606972
214	0xbe26010d	-0.16211338
215	0xbe082652	-0.13295868
216	0xbdf6a37c	-0.12042901
217	0xbd8aafc5	-0.06771807
218	0xbd9a5e23	-0.075374864
219	0xbe128b97	-0.14311062
220	0xbdc48d21	-0.09597231
221	0xbde676f7	-0.112531595
222	0xbd080f50	-0.03321773
223	0xbdd347ac	-0.10316405
224	0xbdcbff2a	-0.09960778
225	0xbe1ed25e	-0.15509936
226	0xbdfc0779	-0.12306113
227	0xbe1f7e33	-0.15575485
228	0xbe0677b9	-0.13131608
229	0xbdc13394	-0.09433666
230	0xbdff4fdc	-0.12466404
231	0xbe05dffc	-0.13073725
232	0xbe12b785	-0.1432782
233	0xbe1f5179	-0.15558423
234	0xbe102bf1	-0.14079262
235	0xbdda46cd	-0.106580354
236	0xbdc65280	-0.096837044
237	0xbdb32504	-0.087472945
238	0xbe14fd59	-0.1454977
239	0xbe134fdc	-0.14385933
240	0xbde9a2ae	-0.11407982
241	0xbdd86a0f	-0.10567104
242	0xbe0cad55	-0.13737996
243	0xbda4bf4f	-0.08044302
244	0xbe3da7b7	-0.1852101
245	0xbd8f597f	-0.06999492
246	0xbe3c11ad	-0.18366118
247	0xbdf1d3e7	-0.11807995
248	0xbe693d01	-0.22777177
249	0xbe02580a	-0.12728897
250	0xbe267e68	-0.16259158
251	0xbe0813cd	-0.13288803
252	0xbd812dff	-0.06307601
253	0xbe38e0f5	-0.18054564
254	0xbd1b43ee	-0.03790658
255	0xbe8f7b10	-0.28023577

fc3.weight f4 [1, 300]
0	0xbb3c34fb	-0.0028718102
1	0x3c17034b	0.009217094
2	0x3c7bc881	0.015367628
3	0x3c5b715d	0.013393727
4	0xbc4c11c7	-0.01245541
5	0xb8b06267	-8.410663e-05
6	0xba8df6ac	-0.001083096
7	0xbcac3de5	-0.021025607
8	0xbc07cb0a	-0.008288154
9	0x3ce1f956	0.027584713
10	0x3bdbf309	0.0067123217
11	0xbc8f147f	-0.017465828
12	0x3c4e84ea	0.012604931
13	0xbcc7b95f	-0.024380384
14	0xbbbe37a4	-0.0058049727
15	0xbcceb24f	-0.025231509
16	0xbbc179bf	-0.005904406
17	0x3c4c6f2e	0.012477679
18	0xbccd745d	-0.0250799
19	0x3c91a1fd	0.017777437
20	0xb9bbd413	-0.00035825427
21	0xbb069f95	-0.0020541896
22	0x3cb9fb75	0.022702912
23	0xbc2e1af2	-0.010626541
24	0xbc28ad6a	-0.010295251
25	0xbad515f1	-0.0016257149
26	0x3c878e28	0.016547278
27	0x3bb6e2b0	0.0055812225
28	0xbc847a9c	-0.016171746
29	0x39cafaee	0.000387154
30	0xbcca7b36	-0.024716955
31	0xbc280967	-0.010256148
32	0xbca0e26d	-0.019639218
33	0xba80d0ae	-0.0009827816
34	0x3b81e18f	0.0039636563
35	0x3c57f18b	0.013180147
36	0x3cff8fae	0.031196442
37	0x3bc062da	0.005871159
38	0x3b9de245	0.004818233
39	0xbcc10f95	-0.023567
40	0xbc3c37d6	-0.011487922
41	0x3cc3c781	0.023898842
42	0xbc501463	-0.012700173
43	0x3c53e53a	0.01293307
44	0xbce0533d	-0.027383441
45	0x3c1cb536	0.009564688
46	0xbc1e9944	-0.009680096
47	0x3b94fd4a	0.004546796
48	0x3c9483d9	0.018129276
49	0xbb981e44	-0.00464228
50	0xbc6ec3d2	-0.014573054
51	0xba16a4f5	-0.00057466264
52	0xbb5f3188	-0.0034056623
53	0xba1e9dd4	-0.000605074
54	0xba276391	-0.0006385381
55	0xbcd537c7	-0.026027573
56	0x3c6f5386	0.014607316
57	0xbcd3e201	-0.025864603
58	0x3bc9fc79	0.0061641303
59	0xba543cd0	-0.000809622
60	0x3c6794d2	0.014134603
61	0xbcc8b846	-0.02450193
62	0xbb5de91f	-0.0033860875
63	0x3ca07e4c	0.019591473
64	0x3b9a3c08	0.0047068633
65	0xbd13f31b	-0.036120515
66	0x3c9075fd	0.017634386
67	0xb9f98096	-0.00047588785
68	0xbc09e6ed	-0.008416873
69	0x3c88f0d6	0.016716402
70	0xbc4255c2	-0.011861267
71	0xbc6b0b95	-0.014346023
72	0xbc80612a	-0.015671331
73	0x3a790cf1	0.00095005246
74	0xbcd458ca	-0.025921244
75	0xbc82af2e	-0.015952673
76	0xbc5c60b4	-0.01345079
77	0xbca46795	-0.020068923
78	0x38e3d36a	0.000108635824
79	0x3cd2a1c0	0.025711894
80	0xbbd7fb21	-0.006591216
81	0x3bd3f104	0.0064679403
82	0xbce25256	-0.027627151
83	0xbca32888	-0.019916788
84	0xbcece94a	-0.028919835
85	0xbc9f4a4e	-0.01944461
86	0x3c20faa0	0.009825379
87	0xbb49a6f9	-0.003076969
88	0xbba837a3	-0.0051335855
89	0x3c83eb87	0.01610352
90	0x3c93fa73	0.01806376
91	0xbc57ec58	-0.013178907
92	0x3c20bb9e	0.009810356
93	0xbc101c6a	-0.008795837
94	0x3cd25e25	0.025679657
95	0x3c663f84	0.014053229
96	0xbc0b3baa	-0.008498112
97	0xbb39a2a3	-0.0028325699
98	0xbc0e2d87	-0.008677847
99	0xbbdb84bb	-0.0066991723
100	0x3c96491b	0.018345406
101	0xba9efc9c	-0.0012129727
102	0x3be07dc1	0.0068509285
103	0xbbfa84d5	-0.0076452293
104	0x3c478139	0.012176805
105	0xbb7ee0b3	-0.0038891255
106	0x3c221dac	0.00989477
107	0xbaf5625c	-0.001872133
108	0xbb8addb0	-0.004237853
109	0x3cb54f04	0.022132404
110	0xbcd9c7c7	-0.02658452
111	0xbaa1b967	-0.0012338579
112	0xbc2b3621	-0.010449917
113	0xbc8f7c06	-0.017515194
114	0xb99c382d	-0.00029796493
115	0xbc802546	-0.015642773
116	0xbc98e928	-0.018665865
117	0x3cc19b91	0.02363375
118	0xbc808f16	-0.015693229
119	0xbb09c7e5	-0.0021023687
120	0xbc00d092	-0.007862227
121	0xb9149387	-0.00014169338
122	0x3b918f43	0.004442127
123	0xbbd24759	-0.0064171967
124	0xbc81ad17	-0.015829606
125	0x3b336e78	0.0027379077
126	0x3cb0c743	0.02157939
127	0xbb62d96a	-0.0034614452
128	0x3baaf198	0.0052167885
129	0xbb7efdbd	-0.0038908564
130	0x3cc7a24b	0.02436938
131	0x3cf495a6	0.029856514
132	0xbb86868d	-0.004105395
133	0xbbd9a5b6	-0.0066420687
134	0x3b679991	0.0035339335
135	0x3c2f06fa	0.010682816
136	0xbcc42165	-0.023941705
137	0xbcf0c4ee	-0.029390778
138	0xbc85c3bb	-0.016328683
139	0xbcad08bf	-0.021122335
140	0xbc7f6f2c	-0.01559047
141	0xbcd11763	-0.025523847
142	0x3b9c3920	0.004767552
143	0xbc9bd6ac	-0.019023262
144	0xbad1d4c2	-0.0016008841
145	0x3c208af3	0.009798753
146	0xbb9be6b8	-0.0047577284
147	0xbbd44dd2	-0.0064790035
148	0xbb2e4cb6	-0.0026596016
149	0x3a296ae5	0.0006462767
150	0x3c00d91d	0.007864264
151	0x3b88fc72	0.0041804845
152	0x3a9681af	0.001148274
153	0x3ce06bb2	0.027395103
154	0x3b2b31f0	0.0026122294
155	0x3caea13a	0.021317113
156	0xba1381d7	-0.00056269526
157	0x3ca760e4	0.020431943
158	0xbbf2d6ab	-0.0074108443
159	0xb91f194e	-0.00015172848
160	0x3c8d3db0	0.017241329
161	0x3b0be288	0.002134474
162	0x39ca7d59	0.00038621834
163	0x3c8caa46	0.017171036
164	0xbc9e36be	-0.019313212
165	0xbc51c7b8	-0.012803964
166	0x3cac29aa	0.02101596
167	0x3b051d85	0.0020311784
168	0x3ccd0539	0.025026904
169	0x3bf36935	0.007428313
170	0x3c187dc7	0.009307331
171	0xbc2208c7	-0.009889788
172	0xbc9b7831	-0.01897821
173	0xbb8e0b64	-0.004334854
174	0xbbbcc8f6	-0.005761261
175	0xbcba06c1	-0.022708299
176	0xbb743d5e	-0.0037268023
177	0xbc30aeee	-0.010783894
178	0xbcd355b3	-0.0257977
179	0x3c7385e2	0.014863463
180	0xbcdcecf3	-0.026968455
181	0x3bd2bb1c	0.0064309966
182	0xbc82dd15	-0.01597456
183	0xbb7ce0c3	-0.0038586117
184	0x3af6944d	0.0018812508
185	0x3c72bacb	0.014815043
186	0x3bda316e	0.0066587245
187	0xbbf91ae0	-0.0076020807
188	0xbc8d1b48	-0.017224923
189	0x3c655875	0.013998141
190	0xbca71f25	-0.020400593
191	0x3c740288	0.014893182
192	0xbc8d004a	-0.017212052
193	0x3b9ee9f2	0.004849666
194	0x3cbdb45e	0.023157295
195	0x3acd8075	0.0015678542
196	0xbbabc460	-0.0052419156
197	0x3af297bb	0.0018508354
198	0x3c730476	0.014832607
199	0xbc456b8a	-0.012049565
200	0xbaa1cfa7	-0.001234521
201	0xbc3ace47	-0.011401719
202	0xbc549b55	-0.012976487
203	0xbc8f9ce8	-0.017530873
204	0x3a45d146	0.0007546138
205	0xbbf3a677	-0.0074356156
206	0x3a7658c2	0.0009397381
207	0xbb720b44	-0.0036932984
208	0x3c8f1017	0.017463727
209	0x3cfce6ba	0.030871738
210	0x3ae1142b	0.0017172148
211	0xba033785	-0.00050055265
212	0xbbdbf2d1	-0.0067122956
213	0xbc9023e7	-0.017595245
214	0xbcc85a0a	-0.024456996
215	0x3ce55b39	0.0279976
216	0x3c34a703	0.011026147
217	0xbb4f61a7	-0.0031643899
218	0x3d0aead2	0.03391535
219	0x3b48bdf8	0.0030630808
220	0x3c13d12c	0.009022038
221	0x3c554ab6	0.013018301
222	0x3b02cfcd	0.0019960285
223	0x3b6d5d60	0.0036218986
224	0xbcf44e25	-0.029822418
225	0x3a23679f	0.0006233397
226	0xbc45edc5	-0.012080614
227	0xbc0f4b15	-0.008745928
228	0x3c90e208	0.017685905
229	0xb91fe8c7	-0.00015250138
230	0xbae08dc2	-0.0017132091
231	0x3cdb421b	0.02676492
232	0xbc8034fa	-0.015650261
233	0x3c350941	0.01104957
234	0x3c3a6415	0.0113764005
235	0x3cd0750a	0.025446434
236	0x3b6b93ad	0.0035946176
237	0xbb41fe24	-0.0029600943
238	0xbc489a1a	-0.012243772
239	0x3cf8c9a7	0.030369593
240	0xbcff0e59	-0.031134771
241	0x3cc4de58	0.024031803
242	0x3c041cd7	0.008063517
243	0xbcae433d	-0.021272296
244	0x3c53386a	0.012891868
245	0x3cf1a201	0.029496195
246	0x3b07bd27	0.0020712109
247	0xbca93b63	-0.0206582
248	0x3c6f1b6c	0.01459394
249	0xbc278227	-0.010223902
250	0x3ba76cb0	0.005109392
251	0x3cbc2a3d	0.02296936
252	0xbc35f6f9	-0.011106246
253	0xbc642ccc	-0.013926696
254	0x3a962cd3	0.001145745
255	0xbb318270	-0.0027085803

bn1.weight f4 [400]
0	0x3e7f2441	0.24916174
1	0x3f27e63c	0.65585685
2	0x3f09c7ab	0.53820294
3	0x3ee81cde	0.45334524
4	0x3e1ef315	0.15522416
5	0x3e49c676	0.19704613
6	0x3e49c35a	0.19703427
7	0x3e82e735	0.25567022
8	0x3f21fce6	0.6327652
9	0x3e477d82	0.19481471
10	0x3f33a133	0.70167845
11	0x3ebed570	0.37272215
12	0x3ea2c898	0.31793666
13	0x3e11be6f	0.14232801
14	0x3e304aa0	0.17215967
15	0x3e9f3322	0.310937
16	0x3e576482	0.21034434
17	0x3e1b1d5b	0.15147917
18	0x3ec3caed	0.38240758
19	0x3e825652	0.25456482
20	0x3ee883e2	0.4541312
21	0x3ed57360	0.41689587
22	0x3ebb2f6d	0.3655962
23	0x3e0b8c82	0.13627818
24	0x3f500b3f	0.8126716
25	0x3e3c7b76	0.18406472
26	0xbacc2835	-0.0015575947
27	0x3e244754	0.16042835
28	0x3e8cdfa1	0.27514365
29	0x3e1a4cea	0.15068403
30	0x3e078128	0.13232863
31	0x3e6341ce	0.22193071
32	0x3e86a722	0.26299387
33	0x3e178c00	0.147995
34	0x3fabf9f5	1.3435656
35	0x3f14dcf4	0.5814965
36	0x3e9d4a7f	0.30720899
37	0x3e83a891	0.25714543
38	0x3e6784b3	0.22609214
39	0x3f3b01c5	0.73049575
40	0x3e6f63e9	0.23377956
41	0x3ee98a2d	0.45613232
42	0x3e9908c8	0.29889512
43	0x3e620c87	0.22075091
44	0x3f4bda6f	0.7963018
45	0x3ed2f11f	0.41199586
46	0x3e3692b0	0.17829394
47	0x3c64aca6	0.013957178
48	0x3e7fec79	0.24992551
49	0x3f67fe7a	0.90622675
50	0x3e34cba3	0.17655806
51	0x3e9e65c1	0.30937007
52	0x3bb0002e	0.005371115
53	0x3d39e4bc	0.045384154
54	0x3defa4f4	0.11701384
55	0x3fc3585b	1.5261339
56	0x3f912e36	1.1342227
57	0x3e6549f4	0.22391492
58	0x3f6d2e63	0.92648906
59	0x3f60badb	0.8778512
60	0x3e200018	0.15625036
61	0x3e4b5fb4	0.19860727
62	0x3e866061	0.26245406
63	0x3e02df5d	0.12780519
64	0x3ed2ee07	0.41197225
65	0x3e41cde4	0.18926197
66	0x3e97683c	0.29571712
67	0x3e595931	0.2122543
68	0x3e9dae59	0.3079708
69	0x3f26a2fe	0.65092456
70	0x3f1556b7	0.5833544
71	0x3f4181f6	0.7558893
72	0x3f0c35f3	0.5476982
73	0x3e074b9d	0.13212438
74	0x3e45237b	0.19251816
75	0x3ec1a51c	0.3782128
76	0x3f2a4163	0.6650602
77	0x3e68eeb2	0.22747305
78	0x3dd820d9	0.1055314
79	0x3f27bcb9	0.6552234
80	0x3e14fe4c	0.14550132
81	0x3ec4b4d4	0.3841921
82	0x3e89a03b	0.2688006
83	0x3e88d4e9	0.26724938
84	0x3e0dfbca	0.13865581
85	0x3f86f860	1.0544548
86	0x3d1bbef0	0.03802389
87	0x3f33bdfd	0.70211774
88	0x3e273c1b	0.16331522
89	0x3db2b71e	0.08726333
90	0x3e26a3ac	0.16273373
91	0x3e83637a	0.25661832
92	0x3f12c160	0.57326317
93	0x3e8aa928	0.2708218
94	0x3dc3ec53	0.0956656
95	0x3e248e9b	0.16070025
96	0x3e807c86	0.25095004
97	0x3eefc16d	0.4682726
98	0x3f853658	1.0407209
99	0x3fa5198d	1.2898422
100	0x3ee1ea85	0.44124237
101	0x3ea79993	0.32734355
102	0x3f47aa4d	0.77994233
103	0x3e9aec4e	0.3025841
104	0x3e2b4838	0.16726768
105	0x3ed01bdb	0.40646252
106	0x3ec6748e	0.387608
107	0x3eb26e65	0.3484985
108	0x3eb2734d	0.34853593
109	0x3e85583a	0.26043874
110	0x3ea241d6	0.31690854
111	0x3e06fcdc	0.13182396
112	0x3e249616	0.16072878
113	0x3ea6a73c	0.32549465
114	0x3e80cf1f	0.2515802
115	0x3f270b23	0.6525137
116	0x3e9a69c7	0.30158827
117	0x3e3b0d71	0.18266846
118	0x3e1d4478	0.1535815
119	0x3e5054de	0.20344874
120	0x3e391831	0.18075635
121	0x3e690425	0.22755487
122	0x3e91f175	0.2850453
123	0x3edec8af	0.43512484
124	0x3e999839	0.2999895
125	0x3e14eac3	0.1454268
126	0x3e3ba44e	0.18324396
127	0x3ed1f4ac	0.41006982
128	0x3f943c96	1.1580989
129	0x3e8c1583	0.27360162
130	0x3f163e7d	0.586891
131	0x3e7b1fab	0.24523799
132	0x3ee6aa41	0.45051768
133	0x3f3b82dc	0.7324655
134	0x3e0ea9f1	0.13932015
135	0x3e51597c	0.20444292
136	0x3dd49066	0.10379104
137	0x3e927ea8	0.28612256
138	0x3ddf53e6	0.10904674
139	0x3e45a285	0.19300278
140	0x3ec97963	0.39350423
141	0x3efb9fad	0.4914526
142	0x3ee9e53d	0.45682707
143	0x3ea161bb	0.31519875
144	0x3ea854b7	0.32877132
145	0x3e1fdfb2	0.15612677
146	0x3e8aca98	0.27107692
147	0x3e8261ea	0.25465328
148	0x3f60db81	0.87834936
149	0x3e5bd47c	0.21467775
150	0x3e44a41c	0.19203228
151	0x3f8de06e	1.1084116
152	0x3e541cc4	0.20714098
153	0x3f71e8fb	0.94496125
154	0x3e2e6e30	0.1703422
155	0x3eb1c738	0.34722304
156	0x3e5cae50	0.2155087
157	0x3e8a7c9e	0.270482
158	0x3eb3c388	0.35110116
159	0x3e95883b	0.29205498
160	0xbb4961f4	-0.003072855
161	0x3e1bea60	0.15226126
162	0x3e9fac7d	0.31186286
163	0x3e2380d6	0.15967116
164	0x3e6b63a8	0.22987235
165	0x3e6e212d	0.23254843
166	0x3f008733	0.502063
167	0x3e96931a	0.29409105
168	0x3e0aecf1	0.13566948
169	0x3e76b387	0.24091922
170	0x3e2bfbf8	0.16795337
171	0x3e97b034	0.2962662
172	0x3e99b98f	0.30024382
173	0x3d873153	0.06601205
174	0x3e8ed044	0.2789327
175	0x3ea27193	0.31727275
176	0x3e8b5e5d	0.2722043
177	0x3e431743	0.19051842
178	0x3eab01fd	0.33399954
179	0x3ef43897	0.47699425
180	0x3e3de1b0	0.18543124
181	0x3e905b95	0.28194872
182	0x3fa76dfa	1.3080437
183	0x3eac0bca	0.33602744
184	0x3e1663ad	0.14686461
185	0x3e734bb0	0.23759341
186	0x3e2c8856	0.16848883
187	0x3e8ba37c	0.27273166
188	0x3ed966a3	0.42461118
189	0x3e79754a	0.24361148
190	0x3fa4e150	1.288126
191	0x3e9428b7	0.28937313
192	0x3e1ba366	0.1519905
193	0x3ec1b6c1	0.37834743
194	0x3eea8ad8	0.45809054
195	0x3e7ad3fd	0.2449493
196	0x3e35a316	0.17737994
197	0x3ea2e2c2	0.31813627
198	0x3e896019	0.2683113
199	0x3e195ceb	0.14976852
200	0x3eb6d925	0.35712543
201	0x3f6dc51d	0.92878896
202	0x3e9452b0	0.28969336
203	0x3e52b28f	0.20575927
204	0x3f312c52	0.6920825
205	0x3e93d32d	0.28872052
206	0x3f41575f	0.7552394
207	0x3f0cd044	0.5500529
208	0x3e0c5a40	0.13706303
209	0x3f0b17e8	0.54333353
210	0x3e6d8444	0.23194987
211	0x3e3b1894	0.18271095
212	0x3f027f4e	0.509755
213	0x3e3e4c25	0.18583734
214	0x3eadbcbe	0.3393306
215	0x3efc506e	0.49280113
216	0x3ea061bb	0.31324562
217	0x3f14e19f	0.5815677
218	0x3e2f2b76	0.17106423
219	0x3dcb6e5f	0.09933161
220	0x3ed46eac	0.41490686
221	0x3aeaee74	0.0017923848
222	0x3ef26e0d	0.47349587
223	0x3eb379fd	0.35054007
224	0x3da4a262	0.080387846
225	0x3ec2a297	0.3801467
226	0x3e87c1cd	0.26515046
227	0x3e6bde5c	0.23034042
228	0x3f204235	0.62601024
229	0x3ea5dedb	0.32396588
230	0x3e04b68a	0.12960258
231	0x3e39a2fa	0.18128577
232	0x3f0bc88e	0.546029
233	0x3e58508b	0.21124475
234	0x3f2105ec	0.6289966
235	0x3b655bc5	0.0034997326
236	0x3e874909	0.2642291
237	0x3edc5724	0.43035233
238	0x3f18591e	0.5951098
239	0x3e6690e1	0.22516204
240	0x3d351489	0.044209037
241	0x3d32075d	0.043464053
242	0x3f64cd39	0.89375645
243	0x3f426aa3	0.75943965
244	0x3e6fcad2	0.23417214
245	0x3e6711c0	0.22565365
246	0x3f2194aa	0.6311747
247	0x3f466fe7	0.775145
248	0x3e39e28d	0.18152829
249	0x3dd955f4	0.106120974
250	0x3dedec38	0.11617321
251	0x3ed3d1ae	0.4137091
252	0x3dbb8766	0.091566846
253	0x3e5bd879	0.21469297
254	0x3e607682	0.21920207
255	0x3e533676	0.20626244

bn1.bias f4 [400]
0	0x3d1587d2	0.03650648
1	0x3de12ceb	0.109948955
2	0x3edb80ff	0.42871854
3	0x3e086dfc	0.13323206
4	0x3cdda109	0.027054327
5	0x3cd42cda	0.025900293
6	0x3d9aa625	0.07551221
7	0x3bb9fffc	0.0056762677
8	0x3d374d55	0.044751484
9	0x3d6a429e	0.057192437
10	0x3ef900f8	0.48633552
11	0x3e171dbb	0.14757435
12	0x3db18d28	0.086695015
13	0x3d169461	0.0367626
14	0x3c885faf	0.016647188
15	0x3ddadfff	0.10687255
16	0xbd8b73a8	-0.06809169
17	0x3ca4a7fd	0.020099634
18	0x3dab1547	0.08353668
19	0x3cb0af4c	0.021567963
20	0x3e5c7f68	0.21532977
21	0x3d9f8674	0.07789317
22	0x3e3cd413	0.18440275
23	0x3ce23142	0.027611379
24	0x3e4da704	0.20083243
25	0x3d13eaf3	0.036112737
26	0x3ac970e9	0.0015368733
27	0x3d187e62	0.037229903
28	0x3deb8c8b	0.11501416
29	0x3ce46a0a	0.027882595
30	0x3c5f1fe4	0.013618443
31	0xbca14646	-0.01968683
32	0x3e353b3c	0.17698377
33	0x3d33ec28	0.043926388
34	0x3ebbb5ee	0.3666224
35	0x3e19cb74	0.15019017
36	0xbab6c7ee	-0.0013945082
37	0x3d33f314	0.04393299
38	0x3d962f25	0.07333211
39	0x3e49561b	0.19661753
40	0x3d17deae	0.0370776
41	0x3de98399	0.114020534
42	0xbbe5d3ca	-0.0070137726
43	0x3d8b6ef9	0.06808276
44	0x3ef846a7	0.48491403
45	0x3e0be174	0.13660222
46	0x3d04761a	0.032339193
47	0x3bcb92bb	0.00621256
48	0x3df55eb8	0.11980957
49	0x3f1efab4	0.6210129
50	0xbe0b33a8	-0.13593924
51	0x3d8ea81b	0.06965657
52	0x3a0eb62a	0.00054440147
53	0xbbf88c0e	-0.007585055
54	0x3d5e99cf	0.054345902
55	0x3e0ed040	0.13946629
56	0x3e23aa14	0.15982848
57	0x3d585045	0.052810926
58	0x3e905411	0.28189138
59	0x3e276edb	0.16350882
60	0x3be93e3b	0.007118014
61	0x3d232e4e	0.03983908
62	0xbdd1d303	-0.102453254
63	0x3cd8c401	0.02646065
64	0x3e47b117	0.19501148
65	0x3d49e24e	0.049288087
66	0x3df9bfda	0.12194796
67	0x3da7608b	0.08172711
68	0x3d9df8a4	0.0771344
69	0x3eb936fb	0.3617476
70	0xbe23c417	-0.15992771
71	0xbdd73fa3	-0.105101846
72	0x3e189b71	0.14903046
73	0xbad18787	-0.0015985825
74	0x3d32977a	0.04360149
75	0x3e0c6b71	0.1371286
76	0xbce4e495	-0.027941028
77	0x3ce0d1fe	0.027443882
78	0x3ccc6358	0.024949715
79	0x3e45d868	0.19320834
80	0xbd13be7b	-0.03607033
81	0x3e54f412	0.2079623
82	0x3d468fa4	0.04847683
83	0x3cc9e6a1	0.024646105
84	0xbd591851	-0.053001706
85	0x3cd93e89	0.026519077
86	0xbc85d28f	-0.016335754
87	0x3e2be9f0	0.16788459
88	0x3d0e8aff	0.034800526
89	0x3a485f67	0.00076436106
90	0xbac868f3	-0.0015290066
91	0x3e254642	0.16140082
92	0x3e4472bf	0.19184397
93	0x3d3f4466	0.04669609
94	0x3b87dd14	0.0041462276
95	0x3baa5528	0.0051981397
96	0x3db03804	0.08604434
97	0x3e03325f	0.12812184
98	0x3e5198aa	0.20468393
99	0x3c315770	0.010824069
100	0x3e2cfa79	0.16892423
101	0x3e6fb22c	0.23407811
102	0x3ec67803	0.38763437
103	0x3caac036	0.020843606
104	0x3cb5ba6d	0.022183621
105	0xbe22607e	-0.15857121
106	0x3e1e7090	0.15472627
107	0x3d9d470c	0.07679567
108	0x3e147bd4	0.14500362
109	0x3d48e17d	0.049043167
110	0x3e29086c	0.16507119
111	0x3d030f4b	0.031997006
112	0x3ca202a1	0.019776644
113	0x3dcff5ea	0.10154326
114	0x3d8da45d	0.069161154
115	0x3d44ba53	0.048029255
116	0x3e036376	0.1283091
117	0x3d67d874	0.05660291
118	0x3c5423c7	0.012947983
119	0x3db0cadd	0.08632443
120	0x3cb2156a	0.021738727
121	0x3d57b970	0.05266708
122	0x3d59ebe9	0.053203497
123	0x3d8b4df7	0.0680198
124	0x3e349683	0.1763554
125	0x3d190ba6	0.037364624
126	0xbbfceaa2	-0.0077184
127	0x3dc2dae0	0.09514403
128	0x3de0fb63	0.10985448
129	0x3de558ff	0.11198615
130	0x3e951112	0.29114586
131	0x3d981266	0.07425384
132	0x3e01b9f0	0.12668586
133	0x3f10aecd	0.56516725
134	0xbcf8cfc7	-0.030372513
135	0x3d47fe6f	0.04882663
136	0x3d0fc2fd	0.035098065
137	0x3e452175	0.19251044
138	0x3ba9ba66	0.005179691
139	0x3cf832ae	0.030297603
140	0x3e0c4fbb	0.1370229
141	0x3e8a4123	0.2700282
142	0x3e01633b	0.1263551
143	0x3e39856e	0.18117306
144	0x3e307162	0.17230752
145	0x3c9b5ceb	0.018965205
146	0x3e8cb4b2	0.2748161
147	0x3d857e30	0.06518209
148	0x3cc6054f	0.024172453
149	0x3de218c7	0.11039882
150	0x3daa2f8f	0.08309852
151	0xbdf69080	-0.1203928
152	0x3d702178	0.05862567
153	0x3e9555b3	0.29166946
154	0x3d18ef84	0.037337795
155	0x3e2b1ee2	0.16711
156	0x3d1c2836	0.038124286
157	0x3d49de68	0.04928437
158	0x3c577057	0.0131493425
159	0x3dbf298e	0.09334098
160	0x3a88f28a	0.0010448259
161	0x3e0f386c	0.13986367
162	0x3dcfb944	0.101427585
163	0x3dace013	0.08441176
164	0xbc584f02	-0.013202431
165	0x3cded510	0.027201205
166	0x3e088984	0.13333708
167	0x3e4e9b2b	0.2017638
168	0x3d5f0aea	0.054453768
169	0x3d7f7d55	0.062375385
170	0x3d80a92b	0.06282266
171	0xbf2a7215	-0.66580325
172	0x3d85071e	0.06495498
173	0xbc69f107	-0.014278657
174	0x3dbd1aaa	0.092336014
175	0x3dfcfaab	0.123524986
176	0x3de959ea	0.11394103
177	0xbdba5e03	-0.090999626
178	0x3e1932de	0.1496081
179	0x3e0ad692	0.13558415
180	0xbda46f73	-0.0802907
181	0x3e485357	0.19563042
182	0x3eae6313	0.34059963
183	0x3df25f6e	0.11834608
184	0x3cc1e181	0.023667099
185	0x3d34e9fa	0.04416845
186	0x3d6afbfa	0.05736921
187	0xbe0f7d8d	-0.14012738
188	0x3e5f5bec	0.21812409
189	0x3d740567	0.059575465
190	0x3e800f57	0.25011703
191	0x3dd17774	0.10227862
192	0x3d158dc7	0.036512163
193	0x3e76f212	0.2411578
194	0x3e95aa67	0.2923157
195	0x3e1d36ff	0.1535301
196	0x3d51cf72	0.051223226
197	0x3dec2b45	0.115316905
198	0xbcea7e70	-0.028624743
199	0x3d34974a	0.044089593
200	0x3dbfc315	0.09363381
201	0x3e9bd430	0.30435324
202	0x3cf96a4d	0.030446196
203	0x3c04f109	0.008114108
204	0x3dd2e628	0.10297805
205	0x3d1912c9	0.03737143
206	0x3d8fbadd	0.07018063
207	0x3e4609bd	0.19339652
208	0x3d1e08f0	0.038582742
209	0x3e56bcaa	0.20970407
210	0x3d902212	0.070377484
211	0x3ccd0780	0.02502799
212	0x3e4844b8	0.19557464
213	0x3d4a53c0	0.049396276
214	0x3e2c5fb8	0.16833389
215	0x3e9b904c	0.30383527
216	0xbe0fba3d	-0.14035888
217	0x3eb5cf2c	0.35509622
218	0x3d827ced	0.06371484
219	0xbc0a5b28	-0.008444585
220	0x3dd6abfe	0.10482024
221	0x39773be7	0.00023578071
222	0x3cff9b64	0.031202026
223	0x3dd551aa	0.10415967
224	0x3c36e148	0.01116211
225	0x3da8e7f1	0.08247364
226	0x3df43416	0.11923997
227	0x3db87be6	0.09008007
228	0x3dda10df	0.10647749
229	0x3e10a719	0.14126243
230	0x3c5a9e20	0.013343364
231	0x3d4dedd0	0.050275624
232	0x3dc261b7	0.09491294
233	0xbd0a9120	-0.03382981
234	0x3e6cfbfe	0.23143002
235	0x3a5a03cc	0.0008316606
236	0x3e2503da	0.1611475
237	0x3e1fff71	0.15624787
238	0x3df82026	0.12115507
239	0xb9eb4f73	-0.00044881887
240	0xbc8aee8e	-0.016959455
241	0x39842af9	0.0002520902
242	0x3ece9fd9	0.4035633
243	0x3ea8024d	0.32814255
244	0x3d0bb643	0.034109365
245	0x3e0e6258	0.13904703
246	0x3e2f0119	0.17090262
247	0x3e2dbd29	0.1696669
248	0x3d1b9d1d	0.03799163
249	0xbc1d4e38	-0.009601168
250	0x3cbd96f8	0.023143277
251	0x3cd4630b	0.025926134
252	0xbd161cb2	-0.03664846
253	0x3d2b00a5	0.04174866
254	0x3c61cc5d	0.013781634
255	0x3dfbbb1a	0.12291546
