checkpoint_critic_target_0.pth (torch, 577426 bytes, 9 tensors)

fcs1.weight f4 [400, 52]
00000000: de84 863d ae30 143f 3b9a d3bd 2841 80be
00000010: 49f6 443e e7b7 83be 7ff5 00be 2169 5abe
00000020: 02e8 0f3e 7c04 d13e 30f3 583e 9898 61be
00000030: 78e6 f63d fcf7 71bf 7472 283e 9815 2ebe
00000040: 209a 453f 4a17 8e3d 109c c13e 210f 45bf
00000050: b09c 4d3d 16fa f2bf 875c d03e 690a 44bf
00000060: 80b5 ca3f f73b 203e 4a60 89be fc27 c2be
00000070: 8188 3bbe 05d9 55be 1d84 93be 4a61 aabe
00000080: 2470 0040 0c03 f73e ceda 833e d49d 303f
00000090: 3e01 48be f3f4 70bf b18b 563e 32cb 373f
000000a0: a06f aa3f 3b3b c33e e92a 56be 21c9 72bd
000000b0: bbec 3bbd 23d8 f6bf 9575 54be c48e debd
000000c0: cd55 7e3f a933 dcbe e44e 0ec0 623b 083f
000000d0: 31a6 b33d d15f 8cbf 7fca babc f477 dabc
000000e0: b50d bb3f fcf2 fcbd 5a3c 433c f902 cf3c
000000f0: fe56 c03d 5365 a0be 965f 803c b6d6 d63d
00000100: f7cc 673f 1b57 03bf 71e5 0e3d 88dd b63d
00000110: fbc6 163f 6329 e13e 7f1b b93d 106a 013f
00000120: 04f1 04bf e5ea 3bc0 992f 8d3d 3543 043f
00000130: 6b33 0dbf 67b5 c1bf ff04 413d 7071 813e
00000140: b897 bfbf 44d1 d8bd bdfc b03d fa17 823e
00000150: eae4 dabe 5b8e b1bf 2957 aebc b413 b1bd
00000160: 04b2 58bf 62af fcbe 424e 00bb 5476 02be
00000170: 3f1c 1bbf db2b 5fbf 600e ad3e 21b9 03bf
00000180: de58 e43e f8a2 3fc0 08ec b03e 0074 eebe
00000190: 74b6 d33f 2c95 ce3d d261 ccbe d253 acbf
000001a0: e72f adbc 3bbd 393f 5028 ec3c 796a a7be
000001b0: a051 cd3e cb12 66be c350 6a3d 9e9e a6be
000001c0: f7b8 e23e ecdc 223f a43f 303c 0653 a2be
000001d0: 5aa3 303f 44c2 233f 6cf4 42bd 70cd 8fbe
000001e0: b091 483f 805d 973e 7a3c a33d 7bd3 9b3e
000001f0: 3c33 c43f b631 1940 182e 963d 2d7b 6f3e
00000200: f74c 963e ce63 8bbd f8e4 a23c a51d 0a3e
00000210: 91bb bfbe 694a 68be d162 4f3d 0217 263e
00000220: 739b 223f e262 24be 6b33 69bd e242 32bd
00000230: 8c3b 2bbf b260 363f 6bda bebc 2541 d1bd
00000240: 164c 3f3f c219 90bf be20 edbe 2957 93bd
00000250: de01 c5bf 2d2d 1a40 84e2 f7be 8d5c 2bbd
00000260: 3321 a53e e3d6 493e 3b00 4640 6605 183f
00000270: cfb3 653f a71c 1240 dd76 e63c 3e24 233d
00000280: 8ad3 5bbe e17c 593e 19f8 303d 02f0 c73d
00000290: 84d9 a23f 2a09 0140 7aa1 503d 7c5d 053e
000002a0: bc67 0bbf d687 37bf 2914 543d e7c3 093e
000002b0: d88b c53f f5a6 723f f3bf a73d 3b97 c03d
000002c0: 3d4d 9bbf b9fe 18c0 b3ff 0f3e 2630 a53c
000002d0: 9d90 18bd 7f18 5b3d de87 babc f464 7d3c
000002e0: 0222 503e e1d3 193e d09d 063d 0c2b 82bd
000002f0: 78bc 9b3d 64f3 e0bd 878e 2e3a d771 813d
00000300: 694e 003f b6ef 3cbf 5f3a 17bd 9ecd ea3d
00000310: cca5 013e 52dd 94be f012 8c3c 133e 16bd
00000320: 66ac 9c3f 2c20 17c0 f63e c13c 7b28 7ebd
00000330: 6337 f4bf 006f 1c3f 171e 12bd a56d 3e3e
00000340: cb18 4d3f ab95 2ebf d348 8f3d df04 a53f
00000350: 8385 1d3e a0cb b5bf da1c e73c eb3b 9e3f
00000360: cdad 3a3f b50c 51bf 9946 023f fe77 843e
00000370: a636 283d 5914 6fbf aef1 003f 5b83 863e
00000380: 49fe 673f 5d21 d9be 5c30 423e e82f 6c3f
00000390: dc79 023e 8698 6dbf c1a3 c73d 5e9a 633f
000003a0: f561 5c3f cb5d ffbf f622 53be 7997 893f
000003b0: 9b7b dfbd 0d9a b3bf 4b47 4abe 7140 873f
000003c0: 7d52 323f ff24 11c0 402b 1ebe 77d7 8e3f
000003d0: 3fb4 623c 0b77 7bbf 2631 18be 5f6b 8e3f
000003e0: 2238 353f f710 17c0 d765 db3d 4ed7 f73d
000003f0: 9fc8 14be cf05 5ebf 2193 563d 3dfa 3a3e
0.06568311 0.5788678 -0.103321515 -0.2504971 0.19234575 -0.25726244 -0.1259365 -0.21329166
0.14053348 0.40823734 0.21186519 -0.22030866 0.12055677 -0.9451902 0.1644991 -0.17000425
0.771883 0.06938036 0.3781438 -0.7697621 0.050198257 -1.898257 0.40695593 -0.76578385
1.583664 0.15647875 -0.26831275 -0.3792113 -0.18313791 -0.20883568 -0.28811732 -0.3327735
2.0068445 0.48244512 0.25752872 0.68990827 -0.19531724 -0.9412376 0.20951726 0.71794426
1.3315315 0.38131127 -0.20914806 -0.059273843 -0.04588006 -1.928471 -0.20747979 -0.10867074
0.9934967 -0.43008164 -2.223565 0.5321561 0.08771933 -1.0966741 -0.022801636 -0.026668526
1.4613558 -0.12351033 0.011916244 0.025269972 0.093915924 -0.31327304 0.015670579 0.104901716
0.90547127 -0.5130479 0.03488678 0.089289725 0.5889737 0.43976888 0.090384476 0.50552464
-0.5193026 -2.9362118 0.06893844 0.5166505 -0.5515658 -1.5133485 0.047123905 0.25281858
-1.4968176 -0.10586789 0.08641956 0.25408918 -0.42752773 -1.3871568 -0.021281796 -0.08646336
-0.8464663 -0.49352556 -0.0019577895 -0.12740451 -0.60589975 -0.87176293 0.3380003 -0.5145436
0.4459905 -2.9943218 0.34555078 -0.46572876 1.6540055 0.10087046 -0.3991838 -1.346308
-0.021141006 0.7255437 0.028827816 -0.3269842 0.40101337 -0.22468106 0.057205927 -0.3254289
0.44281742 0.6361835 0.010757361 -0.31703967 0.68999255 0.639683 -0.04759638 -0.28086424
0.783473 0.29563522 0.07970519 0.30434784 1.5328135 2.393659 0.073330104 0.23386832
0.29355595 -0.068061456 0.019884571 0.13487871 -0.3744779 -0.22684635 0.050631348 0.16219714
0.63518447 -0.16053346 -0.0569338 -0.043520816 -0.66887736 0.71241295 -0.02329751 -0.102175035
0.7472547 -1.1257861 -0.46314043 -0.07194359 -1.5391195 2.4090073 -0.48415005 -0.04183631
0.32251891 0.19710879 3.093764 0.5938324 0.8972749 2.2829988 0.02813285 0.039829485
-0.21467414 0.21239044 0.043205354 0.09762575 1.272263 2.0161843 0.050935246 0.13023943
-0.5445516 -0.71691644 0.05177704 0.13453637 1.5433302 0.94786006 0.08190908 0.09403845
-1.2132946 -2.390547 0.14062385 0.02016456 -0.03724729 0.05349016 -0.022769865 0.015465964
0.20325473 0.15022232 0.032865345 -0.06355867 0.07604307 -0.10983923 0.00066588115 0.06320541
0.50119644 -0.7380327 -0.0369209 0.114649996 0.12660903 -0.29075104 0.017098874 -0.036680292
1.2240112 -2.3613386 0.023589592 -0.062050324 -1.9079403 0.6110687 -0.035673227 0.18596514
0.80115956 -0.68197125 0.06996312 1.2892112 0.15382962 -1.4202766 0.028212 1.2362036
0.7292145 -0.81660014 0.50888973 0.25872797 0.04106774 -0.93390423 0.50368774 0.2627209
0.90622383 -0.42408267 0.1896376 0.922606 0.12741798 -0.9281086 0.097480305 0.8890742
0.8608697 -1.9950498 -0.20618805 1.0749351 -0.10912248 -1.4031388 -0.19753759 1.0566541
0.6965712 -2.267883 -0.15446186 1.1159505 0.013836919 -0.9822852 -0.14862499 1.1126517
0.70788777 -2.3604105 0.10712784 0.12101613 -0.14529656 -0.86727613 0.052386407 0.18259521

fcs1.bias f4 [400]
00000000: 48c7 e1be bdf4 b33f 08b4 1ec0 b78d 85bf
00000010: 6203 b2bf 4da9 f2be 9e3e 80bf 4778 68c0
00000020: c9e2 0cbf 351c 2dbf 57d9 b93f 1254 a43e
00000030: 301d ecbf cbb0 23bf ef78 80bf 621e a9bf
00000040: cd6f abbf 5c9d 5cbe 74f9 88bf 529c 2fbe
00000050: 177d 3ebf b253 1fc0 8e36 3bbd a601 e0bd
00000060: ba0e 99be bf45 d2bf fc37 babe 9aed 85bf
00000070: af17 10c0 083e 88bf 539d a4be 8f6a e43c
00000080: 0c45 7bbf c7a1 2bbf 8270 6bbf 0e6e aabf
00000090: 5a4d 93c0 117a 25bf 7a60 db3d 04e3 76c0
000000a0: 43bd 3dbc 237b 6abd 5832 21bd 4a0f 07bf
000000b0: b647 92c0 6784 893e 80ff ee3e c030 9cbf
000000c0: 9f8c 18bd 319c ab3e 91ee c2bd 38f4 84bf
000000d0: 15f5 ccbb cedd 2bbe 2f47 66be 6b47 5d3d
000000e0: 831b 373e 768b 05bf 282a 09bd 8962 c3be
000000f0: 32cf 81bf b396 9bbe 727a ffbe 84ed 41bd
00000100: 15b5 bdbf 1d76 2bbf d87c 88bf 595f b63e
00000110: e23c 10bf 3aa5 01c0 5e68 2bc0 6d61 16c0
00000120: 9545 95c0 5b57 30bf a90d b9be ca46 07bf
00000130: 4235 34be 6a5f a9bf f3b2 71bf bca7 7dc0
00000140: 84b5 efbd 61cd 9dbf 73a1 1bc0 b3cc c6bf
00000150: ec68 82bd 8568 9cbe 6060 91be 4eb9 a4bf
00000160: 8d6e ebbf a658 15bf 7627 44bf 9a0d 1abf
00000170: f7ef 6ac0 3133 a0bd c5a5 c8bf 832e e13d
00000180: 25bb cebf 6f6e 6bbe 9a7d 86bf 284a 093f
00000190: 5262 37be a495 0ebf e89a 76c0 0dec a3bf
000001a0: 151d b9be 72c5 34c0 b890 48bf bd7e 04c0
000001b0: 9602 d9bf 832d 96bf c75e 80be f44a 1bbf
000001c0: 7176 5d3f 16eb 25c0 bdc0 5dbf 4362 2abf
000001d0: 9567 bfbc 1c18 303f d883 aebe b657 0cbf
000001e0: bda0 61bf 8b46 e4bd 1a4b a1bf dbc7 99bf
000001f0: 2bb7 edbf c2eb f5bf 79a1 28bf a9f1 cdbd
00000200: 8576 b3bf efb3 45be 384a c2bf e532 50bc
00000210: 5692 76bf acd4 043f e4de 62bf a24d debe
00000220: fa5e ecbc d158 1ebf 15a9 99bf cc79 d2bf
00000230: c7ac 55c0 16bb 5fbf 0a22 69bf b267 5cbf
00000240: 34b6 18c0 c9fd 5fbf e53f 9fbf a47a c1be
00000250: a22e 45bf e670 7dbd 3895 debe c6fd 8bbe
00000260: 5c4f 80bf abef 5cc0 4ceb 81be 9614 163f
00000270: 95b1 2fbf e618 cb3e 71f7 1bc0 0a31 683d
00000280: f968 37bf b296 a5be 2359 e2bf de89 ae3d
00000290: c33c 913d 723b 1cbf 14d6 32bc 8faa 25be
000002a0: 333f 51bf 27b7 56c0 7cac 04c0 b40a 18bf
000002b0: 8dda e5bf 5047 8fbf 700e a0be 20fe 7f3f
000002c0: fa67 80c0 495a 3ebf 2fdf 4abe bffc 1abf
000002d0: ff10 86bf 31b7 28bf 4af5 22c0 70d6 72bf
000002e0: 44d4 91bf 0d60 8e3f 4d1b 723e 60ae 99be
000002f0: 74ea 49bf 7395 eebe 8bc4 a1bf 1de3 20c0
00000300: 9cfa edbf ffd4 4cbf 2f88 51bf 1ab6 32bf
00000310: 71e1 103f f7be 5bbf 342c 00bf 6109 23bf
00000320: 21a6 d4be e899 b3bf 9cfd 5bbf 5d0d b53e
00000330: 2382 26be b37d 75bf 8154 3fc0 6f90 2cbf
00000340: 5a3c d3be 6008 6e3f ed4d 0cbf 836c 4dbf
00000350: 2de8 c6bf 3b0f 21bf 22e1 9cbe 7af8 39bf
00000360: 3b15 583e c234 c7bf aa90 dabe 78bb a5be
00000370: 77a0 6dc0 1438 bdbe 1ba9 c43f 3b26 bbbf
00000380: b278 d3be 3b38 c2bf 16ae 64be 339c 7bbf
00000390: 19b2 0dc0 2c53 babf a1b7 1ec0 b040 39bd
000003a0: 8a74 71c0 2bc4 d1bf 6cb1 d83d c816 c43e
000003b0: 52c6 8abf 8dac 2dc0 2027 9cbf 5e5c 5abf
000003c0: 793c febd 862f 10bf d98a 9d3d f5c3 72c0
000003d0: 10d6 0cc0 9b9b 88bf c416 a4be 9aeb 093f
000003e0: d530 023f 1987 1ebf b0ad 8dbe a4a2 663e
000003f0: 73a2 b9be fe4f 33bf 8f6e 3abe dd5c dcbf
-0.44097352 1.4059063 -2.4797382 -1.0433873 -1.3907282 -0.4739479 -1.0019109 -3.6323411
-0.55033547 -0.67621166 1.4519452 0.3209539 -1.8446407 -0.6394164 -1.0036906 -1.3212397
-1.3393494 -0.21544403 -1.0701127 -0.17149475 -0.7440962 -2.4894834 -0.045706324 -0.109378144
-0.29894048 -1.6427535 -0.36370838 -1.0463135 -2.2514455 -1.064393 -0.3215128 0.027882842
-0.9815223 -0.6704373 -0.9196855 -1.3314836 -4.6031923 -0.64639384 0.10711761 -3.857606
-0.011580768 -0.05724634 -0.039354652 -0.52757704 -4.571254 0.26858827 0.46679306 -1.2202377
-0.03724348 0.33517602 -0.09518159 -1.038703 -0.006254802 -0.1678383 -0.22488092 0.054023188
0.17881589 -0.52165926 -0.03348747 -0.38161114 -1.0141356 -0.30388412 -0.49898106 -0.047345653
-1.4820887 -0.669771 -1.0663099 0.3561962 -0.563429 -2.0257096 -2.678245 -2.3496964
-4.664744 -0.68883294 -0.36143234 -0.5284239 -0.17598441 -1.3232243 -0.9441368 -3.9633627
-0.11704543 -1.2328302 -2.431729 -1.5531219 -0.063676685 -0.30548492 -0.2839384 -1.286905
-1.8393112 -0.5833839 -0.7662271 -0.60177004 -3.6708963 -0.07822264 -1.5675589 0.109951995
-1.6150862 -0.22991346 -1.050708 0.5362878 -0.179086 -0.55697083 -3.8532047 -1.2806412
-0.36155 -2.824551 -0.78345823 -2.0702355 -1.6953914 -1.1732639 -0.2507231 -0.60661244
0.8650885 -2.5924735 -0.8662222 -0.66556185 -0.023364821 0.6878679 -0.34084964 -0.54821336
-0.8813589 -0.111462675 -1.2601044 -1.2014116 -1.8571523 -1.9212573 -0.6587139 -0.10055859
-1.4020544 -0.1930692 -1.51789 -0.012707447 -0.9631704 0.5188701 -0.88621354 -0.43418604
-0.028853882 -0.61854273 -1.2004725 -1.644342 -3.3386705 -0.87394845 -0.91067564 -0.86095726
-2.3861208 -0.8749662 -1.2441374 -0.3778888 -0.7702428 -0.061875246 -0.4347322 -0.2734205
-1.0024219 -3.4521282 -0.2537483 0.5862516 -0.68630344 0.39667434 -2.4369776 0.056687392
-0.7164455 -0.32341534 -1.7683452 0.0852239 0.070916675 -0.61028206 -0.010915298 -0.16178344
-0.8173706 -3.3549287 -2.0730276 -0.5939133 -1.7957321 -1.1193638 -0.31261015 0.9999714
-4.0126925 -0.74356514 -0.198117 -0.6054191 -1.0473937 -0.6590453 -2.5462213 -0.94858456
-1.1392903 1.1123062 0.23643227 -0.3001585 -0.7887337 -0.46598396 -1.2638105 -2.513862
-1.8592105 -0.80012506 -0.81848425 -0.69809115 0.56593996 -0.85838264 -0.5006745 -0.63686186
-0.41532996 -1.4031343 -0.8593385 0.35361758 -0.1626058 -0.95894927 -2.9895327 -0.6740789
-0.41256982 0.9298153 -0.54806405 -0.802437 -1.5539604 -0.62913865 -0.30640513 -0.7264477
0.21101849 -1.5562975 -0.42688495 -0.3236959 -3.712919 -0.36956847 1.5364107 -1.4621042
-0.4130302 -1.517341 -0.22332034 -0.98285216 -2.2139952 -1.4556632 -2.4799578 -0.045227706
-3.772738 -1.6387991 0.105807155 0.3829863 -1.0841773 -2.7136567 -1.219944 -0.8529719
-0.12413878 -0.56322515 0.07692499 -3.7932103 -2.2005653 -1.0672487 -0.3204862 0.53875124
0.5085576 -0.6192489 -0.27671576 0.2252298 -0.3625675 -0.70043933 -0.18206237 -1.721584

fc2.weight f4 [300, 400]
00000000: 1481 0dbd 7952 0bbe 9eff 10be b685 dd3c
00000010: 38b3 e7bd 2593 6dbd 4d65 c9bc 924e 0b3d
00000020: f1b2 e9bc 0fa1 5dbc a1af babd b7ac c1bc
00000030: 1a40 9f3c 16d6 a2bd 1cbc 98bc eab9 283d
00000040: 2a89 8b3d fb79 16bd 220a a83c 0733 f03c
00000050: 2c68 edbd a802 423d 725d f438 2bfc 623d
00000060: f537 05be 267a a33c e1fb 1d3d 271a debc
00000070: 146a 18bd d080 d6bc dfb3 54bd 20f4 b9bc
00000080: 1315 03be f59a 6dbd caff 1dbb 0660 d3bc
00000090: 3f8c 913d 5882 12bd d7aa a4bd 80aa 0abd
000000a0: da47 833d cc1a 04be d7bd 6f3d c528 90bd
000000b0: ede1 5abe d81d 7cbd f1bd 60bd d9d2 56bc
000000c0: 61a1 30bd 0b35 0cbe 4850 1b3e 48c2 243d
000000d0: f7cb c13c b287 eb3d 785a 5fbd 14f8 8ebd
000000e0: 061b 2d3d 05d6 86bd 4e2d ef3a 7869 803d
000000f0: 8947 303c f7c6 49bd 0fc8 413d 3af5 b1bd
00000100: 4d39 edbd 17e0 123d c041 93bd b9a6 c2bc
00000110: d52e 2b3d ec80 c7bd 2b90 d83b 1b3a a0bc
00000120: 48f6 543c fa36 c5bc c562 bfbc de08 23bc
00000130: bcd7 963d 0472 d03c bf92 b73a 3e1a 88bc
00000140: 9847 cc3d 0554 0ebe aa73 44bd 2126 153d
00000150: 6e63 ac3c 36a7 a23b 27ae 533c 0b24 16be
00000160: f506 f8ba 1660 6f3d 5771 9cbc dc25 17be
00000170: 478a 4abd 97c5 d3bb 6922 693b bc43 a1bc
00000180: 723f b2bd 3919 73bc 2785 9abd 0925 9d3d
00000190: e528 c83a 2ac3 3abd 52a8 e1bd 17a3 403d
000001a0: 6cd6 bcbc 1195 5f3d 2fb0 363d 988c f23b
000001b0: 1210 8bbd e128 01bd 1be4 83bd 9796 1bbd
000001c0: 6cba 4f3c ba4b 75bd 3f32 4bbd 0129 b93c
000001d0: 8986 57bd f8f8 a4bc 9923 8bbd 14d9 fe3a
000001e0: 9599 f7bd a6fd c9bc 9f3e b8bc 2244 57bd
000001f0: 62c8 14bd 5690 e53d d55b 0e3d 9315 2abc
00000200: 4baa a8bb a35a ecbd db32 63bd 4e47 07bd
00000210: 8150 c4bd 354c 0ebe c706 243e a033 41bc
00000220: bad9 eb3a 7c8b b3bd 00ef 893d cefd 0fbd
00000230: efda d4bd 0731 1bbe 7c37 6cbc 33dc d93b
00000240: ad4a d2bd d142 7dbc 0372 d0bd 54da 3cbd
00000250: 3093 42bd 3e3e 49bd 62e4 01be 4497 cf3d
00000260: dc43 59bd b3d5 33bc de9b 11bd 828f ebbd
00000270: 5d7a 053c 41e8 f33c eb30 aabd e9bf a7bd
00000280: 9366 ce3c ac49 84bd e1ec fcbb 66e4 c8ba
00000290: 6732 913d 08c4 893b ce64 a2bd b38c e3bd
000002a0: 4cdc 833b f3ba 04be dc99 f53c 455e ee3d
000002b0: 534c c6bc 1849 fa3c 247b 2a3d 7594 c7bd
000002c0: 0ea5 07bd e36e 75ba ba60 953b eec4 66bd
000002d0: b923 c33d 6551 5a3d 6b1f 0d3d 65aa 99ba
000002e0: 35e1 d13c 63de 823d 68ba 883d 063d 193e
000002f0: 3bac 61bd 2d6b 90bd 856c f83b ac83 333b
00000300: c832 803d bd2c acbd 530d 1fbe 35be 97bd
00000310: dbbb e13c a651 11bd e2a5 013e 13f9 95bc
00000320: af76 aebd c4b7 8dbd 4226 4d3d d4c9 edbc
00000330: c62d 08bc 7a30 1fbd 700c 093c 91c2 e93b
00000340: 3e92 103d 65c1 8e3c 63de 823c 6ddb 34bd
00000350: 4839 26bd 2924 cebc 91cb 8bba bb54 17bd
00000360: 64f6 c53d c71e 67bd cef9 e5bb c9c7 c3bc
00000370: f692 993d d60c bfbc c54c d1bd 9f0a 883c
00000380: cb15 0c39 2886 683d 3a17 1e3d 7638 2cbb
00000390: efac 23bb 5325 e2bc 1cd8 85bb 3fb5 4abc
000003a0: b0aa 5e3d e59a d13d f721 debc 94e8 c6bd
000003b0: 2690 91bd 408d 5fbd af2b 09ba 09d6 4dbc
000003c0: 8428 d93c 9a1f e1bc ffef 10bd f4b6 dabd
000003d0: 5cba 333c b109 9dbc 1bdf 0bbe f4af 8dbd
000003e0: 262a 86bd b186 9d3d 53f1 b1bc 1b74 4fbc
000003f0: 94a5 f5bb 8887 debd d7b5 1b3d 203a 67bd
-0.034546927 -0.1360568 -0.1416001 0.027041297 -0.1131348 -0.058001656 -0.024584437 0.034010477
-0.028527709 -0.013527169 -0.0911553 -0.023641927 0.019439746 -0.0795099 -0.018644385 0.041192926
0.06813271 -0.036737423 0.020512644 0.029321207 -0.11592135 0.047365814 0.00011652232 0.055416267
-0.13009627 0.019955706 0.03857029 -0.02711208 -0.03721054 -0.02618447 -0.05192935 -0.022699416
-0.12801008 -0.058009107 -0.002410876 -0.025802623 0.07106828 -0.035768837 -0.080403976 -0.033854008
0.06410189 -0.12900847 0.058530655 -0.07039026 -0.21375246 -0.0615519 -0.054868642 -0.013111793
-0.043122653 -0.1369211 0.15167344 0.040224344 0.023656828 0.11500491 -0.054529637 -0.06980911
0.0422621 -0.0658379 0.0018247755 0.062701166 0.010759243 -0.049262013 0.04730993 -0.086893514
-0.11583195 0.03585824 -0.07190275 -0.02376114 0.04179271 -0.09741387 0.006608983 -0.019558957
0.012998171 -0.024074066 -0.023362527 -0.009950845 0.07365367 0.025444992 0.0014005526 -0.016614076
0.09974593 -0.13899238 -0.04796187 0.036413316 0.021043506 0.0049637808 0.012919939 -0.14662187
-0.0018922972 0.058441244 -0.019097013 -0.14760536 -0.049448278 -0.0064627635 0.0035573489 -0.019685619
-0.087035075 -0.0148375565 -0.07544928 0.076730795 0.0015270977 -0.04559628 -0.11018433 0.047030535
-0.023051463 0.05458552 0.044601616 0.007402014 -0.067901745 -0.031533126 -0.06439992 -0.03798541
0.012678724 -0.05988667 -0.049608465 0.02260256 -0.052618537 -0.020138249 -0.06793899 0.0019443356
-0.1208984 -0.024657082 -0.022490798 -0.05255521 -0.036323912 0.112091705 0.034755547 -0.01038112
-0.0051472536 -0.11540725 -0.05546842 -0.033026986 -0.095856674 -0.13896258 0.1601821 -0.0117920935
0.0017993965 -0.08766839 0.06735039 -0.035154156 -0.10393321 -0.15155421 -0.014417525 0.0066485642
-0.102681495 -0.015457825 -0.10177996 -0.04610665 -0.04750365 -0.049131624 -0.12684777 0.101362735
-0.05304323 -0.010976243 -0.035549037 -0.11501981 0.008146849 0.029773833 -0.083101116 -0.08190901
0.025195396 -0.06459364 -0.007718668 -0.0015326857 0.070896916 0.004204277 -0.07929383 -0.111108206
0.004024064 -0.1296194 0.029980592 0.11639074 -0.024206316 0.030552432 0.041621342 -0.09745113
-0.033116393 -0.0009362532 0.00455865 -0.05634015 0.09528298 0.05330028 0.03445379 -0.0011723755
0.025620082 0.06390073 0.06676179 0.14964685 -0.055095892 -0.07051692 0.007581296 0.0027391715
0.06259686 -0.08406971 -0.15532427 -0.07409326 0.027555397 -0.035478257 0.12660936 -0.018307244
-0.08518731 -0.06919816 0.050085314 -0.029026903 -0.0083116945 -0.03886459 0.008364782 0.00713379
0.035295717 0.017426202 0.015975183 -0.044154573 -0.04058197 -0.025163727 -0.0010665526 -0.03694604
0.09666136 -0.056425836 -0.0070183044 -0.023898976 0.07498734 -0.02332155 -0.10219721 0.016606627
0.00013359559 0.056768566 0.03859637 -0.002627877 -0.0024974903 -0.027605688 -0.0040846 -0.012372314
0.054362 0.10234622 -0.027115805 -0.097123295 -0.07107572 -0.054578066 -0.00052326446 -0.012563237
0.026508577 -0.02748089 -0.035385128 -0.10679427 0.0109697245 -0.01916966 -0.13659327 -0.06918326
-0.06551008 0.07691706 -0.021721518 -0.012661959 -0.007496545 -0.10865694 0.038015213 -0.056451917

fc2.bias f4 [300]
00000000: 9a12 95be d651 65be 55b8 50be b170 afbe
00000010: 4e20 a3be 0925 9dbe 0da2 e4be 4bc2 8fbe
00000020: 049f b3be 0c9b 97be 840d 10bf 4807 cbbe
00000030: 0932 e9be 912d a6be 2b90 58be f0fb a3be
00000040: e0e0 b7be 74f0 e2be 794d 93be c5d0 bfbe
00000050: e8f7 c8be 668e acbe 7c6f c6be 3aea babe
00000060: 4f7b b7be fbb3 c5be c49e 6c3e 9fd2 adbe
00000070: d2d0 73be fd6d 98be 9547 05bf af15 9bbe
00000080: 5f9f debe 5613 e5be a2ba b1be 8406 6dbe
00000090: be82 c8be 36f4 10bf a52f efbe cff3 e6be
000000a0: 4a0b 24bf 2349 4fbe fd7a e4be e8e9 67be
000000b0: e361 a9be a8b8 b6be 44a2 c6be 509e 71be
000000c0: a04f 55bf 6ca7 84be cfa5 e0be 1121 81be
000000d0: cc38 c6be fddf a1be 83c7 c5be dbc6 d8be
000000e0: 0aa2 9dbe 8686 90be 5292 73be 754f a1be
000000f0: bdc0 a1be c8c2 cbbe ca1b 8bbe f128 9dbe
00000100: 368b b5be 7246 ddbe abea 45be 4546 abbe
00000110: 12c7 babe 9dc8 bdbe 76e1 87be e450 b3be
00000120: 6aae 8abe 9006 c2be e5ab c7be bc69 01bf
00000130: 9e82 90be dd9c 98be a087 88be a9fc c2be
00000140: e7d7 a3be e19a 8abe 689a f1be 7231 89be
00000150: 7c7a bdbe 6b14 96be 4191 89be b541 bebe
00000160: 5933 c3be 4cdc 83be 0914 a7be 18fc a4be
00000170: a4f3 1dbe a1ef 68be 4f36 91be d449 643d
00000180: 240f a0be c818 68be ad16 22bf 2497 97be
00000190: 241a 97be 99ad a1be 24b4 99be ff45 2dbe
000001a0: 2b20 b2be 1317 d8be 4cbb 3bbe d045 d8be
000001b0: 4cc0 96be 1dc2 97be ca71 a7be a3a9 bbbe
000001c0: 7b1f 29bf 8415 0ebf 7987 42be 9549 5abe
000001d0: 5f30 aebe 084d 88be 5052 29bf 38b3 67be
000001e0: fc64 76be 06cb 8fbe e6b0 bfbe 74e3 96be
000001f0: 9fd2 2dbe badd e0be 4af5 cdbe 4347 b2be
00000200: 3141 bebe 2eff 85be cd84 8dbe 3f65 adbe
00000210: da33 eabe 28be 05bf c778 adbe 459e 97be
00000220: 467a 5bbe 8250 44be d1da 9cbe 6915 9dbe
00000230: b22c d7be be60 5cbe 6dca bebe 312c b0be
00000240: 7178 93be 9990 9cbe 6906 7cbe 8f39 a4be
00000250: db11 7ebe 49fb ccbe dd3b 85be 9efa 98be
00000260: 67a4 9abe 1195 5fbe 8acf a7be f084 b8be
00000270: 6ca7 84be 3644 2cbe 7e69 11bf f814 92be
00000280: 0a03 b1be 19f6 80be f477 b3be 2f94 c9be
00000290: c6b9 b9be b083 7abe 6cf8 8bbe 0069 67be
000002a0: b0e8 b7be ae8f 78be dfce e3be 4d53 85be
000002b0: fee4 99be 4c2e 76be 49c7 9cbe 7f73 37be
000002c0: c326 74be e095 92be c5da c7be 4dd6 84be
000002d0: f416 a0be b020 92be 3298 babe d036 b8be
000002e0: 6eb9 48be 7424 1dbf 7839 cabe 0952 80be
000002f0: 73cd a8be 64db 80bf 1aad b0be 904b e8be
00000300: 31dc ecbe 1ac9 9dbe 50b8 5fbe e6ac 75be
00000310: c5a0 98be dcd1 cfbe 60ad aebe b9da 72be
00000320: 1653 a3be 021d 3bbe 63a8 7dbe 6522 a2be
00000330: 03dd 8cbe d584 c7be 2586 a1be 60be a4be
00000340: 2096 9cbe 66c8 dbbe 75a5 bdbe 822f a0be
00000350: 93ba 95be 680c 7bbe 0a30 94be e018 92be
00000360: 7958 8abe f135 e9be d07f 88be a63d 78be
00000370: 9a95 94be 5fd1 6fbe 7b3b 96be d6d2 8fbe
00000380: 5c48 aabe d617 b6be 59f0 71be 0e46 c9be
00000390: 0ea7 90be fb63 a8be 18e6 91be 2588 76be
000003a0: 5ed5 99be 72c8 b0be 5b5f 9fbe 2d84 5abe
000003b0: 703b c1be b21b 61be a1fe 89be 3a45 8cbe
000003c0: f405 aabe 74ee 8dbe 8bb8 b2be bc54 97be
000003d0: 4825 b2be 76d1 99be 972d 81be dcc5 bbbe
000003e0: bad4 f3be 3a08 7dbe fe90 d2be 5412 97be
000003f0: 7ee0 c8be 42b4 c3be 6e2b 52be 0e91 eebe
-0.29115754 -0.22394499 -0.20382817 -0.34265664 -0.31860584 -0.30692318 -0.44654885 -0.2807792
-0.35082257 -0.2961048 -0.56270623 -0.39653993 -0.45545986 -0.3245664 -0.21148746 -0.3202815
-0.35913754 -0.44324076 -0.28770044 -0.37463966 -0.39251637 -0.3370239 -0.3875693 -0.36506826
-0.35836264 -0.38613877 0.2310744 -0.33949754 -0.23810127 -0.29771414 -0.5206235 -0.3028998
-0.43480965 -0.44741315 -0.34712702 -0.23147017 -0.39162248 -0.56622636 -0.46716037 -0.45107886
-0.64079726 -0.20242743 -0.44625083 -0.22647822 -0.33082494 -0.35687757 -0.38795674 -0.23595548
-0.83324623 -0.25908983 -0.43876502 -0.2522054 -0.38715208 -0.31616202 -0.38628778 -0.42339215
-0.30787688 -0.28227633 -0.23786286 -0.31505933 -0.3159236 -0.39797044 -0.2716964 -0.30695298
-0.35457772 -0.43217808 -0.193278 -0.3345205 -0.36480004 -0.37067118 -0.265392 -0.35022652
-0.27086192 -0.37895632 -0.38998333 -0.5055196 -0.28224653 -0.29807177 -0.26665974 -0.3808339
-0.32000658 -0.27071288 -0.47188115 -0.26795536 -0.3700751 -0.29312453 -0.26868632 -0.37159505
-0.38125113 -0.2575401 -0.32632473 -0.32223582 -0.15424973 -0.22747661 -0.28361747 0.05573447
-0.3126155 -0.22665703 -0.6331585 -0.296075 -0.2951213 -0.31577757 -0.3002025 -0.16921233
-0.34790167 -0.42205104 -0.18333167 -0.42240763 -0.29443586 -0.29640284 -0.32704002 -0.3665286
-0.6606366 -0.5550158 -0.18996991 -0.21317132 -0.3402128 -0.2662127 -0.66141224 -0.2262696
-0.2406196 -0.28084582 -0.3743965 -0.29470408 -0.16974877 -0.43919164 -0.40226203 -0.34819993
-0.37159112 -0.2617125 -0.2764038 -0.33866307 -0.45742685 -0.5224328 -0.33881208 -0.29612938
-0.21433362 -0.19171336 -0.30635694 -0.30680397 -0.42026287 -0.21521279 -0.37263814 -0.34408715
-0.28802827 -0.3057907 -0.2461182 -0.32075164 -0.24811499 -0.40035465 -0.26022235 -0.29878706
-0.30203554 -0.21834208 -0.32775527 -0.36038923 -0.25908983 -0.16822895 -0.56801593 -0.28531623
-0.3457263 -0.25187758 -0.35052454 -0.39370868 -0.36274546 -0.24464297 -0.27337968 -0.22598648
-0.35919714 -0.2427356 -0.44493768 -0.26040116 -0.3005752 -0.24041098 -0.30620793 -0.17915152
-0.23842911 -0.2862997 -0.39034095 -0.2594475 -0.31267512 -0.28540564 -0.3644424 -0.3597932
-0.19601986 -0.6138375 -0.3949697 -0.25062588 -0.32969245 -1.0066953 -0.34507066 -0.4537015
-0.46261743 -0.3081749 -0.21847653 -0.23991737 -0.29810157 -0.40589797 -0.3411665 -0.23716249
-0.31899327 -0.18272784 -0.24771266 -0.31666866 -0.2751237 -0.3896853 -0.31547657 -0.32176495
-0.30583286 -0.4292633 -0.37040296 -0.31286246 -0.29243907 -0.24516451 -0.289429 -0.28534603
-0.27020624 -0.45548967 -0.26660013 -0.24242267 -0.29020387 -0.23419712 -0.29342255 -0.28090543
-0.3325833 -0.3556506 -0.23626842 -0.3931126 -0.28252453 -0.3288878 -0.2849586 -0.24075373
-0.300456 -0.34527928 -0.31127438 -0.21339484 -0.3774066 -0.21983221 -0.2695208 -0.27396566
-0.33207667 -0.27720988 -0.3490642 -0.29556835 -0.34794068 -0.3004262 -0.25230095 -0.36674392
-0.47623235 -0.2471017 -0.41126245 -0.2950617 -0.39233774 -0.38223463 -0.2052438 -0.46595043

fc3.weight f4 [1, 300]
00000000: e555 2bbc 0742 91bc 72bc 323b 6f4c b7bc
00000010: 2dfb 5bbc 848d 96bc 99f1 2fba 00f7 92bc
00000020: 77ba a43c d11f c33c e1b1 3a3d 4d7c b73b
00000030: ddad 8e3c 4374 153c 5baf bcba 0f8f 0abb
00000040: 4866 09bc 470d 4a3c 2bf5 953b bb5c e03c
00000050: 8385 a13c d452 ec3c ac22 203c d71c aebb
00000060: 3ce9 b33c 83e4 99bc fe3b 8b3c 1077 9dbb
00000070: 4790 49bc c32b 6cbb 015d e93b c054 de3c
00000080: 9a58 ce3c 0c9b 17bc 00ca fa3c 56bd 483c
00000090: 3e0f 913b 2e91 15bd 2b37 57bb a746 1a3c
000000a0: eaa4 85bd a469 8dbc cc70 a0bc 890f 563c
000000b0: 33b5 f5bc d9c5 473c db88 7fbb ac67 46bb
000000c0: 4671 f83c b37a 1fbc 596b 07bd 8b6f 62bb
000000d0: 9abe 4dbc 1f89 36bc f28e 283c 015b 94bc
000000e0: c20e b13c ac78 bc3c fe74 653c 70ea 1c3b
000000f0: 66c2 5cbc 7252 fdbc 8194 9c3c 6ddb b4bb
00000100: 83c7 45bc 192d 39bd 32b4 273c 6439 17bb
00000110: d7d7 87bc c0e2 d43c 23d0 39bd 7782 ca3b
00000120: 53a8 e13c 4414 d0ba ee4b 90bc cd0e 1abd
00000130: 4ee8 483c 1a48 733c dccb d03c 04bb 203c
00000140: e208 6a3c d957 3a3c cb92 8c3c 6784 07bc
00000150: 918e b93c a259 1e3b 7a97 b1bc a9a8 fbbc
00000160: 5734 4a3b bd88 c73c e235 4dbb 823d 97bb
00000170: 687d 533c 030c c53c 268d 6ebc aea5 8c3c
00000180: 3b23 e3ba c6b6 063c cda9 c8bb 165a 70bb
00000190: e7f3 90bb 7a76 963b fcfa fdbb 57f4 9bb8
000001a0: acff 57bc 57c7 38bc d169 bc3c 574f ccbb
000001b0: 419e 55bb 4f09 ae3c 0f19 66bc f665 b63c
000001c0: ad23 6e3b 6b8b f13c 3a6d ba3b 4a4f 94bc
000001d0: ce5a f9b9 5e47 233c 7092 91bd cc9d 033b
000001e0: 445f f5bb 865f 2c3c f01f fb3c 498f 423c
000001f0: f1ce d63b bb12 0fbd a856 093b 8b4c a8bc
00000200: cbf8 b8ba 75f5 5abc 1e54 4a3c e953 1d3c
00000210: 1e2f f03c 70d1 ba3c ce9d ca3b 1926 213c
00000220: 5589 983c ebfe 4ebc 7aa2 28bc 8a30 3bbc
00000230: 7da1 a1bc 783e 72bb fd5c 22bc d644 99bc
00000240: af6b b7bc 8b91 ce3c 68ff 2ebc de3a 553c
00000250: 6594 2b3b b966 14bd 7fbe dc3c 0c34 85bb
00000260: f533 5b3c 9802 a6bc 7cbf 633b 555c b5bc
00000270: e0cf c13c d836 d63c 4a04 75bd f189 b03c
00000280: d849 8ebc 4a43 96bc 7654 99bc b4e8 7ebc
00000290: a857 8cbc 5489 983c bd19 183b da53 01bc
000002a0: aa4a 8bbc 2eee 0f3c bbd8 26bc f9b9 443c
000002b0: 9bc9 c4bc df7f a4ba 3852 d43c b22a 82bc
000002c0: 703b 413c c562 bfbc 90a5 2e3c c8de b83c
000002d0: cb38 c6bb ddad 0e3c f8d6 b83c a2dc 1dbc
000002e0: fbe2 fdbc f6e7 e23c 90c5 243c a4f3 59bc
000002f0: e4d2 abbc 432b bc3a 048e bdbc 19b3 af3c
00000300: b242 833c 68c7 54bc 5e5a 12ba 4d56 cfbb
00000310: ef90 b63b d3de 8dbb 28e5 a63c 0c0d 213d
00000320: f382 2a3a d1be 2fbc 3cde 3c3c ddad 0e3b
00000330: 6c80 a0bb 20fa b83a 9fd2 2d3c 6a0f 1e3c
00000340: d4fc d43b f8ba cbbb dd53 c8bb 40c7 8e3c
00000350: 4b38 1f3c 6855 cb3c 8c51 a0bb d566 853c
00000360: 5e74 86bc b4cf b4b9 13c1 bbbc 024f 16bc
00000370: 2043 893c 68ba 883b ca65 293b cbef 75b9
00000380: 7af8 c43b 1b5e e1bb 7b14 b2bc cefd 0f3d
00000390: 0499 bb3b 5871 1c3c bad8 1dbc f356 4e3c
000003a0: 1a3b a7bc 5019 1dbc 499f b1bc 0631 9bbc
000003b0: a69c b6bc 50be 88bc 2532 5a3c f525 dabc
000003c0: 0dfc aa3c 5622 863c bd93 3ebc a29e c43c
000003d0: e96c 74bc 36db d23b 07f3 803c 4367 1d3d
000003e0: 6e8c e53a 8b53 753b 8bec 62bb 82bc ce3c
000003f0: 13d3 ff3b 4672 873c add8 48bb 326f 81bc
-0.010457491 -0.01773168 0.0027272967 -0.022375314 -0.013426584 -0.018378027 -0.0006711721 -0.017940044
0.020108445 0.023818882 0.045579795 0.0055995346 0.017416889 0.009121957 -0.0014395522 -0.0021142398
-0.008386202 0.012332267 0.0045763454 0.027387967 0.019716984 0.02884809 0.009773891 -0.0053134966
0.0219618 -0.01878572 0.01699638 -0.004805453 -0.012302465 -0.0036036826 0.0071216826 0.027140021
0.025188733 -0.009253275 0.0306139 0.012252172 0.004426866 -0.036515407 -0.003283928 0.009416259
-0.065255955 -0.017262287 -0.019585036 0.013065227 -0.02999363 0.012193167 -0.0038991484 -0.0030274196
0.03032745 -0.009733844 -0.03306136 -0.0034551348 -0.01255765 -0.011141091 0.010287987 -0.0181098
0.021613482 0.02300676 0.014004944 0.0023943447 -0.013474083 -0.030923102 0.01911378 -0.0055193217
-0.012071493 -0.045209024 0.010235833 -0.002307498 -0.016582413 0.02598703 -0.04536451 0.0061801034
0.027546084 -0.001587518 -0.017614331 -0.03761177 0.012262417 0.014848733 0.025487833 0.009810213
0.014284344 0.011373484 0.01715984 -0.008271313 0.022650989 0.0024162312 -0.021678675 -0.030720072
0.003085395 0.024357194 -0.0031312634 -0.0046154866 0.012908317 0.02405358 -0.01456002 0.017168846
-0.0017329225 0.0082222875 -0.0061237575 -0.003667479 -0.0044236067 0.00459176 -0.007750867 -7.436488e-05
-0.0131835155 -0.011277995 0.022999676 -0.006235044 -0.0032595547 0.021244673 -0.01404406 0.022265416
0.0036337182 0.029485425 0.0056892904 -0.018104214 -0.00047560636 0.009965746 -0.07108009 0.0020083068
-0.007488163 0.010520821 0.030654877 0.011874982 0.006555431 -0.034929972 0.0020956192 -0.020544311
-0.0014112232 -0.013364186 0.012349157 0.009602525 0.029319342 0.022804946 0.0061833626 0.009835743
0.018620173 -0.012634019 -0.010292644 -0.011425147 -0.019730324 -0.0036963504 -0.009909865 -0.018709581
-0.022390215 0.025215885 -0.010681011 0.013014523 0.002618098 -0.036230776 0.026946304 -0.0040650424
0.013379087 -0.020264909 0.0034751585 -0.022138754 0.023658693 0.026149198 -0.059818543 0.02155015
-0.017369196 -0.018342633 -0.018717032 -0.01555841 -0.017131642 0.01862017 0.00232087 -0.007893527
-0.017003376 0.008784814 -0.0101835085 0.01200723 -0.024021914 -0.0012550316 0.025918111 -0.0158895
0.011793956 -0.023362527 0.01065959 0.022567168 -0.0060492507 0.008708444 0.022563443 -0.0096351225
-0.030992022 0.027698498 0.010056868 -0.013302717 -0.020974584 0.0014356155 -0.023139007 0.021447705
0.016023014 -0.012986995 -0.0005582924 -0.0063274265 0.0055714766 -0.004329541 0.020372942 0.039319083
0.00065044983 -0.0107266465 0.011527594 0.002177111 -0.0048981216 0.0014112629 0.010609298 0.00964723
0.006499866 -0.006217357 -0.006113513 0.017428994 0.009718011 0.024820998 -0.0048925336 0.016284386
-0.01641291 -0.00034487026 -0.022919213 -0.00917411 0.01675564 0.004172612 0.0025848025 -0.0002345435
0.006011066 -0.0068776733 -0.021738281 0.035154156 0.005725028 0.009548508 -0.009634191 0.0125939725
-0.020413924 -0.0095885545 -0.021682398 -0.018944275 -0.022291493 -0.01669231 0.013317619 -0.026629427
0.02087214 0.016373795 -0.011631903 0.024001423 -0.014918544 0.0064348234 0.015740884 0.038428556
0.0017513165 0.0037433829 -0.0034625854 0.025236372 0.0078071444 0.016533982 -0.0030646727 -0.015800092

bn1.weight f4 [400]
00000000: d513 ff3c c3b8 823e 6ffe 833e a728 c03e
00000010: 8664 ef3d 2103 2d3e 8880 8d3d c3a9 1c3e
00000020: 8807 2e3e cb78 873e dd3a 803e e607 b83d
00000030: a0c0 3b3e ab59 873e a50d a43d 2e4f 9b3e
00000040: 76b0 8f3e 6a22 0e3e feaa fa3d 79d8 233e
00000050: 19ca cf3e 1a7c 013f 727b 963e dab9 ac3d
00000060: 7e02 553f 53c9 203e d8e1 08be 4e7b b13d
00000070: 3060 7a3e 1e19 203e 1a8c cb3d 3736 003e
00000080: 5036 a13e fc58 5a3e 2a97 a83f f8de a63d
00000090: ad61 203f e7c3 253e ad92 af3d bebb 473f
000000a0: 464e bf3d 00cf 583e e8f6 0a3e aac2 853e
000000b0: 5485 993e 7def 473e c21e 193e f8ef 32be
000000c0: 1d40 013e 7c71 263f ba38 0b3e f945 5d3e
000000d0: bd6f 3dbc b8af bb3d cc1e d9bd cbf4 cd3f
000000e0: 3d33 1a3e 8807 243e bc60 3c3e d1b7 473f
000000f0: e4d5 b53d 3db5 103e 9975 5e3d c5b5 393e
00000100: f7fa f93e cde9 c43d ac96 573e 3db6 833e
00000110: 0ee6 093e c3d8 273e 5735 5b3f a631 ee3e
00000120: 5fa0 9e3f 1038 893e eec4 c23e 4bcc 013e
00000130: 12d9 e13e 0905 213e f230 503e daef 123f
00000140: 7f4e 63be 0781 e33d d5d9 4a3f 4aa4 5b3e
00000150: 830a ac3d 93af 833e 0145 153e 3fb9 9a3e
00000160: dafb 473e f187 233d 0abf b33d d65b d33d
00000170: a92f dc3e c06e 0f3e b344 803e 68d5 f63d
00000180: e1df 543d 24b0 173f cfb1 ec3e cdd8 bf3f
00000190: ebf1 cd3c 32e0 563e d9ae 713f 3f17 c13d
000001a0: eed8 3f39 d1b3 413f e681 f23d 8762 cb3d
000001b0: 8f17 2c3e f1d1 e83d 0309 6e3d 9e9c bd3d
000001c0: 402e cd3e e9f2 0f3f 9baa f93d 12e7 2f3f
000001d0: b403 a0be c35d 5c3e 11d3 c53d 27ef ef3d
000001e0: af55 103d bf94 b03d ed85 bc3e 4d2b 1f3e
000001f0: 8002 b73e b67d 463e 9ccd 373e 18e0 313e
00000200: 3146 3f3e 6928 b43e 2dd6 623e 7f65 413e
00000210: de6d 983d b53b 313f e8ba 763e 882c 5d3e
00000220: a455 ce3d fc65 373e c5a1 d33d 7abc 6c3d
00000230: 8816 353f 047f 953e 192b 993e 8ab8 563e
00000240: 60ac 3f3e 02dc 473e 24c8 103e 410d 4e3e
00000250: ea83 573d e344 ecba 94e7 523e 27d4 733f
00000260: b315 f73d c575 7b3f df91 1e3e 8466 833e
00000270: 3269 9d3d 2de7 2b3e b6f8 0a3e c294 913e
00000280: 4ae9 063e 9abf dcbd e998 203e 26a8 f1bd
00000290: f4ee 043e 94ec 3b3e e7ab de3e ce63 193e
000002a0: 85bf 353e 1724 9b3e e65a 963e f3f8 193e
000002b0: c864 343d 9d67 f43d 1f02 f93d 25bd 373e
000002c0: ffe2 bd3e edc0 f23d 5edf f83d 5e76 f83e
000002d0: 638c 3d3e 29af fc3d 72ca 983f fc53 353e
000002e0: ad32 903e 8392 023e 2cf3 963e 5edf 0f3e
000002f0: 4d59 763e 3570 713d bcf3 8a3f 955a bf3e
00000300: 25b4 a63d 1db6 e83e db14 183e b2b6 243e
00000310: bb95 133e 669d 323d b801 923d 4dc5 863e
00000320: 9e78 283e 2f4e 753e abd8 c43d 25d6 053e
00000330: 3be0 923f 172d 573d 42e0 f23e cc51 be3e
00000340: 8a69 203e cdae d43e 01b4 853e 2620 963e
00000350: cd60 123e 1050 a03e d363 ba3d c819 3c3e
00000360: 3aed 713e b5a8 ca3e e0ca 1a3e 5e6e e53d
00000370: 95eb 8c3f ac21 533e 6cbe 6e3f 4e95 273e
00000380: 12d4 0f3e da5f cb3d e509 f63d 50b1 c43d
00000390: a5d9 bf3e 138a b43e 5fc8 823e 9be5 3f3e
000003a0: 2389 523f 5317 1f3e 0a54 973e 6e78 97bd
000003b0: a60a 363e c54d e53e 49f4 bf3d 9e3e e53d
000003c0: cafd 7fba 69b9 79be a938 843f e6e4 cb3e
000003d0: 60c8 0f3e 834a 9e3d 263c 233e 0386 f53e
000003e0: 1773 bb3d ca67 ce3d 0522 d53e bbdf a03d
000003f0: 89f2 9a39 1f2e c13d 35fc 813e 5751 353e
0.031137386 0.25531587 0.25780055 0.37531015 0.11689095 0.16895725 0.06909281 0.15299134
0.1699506 0.26459345 0.2504491 0.089858815 0.183352 0.264356 0.08010415 0.30333847
0.28064317 0.13880315 0.122396454 0.16000547 0.40583876 0.5057999 0.29391056 0.08433886
0.8320693 0.15701799 -0.13367403 0.08666097 0.24450755 0.15634581 0.099388316 0.12520681
0.3148675 0.21323007 1.3171132 0.08147997 0.6264904 0.16188012 0.08572898 0.78020847
0.09341101 0.21172714 0.1357075 0.2612508 0.29984534 0.19524951 0.1495314 -0.17474353
0.12622114 0.65016913 0.13595858 0.21608724 -0.011562285 0.09164375 -0.10601577 1.609033
0.15058608 0.16018498 0.18396276 0.78014857 0.08878687 0.14131637 0.05431137 0.18135746
0.48824283 0.096149065 0.2105357 0.25724974 0.13466665 0.16391282 0.85628265 0.46522254
1.2392691 0.26800585 0.3804087 0.12675588 0.44110924 0.15724577 0.20331171 0.57397234
-0.22197913 0.111085944 0.79238635 0.2144939 0.084004425 0.2571989 0.14577104 0.30219457
0.19529667 0.039924566 0.08776672 0.10320251 0.43005112 0.14007092 0.25052413 0.12052423
0.05197132 0.59253144 0.46229407 1.4988037 0.02513977 0.20983961 0.9440742 0.09428262
0.00018295992 0.75665003 0.118411824 0.09930902 0.16805862 0.11368168 0.058114063 0.09258388
0.40074348 0.56230026 0.121907435 0.6871196 -0.31252825 0.21520142 0.09659398 0.117155366
0.035237964 0.08622121 0.36820927 0.15543862 0.35744095 0.19383892 0.17949528 0.17370641
0.1867912 0.3518708 0.22152014 0.18886374 0.074428305 0.6923173 0.24094737 0.21599019
0.100749284 0.17909998 0.103335895 0.057796933 0.70737505 0.29198468 0.29915693 0.20968834
0.187181 0.1951752 0.14138848 0.20122243 0.052616037 -0.0018025901 0.20596153 0.95245594
0.12064686 0.9822658 0.15485333 0.2566415 0.0768608 0.16787405 0.13571438 0.28433806
0.1317493 -0.107787326 0.1568333 -0.1179965 0.12981778 0.18351966 0.43490526 0.14979479
0.1774884 0.30300972 0.29366225 0.15036373 0.044041425 0.11933825 0.12158608 0.17943247
0.37087247 0.11853204 0.12151979 0.48527807 0.18510585 0.12338097 1.1936781 0.17707819
0.28163663 0.12751202 0.294824 0.14050052 0.24057503 0.0589449 1.0855632 0.37373796
0.081398286 0.4545144 0.14851706 0.16085318 0.14412586 0.043607138 0.07129234 0.26322404
0.16452262 0.23955606 0.09611639 0.13069971 1.147468 0.052533235 0.4743672 0.3717178
0.1566526 0.41539612 0.26113895 0.29321402 0.14294739 0.31311083 0.09101071 0.1836921
0.23625651 0.39581838 0.15116453 0.112026915 1.1009394 0.20618314 0.9325931 0.16365549
0.14045742 0.099303916 0.12013606 0.09604132 0.37470737 0.35261592 0.25543496 0.18739931
0.82240504 0.15536241 0.29556304 -0.07396017 0.177775 0.44785896 0.093727656 0.11193584
-0.00097652955 -0.24387135 1.0329791 0.39823073 0.14041281 0.07729056 0.15940914 0.47953805
0.09152811 0.1007839 0.41627517 0.07855173 0.00029553872 0.09432625 0.2538773 0.1770681

bn1.bias f4 [400]
00000000: 835e f33a b93e b23d a31f 613e 1509 193d
00000010: 2467 223d 39a6 a73d 9cb8 35bc feb9 fabb
00000020: dc2f 583a 093e 973d d453 9d3d dfca fbbb
00000030: 24d7 3e3d 8ef8 983d da8e 12bc 9633 c73c
00000040: 092d 173d 88d9 10bc baab cb3c 2340 01bc
00000050: 8889 833d 6dae ddbc 2979 0c3d 082e b2bc
00000060: 0350 563e ceaf c73b 8082 5cbd 4670 7e3a
00000070: c4ee 233d 0715 3d3b af39 24bb 1d0a 8d3b
00000080: 0c52 7f3d ee33 423b 66b8 bf3e 33c3 263c
00000090: e819 813d 4ada d63b ea12 7d3c 4732 d03e
000000a0: e033 913b 32c8 063d a888 d4bb 0853 c33d
000000b0: 2294 163e 5c77 703d 2d8f 8fbb 8c80 1bbd
000000c0: 3542 5e3c 2d4c 003f 3193 90bc 4c81 2c3d
000000d0: e1b1 04b9 6293 29bc a8f9 afba 93e0 913d
000000e0: bf3b c63c 5bf0 9e3c a063 c33c 3127 6d3e
000000f0: c493 143a 977a 953c f422 26bc 4daa 013d
00000100: 1559 3c39 9951 67bc fb82 983d 2a2b f53d
00000110: 3cc1 68bc e079 94bc 0ed6 b33d be2f c83d
00000120: bcbf 4f3e fa96 133b 3697 d638 cf1c 013d
00000130: 085f 80bc c8cb 443d f822 2b3d eb7a 113e
00000140: 50e8 7cbd c964 003d 6d4c 9c3e 417a 023e
00000150: 2fe8 bebc 7afe 66bc e571 0bbd 885b 0b3e
00000160: 93bd 743d a449 e1ba 3a00 1fba 8ba2 9e3d
00000170: 36b8 283e c1e9 da3c d8af 5a3d 68a9 ae3a
00000180: 1caf ba3b 9c10 dc3d 5cbe 583d 6872 613d
00000190: b2f4 acbb 7564 743d 0f6a b43e 0792 f5bc
000001a0: ac38 98b9 17e9 24bd 57a4 863c 1115 163d
000001b0: cebb 853d 01e3 d5bb fc5b 4b3b cdd5 293c
000001c0: e13b a7bb f697 3f3e c7b1 0a3c 52f5 fa3d
000001d0: 8e6b adb9 55e9 5ebd eb66 06bb e00d 163c
000001e0: bd22 39b9 eec1 32bb f170 953d d427 153d
000001f0: 91f0 cb3d f6be 223d 7f6e 3b3b 5d5a 063d
00000200: a3be 853d 992b e2bb 56b8 143e 7988 233d
00000210: 4f38 c93b 2b6a 163f dfa1 a83d fd2c 3a3d
00000220: 9a9a 6fbb 257a 933d 9f70 733c ed5f 1a3b
00000230: 7562 8e3e 499d 2c3e 2190 eb39 8353 d53d
00000240: 9018 c83b 9b1a 543c a614 de3c b6ab e43c
00000250: 648d f6bb 269d 0b3a abdc db3d a11d 70bd
00000260: b58f 113d 64dd 8d3e cc93 8a3c bfee b43d
00000270: b22d 54bc b691 a13c d98d 8abc dbb4 9a3d
00000280: 73fd be3c fca1 3d3b d528 ba3b cc73 b9bc
00000290: 2ddc 8dbb dff3 8ebc 8ad8 b93d 3afc 493d
000002a0: f0eb cc3c ca18 8d3d 114c 0e3e b866 45bd
000002b0: a126 263b 9289 4fbc 5c86 343c 8160 733d
000002c0: c4e9 703e dab4 d93b b376 023d 2a63 263e
000002d0: 95a9 00be 5183 4dbb d7bd e53e 7d24 993c
000002e0: 5a02 b83d 2dc7 a9bc cfe2 863d 648e c9bc
000002f0: 0903 843c 1504 533c ce7a 873e 585e 0c3e
00000300: c960 cdbc 3f88 6e3d c20e 363d 0225 023c
00000310: a9a0 423b 7560 383b e559 50bc c17e ce3d
00000320: c3f1 ed3c 509f 963b c37a 25bb 0c4d dfbb
00000330: d64c 633e b2e2 3cbc cf1d d7bd 4309 a93d
00000340: 046f b03c 5464 653d 8778 0e3d c56a 873a
00000350: d5c4 e63c b007 b63d f974 463b eeff 5d3b
00000360: 0cfb 08bc 0c54 443e 394f 073c 1831 0cbd
00000370: d238 493e 2014 ceb8 da2d ab3e 1133 d0bc
00000380: 67ce cf3c c6f4 f2bb 0edb 37bc d667 0ebb
00000390: 373c 013e fcac 373e 5cdc 0ebd 30c5 1e3d
000003a0: e391 e53d 48a6 76bc b1b7 38bd d0bc 843c
000003b0: 89ba 073e 3ee9 383e 8c40 5f39 3e75 6bbc
000003c0: c241 b0b8 e74b c8bc ff41 ea3e 1456 62bc
000003d0: 2958 b63c 34ce 343c aac3 8d3d bd58 ca3d
000003e0: 5095 9e3c bdc5 12ba db78 dd3d 4ffb 4ebc
000003f0: 6eb5 e0b8 1a18 703c 725e 82bc 5060 a13d
0.0018567595 0.0870337 0.21984725 0.037362177 0.039649144 0.08186001 -0.011091378 -0.0076515665
0.00082468777 0.07384879 0.076820046 -0.007684096 0.046591893 0.07469283 -0.008945191 0.02431659
0.036908183 -0.008840926 0.024862159 -0.007888827 0.064227164 -0.027060712 0.034295235 -0.021750465
0.2092896 0.0060939556 -0.053835392 0.0009706061 0.040022627 0.0028851645 -0.0025058796 0.004304184
0.062334105 0.0029633003 0.37445372 0.010178375 0.06303769 0.006556784 0.015446404 0.4066336
0.004431233 0.032905765 -0.0064860173 0.09537321 0.14704946 0.05870758 -0.0043810816 -0.03796439
0.01356559 0.50116235 -0.017648311 0.042115495 -0.00012654766 -0.01035008 -0.0013425844 0.07122912
0.024198411 0.01940172 0.023851216 0.23159482 0.0005667771 0.018246932 -0.010140169 0.031656552
0.00017962263 -0.0141185755 0.074468575 0.119711235 -0.014206227 -0.01812452 0.08781062 0.09774731
0.20287985 0.002252041 0.000102324804 0.031521615 -0.015670314 0.048045903 0.041781396 0.14207046
-0.061744988 0.031346116 0.30527058 0.12741949 -0.023304073 -0.014098758 -0.034044165 0.13609135
0.059751105 -0.0017188084 -0.00060654024 0.07745846 0.16476521 0.02672279 0.053390354 0.0013325633
0.005697144 0.107453555 0.052915916 0.055040747 -0.0052781934 0.059666116 0.35237166 -0.029976858
-0.00029033923 -0.040261354 0.016435785 0.036641184 0.065299615 -0.006527305 0.0031030169 0.0103659155
-0.0051035737 0.18710312 0.008465237 0.122538224 -0.00033077266 -0.05442174 -0.0020508121 0.0091585815
-0.00017655916 -0.0027276236 0.072969325 0.036414936 0.09957994 0.039732896 0.0028599796 0.03280102
0.06530502 -0.00690217 0.14523444 0.039925072 0.0061407457 0.5875575 0.082339995 0.04545306
-0.0036560656 0.072010316 0.014858394 0.0023555711 0.27809492 0.16856875 0.00044930077 0.10416319
0.0061064437 0.012945796 0.027109455 0.02791391 -0.0075241793 0.0005325846 0.107354484 -0.058622006
0.03553744 0.2770797 0.016916178 0.088346 -0.012950348 0.0197228 -0.016913341 0.07554027
0.023314213 0.0028935662 0.005681137 -0.022638224 -0.0043292255 -0.017450271 0.09074505 0.049312808
0.025014848 0.06889494 0.13896205 -0.048193663 0.0025352614 -0.012667077 0.011018362 0.059418205
0.23526675 0.0066438736 0.03185148 0.16248766 -0.1256469 -0.0031358788 0.448714 0.018694157
0.089848235 -0.020724857 0.06586229 -0.02460403 0.016114729 0.012879391 0.2646088 0.13707864
-0.025070565 0.058235403 0.044447668 0.007943394 0.0029697812 0.0028133665 -0.012716745 0.1008277
0.029045945 0.0045966282 -0.0025250174 -0.0068146046 0.2219728 -0.011528658 -0.105037324 0.0825372
0.021537311 0.056003883 0.034782913 0.0010331502 0.028170029 0.08888185 0.0030282123 0.003387447
-0.0083606355 0.19172686 0.008258634 -0.034226507 0.19650581 -9.826594e-05 0.3343342 -0.025414975
0.025366975 -0.007414433 -0.01122166 -0.0021729372 0.12620626 0.17937082 -0.03487812 0.03876227
0.11209466 -0.015054293 -0.045097057 0.016203314 0.13254751 0.18057725 0.00021290983 -0.014371214
-8.404582e-05 -0.024450256 0.45753476 -0.013814468 0.022258835 0.011035491 0.069220856 0.09880207
0.019358307 -0.00055989233 0.10814067 -0.012633159 -0.00010714946 0.014654184 -0.015914176 0.07879698

bn1.running_mean f4 [400]
00000000: f776 363e 8b08 b140 f389 1641 cacb 743d
00000010: 8135 7a3f 03c9 cf3e 366b bd40 9982 313f
00000020: 72c5 2241 a725 6640 4446 b740 f10e 323f
00000030: 871c 0641 640a 6840 0ca0 553e 558d 8d3f
00000040: a0c5 6b40 a1ec 5440 0ce5 573f 398b bc3f
00000050: b8d8 af3f c5b9 e13f 38b9 b63d 616b ae3f
00000060: c57a db3e 3ebd d23e 486e 573f f132 bf39
00000070: 03aa 5940 e262 4e3f 1c7a 6b3c d3fa d03f
00000080: f9c6 b43e 2eaa 2d3b 92b4 8142 34fd 9340
00000090: 944d 8b40 34c0 153f 0791 1c40 8b64 8140
000000a0: 2c50 ec3b 261f c83e 136e 903f b6b2 a440
000000b0: 5df2 ac40 33d3 d93e 35fa 6c3f 7aa8 d43f
000000c0: b50e 3340 7cd6 5e41 7223 9841 a6db c53f
000000d0: 01bc 703f 5e73 1d3e cf54 883e 4c56 5d42
000000e0: 7566 6d3f 3074 1140 2d69 0f40 8f2a 7642
000000f0: 8570 163c c14a c33e 7fa1 a940 f975 6c3f
00000100: 0400 0000 604e 4e3f e44b bc40 1585 a040
00000110: ad1c 7040 e27a 1e3f e567 3540 ed2b 823f
00000120: 9e5e 3740 65c8 7c3b 3b96 4d1f 87a2 3a3f
00000130: 2f9a 1240 e33c d640 4fb9 8840 cca7 3d40
00000140: f0cc 983f 1f28 7640 0fc4 3640 4888 e140
00000150: ddb1 573e 12a9 c13f ac18 4c40 e0f1 2240
00000160: 0995 c03f 8b98 ac3c 91dc 333e 2d73 8341
00000170: 7032 ba3f 04d1 5a3f 11bf 7640 12f3 d43f
00000180: 8f86 ec3d c3ca cb3f b37e 183e c143 5242
00000190: 30a5 7a3b 6c45 ac40 bb53 0b40 f1ae 613f
000001a0: c995 3241 ae0e c640 b4df 0e3f aa54 2640
000001b0: efb2 8840 938d bd40 6cb0 673d 6224 ce3e
000001c0: 68ef 4c40 2a65 8c40 3345 ef3e 5cf5 4440
000001d0: 1462 c439 730a 6840 3882 5f3d b06a b63f
000001e0: ed3e 9639 bc18 913e 3be0 3a3f dffa e33e
000001f0: 9a9a fd40 2699 bf3f c3e2 063f 9894 373f
00000200: 5422 0d3f f13f 2d41 15e4 f541 03ae 7940
00000210: 6ff9 093e 52a4 5042 9f33 3e40 7d6f 983f
00000220: a260 ac3f 8f40 283e d78e 463e 9bef c33d
00000230: e234 b540 1d6c 593f c737 fb28 f141 0c41
00000240: 4a5d 6d3f 4a30 7f3f 5217 2f41 1ac9 ae3e
00000250: ec76 d33d 496d 4241 a927 733f eff5 7542
00000260: eb4e 9c3e 77d6 c83f 89c6 9b3e 139c 5240
00000270: 5606 713e c014 ba40 bf82 1840 5012 b63f
00000280: fc6e d43e 4592 ba3f 6cbb d63e 4219 483f
00000290: 3b51 1d3e 0796 bf40 1660 543e a967 d03f
000002a0: db60 2940 e3fc 6040 2bd3 ea40 3a0f f340
000002b0: 9d0e 4a3e 5475 883e d63c 4b40 087d e83f
000002c0: 5576 aa40 7055 573f b3ed ac3f f69a a840
000002d0: 164e 873f 7166 693e b9cc b340 4c09 8840
000002e0: f6c7 0241 31cb 373f 467d cb3f 4515 0541
000002f0: 5002 b63f 3440 563f 436f 8742 8736 2440
00000300: 9aa3 b740 2b25 6641 e734 0b41 493a 9040
00000310: 8eaf a83f 5afb 283c f2e8 c73d c1cf 0841
00000320: cd51 d53e 5852 343b cc16 be3e 7fab 1f3f
00000330: 1e13 1441 31c9 033f e274 6e40 0959 e83f
00000340: 68b6 f93f e12c 1940 070d d73f a503 0239
00000350: bc04 743f be08 ad41 6b8d 523f e94d 933a
00000360: c51a 0e40 ed19 3042 b57f 4441 ba75 7e3e
00000370: bbf6 4240 4906 4033 37aa 1f41 eaa7 8640
00000380: f874 053f 8c83 1740 57b9 bc40 984c 4c40
00000390: 4be6 b23f 19d7 783f b980 8f40 ad18 4d3f
000003a0: 1367 7440 8958 0141 c731 a540 2d6a 0b3f
000003b0: 1733 0841 f436 2140 115c c72e 0fb3 ca3e
000003c0: 1d28 9d41 b233 a33f 3353 6742 e530 8940
000003d0: fd44 bd41 b171 9341 c31c 3b3f 31a0 503f
000003e0: 0509 8e40 90b6 ab3e 100f 1d3f 3173 883e
000003f0: efc6 8541 389a a63f 0400 ee3f 671e a841
0.17818819 5.532293 9.408679 0.05976466 0.9773789 0.40583047 5.9193373 0.693399
10.173204 3.596048 5.7273273 0.6955405 8.381965 3.6256342 0.20861834 1.1058756
3.683937 3.3269427 0.8433387 1.4729987 1.3738012 1.7634817 0.089220464 1.362652
0.42867103 0.41160005 0.8415265 0.00036468313 3.4010017 0.80619633 0.014372375 1.6326545
0.35308054 0.002649914 64.85268 4.6246586 4.35322 0.58496404 2.4463518 4.0435233
0.0072117057 0.39086264 1.1283592 5.1468153 5.4045854 0.42543945 0.92569286 1.6613915
2.7977726 13.927364 19.017307 1.5457656 0.9403687 0.1537604 0.26627204 55.334274
0.9273446 2.2727165 2.2407944 61.54156 0.0091821 0.3814297 5.300964 0.9236751
6e-45 0.8058834 5.884264 5.0162454 3.7517502 0.61906254 2.8344662 1.0169655
2.86515 0.0038571593 4.3534706e-20 0.7290425 2.2906606 6.6949325 4.2726207 2.9633665
1.1937542 3.8461988 2.8557165 7.047886 0.21063943 1.5129721 3.1890059 2.5460129
1.5045482 0.021068832 0.17564608 16.431238 1.4546642 0.8547518 3.8554118 1.6636679
0.115491025 1.5921253 0.14892082 52.566166 0.0038245432 5.3834743 2.1769855 0.88157564
11.161569 6.189292 0.55810094 2.5989175 4.2718425 5.923532 0.056564733 0.40262133
3.2021122 4.387349 0.46732482 3.0774755 0.00037457107 3.6256378 0.054567546 1.4251308
0.00028657113 0.28339183 0.729984 0.44527337 7.9251223 1.4968612 0.5268976 0.7171111
0.55130506 10.828111 30.736368 3.9012458 0.13474058 52.16047 2.9719007 1.1909024
1.346699 0.16430877 0.19390427 0.095671855 5.6627054 0.8493059 2.7890787e-14 8.766099
0.9272047 0.9968306 10.943193 0.34137803 0.10325417 12.151681 0.9498239 61.49017
0.3052896 1.569045 0.30424908 3.290776 0.23537573 5.815033 2.38298 1.4224339
0.41490924 1.4575888 0.41939867 0.7816354 0.15363018 5.987064 0.20739779 1.6281635
2.6465366 3.515435 7.3382773 7.5956087 0.19732137 0.26652014 3.1755881 1.8163157
5.326945 0.8411474 1.351004 5.268916 1.0570705 0.22792985 5.6187406 4.251135
8.173819 0.7179442 1.5897605 8.317693 1.4219456 0.83691716 67.71731 2.565828
5.738721 14.384074 8.700416 4.507115 1.3178575 0.010313833 0.09761228 8.550721
0.41663972 0.00275149 0.37126768 0.6237106 9.254667 0.5147887 3.725884 1.8152171
1.9508791 2.3933642 1.6800851 0.00012399124 0.95319724 21.629269 0.82247037 0.0011238429
2.220384 44.02532 12.281178 0.24849597 3.0463092 4.47092e-08 9.979056 4.2079973
0.52131605 2.367404 5.8976245 3.192175 1.397653 0.9720321 4.484463 0.8011578
3.8187912 8.084115 5.1623263 0.54458886 8.512473 2.518979 9.0658266e-11 0.39589736
19.644587 1.2750151 57.83125 4.2872186 23.658686 18.430513 0.7309076 0.8149443
4.438601 0.33537722 0.6135111 0.26650384 16.722136 1.3015814 1.8593755 21.014845
